GANs/saved_models/python/checkpoint.pth (torch, 635490 bytes, 69 tensors)

h_11.weight f4 [32, 12]
0	0xbba75522	-0.005106584
1	0x3b39c879	0.002834825
2	0x3ca01343	0.019540435
3	0x3c10da69	0.008841136
4	0x3c3aed9f	0.011409192
5	0xbbe6cf14	-0.0070437286
6	0xbc2daa76	-0.010599723
7	0xbb649e40	-0.0034884363
8	0xbbaaacde	-0.0052085957
9	0x3b95bd4e	0.004569686
10	0x3d7f80c5	0.062378664
11	0xba636cd7	-0.0008675581
12	0x3d0c07a7	0.034186985
13	0xbd78f2de	-0.06077849
14	0xbdaff155	-0.08590952
15	0xbe46ace8	-0.19401896
16	0xbde1cf8c	-0.110259145
17	0xbbfbcc89	-0.0076842946
18	0x3e49c8ab	0.19705455
19	0x3d8dfcc3	0.06932976
20	0xbc4c73a3	-0.012478742
21	0xbd4cf746	-0.050040506
22	0x3dda12b3	0.10648098
23	0x3c5a93bb	0.013340886
24	0x3d930951	0.07179511
25	0xbb968c96	-0.004594396
26	0x3a630993	0.00086607895
27	0xbdf79517	-0.120889835
28	0xbd97510a	-0.07388504
29	0xbe0de13e	-0.13855454
30	0x3df64c4c	0.12026271
31	0xbe1fb5a4	-0.15596634
32	0x3d92eec7	0.071744494
33	0x3c566e37	0.013087801
34	0x3dc510c8	0.096223414
35	0x3d161e0b	0.036649745
36	0x3ca43f5b	0.020049741
37	0x3e366100	0.1781044
38	0x3c4a26b8	0.012338333
39	0x3e0732eb	0.13203017
40	0x3db6376b	0.08897289
41	0xbd802929	-0.06257851
42	0x3d5424fe	0.05179309
43	0x3df41043	0.11917164
44	0x3dc08d6b	0.09401973
45	0xbdbd87f3	-0.09254446
46	0xbdf30afe	-0.11867331
47	0xbdf78871	-0.12086571
48	0x3f0616f3	0.5237877
49	0xbe5f7dea	-0.21825376
50	0xbf2d3e11	-0.6767283
51	0xbe851f75	-0.26000562
52	0x3e7524df	0.23939846
53	0x3edf77c2	0.43646055
54	0x3e2b3271	0.1671846
55	0xbe987791	-0.29778722
56	0x3e12368f	0.14278625
57	0xbe7ac0ab	-0.2448756
58	0xbe7a5b1c	-0.24448818
59	0xbe2baccc	-0.16765136
60	0x3f31e204	0.694855
61	0xbeafa3c8	-0.34304643
62	0xbe6f77e7	-0.23385583
63	0xbe5c6b2f	-0.21525262
64	0x3eacddee	0.3376307
65	0x3f0a79d7	0.5409216
66	0xbe2cb40b	-0.16865556
67	0xbf1f1695	-0.6214383
68	0x3d067298	0.03282413
69	0xbe6b22a2	-0.2296243
70	0x3e6ae316	0.22938189
71	0x3ebc45ad	0.36771908
72	0x3cf8d5b5	0.030375341
73	0x3ce1865c	0.027529888
74	0x3d8c6000	0.06854248
75	0x3dda0e68	0.10647279
76	0x3d497f7d	0.049193848
77	0xbe3b1be2	-0.18272355
78	0x3cf3c0f8	0.0297551
79	0x3ca3f010	0.020011932
80	0x3d119c46	0.035549425
81	0x3dd38f8d	0.103301145
82	0x3f54e117	0.8315596
83	0xbd7841e1	-0.060609702
84	0xbd0d8d6b	-0.034558695
85	0xbf7b1e35	-0.9809297
86	0xbf0c74ea	-0.54865897
87	0xbf8ea24e	-1.1143281
88	0xbf83884b	-1.0275968
89	0xbebd20d0	-0.36939096
90	0x3ef4c8ae	0.47809356
91	0xbec4e066	-0.38452452
92	0x3e6efe02	0.23339084
93	0x3f441629	0.76596314
94	0x3eb67a8b	0.35640368
95	0x3f544831	0.82922655
96	0xbdb5405b	-0.088501655
97	0x3c046e92	0.008083003
98	0xbd2630fe	-0.040574066
99	0x3e059e46	0.13048658
100	0x3dbd3a06	0.09239583
101	0x3e778539	0.24171914
102	0xbdef3390	-0.11679757
103	0xbc911508	-0.017710224
104	0xbdf7582b	-0.120773636
105	0x3d48ea6b	0.049051683
106	0xbe04e94c	-0.1297962
107	0xbd4a270d	-0.049353648
108	0x3cb08dda	0.021552015
109	0x3d11d29b	0.03560124
110	0x3ce8f48b	0.02843692
111	0x3d0c40b7	0.034241404
112	0x3d370601	0.04468346
113	0xbd2a63e4	-0.04159917
114	0xbca65606	-0.020304691
115	0x3d696ccb	0.05698852
116	0xbca4330d	-0.020043874
117	0xbbbd86ae	-0.0057838773
118	0xbd52dfec	-0.05148308
119	0xbcb61d7b	-0.022230854
120	0x3e086d8b	0.13323037
121	0x3e9badcc	0.30406034
122	0xbe6c249a	-0.23060837
123	0xbc347198	-0.011013411
124	0x3e6c1c26	0.23057613
125	0x3d21bcb9	0.03948662
126	0x3e90d26d	0.28285542
127	0xbdaeec2c	-0.0854114
128	0x3eb48fda	0.35266
129	0xbb6a9b92	-0.0035798294
130	0x3ce76bff	0.028249739
131	0xbded3c9f	-0.11583828
132	0xbc9b8574	-0.018984534
133	0x3bcc0ebd	0.006227343
134	0x3c74f5d9	0.014951193
135	0x3ca11dd7	0.019667549
136	0xbd362258	-0.044466347
137	0xbd9b35e4	-0.07578638
138	0xbcdde2fd	-0.027085776
139	0x3bad8114	0.0052949283
140	0xb9a1427f	-0.00030757856
141	0x3d51a4a4	0.051182404
142	0x3e2e89b8	0.17044723
143	0x3c0d1f99	0.0086134905
144	0xbd8614e0	-0.0654695
145	0xbd3231c7	-0.043504503
146	0x3df18790	0.117934346
147	0x3dfb9ef6	0.12286179
148	0x3d0598f4	0.03261657
149	0x3d57c612	0.05267913
150	0xbe0e868c	-0.13918513
151	0x3d2add67	0.041715052
152	0xbe51cede	-0.2048907
153	0x3e66cce4	0.22539097
154	0x3f2299d2	0.6351596
155	0xbdcb500c	-0.09927377
156	0x3d8ff865	0.07029799
157	0xbea73dd6	-0.32664365
158	0xbe194366	-0.14967117
159	0xbe8c78de	-0.27435964
160	0xbe81ac7c	-0.25326908
161	0xbd2819bc	-0.041040167
162	0x3da2504e	0.07925473
163	0xbdedb529	-0.11606819
164	0xbd0f3124	-0.034958974
165	0x3dac618e	0.084170446
166	0x3d432055	0.047638256
167	0x3e256af9	0.16154088
168	0x3d7d0aa6	0.061777733
169	0x3df93f21	0.12170244
170	0x3e701417	0.23445164
171	0x3e834f1c	0.25646293
172	0x3d37cc75	0.04487272
173	0xbe5bfe42	-0.2148371
174	0xbd8a2faa	-0.067473724
175	0x3e6f6552	0.23378494
176	0x3dd3278f	0.103102796
177	0xbd7af34d	-0.061267186
178	0x3f20393e	0.62587345
179	0x3e2fdfc5	0.17175205
180	0xbd049195	-0.0323654
181	0x3d8ec0bb	0.06970354
182	0x3d6d9455	0.05800279
183	0x3d80b34d	0.06284199
184	0x3d823600	0.06357956
185	0xbd24f451	-0.04027206
186	0xbd66f2f1	-0.05638403
187	0xbd288c4e	-0.04114943
188	0x3c50568a	0.012715945
189	0x3da52d8f	0.0806533
190	0x3e59939c	0.21247715
191	0x3d2efddd	0.04272257
192	0x3c739abc	0.0148684345
193	0x3c12b4fe	0.008954285
194	0x3daf5684	0.085614234
195	0xbd16532f	-0.036700424
196	0x3cc0eb0a	0.023549575
197	0xbd804c4b	-0.06264552
198	0xbd9c2b46	-0.07625441
199	0xbd55906a	-0.052139677
200	0x3d471af8	0.048609704
201	0x3d85a05f	0.06524729
202	0x3d953ad3	0.072866105
203	0x3d9a6078	0.07537931
204	0x3e2f37ac	0.17111081
205	0xbe991715	-0.29900423
206	0xbe417e6e	-0.18895885
207	0xbebe87cd	-0.37212983
208	0xbe725d4b	-0.23668401
209	0xbe083c46	-0.13304242
210	0x3e61aad2	0.22037819
211	0xbd76f8ea	-0.060295977
212	0x3e133aa8	0.14377844
213	0x3d57b7d8	0.05266556
214	0x3dd4fedf	0.10400175
215	0x3df4c9fc	0.11952588
216	0xbd968947	-0.07350402
217	0x3d1b4de3	0.037916075
218	0x3e263c6c	0.16233987
219	0x3e79ca92	0.2439368
220	0x3db30c7e	0.08742617
221	0x3d477d7e	0.048703663
222	0xbe247ff8	-0.16064441
223	0x3cf7e22e	0.030259218
224	0xbd98ad69	-0.0745495
225	0x3dccf552	0.10007729
226	0x3f3dbcde	0.74116313
227	0xbe178d69	-0.14800037
228	0xbd26230b	-0.040560763
229	0xbe036046	-0.12829694
230	0xbd85efd4	-0.06539884
231	0xbe0ae17a	-0.13562575
232	0xbe29d56e	-0.16585323
233	0xbdd7ab88	-0.10530764
234	0x3e0472ad	0.1293437
235	0x3d79ee4d	0.061018277
236	0xbbde047e	-0.006775438
237	0x3d0382ce	0.032107167
238	0x3d534d9f	0.051587697
239	0x3d99a0b2	0.07501353
240	0x3dbe9141	0.09305049
241	0x3e482684	0.19545943
242	0x3aa5ce7c	0.0012650038
243	0x3df4e11e	0.11957
244	0xbd8c8f2d	-0.06863246
245	0xbe533ccc	-0.20628661
246	0x3e09ccf7	0.13457094
247	0x3e836dc9	0.25669697
248	0x3e15cb6f	0.14628385
249	0xbd8f8d8f	-0.07009422
250	0x3f3901f2	0.72268593
251	0xbe02f537	-0.12788855
252	0x3e36db9f	0.17857216
253	0xbdb13ad5	-0.086537994
254	0xbbfc277b	-0.007695136
255	0xbc33d6cb	-0.010976504

h_11.bias f4 [32]
0	0xbe97e8aa	-0.29669696
1	0x3f10edda	0.5661293
2	0xbc9e5ab8	-0.019330367
3	0x3dfcaf1a	0.123380855
4	0x3e3c2437	0.1837319
5	0xbd9e40f6	-0.07727234
6	0xbfa21777	-1.2663411
7	0xbf7bbf1a	-0.9833847
8	0x3fbb19fa	1.4617302
9	0x3e6aae2e	0.22918007
10	0xbef2963a	-0.4738024
11	0xbe1523f7	-0.14564501
12	0xbf88e7ae	-1.0695703
13	0x3fa36e34	1.2768006
14	0xbf7e2657	-0.9927725
15	0x3f31c631	0.6944304
16	0x3ed7444d	0.42044297
17	0x3fd67f21	1.6757547
18	0xbf8830be	-1.0639875
19	0x3f2aa57b	0.66658753
20	0xbf55e0ba	-0.8354603
21	0xbdb40aa5	-0.08791093
22	0xbf0e2734	-0.5552857
23	0xbed6addd	-0.41929522
24	0xbcbb50a7	-0.022865606
25	0xbeea93bd	-0.4581584
26	0xbed6dbaf	-0.4196448
27	0x3ea5e688	0.32402444
28	0x3f7980c5	0.9746211
29	0x3f2aad92	0.666711
30	0x3ec5c958	0.38630176
31	0x3e48ea2c	0.1962058

h_12.weight f4 [32, 6]
0	0xbe93957e	-0.2882499
1	0x3f1014c4	0.56281686
2	0xbe2ed56e	-0.17073604
3	0xbe65ce70	-0.22442031
4	0xbdfcd674	-0.12345591
5	0xbec20890	-0.37897158
6	0xbf1c3494	-0.6101773
7	0x3d48a31c	0.04898368
8	0x3e916222	0.28395182
9	0xbec12839	-0.37726
10	0x3eb8a753	0.36065158
11	0xbe8a3eaa	-0.27000934
12	0xbed1de1d	-0.4098977
13	0x3e6cab24	0.2311216
14	0xbdcf6271	-0.10126198
15	0xb8329d4b	-4.2584998e-05
16	0xbd3f79a0	-0.04674685
17	0x3f38dafd	0.7220915
18	0xbf24549e	-0.64191616
19	0x3d8fedf2	0.07027806
20	0xbe35bf9d	-0.17748876
21	0xbe0b69eb	-0.13614623
22	0xbda861af	-0.08221757
23	0x3dcfce5a	0.1014678
24	0xbea7b4e6	-0.32755202
25	0x3f1a5a73	0.60294265
26	0x3d8971ed	0.06711183
27	0x3ef9e7df	0.48809716
28	0x3f32dbb2	0.6986648
29	0x3d0537d2	0.032523938
30	0xbf544a95	-0.82926303
31	0xbcd05059	-0.025428938
32	0x3dca7812	0.09886183
33	0xbd356e0b	-0.0442944
34	0xbd9f748e	-0.07785903
35	0xbf0e455a	-0.5557457
36	0xbf4bc65f	-0.79599565
37	0xbcc0ea2f	-0.023549167
38	0x3e3f27aa	0.18667474
39	0x3ead5e0f	0.33860824
40	0xbf212759	-0.62950665
41	0xbd027707	-0.031851795
42	0x3d745900	0.05965519
43	0xbe46bbed	-0.19407625
44	0xbc2e58db	-0.010641302
45	0x3dca0a22	0.09865214
46	0x3f5bf619	0.8592239
47	0xbe8da2b8	-0.27663207
48	0x3df6b65e	0.120465025
49	0xbe4a9207	-0.19782268
50	0xbe958e7a	-0.29210263
51	0xbeeede58	-0.4665401
52	0x3e83ab45	0.25716606
53	0x3ece9c27	0.4035351
54	0x3ebb2d4e	0.36558002
55	0x3e7565d9	0.23964633
56	0x3e9de80c	0.308411
57	0xbd5fd250	-0.05464393
58	0xbe66054d	-0.2246296
59	0x3e50e12b	0.20398395
60	0xbefcd272	-0.49379307
61	0xbf1e146c	-0.6174991
62	0x3e10fc33	0.14158706
63	0x3db93130	0.09042585
64	0x3dfb8826	0.12281828
65	0xbe235fb0	-0.1595447
66	0x3dfc7a5b	0.12328025
67	0x3ce76bae	0.028249588
68	0xbeb763f1	-0.35818437
69	0xbfa9719b	-1.3237795
70	0x3f2e08cb	0.67982167
71	0x3caab7ac	0.020839535
72	0x3ebf0090	0.37305117
73	0x3ecb5586	0.39713687
74	0x3dfa1474	0.122109324
75	0x3e0fdfb4	0.1405018
76	0x3dc089dc	0.094012946
77	0x3bd180ce	0.0063935285
78	0x3e430810	0.19046044
79	0xbe9c772d	-0.30559674
80	0x3ea7566c	0.32683122
81	0x3f6ec181	0.93264014
82	0x3dfef1d3	0.12448468
83	0xbd3d6f7b	-0.046248894
84	0x3d65ccb6	0.05610343
85	0xbe6f4ae2	-0.2336841
86	0x3ec7f2be	0.39052385
87	0x3d728d00	0.0592165
88	0x3f5da775	0.86583644
89	0x3dcaf40e	0.09909831
90	0xbf3060f5	-0.68897945
91	0xbe99c8a0	-0.30035877
92	0xbd167a84	-0.036737934
93	0xbccff3de	-0.02538484
94	0x3e34e3de	0.1766505
95	0xbe9ff9fd	-0.31245413
96	0xbeb2effd	-0.34948722
97	0xbf298efc	-0.662338
98	0xbf1b6a5e	-0.6070918
99	0x3e1f74e6	0.15571937
100	0x3f28f038	0.65991545
101	0xbc6e8a26	-0.014559304
102	0x3ecac58e	0.39603847
103	0x3e03cc49	0.12870897
104	0xbed76fae	-0.42077392
105	0x3f070b71	0.52751833
106	0x3e3b971c	0.18319362
107	0x3f3371e6	0.7009567
108	0xbdf19a3e	-0.117969975
109	0xbf412517	-0.7544722
110	0x3e92fdfe	0.28709406
111	0x3ebd601c	0.36987388
112	0x3e6fdd03	0.23424153
113	0x3ee93b47	0.45553038
114	0x3d633eff	0.05548
115	0xbe7b43da	-0.24537602
116	0x3d6c711f	0.05772507
117	0xbe0e75c5	-0.13912113
118	0x3ee2c961	0.44294265
119	0xbed3aa45	-0.41340843
120	0xbf74f251	-0.95682245
121	0x3e9043f6	0.2817685
122	0xbf3ca518	-0.73689413
123	0x3f50fa0e	0.81631553
124	0x3e3ae7f9	0.18252553
125	0x3e37cee8	0.17950022
126	0xbeafeaa3	-0.343587
127	0x3e823e57	0.25438187
128	0x3edfc98b	0.43708453
129	0xbef0e76a	-0.47051555
130	0x3f1f2ec3	0.6218073
131	0x3ed274d1	0.4110475
132	0x3f553d1e	0.8329638
133	0xbeb9dd4c	-0.3630165
134	0x3e6634b6	0.22481045
135	0x3eacb29e	0.33730024
136	0x3ec36802	0.3816529
137	0x3e9ab26b	0.30214247
138	0xbe9093be	-0.28237718
139	0xbddbaadc	-0.10725948
140	0xbb8354b2	-0.004007899
141	0xbe6c7de4	-0.23094898
142	0xbe041b37	-0.12901007
143	0x3e8fa6a1	0.28056815
144	0x3e8eb4fc	0.27872455
145	0x3ec62665	0.38701168
146	0x3cb30009	0.021850603
147	0xbeb3cde8	-0.35118032
148	0xbe92a2ab	-0.2863973
149	0xbe81d6f5	-0.25359312
150	0xbf8357f5	-1.0261217
151	0xbbfade2f	-0.007655881
152	0xbf4d30ec	-0.80152774
153	0xbecc6180	-0.39918137
154	0xbeb1e88f	-0.3474774
155	0xbea06236	-0.3132493
156	0xbf052c55	-0.5202077
157	0x3e965698	0.2936294
158	0x3da5db34	0.0809845
159	0xbdfb0e21	-0.12258554
160	0x3e75b52b	0.23994891
161	0x3eb9dfd4	0.3630358
162	0xbf513ff7	-0.8173823
163	0xbe92d858	-0.28680682
164	0x3e582434	0.2110756
165	0xbf47c1cb	-0.7803008
166	0x3dab3b48	0.083609164
167	0x3f2bf0aa	0.671641
168	0xbd3448fb	-0.044014912
169	0x3d3b0fae	0.04566925
170	0xbf4d6669	-0.8023439
171	0x3d3b1d1e	0.045682065
172	0xbe078607	-0.13234721
173	0x3e02c73c	0.12771314
174	0x3e226e22	0.15862325
175	0x3eb5a043	0.35473832
176	0xbe9f8c18	-0.3116157
177	0x3c487f39	0.0122373635
178	0xbe50deff	-0.20397566
179	0xbea559c5	-0.3229505
180	0xbcf7f734	-0.030269243
181	0xbf356916	-0.70863473
182	0x3db2c4da	0.08728953
183	0xbcd9800d	-0.026550317
184	0xbf1457e9	-0.5794664
185	0x3f445848	0.76697206
186	0xbf5e4703	-0.86827105
187	0xbe42a106	-0.19006738
188	0xbe4e8778	-0.20168865
189	0xbf0ab0ee	-0.54176223
190	0xbeae3fab	-0.3403295
191	0x3e0e0ec5	0.13872822

h_12.bias f4 [32]
0	0x3f30be5a	0.69040453
1	0x3f2b9c8f	0.67035764
2	0x3f376629	0.7164026
3	0xbf7e104a	-0.99243605
4	0xbeadb0ca	-0.33923942
5	0x3f63424e	0.8877305
6	0xbe2e1997	-0.17001949
7	0xbd657a0a	-0.05602459
8	0xbe967413	-0.29385433
9	0xbea7fdc0	-0.32810783
10	0xbf0cad94	-0.5495236
11	0x3ec3fecc	0.38280332
12	0xbdce3515	-0.10068718
13	0xbe61c93a	-0.22049418
14	0xbf4207b8	-0.7579303
15	0xbf38355c	-0.7195642
16	0x3ed5b562	0.41739947
17	0xbeba8e00	-0.36436462
18	0x3e502ca0	0.20329523
19	0x3e3dc4a2	0.1853204
20	0xbf007a3c	-0.50186515
21	0x3ea8930f	0.32924697
22	0x3de1f798	0.11033553
23	0xbeae4ccd	-0.3404297
24	0x3e207df5	0.15673049
25	0x3e2ddbeb	0.16978423
26	0xbea183c4	-0.31545842
27	0x3c64790b	0.0139448745
28	0xbe8f7f01	-0.28026584
29	0xbe57919a	-0.21051636
30	0xbf76e418	-0.96441793
31	0xbf30dc68	-0.69086313

h_21.weight f4 [32, 32]
0	0x3d8a4f46	0.067534015
1	0xbdd9c156	-0.10632579
2	0xbc18a2cf	-0.00931616
3	0xbd772fe2	-0.0603484
4	0xbe060bba	-0.13090411
5	0x3d257182	0.040391453
6	0xbe14954a	-0.14510074
7	0x3ec5b922	0.38617808
8	0x3d28e2e3	0.041232
9	0xbe9730ca	-0.2952941
10	0x3e27adae	0.16374847
11	0xbacf5373	-0.0015817716
12	0xbb8b16f3	-0.004244679
13	0xbde6f8e4	-0.11277941
14	0xbe1105d5	-0.14162381
15	0x3d325855	0.04354127
16	0xbd04a7dd	-0.03238665
17	0xbd16152c	-0.036641285
18	0xbe057379	-0.1303233
19	0x3dd6644f	0.10468351
20	0xbda7a43f	-0.08185624
21	0xbd23ddf0	-0.040006578
22	0xbdac9ffb	-0.08428951
23	0xbd3957fc	-0.045249924
24	0xbda0dc28	-0.078544915
25	0xbe8e8a7a	-0.27840024
26	0xbd423e62	-0.047422774
27	0xbdd5e3ac	-0.104438156
28	0x3df900ca	0.121583536
29	0xbeee4e1a	-0.46543962
30	0x3e3b2f72	0.18279818
31	0xbe9e5daf	-0.3093085
32	0x3e299b66	0.16563186
33	0x3d1a88a4	0.037727967
34	0xbe220424	-0.15821892
35	0x3c4ea377	0.012612215
36	0x3ce73335	0.02822266
37	0xbb580889	-0.0032964072
38	0x3d4f8f79	0.050673936
39	0xbe6489b2	-0.22318152
40	0xbd700099	-0.05859432
41	0xbe431f3f	-0.19054888
42	0xbd1cc3f7	-0.038272824
43	0x3dd28a45	0.10280279
44	0x3dea5b4c	0.11443195
45	0x3cff1952	0.031140003
46	0x3e128150	0.14307141
47	0xbbf8d74c	-0.0075940248
48	0xbe892063	-0.26782522
49	0xbe08d6ce	-0.13363191
50	0x3e0679b4	0.13132364
51	0x3c08dc42	0.008353295
52	0x3e8b0b2c	0.2715696
53	0xbe0e8c51	-0.13920714
54	0x3e4241d2	0.18970421
55	0xbde7c4ff	-0.11316871
56	0x3e40b9e0	0.18820906
57	0xbe1804c2	-0.14845565
58	0xbda8bddf	-0.0823934
59	0xbe3d2063	-0.18469386
60	0xbd1af299	-0.037829015
61	0xbe96cbee	-0.2945246
62	0xbc3143f4	-0.010819424
63	0xbe2223fa	-0.15834036
64	0xbea37b7f	-0.31930158
65	0xbea9bff0	-0.3315425
66	0xbf321c2f	-0.69574255
67	0xbebc4f48	-0.36779237
68	0xbe3b3f39	-0.18285836
69	0xbdb0a13a	-0.086245015
70	0x3f593126	0.8484062
71	0xbe045dce	-0.12926409
72	0xbf43cf91	-0.76488596
73	0xbe941de0	-0.28929043
74	0x3f30136b	0.6877963
75	0xbed5d851	-0.417666
76	0x3f0a35d3	0.5398838
77	0xbf376caf	-0.71650213
78	0x3f54e8d6	0.8316778
79	0xbf70012a	-0.93751776
80	0xbda6dbf3	-0.08147421
81	0xbec7cf99	-0.39025572
82	0x3f516774	0.8179848
83	0xbea7be85	-0.32762542
84	0x3f39d9c7	0.72597927
85	0xbd8a7ea6	-0.067624375
86	0x3f6758b4	0.90369725
87	0xbf0d4f73	-0.55199355
88	0xbf03e239	-0.51517063
89	0xbea87026	-0.32898062
90	0x3e0088df	0.12552212
91	0xbf2ef8fa	-0.6834866
92	0x3dad5a15	0.084644474
93	0xbed91c58	-0.42404437
94	0x3db11609	0.08646781
95	0xbcc749d3	-0.024327194
96	0xbe719143	-0.23590569
97	0xba389860	-0.00070417486
98	0x3d1e3535	0.03862496
99	0xbc8c27b9	-0.017108785
100	0x3d95a0bc	0.07306048
101	0x3bd3cb8a	0.0064634727
102	0x3e4a4d23	0.19755988
103	0x3ee5b413	0.44863948
104	0xbdbf9a71	-0.09355629
105	0xbe27e668	-0.16396487
106	0x3cf0ba5f	0.029385744
107	0xbdcd42d4	-0.10022512
108	0xbec0e635	-0.37675634
109	0x3e164976	0.1467646
110	0xbe313399	-0.17304839
111	0x3e923af6	0.2856061
112	0xbe038c9a	-0.12846604
113	0xbdb50dac	-0.08840498
114	0x3e2c4f30	0.16827083
115	0xbd69a019	-0.057037447
116	0x3db4f525	0.0883582
117	0x3d860f4a	0.06545885
118	0xbcf941b4	-0.030426838
119	0x3d9485ea	0.072521046
120	0xbe802512	-0.25028282
121	0xbd507361	-0.050891284
122	0x3cc24c19	0.023717927
123	0x3d9a9511	0.075479634
124	0xbedb3dde	-0.42820638
125	0x3e0c64cd	0.13710327
126	0xb9e58d49	-0.0004378355
127	0xbec6411b	-0.38721547
128	0xbe496d09	-0.196705
129	0x3da5dba9	0.080985375
130	0xbec344de	-0.3813848
131	0x3d0f237e	0.034945957
132	0x3d261e7b	0.040556412
133	0xbe971c05	-0.29513565
134	0xbdbaad6b	-0.09115108
135	0xbde0d478	-0.10978025
136	0xbbab54a6	-0.0052285967
137	0x3e636e9f	0.22210167
138	0xbeb15fd6	-0.3464343
139	0xbdaed1f5	-0.0853614
140	0xbe99e5b6	-0.30058068
141	0xbde6bd78	-0.11266607
142	0xbd89d9f3	-0.06731024
143	0x3e384fbe	0.17999169
144	0x3d526279	0.051363442
145	0xbe2de7aa	-0.16982904
146	0xbdcd23e4	-0.10016611
147	0x3d4cadeb	0.04997055
148	0xbdc97896	-0.09837453
149	0x3dd06fee	0.10177599
150	0xbdba3188	-0.090914786
151	0x3c126ce8	0.008937098
152	0xbd66119e	-0.056169145
153	0xbf097c56	-0.53705347
154	0xbea7164f	-0.32634208
155	0xbe87b4b9	-0.26505068
156	0xbc9455f8	-0.0181074
157	0x3e2835a7	0.16426717
158	0xbe35f049	-0.17767443
159	0xbcea79c4	-0.028622515
160	0xbde8ac66	-0.113610074
161	0x3e3e6572	0.18593386
162	0xbebe6d85	-0.37192932
163	0xbe65a721	-0.22427036
164	0xbe0b8c98	-0.13627851
165	0xbe91697d	-0.28400794
166	0xbee34c2f	-0.4439406
167	0xbeef2eb8	-0.4671533
168	0x3e3ed14e	0.18634531
169	0xbf185285	-0.59500915
170	0xbeb046c4	-0.3442899
171	0xbe69f265	-0.22846372
172	0xbe8bf79c	-0.27337348
173	0x3e0ff348	0.14057648
174	0xbebe8662	-0.372119
175	0xbe1dcd3b	-0.1541032
176	0xbd34871e	-0.04407417
177	0xbcccf985	-0.025021324
178	0xbe9cfbff	-0.30661008
179	0xbda3fb3d	-0.08006904
180	0xbe93e8f8	-0.2888868
181	0xbe06caa0	-0.13163233
182	0xbe971424	-0.29507554
183	0xbf028b61	-0.50993925
184	0xbe7215dd	-0.23641153
185	0xbeb8875a	-0.36040765
186	0xbf104b5f	-0.5636501
187	0xbed5b603	-0.41740426
188	0x3e1912bd	0.14948554
189	0xbe4be1dd	-0.19910379
190	0x3e56ab73	0.2096384
191	0x3eb15cfc	0.34641254
192	0xbf8cb286	-1.0991981
193	0xbf370c8c	-0.7150352
194	0xbf863603	-1.0485233
195	0xbe85655f	-0.26053903
196	0xbf2d5fa4	-0.6772406
197	0xbd84bd5c	-0.0648143
198	0xbe371035	-0.17877276
199	0xbf6f6b7c	-0.93523383
200	0xbf2f0372	-0.6836463
201	0xbf5e78c2	-0.8690301
202	0xbf5b0278	-0.8555064
203	0xbf5949c3	-0.84878176
204	0xbf2523ef	-0.64507955
205	0xbfcb37cf	-1.5876406
206	0xbeb16ccf	-0.34653327
207	0xbf1f744e	-0.6228684
208	0xbdf9d6bf	-0.12199163
209	0x3dac4289	0.08411128
210	0x3e94b328	0.29042935
211	0x3d8bb765	0.06822089
212	0xbe891ef8	-0.2678144
213	0xbea7d1a7	-0.3277714
214	0xbf0cdc63	-0.55023783
215	0xbf0f03d3	-0.5586521
216	0xbe40bd03	-0.18822102
217	0xbe12b467	-0.1432663
218	0x3f17ee50	0.5934801
219	0x3e6c13f9	0.23054494
220	0xbe6f20f6	-0.23352417
221	0xbf3aef71	-0.7302161
222	0x3e9ddc5c	0.30832183
223	0xbece2c47	-0.40268156
224	0xbea44472	-0.3208347
225	0x3e7fc648	0.24977982
226	0xbcfaa087	-0.030594124
227	0xbda7d4d2	-0.08194889
228	0xbc04756d	-0.008084637
229	0xbe3e00e3	-0.18555026
230	0xbeec2e14	-0.46128905
231	0xbdf356f8	-0.11881822
232	0x3d12ac85	0.03580906
233	0xbee8e49b	-0.45486912
234	0xbdc9bfcd	-0.09851036
235	0xbeaaf9a4	-0.33393586
236	0xbdaf6ce1	-0.08565689
237	0x3dd0c269	0.10193331
238	0xbe99ed65	-0.3006393
239	0xbdb4e67f	-0.08833026
240	0x3b7d9c30	0.0038697831
241	0x3d2c26cb	0.042029183
242	0xbe080c04	-0.13285834
243	0x3c959d7b	0.01826357
244	0xbd854889	-0.065079756
245	0xbe53fd3e	-0.20702073
246	0xbdc0509c	-0.09390375
247	0xbe52884f	-0.2055981
248	0xbeeeb1a4	-0.46619904
249	0xbdf58c8b	-0.11989697
250	0xbe2c1368	-0.16804278
251	0xbd73a732	-0.05948562
252	0xbd121fa1	-0.035674695
253	0xbcb0eace	-0.021596339
254	0x3e6d3fd0	0.23168874
255	0x3eab4fa3	0.33459195

h_21.bias f4 [32]
0	0x3bbf32bc	0.0058349054
1	0x3e01800b	0.12646501
2	0xbe03926a	-0.12848821
3	0x3dbded2e	0.09273754
4	0x3e3af13c	0.18256086
5	0x3dffe4d8	0.1249482
6	0xbf1c6453	-0.6109058
7	0x3d5e193a	0.054223277
8	0xbb1f8f99	-0.0024347065
9	0x3ececc33	0.40390167
10	0x3d09125b	0.03346477
11	0x3e70a155	0.23499043
12	0x3e7456b4	0.238612
13	0xbde0e562	-0.10981251
14	0x3e82fc18	0.25582957
15	0x3e08c2f9	0.13355626
16	0x3db4d6de	0.08830045
17	0x3da818ab	0.0820783
18	0x3e3f9423	0.18708853
19	0x3f225364	0.63408494
20	0xbe1d8385	-0.15382202
21	0xbacc8a2a	-0.0015605141
22	0xbd8c32f2	-0.068456545
23	0x3e3d7fc2	0.18505767
24	0xbece9703	-0.40349588
25	0xbe760e3c	-0.24028867
26	0xbe8d7fbb	-0.27636513
27	0x3e14b72a	0.14522997
28	0x3f1b3cc3	0.6063959
29	0x3e970c94	0.29501784
30	0x3dd97b9d	0.106192805
31	0xbdca8eb1	-0.098904975

h_22.weight f4 [32, 32]
0	0x3ca64e9a	0.020301152
1	0xbd12f1c6	-0.035875104
2	0xbe551e01	-0.20812227
3	0x3f0ce5d3	0.55038184
4	0xbe3bc2fa	-0.18336096
5	0xbd46ea53	-0.048563313
6	0x3e1bc34a	0.15211216
7	0x3e81f346	0.25380915
8	0x3e8b847b	0.27249512
9	0x3db0d157	0.086336784
10	0x3f1c9765	0.6116851
11	0x3e389646	0.18026075
12	0x3bb67478	0.0055680834
13	0x3f50037a	0.81255305
14	0x3e723500	0.2365303
15	0x3ee7bde7	0.45262071
16	0x3e53d374	0.20686132
17	0x3ee206dc	0.44145858
18	0x3f184f79	0.59496266
19	0xbecb00c6	-0.39649028
20	0x3dd01a98	0.10161322
21	0xbe850dc3	-0.25987062
22	0xbf0509d7	-0.5196814
23	0x3e3e3747	0.18575774
24	0x3c4b249c	0.012398865
25	0x3e397a60	0.18113089
26	0xbe855082	-0.26037985
27	0xbe2d96d1	-0.16952063
28	0x3e80071f	0.25005433
29	0x3de837c2	0.1133876
30	0xbda380f3	-0.079835795
31	0xbf11afc4	-0.5690882
32	0xbdeab4e5	-0.11460284
33	0xbed9c8d1	-0.42536023
34	0xbd2e7251	-0.04258949
35	0x3f110e35	0.56662303
36	0x3e308f81	0.17242242
37	0xbe313baf	-0.17307924
38	0x3dcea5f2	0.10090245
39	0x3e2fc300	0.1716423
40	0x3e16b10c	0.14715976
41	0xbd77d615	-0.0605069
42	0x3e0baeac	0.13640851
43	0xbe43f705	-0.19137199
44	0x3cc297a1	0.023753943
45	0x3edb1cce	0.42795414
46	0x3df7f835	0.121078886
47	0x3e2bf7e7	0.16793786
48	0x3eb5896b	0.35456404
49	0x3eafddf6	0.3434903
50	0xbe0ccf36	-0.1375092
51	0x3e9ab474	0.302158
52	0xbed20d2d	-0.41025677
53	0x3e291a60	0.16513968
54	0x3de671bf	0.11252164
55	0x3f1465c9	0.5796781
56	0xbd98dc29	-0.07463867
57	0x3e54fe95	0.2080024
58	0xbe0308fc	-0.12796396
59	0xbda2d8b5	-0.0795149
60	0x3f29af47	0.66283077
61	0xbdbb8bee	-0.09157549
62	0xbe88140d	-0.26577798
63	0xbf3d9b35	-0.7406495
64	0xbf015e75	-0.50534755
65	0xbd95eeba	-0.07320924
66	0xbf1d97d8	-0.6155982
67	0xc059e10f	-3.4043615
68	0x3f0853a2	0.53252614
69	0x3c3d9f99	0.011573696
70	0xbe3a7c98	-0.18211591
71	0x3e2af5d4	0.16695338
72	0xbc8e8f5a	-0.01740234
73	0x3dc8f5f3	0.09812536
74	0x3eae3921	0.3402796
75	0x3d72d539	0.059285376
76	0xbe0fba7a	-0.14035979
77	0x3e276729	0.16347946
78	0xbd2b15c0	-0.04176879
79	0xbe4ee2bd	-0.20203681
80	0x3c04568e	0.008077277
81	0xbe26dc0b	-0.16294877
82	0xbe425af3	-0.18980007
83	0xbe9e5534	-0.3092438
84	0x3f11d3b7	0.56963676
85	0x3dba83f2	0.09107198
86	0x3f144384	0.5791552
87	0xbe9f962b	-0.31169257
88	0x3c522e0d	0.012828362
89	0xbe7b6a76	-0.2455233
90	0x3e8a0979	0.26960352
91	0x3dbab168	0.09115869
92	0x3e7d07e5	0.24710043
93	0xbe0aad6b	-0.13542716
94	0x3e1499ce	0.14511797
95	0x3f8b3125	1.0874373
96	0xbe581265	-0.21100767
97	0x3eb5002c	0.35351694
98	0x3e068040	0.13134861
99	0x3ddcde5d	0.107846
100	0xbef79b8b	-0.48360857
101	0x3e44076f	0.1914346
102	0x3e6db554	0.23213702
103	0xbd2d0f60	-0.04225099
104	0xbe1d4449	-0.1535808
105	0xbe094992	-0.13406971
106	0x3ed87402	0.42276007
107	0x3e60d26e	0.21955273
108	0xbc98239e	-0.018571671
109	0xbea26931	-0.3172088
110	0x3e6f64cf	0.23378299
111	0x3ee13a06	0.4398958
112	0x3e1cfa3c	0.15329832
113	0xbe137eaf	-0.14403795
114	0x3d6e729a	0.05821476
115	0x3c211cbe	0.009833513
116	0xbe14e014	-0.14538604
117	0x3eef5e22	0.46751505
118	0x3e0a61fd	0.13513942
119	0x3e6f605f	0.23376606
120	0xbcfdb904	-0.030972011
121	0x3eadb934	0.3393036
122	0xbe0809e6	-0.13285026
123	0x3f022317	0.5083479
124	0xbd215e6b	-0.039396685
125	0x3dbdfef0	0.09277141
126	0xbddc0a58	-0.107441604
127	0x3dede760	0.11616397
128	0xbe11a0ed	-0.14221545
129	0x3d577665	0.052603144
130	0xbe1d437a	-0.15357772
131	0x40248606	2.5706801
132	0xbd8d3311	-0.06894506
133	0x3e782e39	0.24236383
134	0x3e925716	0.28582066
135	0x3ed48d99	0.4151428
136	0xb705fc98	-7.986229e-06
137	0xbddd10ea	-0.10794242
138	0x3ec33199	0.38123778
139	0xbe9514dc	-0.29117477
140	0xbbc3fc96	-0.0059810383
141	0xbf56502b	-0.83716077
142	0x3eb4d5ee	0.35319465
143	0x3e16a528	0.1471144
144	0x3b3e4e77	0.0029038468
145	0xbe3823fb	-0.17982475
146	0x3eab7f43	0.3349553
147	0xbe01de42	-0.12682441
148	0xbead4b3c	-0.33846462
149	0xbdc3efb0	-0.09567201
150	0x3f074270	0.5283575
151	0x3e4e2263	0.20130305
152	0x3e00664d	0.12539025
153	0xbe09d73c	-0.13461012
154	0x3f490b98	0.78533316
155	0xbe30032c	-0.1718871
156	0xbea3eb9e	-0.320157
157	0x3e06a06e	0.13147137
158	0x3d1c8bf6	0.038219415
159	0xbe50fb5b	-0.20408385
160	0x3e09dc5f	0.13462971
161	0xbe53631f	-0.2064328
162	0xbe8d72e9	-0.27626732
163	0x3e4ca477	0.19984613
164	0x3f0ef1df	0.55837816
165	0xbc8c307a	-0.01711296
166	0x3e1cec7f	0.15324591
167	0x3e8eddcd	0.27903596
168	0x3d679b3a	0.05654452
169	0x3e0350b3	0.12823753
170	0x3e371b8f	0.17881607
171	0x3d9a9132	0.07547225
172	0x3e22e145	0.15906246
173	0x3d9cda29	0.07658798
174	0x3e3ddee9	0.18542065
175	0x3e96a805	0.29425064
176	0x3f06216b	0.5239474
177	0xbe1038d5	-0.1408418
178	0xbeafa471	-0.34305146
179	0xbe3a7db3	-0.18212013
180	0xbeec8bc6	-0.4620039
181	0x3eae399d	0.3402833
182	0x3eb15a3b	0.34639153
183	0x3ea17cf6	0.3154065
184	0xbdf78916	-0.12086694
185	0xbdbb30d4	-0.091401726
186	0xbea9a180	-0.33131027
187	0x3e84d5f6	0.2594449
188	0x3ec67b78	0.38766074
189	0xbd57c21f	-0.052675363
190	0x3eaff113	0.34363613
191	0xbdda42ac	-0.10657248
192	0x3eb9a4b6	0.36258477
193	0xbce46756	-0.027881306
194	0x3e92344c	0.28555524
195	0x3f55bc0b	0.83490056
196	0xbe47a0a7	-0.19494878
197	0xbdaa5681	-0.083172806
198	0xbd82ea80	-0.063923836
199	0x3d2dddac	0.04244773
200	0x3eb719da	0.3576191
201	0xbcaff18d	-0.021477485
202	0x3d723ea9	0.05914179
203	0xbee67808	-0.45013452
204	0x3da836ec	0.082136005
205	0x3e39b5ba	0.1813573
206	0x3ed9e154	0.42554724
207	0xbe62e7e1	-0.22158767
208	0x3e072f04	0.13201529
209	0x3eb7d286	0.35902804
210	0xbd2385bd	-0.039922465
211	0xbcb79d7d	-0.022413963
212	0xbe956cb0	-0.29184484
213	0x3e9a2946	0.30109614
214	0xbde1a3dd	-0.110175826
215	0x3e0283b6	0.12745556
216	0x3df84f68	0.121245205
217	0xbe0398a2	-0.12851194
218	0xbdf9d562	-0.12198903
219	0x3e0b8baf	0.13627504
220	0x3cf94257	0.030427141
221	0xbd046c5b	-0.0323299
222	0x3e985401	0.2975159
223	0xbefdd2d6	-0.49574918
224	0x3f64c5a1	0.8936406
225	0x3e2442c8	0.160411
226	0xbc770ef7	-0.0150792515
227	0xbec2b77c	-0.38030612
228	0x3eb85a2a	0.3600629
229	0x3d992215	0.07477204
230	0x3e3bd597	0.18343197
231	0xbe025b2c	-0.12730092
232	0x3cb0a013	0.021560704
233	0x3e189a4a	0.14902607
234	0xbc0589d7	-0.008150539
235	0x3db7b6d2	0.08970417
236	0xbe19982d	-0.14999457
237	0x3f487e33	0.78317565
238	0xbd10f247	-0.035387304
239	0xbe074580	-0.13210106
240	0x3e9368c4	0.28790867
241	0xbe9776eb	-0.29582915
242	0x3e34b665	0.17647703
243	0x3e72597c	0.23666948
244	0xbdba5201	-0.09097672
245	0xbebabd38	-0.36472487
246	0xbdfdc673	-0.12391367
247	0xbe3cfd64	-0.18456036
248	0x3c5ec31a	0.0135963205
249	0x3edda6b5	0.4329125
250	0xbf8915c4	-1.0709767
251	0xbea606a4	-0.3242694
252	0x3e8d61a4	0.27613556
253	0xbdd96729	-0.10615379
254	0x3f31da65	0.6947387
255	0xbf0a287e	-0.53968036

h_22.bias f4 [32]
0	0xbde65f22	-0.11248614
1	0x3cb09c09	0.021558778
2	0xbe3ebfcb	-0.1862785
3	0xbd075597	-0.03304061
4	0x3c14bc6f	0.009078129
5	0xbe851861	-0.25995162
6	0x3e51f9b2	0.20505407
7	0xbe1b4f37	-0.15166937
8	0x3e5166ba	0.20449343
9	0xbd46b8cc	-0.04851608
10	0x3ea8168b	0.328297
11	0xbdb5da68	-0.08879548
12	0xbe3d6a16	-0.184975
13	0xbda10177	-0.078616075
14	0xbdba813c	-0.09106681
15	0xbe19dfb2	-0.15026739
16	0x3e6dcd71	0.23222901
17	0x3e16f52d	0.14741965
18	0x3e944dc6	0.28965586
19	0x3b9ee2d0	0.0048488155
20	0xbd56cbc0	-0.052440405
21	0x3eb094b8	0.34488463
22	0x3db69f16	0.08917062
23	0xbee016b0	-0.4376731
24	0x3e46ab84	0.19401366
25	0x3dad0d29	0.08449776
26	0xbe5c4f84	-0.21514708
27	0x3e0f5aab	0.13999431
28	0x3b16ba9f	0.0022999418
29	0x3a242aee	0.00062625005
30	0x3e18912d	0.1489913
31	0x3d9ac44d	0.07556973

h_32.weight f4 [64, 64]
0	0x3a8af3b1	0.001060119
1	0x3e3c8201	0.18408968
2	0xbf469a07	-0.7757878
3	0x3d73be02	0.059507377
4	0x3ef3e9c4	0.47639287
5	0xbdc77822	-0.097397104
6	0xbebbec54	-0.36703742
7	0xbdc715c4	-0.09720948
8	0x3df27a2f	0.11839711
9	0x3e9e9185	0.30970398
10	0xbdc35bc1	-0.09538985
11	0x3eb51c87	0.35373327
12	0xbeb229aa	-0.34797412
13	0x3e4183fe	0.18898007
14	0x3e481202	0.1953812
15	0x3dc9fba4	0.0986245
16	0x3e9fadcc	0.31187284
17	0x3ec7e2c7	0.39040205
18	0x3ea87017	0.32898018
19	0x3e8356bc	0.2565211
20	0x3d9ee522	0.07758547
21	0xbdbe8424	-0.093025476
22	0x3e51b639	0.20479669
23	0x3e93afb9	0.28845003
24	0xbd3e5c9b	-0.046475034
25	0xbcd7919a	-0.026314545
26	0xbb1b69b5	-0.002371413
27	0x3e9baef3	0.30406913
28	0x3eab8d93	0.3350645
29	0x3f0c04e0	0.5469494
30	0x3dec1e4b	0.115292154
31	0xbde0426b	-0.10950168
32	0x3ec2b475	0.38028303
33	0x3ee08409	0.43850735
34	0xbed3df68	-0.41381383
35	0x3ea318a3	0.31854734
36	0x3e633930	0.22189784
37	0x3e1d64d1	0.1537049
38	0x3ec53c9e	0.3852281
39	0xbe988f32	-0.2979675
40	0x3ecefe4b	0.40428385
41	0xbde3cef8	-0.111234605
42	0xbf0d2709	-0.5513769
43	0xbdc0fce7	-0.09423237
44	0x3e431561	0.19051124
45	0x3f0a7dea	0.5409838
46	0x3e7306b6	0.23733029
47	0x3d16a4e0	0.03677833
48	0x3e153394	0.14570457
49	0x3de9ae90	0.11410248
50	0x3eea3fe1	0.4575186
51	0x3ebea7b9	0.37237337
52	0xbe38395e	-0.17990634
53	0x3e2168ab	0.15762584
54	0x3e4e6ade	0.20157954
55	0xbe94dc29	-0.2907422
56	0xbcece947	-0.028919829
57	0x3eaa20c9	0.33228138
58	0x3f87dcea	1.0614293
59	0xbcb32d10	-0.021872073
60	0xbe1e539e	-0.15461585
61	0x3f1f4c3d	0.62225705
62	0xbd799d28	-0.06094089
63	0x3c98c397	0.018647952
64	0xbeeff00d	-0.46862832
65	0xbf028011	-0.50976664
66	0xbf3b19b5	-0.730861
67	0x3d50789c	0.050896272
68	0xbae929c6	-0.0017788939
69	0xbe806bbf	-0.25082204
70	0xbf00d33f	-0.50322336
71	0x3e9bba73	0.30415687
72	0xbe19ca55	-0.1501859
73	0xbe3fb747	-0.18722259
74	0xbe472982	-0.19449428
75	0x3e3723e4	0.17884785
76	0xbdeec06e	-0.11657797
77	0xbe65a66c	-0.22426766
78	0x3da7eace	0.08199082
79	0xbe296236	-0.16541371
80	0xbd090852	-0.0334552
81	0x3d656f90	0.056014597
82	0x3d581c1a	0.052761175
83	0x3ab6d0c4	0.0013947715
84	0x3e1e60cc	0.15466613
85	0xbc6e6112	-0.014549511
86	0xbd87e514	-0.0663549
87	0xbd0b3876	-0.033989392
88	0xbd2c2121	-0.04202378
89	0xbe54b06f	-0.20770429
90	0xbe42faca	-0.19040981
91	0xbdb5add9	-0.088710494
92	0xbdff85b3	-0.12476673
93	0xbdcdc02a	-0.10046418
94	0xbc785b20	-0.015158445
95	0x3e5a5a29	0.21323456
96	0x3e7347cb	0.23757856
97	0x3e4f2d3a	0.20232096
98	0x3eb48a3c	0.35261714
99	0xbd55f55d	-0.05223595
100	0xbea739e9	-0.3266137
101	0x3e112f1f	0.14178132
102	0x3d15544e	0.036457352
103	0xbf448b89	-0.76775414
104	0xbebe9eb6	-0.37230462
105	0xbdc621c8	-0.09674412
106	0xbda76a96	-0.081746265
107	0x3ea60eb7	0.32433102
108	0x3e6f381a	0.23361245
109	0xbdad64d3	-0.08466496
110	0xbc50a134	-0.012733746
111	0x3c80cd50	0.0157229
112	0xbd27580a	-0.040855445
113	0x3d6eb43f	0.058277365
114	0x3e1a1673	0.15047626
115	0xbdc2578f	-0.09489357
116	0x3eb30344	0.3496343
117	0x3cf0452d	0.02932986
118	0x3e9fd652	0.312182
119	0xbf0761f4	-0.5288384
120	0x3e306af9	0.17228307
121	0xbec18683	-0.37797937
122	0x3f6d339d	0.9265688
123	0x3e3f60fe	0.18689343
124	0x3e3946a6	0.18093356
125	0x3da5e5e0	0.08100486
126	0xbcb8ecbf	-0.022573827
127	0xbdb1c485	-0.08680061
128	0xbe89e17e	-0.2692985
129	0xbe73a75f	-0.23794316
130	0xbf0943ec	-0.53619266
131	0xbe9fc1cb	-0.3120254
132	0x3d73e332	0.059542842
133	0x3ec6591c	0.3873986
134	0xbf37dc3f	-0.71820444
135	0x3eaf68d9	0.3425968
136	0x3dc86902	0.09785654
137	0xbb0fd6cb	-0.0021948095
138	0xbe26f3f7	-0.16304003
139	0x3da39722	0.07987811
140	0xbe995f68	-0.29955602
141	0xbe5074ea	-0.20357099
142	0xbefd31ff	-0.49452206
143	0xbddbabe4	-0.10726145
144	0x3d0926de	0.033484332
145	0xbd67980d	-0.05654149
146	0x3e2c5aca	0.16831508
147	0xbdd736a1	-0.105084665
148	0xbe3dc11e	-0.185307
149	0xbde817e0	-0.11332679
150	0x3d86b4a4	0.06577423
151	0xbe1b89d6	-0.15189299
152	0xbcf082e6	-0.029359292
153	0xbf36e6ae	-0.7144574
154	0xbe31fff0	-0.17382789
155	0xbe3a5179	-0.18195142
156	0x3ea21184	0.31653988
157	0xbf14ffd9	-0.5820289
158	0x3e9e1441	0.30874828
159	0xbf0497d8	-0.51794195
160	0xbcab1eac	-0.020888649
161	0x3e1f9dad	0.15587492
162	0x3dcc05ad	0.0996202
163	0xbd9a05b8	-0.07520622
164	0xbf5b370a	-0.8563086
165	0x3d4a39c6	0.049371503
166	0x3ab28d52	0.0013622439
167	0xbeac5b40	-0.33663368
168	0xbdcfccfc	-0.101465195
169	0x3d7a94bc	0.061177
170	0xbc9607a2	-0.018314186
171	0x3e4fd8d6	0.2029756
172	0xbc9af835	-0.018917182
173	0xbe32d3be	-0.17463586
174	0xbd6669d5	-0.056253273
175	0x3d8e1f82	0.069396034
176	0x3dbcc89f	0.09217953
177	0x3dbd7a4e	0.092518434
178	0x3e14dcc8	0.14537346
179	0xbd168ffb	-0.036758404
180	0x3eb696c1	0.3566189
181	0x3e48cf92	0.19610432
182	0x3da5252f	0.08063733
183	0xbf06a9d4	-0.5260289
184	0xbf3156b2	-0.6927291
185	0xbf4f46ea	-0.8096758
186	0x3eeb3639	0.45939806
187	0xbe7c2d5d	-0.2462668
188	0xbee33e91	-0.44383672
189	0x3b98285f	0.0046434845
190	0xbdeada06	-0.11467366
191	0xbc9e232a	-0.019303877
192	0x3e537716	0.20650896
193	0x3ee63f30	0.44970083
194	0xbe78da4d	-0.24302025
195	0x3be8fa8a	0.0071099447
196	0x3e3c8294	0.18409187
197	0x3f18a4d1	0.5962649
198	0xbc9edbc3	-0.0193919
199	0x3ed36d41	0.41294292
200	0xbdf601fb	-0.120120965
201	0x3e4dcd03	0.20097737
202	0x3f3d1bd2	0.73870575
203	0xbd55e08a	-0.05221609
204	0x3e231d1e	0.15929076
205	0x3e3a86fe	0.18215558
206	0x3e9f1bed	0.31075993
207	0xbd5754cb	-0.0525711
208	0xbe4b588c	-0.19857997
209	0x3d428621	0.047491197
210	0x3e5eb726	0.21749553
211	0x3de750ff	0.11294746
212	0xbec8659f	-0.3914003
213	0x3cc400f0	0.023926228
214	0x3ec1ddb6	0.37864465
215	0xbe4fe691	-0.20302798
216	0xbe7f1738	-0.24911201
217	0x3d361cbd	0.044461
218	0x3ecd9ac3	0.40157136
219	0xbe0d1bc7	-0.13780127
220	0xbdcce0bf	-0.100038044
221	0xbeaa9f37	-0.33324596
222	0x3e1ef5b1	0.15523411
223	0x3caedb48	0.021344796
224	0xbdb09bc3	-0.08623459
225	0x3ea3cb05	0.3199083
226	0x3ece356d	0.40275136
227	0x3d99c5d2	0.07508434
228	0xbe09324d	-0.13398094
229	0x3f2dd053	0.67896
230	0xbe564d54	-0.20927936
231	0x3f2cb193	0.67458457
232	0xbe0a21a5	-0.13489397
233	0x3d8270ca	0.06369169
234	0x3dcbf6f8	0.09959215
235	0x3c8666bc	0.01640641
236	0xbe832ea9	-0.25621536
237	0x3e318b0f	0.17338203
238	0xbeb082a9	-0.34474686
239	0xb910cc00	-0.00013808906
240	0x3dac9b8f	0.08428108
241	0xbccaaec1	-0.024741532
242	0x3e52f402	0.20600894
243	0x3e02cdd4	0.1277383
244	0x3f001c50	0.500432
245	0x3d837ee7	0.06420689
246	0xbef50cb2	-0.47861248
247	0x3e94d0d4	0.29065573
248	0x3de1d628	0.11027175
249	0xbee9056c	-0.4551195
250	0xbd7c4ea9	-0.061598454
251	0xbc08ebd9	-0.008357012
252	0x3db3f943	0.08787777
253	0xbd9b94f6	-0.075967714
254	0xbd096a04	-0.03354837
255	0x3e819bce	0.25314182

h_32.bias f4 [64]
0	0x3e9b9306	0.30385607
1	0x3e010b57	0.12601982
2	0xbb3d06c8	-0.0028843153
3	0x3d3693ef	0.044574674
4	0xbdd839d0	-0.10557902
5	0x3d9a8da3	0.07546546
6	0x3e32b558	0.1745199
7	0xbdb1e657	-0.08686512
8	0xbd880afd	-0.06642721
9	0x3ea38f23	0.31945142
10	0xbe30f20c	-0.17279834
11	0x3e239ce2	0.15977815
12	0x3f005b13	0.5013897
13	0x3d3858af	0.04500645
14	0x3f990fb0	1.1957912
15	0xbd95acc6	-0.073083445
16	0xbe71b4be	-0.23604104
17	0x3e61b553	0.22041826
18	0xbc87661b	-0.01652818
19	0xbe297d2a	-0.16551653
20	0x3dac8c51	0.08425201
21	0x3e96085d	0.29303256
22	0x3e76ff32	0.24120787
23	0x3e5fae96	0.21843943
24	0x3d4ba268	0.04971543
25	0x3debda37	0.115162306
26	0x3db4de14	0.088314205
27	0x3e779594	0.24178153
28	0xbb913f97	-0.0044326293
29	0xbe5e7578	-0.21724498
30	0x3d5449da	0.051828243
31	0x3e0fd9c5	0.14047916
32	0xbd7de68e	-0.061987452
33	0xbe0e196c	-0.13876885
34	0xbc024a94	-0.007952351
35	0xbc8c5b7d	-0.017133469
36	0xbe725a0f	-0.23667167
37	0xbdc20379	-0.094733186
38	0x3ed571c9	0.41688374
39	0x3e011cdf	0.1260867
40	0xbd87dc62	-0.066338316
41	0x3e43a5e5	0.19106252
42	0xbdd889c3	-0.10573151
43	0x3d520489	0.051273856
44	0x3bb5d44f	0.005548991
45	0xbd755b7d	-0.059901703
46	0x3cb0f3ed	0.021600688
47	0x3e56a3f0	0.20960975
48	0x3e80f2e8	0.25185323
49	0xbe483eb1	-0.19555165
50	0x3e4ec84c	0.20193595
51	0x3e04b10f	0.12958167
52	0x3f1db307	0.616013
53	0x3da00450	0.078133225
54	0x3f125102	0.5715486
55	0x3e977228	0.29579282
56	0xbe39e9f0	-0.18155646
57	0x3e055475	0.13020499
58	0xbe3eee83	-0.18645673
59	0x3de66989	0.11250598
60	0x3bdc91af	0.006731234
61	0x3e66fe72	0.22558
62	0x3db9bf36	0.09069674
63	0x3e46d780	0.19418144

h_33.weight f4 [12, 64]
0	0xbf380e85	-0.71897155
1	0x3f6069d0	0.8766146
2	0x3e5acd49	0.21367373
3	0x3e8d728e	0.2762646
4	0xbf8f4917	-1.119418
5	0xbe783efb	-0.24242775
6	0xbe000761	-0.12502815
7	0x3f64734f	0.89238447
8	0x3fa22000	1.2666016
9	0xbef91cd0	-0.48654795
10	0x3f01009e	0.50391567
11	0xbf7c0315	-0.984422
12	0x3ebdfa9d	0.37105265
13	0xbce4d156	-0.02793185
14	0x3d88253c	0.06647727
15	0xbebb928b	-0.3663524
16	0xbe8521c9	-0.2600234
17	0xbf0b2c78	-0.5436473
18	0x3d78ec40	0.06077218
19	0xbdd445e7	-0.10364895
20	0x3f56f2e4	0.8396437
21	0x3dbae6b7	0.091260366
22	0xbd8e6dd5	-0.069545425
23	0x3e984b06	0.29744738
24	0xbc458cd9	-0.0120575065
25	0x3fabf08f	1.3432788
26	0xbff30680	-1.8986359
27	0xbe5b1e8a	-0.21398368
28	0x3f3269b9	0.6969257
29	0xbe50b41e	-0.20381209
30	0x3e078609	0.13234724
31	0x3eb2d278	0.349262
32	0xbf6f5191	-0.93483835
33	0x3f0f1671	0.5589362
34	0x3e1f041d	0.15528913
35	0xbf94228d	-1.1573044
36	0x3e31fa92	0.17380741
37	0xbf85e2a3	-1.0459789
38	0xbe4f152b	-0.20222919
39	0xbf7a5f28	-0.97801447
40	0x3f399f53	0.72508734
41	0xbe16991f	-0.14706849
42	0xbf3ae84b	-0.730107
43	0x3f588b4b	0.84587544
44	0x3d7b6a7e	0.061380856
45	0xbf68689b	-0.90784615
46	0x3f28419b	0.65725106
47	0x3e1f167a	0.15535918
48	0xbe0d30d3	-0.13788156
49	0xbd20868f	-0.039190825
50	0x3e67a32c	0.22620839
51	0x3f4aae23	0.7917196
52	0xbe4778b0	-0.19479632
53	0x3fb52b2e	1.4153802
54	0x3e5da2b4	0.21644098
55	0xbf168be8	-0.5880723
56	0x3e2c8a59	0.1684965
57	0x3cc232a3	0.023705786
58	0x40193ac2	2.3942113
59	0x3ed5e03f	0.4177265
60	0x3ed8503a	0.42248708
61	0xbf85b062	-1.0444453
62	0xbe95a0f4	-0.2922436
63	0x3fc25307	1.5181588
64	0xbe9800f7	-0.29688236
65	0xbe8a5964	-0.27021325
66	0x3eda10bd	0.42590895
67	0x3e474d3d	0.19463058
68	0x3f955b3e	1.166847
69	0x3ed42a01	0.41438296
70	0xbe024690	-0.1272223
71	0x3ece619c	0.40308845
72	0xbfe498c9	-1.7859126
73	0x3f930407	1.1485604
74	0xbfc722b6	-1.5557468
75	0x3f0abe34	0.54196477
76	0xbf0dfd19	-0.5546432
77	0x3f95cad1	1.170252
78	0xbd4a762d	-0.049429107
79	0x3f4e3a67	0.80557865
80	0xbe656526	-0.22401866
81	0x3f3dfc7b	0.7421338
82	0x3ecd1f4d	0.40062943
83	0x3d606c35	0.054790694
84	0xbeb46dda	-0.3524006
85	0xbd7cc2f6	-0.061709367
86	0x3d331bd0	0.043727696
87	0x3d6590ce	0.0560463
88	0xbf2583d6	-0.6465429
89	0x3dac01b2	0.08398761
90	0x3e46cbab	0.1941363
91	0xbca1d9a1	-0.019757094
92	0xbddc4f19	-0.10757274
93	0x3f205a9f	0.62638277
94	0xbe935b55	-0.28780618
95	0xbd6f088f	-0.05835777
96	0x3ed51274	0.4161564
97	0x3d95e530	0.07319105
98	0x3f6d446b	0.9268252
99	0x3ee9192d	0.4552702
100	0xbf614df5	-0.8800958
101	0x3f0bbabd	0.54581815
102	0xbdc5368c	-0.096295446
103	0x3e76351f	0.24043702
104	0x3de27fc0	0.11059523
105	0x3dea874c	0.11451587
106	0x3f4c4a17	0.7980055
107	0xbf84514a	-1.0337307
108	0x3f012b71	0.5045691
109	0x3fe1855a	1.7618821
110	0xbf2cfb99	-0.6757141
111	0x3e2ac7ed	0.16677828
112	0xbe787c71	-0.2426622
113	0xbf435c5e	-0.76312816
114	0xbf025806	-0.50915563
115	0xbf991c8f	-1.196184
116	0x3ce566b2	0.02800307
117	0xbeec8a5e	-0.46199316
118	0x3d4e8cbc	0.050427184
119	0x3db56a74	0.08858195
120	0x3d2cea5c	0.04221569
121	0x3e9d026e	0.30665916
122	0xbf42ad86	-0.76046026
123	0xbf38eee4	-0.7223952
124	0x3ed78d3b	0.42099938
125	0x3e922620	0.28544712
126	0x3f881487	1.0631264
127	0x3f8b9a36	1.0906436
128	0x3cdb883f	0.026798366
129	0xbdc8510c	-0.097810835
130	0xbf112b5d	-0.5670679
131	0xbd6e815e	-0.058228843
132	0xbb30de70	-0.0026988052
133	0xbe975fc7	-0.2956526
134	0x3eacaed9	0.33727148
135	0xbd961fb9	-0.07330269
136	0x3e80cecc	0.25157773
137	0xbf18bac8	-0.59660006
138	0x3f16b1f5	0.5886529
139	0x3d4e3397	0.05034217
140	0x3c109192	0.008823769
141	0xbf858413	-1.0430931
142	0x3de34b34	0.11098328
143	0xbe66840f	-0.22511314
144	0x3ecc3642	0.39885145
145	0xbf2e05b9	-0.6797748
146	0xbd955448	-0.07291466
147	0x3dcf9d49	0.10137422
148	0xbd96092b	-0.073259674
149	0x3ba6a5b2	0.0050856704
150	0x3f56a0c5	0.83839065
151	0xbeab2973	-0.3343006
152	0x3ba29835	0.004961992
153	0x3dfbd280	0.12296009
154	0x3ea35691	0.31901982
155	0x3ef2819c	0.4736451
156	0xbe164a97	-0.14676891
157	0xbf0bc780	-0.5460129
158	0x3f6a7c61	0.9159604
159	0xbde29d24	-0.110651284
160	0xbe371186	-0.17877778
161	0x3f58dddd	0.84713537
162	0x3f06703c	0.52515006
163	0xbb61d99e	-0.0034461985
164	0x3f278967	0.65444034
165	0xbe479c38	-0.19493186
166	0x3cf39409	0.029733675
167	0xbf16b4c6	-0.5886959
168	0xbd8b128d	-0.06790648
169	0x3e272512	0.16322735
170	0xbf041ac8	-0.51603365
171	0x3f0fd3d6	0.5618261
172	0xbed5a574	-0.41727793
173	0xbfc144a5	-1.5099074
174	0x3eafc8f6	0.3433301
175	0xbf2ba19b	-0.67043465
176	0x3e58fee8	0.21190989
177	0x3eefbe07	0.46824667
178	0xbbe20cf6	-0.0068985177
179	0x3f353dad	0.70797235
180	0xbc9c1197	-0.019051356
181	0xbd5c942d	-0.05385225
182	0xbd6476c1	-0.055777315
183	0xbe6177b1	-0.22018315
184	0xbda31c60	-0.079643965
185	0x3fa7fd3f	1.312416
186	0x3f188b17	0.59587234
187	0x3ed2bb90	0.41158724
188	0x3e0fe69b	0.14052813
189	0x3ee1d2ea	0.44106227
190	0xbefcadce	-0.49351352
191	0xbfab20e9	-1.3369418
192	0x3d688848	0.056770593
193	0x3dff5dd6	0.1246907
194	0x3e31ef33	0.17376404
195	0x3eb36a2c	0.3504194
196	0xbed629cd	-0.41828766
197	0xbe3f2e56	-0.1867002
198	0x3c864bcd	0.016393567
199	0xbe6f9ea7	-0.23400365
200	0x3eb4234e	0.35183185
201	0x3d901cb2	0.07036723
202	0xbe081880	-0.13290596
203	0xbecfd4d3	-0.4059206
204	0xbe5edaef	-0.21763204
205	0xbed668d4	-0.41876853
206	0x3e1a840b	0.15089433
207	0x3c5cf208	0.013485439
208	0xbe3c8b79	-0.1841258
209	0xbe03795a	-0.1283926
210	0x3bdb7153	0.006696859
211	0xbd218419	-0.03943262
212	0x3d44a4ca	0.048008718
213	0xbe887caa	-0.2665761
214	0xbdfc9497	-0.12333029
215	0xbc1618df	-0.009161203
216	0xbb0a42f3	-0.0021097034
217	0x3df5ee0c	0.120082945
218	0x3f1a76ce	0.6033753
219	0x3e69a547	0.22816955
220	0x3dbef825	0.093246736
221	0xbe8f816a	-0.28028423
222	0xbea63fc4	-0.32470524
223	0xbd775191	-0.060380522
224	0x3d8d5354	0.06900659
225	0xbebfecfd	-0.37485495
226	0x3f55f601	0.835785
227	0xbd47bb33	-0.04876251
228	0x3e6a003d	0.22851653
229	0xbe18004c	-0.14843863
230	0x3ed92787	0.4241297
231	0xbd32dc3a	-0.043667056
232	0xbdf3a7c6	-0.118972346
233	0xbf04ded5	-0.51902515
234	0x3d336e56	0.043806396
235	0x3d7085d8	0.058721393
236	0x3e6e4e16	0.23271975
237	0xbeabfa74	-0.33589518
238	0xbdde032b	-0.10840448
239	0x3e31c28a	0.17359367
240	0xbdeed255	-0.116612114
241	0x3d7b32ef	0.06132787
242	0xbe30d4b0	-0.17268634
243	0xbdb4ea1f	-0.088337176
244	0xbcabb4a2	-0.020960156
245	0x3f30f082	0.69116986
246	0xbeaaf515	-0.33390108
247	0xbebc456d	-0.36771718
248	0xbf175d7e	-0.5912703
249	0x3ebd2649	0.36943272
250	0xbf0a5f19	-0.5405136
251	0xbe8c7b0c	-0.27437627
252	0xbe2fa042	-0.17150977
253	0xbcd874b0	-0.026422828
254	0x3e939cad	0.28830472
255	0xbec07357	-0.37587997

h_33.bias f4 [12]
0	0xbd2a05a4	-0.041509286
1	0xbe62d185	-0.22150238
2	0xbd91e57d	-0.071238495
3	0xbd34419f	-0.044007894
4	0xbf1fb1c3	-0.6238062
5	0x3e9ab787	0.30218145
6	0xbd5b7624	-0.053579465
7	0xbe8467e1	-0.25860503
8	0x3d9d0946	0.076677844
9	0xbe6b650f	-0.2298777
10	0x3de6f9d0	0.11278117
11	0xbe5b9380	-0.21442986

h_34.weight f4 [6, 6]
0	0x3cfe11b0	0.031014293
1	0xbf489091	-0.7834559
2	0x3f02fb41	0.51164633
3	0x3e6baa99	0.23014297
4	0x3e7f997b	0.24960892
5	0x3dd7ca81	0.105366714
6	0x3e4d8508	0.20070279
7	0xbe0d2d86	-0.13786897
8	0x3eac43c2	0.33645445
9	0xbd9ad73b	-0.07560583
10	0xbe63d5ec	-0.22249573
11	0xbeb848d5	-0.35993066
12	0x3e8fcec0	0.28087425
13	0xbf2a5697	-0.66538376
14	0xbee794ea	-0.452308
15	0x3ce3b3a8	0.027795628
16	0x3bb9b292	0.005667039
17	0x3dbfd0c9	0.093659945
18	0x3e93217e	0.2873649
19	0xba58b978	-0.0008267383
20	0x3ed8fdbc	0.42381084
21	0x3c378524	0.011201177
22	0x3ea5d22b	0.32386908
23	0x3e8701f2	0.26368672
24	0x3c8d0fbd	0.017219419
25	0x3e83b753	0.25725803
26	0x3c429a6e	0.011877639
27	0x3f51eb0f	0.81999296
28	0xbd3584e8	-0.044316202
29	0x3ed2acf7	0.41147587
30	0xbbb88bed	-0.005631915
31	0xbeeeb1f3	-0.4662014
32	0x3e6ed92e	0.23325035
33	0xbe8b52c2	-0.27211577
34	0xbe716cee	-0.2357671
35	0x3e4d3e42	0.2004328

h_34.bias f4 [6]
0	0xbe44b9da	-0.19211522
1	0x3d5bd950	0.053674042
2	0x3ef0b661	0.47014144
3	0xbd9f4715	-0.0777723
4	0x3f4c893b	0.798969
5	0x3d8ff18d	0.07028494

h_35.weight f4 [6, 6]
0	0xbeae539c	-0.34048164
1	0xbe5ab136	-0.21356663
2	0xbd3d4fbb	-0.046218615
3	0x3e5a60e8	0.2132603
4	0x3e082e33	0.13298874
5	0x3f02005b	0.5078179
6	0xbe80dc6c	-0.2516817
7	0x3e0a4271	0.13501908
8	0x3e0f8f1e	0.14019439
9	0x3f0a8f64	0.54125047
10	0x3e83f3e1	0.25772002
11	0x3c9bdc22	0.019025866
12	0x3eb5eefa	0.35533887
13	0xbf14a5fd	-0.5806578
14	0xbe6a4862	-0.22879174
15	0xbe6f3cad	-0.2336299
16	0x3eaf4c4b	0.34237894
17	0xbe3c8730	-0.18410945
18	0xbe773adb	-0.24143545
19	0x3eafa6c7	0.3430693
20	0x3e8600e6	0.2617256
21	0xbe27eaeb	-0.16398208
22	0x3f3d09d0	0.738431
23	0xbc006ec3	-0.007838908
24	0x3d73a253	0.059480976
25	0xbf327960	-0.69716454
26	0xbd3cfcb9	-0.046139453
27	0x3f091fea	0.5356432
28	0xbddbd7e8	-0.1073454
29	0x3d9fb2df	0.07797789
30	0xbc7ca69d	-0.015420583
31	0x3df9d421	0.121986635
32	0xbe7b5cac	-0.2454707
33	0xbd479bf2	-0.048732705
34	0x3eaca4e8	0.33719563
35	0x3e861e9d	0.2619523

h_35.bias f4 [6]
0	0xbeca8c86	-0.39560336
1	0xbf2cb157	-0.674581
2	0x3e159948	0.14609253
3	0x3cc0c896	0.023533147
4	0x3f58e428	0.8472314
5	0xbf4812bc	-0.78153586
