GANs/saved_models/python/checkpoint.pth (torch, 635490 bytes, 69 tensors)

h_11.weight f4 [32, 12]
-0.07657876 -0.1267101 0.045627065 -0.015379945 -0.08964325 -0.11765461 -0.052511368 0.10033739
-0.050218824 0.07559538 0.38417572 0.05258811 0.06461422 -0.117683575 0.03080611 -0.013452102
-0.055933204 -0.041206744 0.00015806544 0.02345239 -0.09635041 -0.00437709 0.04417043 0.028839985
0.011041359 -0.09264758 -0.5010321 -0.33944964 -0.2630235 -0.10121889 0.46208408 -0.08188943
0.39930785 0.28256342 0.18492962 0.012314534 -0.12757616 0.38799384 -0.003428726 0.06932986
0.07152385 -0.28933397 0.39033848 0.40984038 0.19343731 -0.2271814 -0.0033494153 -0.26558918
0.21345161 -0.10330251 -0.6289382 -0.14762072 0.2434277 0.4410299 -0.027061198 -0.39089426
0.19367468 0.11775683 -0.15488578 -0.18416719 0.64360446 -0.3024052 -0.32090667 -0.30651852
0.2313958 0.43069652 -0.07182226 -0.47033054 0.02049452 -0.034666054 0.5925496 0.32441604
0.06163318 -0.081974216 0.15017684 0.17567737 -0.107430704 -0.33872148 0.13012429 0.16690406
0.03219278 0.18418461 1.3391739 0.016000956 0.042313192 -0.708883 -0.37348232 -0.8096353
-0.7253576 -0.29653305 0.40343267 -0.21293123 0.06345388 0.5200135 0.18438825 0.49311537
-0.0017530269 -0.15987171 -0.19787556 -0.24060524 -0.07664001 0.10283129 0.06410187 -0.091819584
-0.040643398 0.13041705 0.122594774 -0.019170653 -0.08469124 0.06946727 -0.0034227294 0.06827685
0.0053158663 -0.07600131 -0.0072065173 0.0049145534 0.029196883 0.037985645 0.051707875 -0.0060298285
0.31650302 0.30862352 -0.6051858 -0.05381782 0.36909398 0.018212324 0.48454922 0.10397218
0.33488938 -0.31407586 0.15401293 -0.35278994 -0.06767458 0.019606097 0.032669526 0.10644105
0.013913267 0.03170588 -0.08434733 -0.0015402855 0.0094294315 0.050623074 0.3686678 -0.02411542
0.010279448 -0.0760091 0.0045688013 0.043092545 -0.013825173 0.03523793 -0.08453922 -0.040950287
-0.095123075 0.0145120155 0.7411628 -0.088391274 0.08303292 -0.15620455 -0.052521408 -0.14341773
-0.054958828 -0.03339334 -0.020362547 -0.12707946 -0.0021119379 0.104513764 -0.023810029 0.16729224
0.20367622 0.08004011 0.18900788 0.3457211 0.047419783 -0.15760288 0.017140497 0.18112066
0.07645175 -0.091184534 0.7748352 0.10161942 0.1093013 0.32239872 0.14554918 0.17181958
0.2899641 -0.005695882 -0.057133365 -0.121540375 0.084647186 -0.003906913 0.33873475 0.051933873
0.14371923 0.14401227 0.31772518 0.15998721 0.18477999 -0.015276507 -0.1421955 -0.0009821998
-0.077989854 -0.13217719 0.080984004 0.1227852 0.016895168 -0.27748257 -0.08666565 -0.15073107
-0.18934268 -0.04982277 0.0734121 0.11595824 -0.056734916 0.009964501 0.18737727 0.02293706
-0.07801714 -0.24699388 0.14278741 0.08034097 -0.026151745 0.17561634 -0.2579502 -0.09064944
-0.18235853 0.25833336 0.9687718 -0.24498993 -0.003858101 -0.022815289 0.027063807 0.03593093
-0.07586281 0.03257281 -0.028468437 0.084224686 -0.030196963 -0.025226062 -0.017598903 -0.026955515
0.06548352 0.40925622 0.12544979 0.11934448 -0.081572026 -0.18095264 0.08432508 0.20021217
0.01732015 -0.17524911 0.7459939 -0.19876638 0.056711134 -0.33248246 0.16849531 0.09729465
00000000: 53d5 9cbd 4bc0 01be 72e3 3a3d 2afc 7bbc
00000010: e196 b7bd e6f4 f0bd 2916 57bd b17d cd3d
00000020: 41b2 4dbd c0d1 9a3d aeb2 c43e a166 573d
00000030: 7654 843d 1604 f1bd 185d fc3c 3566 5cbc
00000040: 371a 65bd 67c8 28bd 5ebe 2539 3a1f c03c
00000050: 5d53 c5bd b16d 8fbb 0eec 343d d541 ec3c
00000060: d1e6 343c 04be bdbd a443 00bf 58cc adbe
00000070: 04ab 86be d94b cfbd 4996 ec3e a5b5 a7bd
00000080: 1472 cc3e 27ac 903e 315e 3d3e e6c2 493c
00000090: 53a3 02be 21a7 c63e 7ab4 60bb d0fc 8d3d
000000a0: 197b 923d 9523 94be 72da c73e 99d6 d13e
000000b0: 6e14 463e 3ea2 68be dd81 5bbb 4efb 87be
000000c0: 0f93 5a3e 4490 d3bd 1802 21bf e329 17be
000000d0: 1c45 793e acce e13e 72af ddbc 4b23 c8be
000000e0: a852 463e 7e2a f13d 619a 1ebe 5396 3cbe
000000f0: 43c3 243f dbd4 9abe e14d a4be ffef 9cbe
00000100: 05f3 6c3e 4184 dc3e 8d17 93bd 2acf f0be
00000110: 20e4 a73c fefd 0dbd 55b1 173f dc19 a63e
00000120: 1373 7c3d 19e2 a7bd f5c7 193e c5e4 333e
00000130: a104 dcbd e76c adbe 4d3f 053e e6e8 2a3e
00000140: 94dc 033d e49a 3c3e 0d6a ab3f 7014 833c
00000150: 9950 2d3d 5b79 35bf 1339 bfbe 4244 4fbf
00000160: 09b1 39bf 2ed3 97be ba8e ce3e a50a 5abe
00000170: 1cf4 813d 9b1f 053f 46d0 3c3e 9e79 fc3e
00000180: d2c5 e5ba 69b5 23be e49f 4abe 3861 76be
00000190: 70f5 9cbd 3699 d23d d747 833d e80b bcbd
000001a0: b179 26bd 0c8c 053e f812 fb3d c60b 9dbc
000001b0: 9a72 adbd db44 8e3d df4f 60bb bcd4 8b3d
000001c0: b830 ae3b 93a6 9bbd a624 ecbb 430a a13b
000001d0: 4d2e ef3c d696 1b3d a3cb 533d de95 c5bb
000001e0: af0c a23e e703 9e3e 75ed 1abf 1370 5cbd
000001f0: e3f9 bc3e 0332 953c d616 f83e 5eef d43d
00000200: 9f76 ab3e 8dce a0be 91b5 1d3e e2a0 b4be
00000210: f898 8abd f79c a03c 7bd0 053d c4fd d93d
00000220: 79f4 633c 06de 013d 4bbe acbd 68e3 c9ba
00000230: e77d 1a3c 245a 4f3d 07c2 bc3e b48d c5bc
00000240: 216b 283c a9aa 9bbd e2b5 953b cf81 303d
00000250: fa82 62bc a655 103d e622 adbd 7dbb 27bd
00000260: e3cf c2bd cec3 6d3c d8bc 3d3f 7c06 b5bd
00000270: 2a0d aa3d 16f4 1fbe b020 57bd 19dc 12be
00000280: 821c 61bd 74c7 08bd 5bcf a6bc 1e21 02be
00000290: 7068 0abb 500b d63d 400d c3bc a84e 2b3e
000002a0: 8090 503e 12ec a33d 488b 413e 5b02 b13e
000002b0: 3f3b 423d a662 21be 3a6a 8c3c b277 393e
000002c0: bc92 9c3d f5be babd 9a5b 463f d81d d03d
000002d0: 5cd9 df3d 7211 a53e d80a 153e 79f1 2f3e
000002e0: 2d76 943e 85a4 babb ad04 6abd 29ea f8bd
000002f0: 815b ad3d 9005 80bb a46e ad3e 9db8 543d
00000300: 222b 133e f477 133e e0ac a23e b0d3 233e
00000310: f736 3d3e 504a 7abc b29b 11be 28bd 80ba
00000320: 25b9 9fbd 7559 07be f1da a53d cf76 fb3d
00000330: bc67 8a3c 3212 8ebe c37d b1bd 3f59 1abe
00000340: 0ce3 41be f612 4cbd 1559 963d 847b ed3d
00000350: df62 68bd 2542 233c d4df 3f3e 80e6 bb3c
00000360: 73c7 9fbd f7eb 7cbe dd36 123e ce89 a43d
00000370: 2f3c d6bc c5d4 333e 0c12 84be 6aa6 b9bd
00000380: 32bc 3abe 4544 843e 6e01 783f a4de 7abe
00000390: 32d8 7cbb 21e7 babc ebb4 dd3c 502c 133d
000003a0: f65d 9bbd 116b 053d a436 e9bc fe7d ac3d
000003b0: 9f5f f7bc e3a6 cebc 932b 90bc d0d1 dcbc
000003c0: 391c 863d 088a d13e e975 003e e16a f43d
000003d0: 3c0f a7bd a64b 39be a1b2 ac3d 6b04 4d3e
000003e0: fde2 8d3c 8174 33be 75f9 3e3f 6a89 4bbe
000003f0: ef49 683d 243b aabe 098a 2c3e 6b42 c73d

h_11.bias f4 [32]
-0.048381276 0.43187013 0.44441423 0.3773104 0.22257125 -0.119414255 -0.87427795 -1.4181149
1.1672564 0.1521987 -0.45865047 0.11298838 -1.0423323 0.6322231 -0.8255389 0.67132294
0.7550712 1.1658432 -0.91924405 0.36868116 -0.76199037 0.13406907 -0.6241406 -0.20885257
-0.100994475 -0.45924762 -0.46460912 0.41599044 0.5647679 0.47876555 0.17143649 -0.038649797
00000000: 722b 46bd 151e dd3e 438a e33e d42e c13e
00000010: b8e9 633e 768f f4bd aed0 5fbf ca84 b5bf
00000020: a868 953f fad9 1b3e 3cd4 eabe 7466 e73d
00000030: 256b 85bf 60d9 213f 8456 53bf d2db 2b3f
00000040: 594c 413f 5a3a 953f 9453 6bbf c7c3 bc3e
00000050: cd11 43bf 6749 093e aec7 1fbf 73dd 55be
00000060: 31d6 cebd 8122 ebbe 3fe1 edbe b3fc d43e
00000070: a194 103f c220 f53e 0c8d 2f3e 404f 1ebd

h_12.weight f4 [32, 6]
-0.3899356 0.3706464 -0.3494426 0.052326858 0.0962005 -0.29798508 -0.6060869 0.01837694
0.31295928 -0.32049233 0.41816163 -0.18418935 -0.29450482 0.4195315 0.11736468 -0.15914947
-0.2525337 0.59411186 -0.44113865 0.10661278 -0.2212938 -0.09503074 0.115527965 0.12049283
-0.18334657 0.44867602 -0.04550978 0.41647214 0.65187234 -0.03428382 -0.7447767 -0.010450354
0.09297717 -0.07291918 -0.1431224 -0.57180595 -0.79677093 -0.17830655 0.122099094 0.20632017
-0.52061886 0.01797435 0.09914023 -0.21864533 -0.1484771 -0.0073326146 0.80314726 -0.34657696
0.060495373 -0.1608256 -0.44686243 -0.3334166 0.32312125 0.4098935 0.36558002 0.23964633
0.308411 -0.05464393 -0.2246296 0.20398395 -0.5385804 -0.61629826 0.16108952 0.14144467
0.10852306 -0.18722782 0.08016527 0.2560068 -0.4510077 -1.037706 0.6961201 -0.17776728
0.37305117 0.39713687 0.122109324 0.1405018 0.094012946 0.0063935285 0.3020316 -0.16603635
0.03527556 0.83240914 0.10931445 0.06309171 -0.027852984 -0.22474693 0.35513252 0.029160772
0.8536818 0.109118834 -0.78921765 -0.395546 -0.2400745 -0.101341076 0.11838756 -0.28637654
-0.049043164 -0.4105879 -0.42470294 -0.05008356 0.4032408 -0.34010708 0.07450898 0.027127132
-0.47776937 0.48871306 0.40131626 0.8095861 0.023040285 -0.6379592 0.5814282 0.23779137
0.2160356 0.2682004 0.10204841 -0.25110537 0.17853558 0.057897445 0.4315445 -0.3274463
-0.73862296 0.55452085 -0.712454 0.56950456 -0.10195048 0.037730772 -0.24966098 0.42265877
0.28176588 -0.368418 0.46675235 0.3730123 0.847603 -0.37037623 0.049106218 0.30261824
0.38150045 0.23806578 -0.3404314 -0.16168016 0.15389724 -0.17122397 -0.20915672 0.33815473
0.27872455 0.38701168 0.021850603 -0.35118032 -0.2863973 -0.25359312 -1.0917593 -0.15908717
-0.5432512 -0.41327044 -0.48317477 -0.30556992 -0.63884264 0.28688908 0.1015421 -0.19557467
0.22936727 0.41969663 -0.6042916 -0.18816343 0.21162872 -0.7294436 -0.02805398 0.56340694
-0.12124226 0.10296538 -0.5928337 -0.042421486 -0.0664565 0.0544759 0.15862325 0.35473832
-0.3116157 0.0122373635 -0.20397566 -0.3229505 0.061137527 -0.50475824 0.23815465 0.009796476
-0.67715126 0.877737 -0.7808028 -0.470751 -0.059854604 -0.4916855 -0.19680572 -0.13685566
00000000: a4a5 c7be 5dc5 bd3e 24ea b2be b054 563d
00000010: c504 c53d 8091 98be 8328 1bbf 3d8b 963c
00000020: 333c a03e 9217 a4be 4819 d63e 229c 3cbe
00000030: 56c9 96be d5cc d63e e55c f03d 14f8 22be
00000040: 194c 81be b717 183f eddc e1be cd57 da3d
00000050: d89a 62be 7a9f c2bd ed99 ec3d f2c4 f63d
00000060: 34bf 3bbe ddb8 e53e 7768 3abd d63b d53e
00000070: 1be1 263f 316d 0cbd b0a9 3ebf f637 2bbc
00000080: d16a be3d a756 95bd ae8e 12be e061 12bf
00000090: 2ef9 4bbf fe95 36be 170f fa3d 9845 533e
000000a0: 4747 05bf f23e 933c 080a cb3d 90e4 5fbe
000000b0: 620a 18be 6e46 f0bb 0f9b 4d3f 8972 b1be
000000c0: ffc9 773d 77af 24be 27cb e4be 95b5 aabe
000000d0: 2670 a53e 90dd d13e 4e2d bb3e d965 753e
000000e0: 0ce8 9d3e 50d2 5fbd 4d05 66be 2be1 503e
000000f0: 68e0 09bf b9c5 1dbf a7f4 243e dfd6 103e
00000100: 5741 de3d a6b8 3fbe b02d a43d 5313 833e
00000110: 7bea e6be 8dd3 84bf ed34 323f a008 36be
00000120: 9000 bf3e 8655 cb3e 7414 fa3d b4df 0f3e
00000130: dc89 c03d ce80 d13b e3a3 9a3e 6f05 2abe
00000140: 1b7d 103d c418 553f 41e0 df3d 3a36 813d
00000150: f12b e4bc 0f24 66be eed3 b53e 92e2 ee3c
00000160: e48a 5a3f b279 df3d 2b0a 4abf 0185 cabe
00000170: 17d6 75be e98b cfbd 2d75 f23d f29f 92be
00000180: 7ce1 48bd 9438 d2be aa72 d9be 6b24 4dbd
00000190: 9475 ce3e 8422 aebe 2a98 983d b839 de3c
000001a0: 309e f4be 9938 fa3e 5379 cd3e 0941 4f3f
000001b0: fbbe bc3c 4b51 23bf 7ad8 143f 957f 733e
000001c0: 7038 5d3e 9051 893e c2fe d03d e290 80be
000001d0: 08d2 363e df25 6d3d 67f3 dc3e 0ba7 a7be
000001e0: 6516 3dbf 14f5 0d3f 6363 36bf 0dcb 113f
000001f0: 6acb d0bd 958b 1a3d 21a7 7fbe bb66 d83e
00000200: 9e43 903e 49a1 bcbe 2afa ee3e 78fb be3e
00000210: 83fc 583f f4a1 bdbe 9a23 493d c7f0 9a3e
00000220: 0754 c33e 84c7 733e 064d aebe 7c8f 25be
00000230: 3d97 1d3e 5655 2fbe 2e2d 56be 9e22 ad3e
00000240: fcb4 8e3e 6526 c63e 0900 b33c e8cd b3be
00000250: aba2 92be f5d6 81be c5be 8bbf bfe7 22be
00000260: 8312 0bbf 2f98 d3be af62 f7be a973 9cbe
00000270: 318b 23bf 20e3 923e 4ef5 cf3d ba44 48be
00000280: 41df 6a3e 7ae2 d63e dbb2 1abf eaad 40be
00000290: 33b5 583e d1bc 3abf 76d1 e5bc 703b 103f
000002a0: dd4d f8bd 83df d23d f3c3 17bf 27c2 2dbd
000002b0: 581a 88bd 1f22 5f3d 226e 223e 43a0 b53e
000002c0: 188c 9fbe 397f 483c ffde 50be c559 a5be
000002d0: 586b 7a3d d637 01bf d0de 733e 6681 203c
000002e0: c959 2dbf 5fb3 603f b1e2 47bf 4606 f1be
000002f0: 1a2a 75bd 34be fbbe 7087 49be e423 0cbe

h_12.bias f4 [32]
0.60038567 0.59786546 0.56062543 -0.9160741 -0.4607152 0.74654686 -0.13654743 -0.16504094
-0.18476577 -0.32810783 -0.4842987 0.40451762 -0.10068718 -0.17788823 -0.6620835 -0.6481259
0.1494007 -0.08425729 0.15963987 0.13918658 -0.64289415 0.31622097 0.041324683 -0.19410011
0.15673049 0.30742863 -0.38503933 0.019313699 -0.26065025 -0.21051636 -0.64994293 -0.58839715
00000000: e0b2 193f b60d 193f 2685 0f3f d583 6abf
00000010: dde2 ebbe b21d 3f3f 17d3 0bbe 7e00 29be
00000020: 3d33 3dbe c0fd a7be 00f6 f7be ef1c cf3e
00000030: 1535 cebd 5528 36be 4e7e 29bf 94eb 25bf
00000040: 7ffc 183e 168f acbd a278 233e ed86 0e3e
00000050: b694 24bf b7e7 a13e 1244 293d 2ec2 46be
00000060: f57d 203e 4967 9d3e e023 c5be c337 9e3c
00000070: f373 85be 9a91 57be a962 26bf 32a1 16bf

h_21.weight f4 [32, 32]
0.1198344 -0.03347486 0.077469856 0.16518122 -0.13282634 0.007381475 -0.27281958 0.5871785
0.0033751302 -0.22838889 0.33893573 0.08729266 0.01914527 -0.09180395 -0.18568073 0.04271638
-0.02877192 0.01662117 -0.1253264 0.18640028 -0.13627668 -0.055700835 -0.06919133 -0.033042524
0.0118838465 -0.17153518 0.06084533 0.006886673 0.1795197 -0.4997261 0.23521318 -0.23856606
0.19294198 0.18577006 -0.1776898 0.06810133 0.13465367 0.079063386 -0.022355992 -0.19430652
0.12755767 -0.11087642 -0.029491365 0.07731274 -0.07127581 0.19221105 0.002854627 0.0791032
-0.1468597 -0.022266865 0.095977 0.14092837 0.15979841 -0.18334621 0.11955935 0.0011977844
0.1836856 -0.2898146 -0.14930926 -0.015579387 0.13326791 -0.1219157 0.20148578 0.014445275
-0.248187 -0.41568455 -0.60672265 -0.4007283 -0.27484393 -0.056550812 0.9824681 0.08338337
-0.8297412 -0.30129126 0.7521647 -0.34184167 0.7466955 -0.77122307 0.9812129 -0.9288905
-0.12039527 -0.44022435 0.95420253 -0.37041035 0.81246865 0.040783085 1.0514784 -0.5415553
-0.43100017 -0.14728546 -0.05574966 -0.690837 0.025429552 -0.48863623 0.009216208 -0.029712876
-0.41969457 -0.04218876 0.023257231 0.21270676 0.108069375 -0.005409084 0.01416877 0.5716956
-0.06768311 -0.02466221 0.108933896 -0.16806494 -0.38999614 0.1502953 -0.30956724 0.3284733
-0.057732336 -0.12763572 0.08893555 -0.088544786 0.101925924 0.18360165 -0.22970115 -0.030194806
-0.034736246 0.00826029 0.108997665 0.08105786 -0.4445513 0.29399857 0.007891773 -0.23404962
-0.39794973 0.054437514 -0.46986315 -0.1267928 0.16032875 -0.3142682 -0.22682697 -0.016623478
-0.0505042 0.20540085 -0.51036525 -0.19633676 -0.25748062 -0.11368144 -0.16284123 0.13777371
0.073336184 -0.26334715 -0.24594621 -0.053741775 -0.18763514 0.29552528 -0.21851715 -0.03228168
-0.031123746 -0.4156053 -0.5577116 -0.28233853 -0.060841408 0.15324435 -0.017003221 0.06466319
-0.024915725 0.24758713 -0.103623234 -0.05208355 -0.021833273 -0.31732222 -0.14397715 -0.3196193
0.22479661 -0.45065275 -0.15963377 -0.006957841 -0.09569229 0.20459898 -0.2185508 -0.06031721
0.00939345 0.041758455 -0.15298948 0.036972523 -0.071970895 -0.027610362 0.047932018 -0.2502901
-0.11873422 -0.29936934 -0.25835058 -0.11275417 0.2434615 -0.12333865 0.25707582 0.3917301
-1.1189938 -0.60205024 -1.0316384 -0.17827019 -0.55511934 0.0065017254 -0.20560582 -0.87816155
-0.5528865 -0.89827406 -0.8626776 -0.8384912 -0.63451433 -1.4953591 -0.36917704 -0.6454747
-0.15447654 0.20398583 0.27148297 0.15665492 -0.25127903 -0.3355668 -0.5684037 -0.5159367
-0.19887128 -0.10838441 0.7799158 0.39994386 -0.14570262 -0.6801537 0.41345775 -0.28170297
-0.34637046 0.2480026 -0.14010254 -0.078694604 0.00926355 -0.29411164 -0.5029119 -0.06964534
0.09825259 -0.41480023 -0.133097 -0.28695738 -0.107720174 0.12606752 -0.46041772 -0.07035921
0.07366304 0.042515457 -0.04391839 0.013213155 -0.104702674 -0.09474775 0.011993814 -0.34152973
-0.20176178 -0.09491774 -0.23026273 -0.12724449 -0.034492232 0.05776155 0.30268216 0.30472395
00000000: bd6b f53d ef1c 09bd 84a8 9e3d 4425 293e
00000010: a103 08be 4de0 f13b 02af 8bbe 5551 163f
00000020: 4a31 5d3b c7de 69be fc88 ad3e 7ec6 b23d
00000030: 8bd6 9c3c b603 bcbd 1723 3ebe 5ff7 2e3d
00000040: 17b3 ebbc 1f29 883c 9055 00be b7df 3e3e
00000050: 1d8c 0bbe 8f26 64bd 2fb4 8dbd 9957 07bd
00000060: 77b4 423c eba6 2fbe f438 793d 9aa9 e13b
00000070: 03d4 373e 19dc ffbe b9db 703e a94a 74be
00000080: 9592 453e 823a 3e3e 51f4 35be b678 8b3d
00000090: a7e2 093e fceb a13d ea23 b7bc 4af8 46be
000000a0: 7a9e 023e 2d13 e3bd e097 f1bc 2456 9e3d
000000b0: 0df9 91bd f9d2 443e b214 3b3b dc00 a23d
000000c0: 6462 16be 0069 b6bc 978f c43d 874f 103e
000000d0: 32a2 233e 1cbf 3bbe 88db f43d fafe 9c3a
000000e0: 1418 3c3e 9462 94be 87e4 18be af40 7fbc
000000f0: 6277 083e f0ae f9bd 4a52 4e3e e0ab 6c3c
00000100: bc24 7ebe 9bd4 d4be 2d52 1bbf 422c cdbe
00000110: 58b8 8cbe d3a1 67bd 0883 7b3f e6c4 aa3d
00000120: eb69 54bf d942 9abe de8d 403f df05 afbe
00000130: 7027 3f3f e06e 45bf c530 7b3f c5cb 6dbf
00000140: cc91 f6bd 1665 e1be 9e46 743f 6da6 bdbe
00000150: f2fd 4f3f 2a0c 273d d896 863f 5ea3 0abf
00000160: 0eac dcbe 00d2 16be c159 64bd b2da 30bf
00000170: a351 d03c 872e fabe 94ff 163c 6b68 f3bc
00000180: 35e2 d6be 1fce 2cbd f385 be3c cdcf 593e
00000190: 7a53 dd3d af3e b1bb 2124 683c a55a 123f
000001a0: 719d 8abd 6708 cabc bc18 df3d 3719 2cbe
000001b0: 93ad c7be 03e7 193e 997f 9ebe a72d a83e
000001c0: be78 6cbd f0b2 02be d723 b63d f856 b5bd
000001d0: 8abe d03d 1202 3c3e c736 6bbe 195b f7bc
000001e0: 9847 0ebd 2b56 073c 2b3a df3d aa01 a63d
000001f0: 3a9c e3be fb86 963e 7f4c 013c b4aa 6fbe
00000200: 11c0 cbbe dff9 5e3d e791 f0be f9d5 01be
00000210: 382d 243e c3e7 a0be 5445 68be f62d 88bc
00000220: 7edd 4ebd 9a54 523e 4ca7 02bf 810c 49be
00000230: 80d4 83be d1d1 e8bd dabf 26be 8d14 0d3e
00000240: 4831 963d 70d5 86be 53d9 7bbe 5620 5cbd
00000250: 6d23 40be 174f 973e f6c2 5fbe cb39 04bd
00000260: 3af7 febc 38ca d4be 30c6 0ebf ad8e 90be
00000270: d734 79bd 16ec 1c3e 574a 8bbc 226e 843d
00000280: 101c ccbc 7b87 7d3e 6b38 d4bd 8f55 55bd
00000290: b1db b2bc 0f78 a2be bf6e 13be 24a5 a3be
000002a0: 1531 663e f5bb e6be 0977 23be 9afe e3bb
000002b0: 52fa c3bd 6582 513e c8cb 5fbe 2e0f 77bd
000002c0: fce6 193c ea0a 2b3d 46a9 1cbe 8070 173d
000002d0: 7a65 93bd 202f e2bc 5d54 443d 0626 80be
000002e0: ed2a f3bd f046 99be 8746 84be a9eb e6bd
000002f0: f94d 793e f998 fcbd 719f 833e d990 c83e
00000300: 303b 8fbf f71f 1abf ba0c 84bf 768c 36be
00000310: 4d1c 0ebf 6d0c d53b 558a 52be 32cf 60bf
00000320: f889 0dbf 4af5 65bf 70d8 5cbf 5ca7 56bf
00000330: 886f 22bf ed67 bfbf c604 bdbe d43d 25bf
00000340: 192f 1ebe a9e1 503e d1ff 8a3e 266a 203e
00000350: a5a7 80be 69cf abbe e882 11bf 6d14 04bf
00000360: eaa4 4bbe a5f8 ddbd 90a8 473f 71c5 cc3e
00000370: 1133 15be 8e1e 2ebf bcb0 d33e 5f3b 90be
00000380: 7857 b1be 65f4 7d3e 0a77 0fbe a32a a1bd
00000390: 25c6 173c cd95 96be d6be 00bf 37a2 8ebd
000003a0: a738 c93d b260 d4be 944a 08be 14ec 92be
000003b0: 659c dcbd d817 013e dfbb ebbe 7d18 90bd
000003c0: a6dc 963d b024 2e3d c5e3 33bd fd7b 583c
000003d0: 5b6e d6bd 1c0b c2bd b481 443c fcdc aebe
000003e0: a49a 4ebe 3b64 c2bd fec9 6bbe 614c 02be
000003f0: ba47 0dbd 6097 6c3d 28f9 9a3e c704 9c3e

h_21.bias f4 [32]
0.018608905 0.27379757 -0.1711915 0.11120355 0.13943401 0.19213375 -0.51962614 0.092016354
0.16835962 0.44369122 0.061642867 0.31282943 0.27530307 -0.092474334 0.3733629 0.18711336
-0.07363044 0.2216664 0.29560077 0.6716099 -0.07202895 0.10428186 -0.12616241 0.1587342
-0.44712555 -0.23466064 -0.17031029 0.18929383 0.3577056 0.28863537 0.20255576 -0.22439836
00000000: b471 983c 322f 8c3e d34c 2fbe b0be e33d
00000010: cac7 0e3e b6be 443e 3806 05bf 1273 bc3d
00000020: 7766 2c3e 7f2b e33e 3b7d 7c3d 2e2b a03e
00000030: 86f4 8c3e 2f63 bdbd 6c29 bf3e a59a 3f3e
00000040: 8ecb 96bd 84fc 623e fc58 973e a0ee 2b3f
00000050: ea83 93bd ba91 d53d b830 01be 388b 223e
00000060: a4ed e4be e14a 70be d265 2ebe 3ed6 413e
00000070: 3025 b73e 04c8 933e c76a 4f3e afc8 65be

h_22.weight f4 [32, 32]
-0.2751217 -0.061346624 -0.25026077 0.27404657 -0.31069857 -0.13939512 0.40945706 -0.0039623203
0.12042992 0.086336784 0.49196896 0.0049779783 0.0055680834 0.7332952 0.57306564 0.61128825
0.0714737 0.2816658 0.5156783 -0.1629039 -0.026369708 -0.27623424 -0.88182557 0.11359559
0.012398865 0.06758356 -0.38181144 -0.24234505 0.048973657 0.1133876 -0.07050584 -0.48657748
0.23812342 -0.4009949 -0.049212396 0.33853206 0.121612184 -0.14420018 0.14362293 0.1397949
0.14603026 -0.0605069 -0.003954264 -0.0060854424 0.023753943 0.23952048 -0.23860048 0.1423848
0.37696528 0.31245372 -0.10086806 0.26693934 -0.618856 0.13215962 0.23954436 0.33439043
-0.07463867 0.19912 -0.37138742 -0.10729505 0.5676152 -0.09157549 -0.27718222 -0.8133727
-0.31701118 -0.14812997 -0.50741 -1.5807278 0.55395913 -0.024090104 -0.10228954 0.14249904
0.23101017 0.09812536 0.33827466 -0.7935115 -0.14035979 0.1898086 0.47099993 0.09534461
-0.04172638 -0.04151237 -0.21716733 -0.22831963 0.8687142 0.10241355 0.64547193 0.061814655
0.012828362 -0.17167105 0.5038048 0.14840911 0.31325036 -0.13542716 -0.34222752 0.5754216
-0.068957455 0.3138011 0.093411975 0.27465972 -0.43678573 0.14033435 0.23468183 -0.11885561
-0.17206146 -0.13406971 0.35826772 0.25938368 -0.018571671 -0.25621584 0.056301977 0.40211877
0.096814886 -0.21637955 0.022745587 -0.14756498 -0.27617967 0.40702638 0.2125721 0.18751542
-0.030972011 0.29419437 -0.22425814 0.47430375 0.1555953 0.09277141 0.053019714 0.23455061
0.12627369 0.072558835 -0.15238681 2.283219 -0.10790774 0.22444332 0.035646975 0.52053565
-0.0318092 -0.10794242 0.1637051 -0.571 -0.0059810383 -0.70881504 0.21396767 -0.11414828
0.026189025 -0.17994605 0.20135187 -0.085986815 -0.31875157 -0.024182944 0.5709085 -0.021173352
0.12539025 -0.18074483 0.81113416 -0.27258658 -0.3085517 0.13147137 0.4612299 -0.09164542
0.10419948 -0.23064956 -0.2421053 0.48920414 0.5736512 -0.064699866 0.08966887 0.42861
0.18811072 0.12823753 0.14017457 0.36841148 0.15906246 0.21525745 0.489243 0.3325232
0.6293557 -0.0005313147 -0.323525 0.014775722 -0.2776699 0.3536465 0.4923318 0.1299885
-0.12086694 -0.061567236 -0.37939197 0.21647194 0.5778483 -0.052675363 -0.16760154 -0.16818355
0.30153102 -0.043436747 0.22966081 1.3124396 -0.28272426 -0.085337445 -0.08321298 -0.06995758
0.3009287 -0.021477485 0.05108215 -0.43543798 0.082136005 0.2083739 0.056297604 -0.20395704
0.12829822 0.31690615 -0.13668878 0.050693497 -0.26543546 0.19142988 -0.23298924 0.035637178
0.121245205 -0.10220617 -0.13026506 0.0694328 0.16990277 -0.0323299 0.23335893 -0.5462989
0.020956267 0.14684017 -0.007391903 -0.29050452 -0.062268674 0.034577917 0.26570806 -0.087467946
0.23106788 0.14902607 0.036495507 0.32153985 -0.14999457 0.6021356 0.23871514 -0.12382849
0.37949434 -0.24522012 0.20537831 0.039298266 -0.038143873 -0.3933349 0.3751402 0.09435168
0.0135963205 0.4933574 -1.029155 -0.2662965 0.36485818 -0.10615379 0.039473385 -0.26389983
00000000: c0dc 8cbe 9946 7bbd 2e22 80be d54f 8c3e
00000010: e213 9fbe 98bd 0ebe 5ba4 d13e 5ad6 81bb
00000020: f6a3 f63d 57d1 b03d 5be3 fb3e 4f1e a33b
00000030: 7874 b63b 3cb9 3b3f 6eb4 123f 637d 1c3f
00000040: ce60 923d 8036 903e 7e03 043f 48d0 26be
00000050: 4905 d8bc 936e 8dbe 52bf 61bf cea4 e83d
00000060: 9c24 4b3c 4069 8a3d ca7c c3be 4d29 78be
00000070: 9a98 483d c237 e83d 5e65 90bd af20 f9be
00000080: a0d6 733e 344f cdbe f092 49bd 1354 ad3e
00000090: cf0f f93d 36a9 13be e411 133e 6526 0f3e
000000a0: f588 153e 15d6 77bd c592 81bb 6468 c7bb
000000b0: a197 c23c db44 753e af53 74be 52cd 113e
000000c0: 9801 c13e eff9 9f3e ea93 cebd 46ac 883e
000000d0: 596d 1ebf da54 073e 1e4b 753e 3935 ab3e
000000e0: 29dc 98bd 1de6 4b3e 7e26 bebe 82bd dbbd
000000f0: 3b4f 113f ee8b bbbd d4ea 8dbe 3139 50bf
00000100: 4a4f a2be 62af 17be 9fe5 01bf 4a55 cabf
00000110: 44d0 0d3f 9c58 c5bc 2e7d d1bd 45eb 113e
00000120: ee8d 6c3e f3f5 c83d 5632 ad3e 9223 4bbf
00000130: 7aba 0fbe 305d 423e e726 f13e 0944 c33d
00000140: 48e9 2abd e008 2abd 1d61 5ebe 9fcc 69be
00000150: 0e64 5e3f 32be d13d a63d 253f 5d31 7d3d
00000160: 0d2e 523c 89ca 2fbe 5af9 003f 8ff8 173e
00000170: 5a62 a03e 6bad 0abe 7238 afbe d44e 133f
00000180: 9139 8dbd 8aaa a03e c74e bf3d 33a0 8c3e
00000190: 61a2 dfbe cfb3 0f3e 6f50 703e 926a f3bd
000001a0: e130 30be 9249 09be de6e b73e f0cd 843e
000001b0: 9e23 98bc b92e 83be e79c 663d 83e2 cd3e
000001c0: e246 c63d 9a92 5dbe f454 ba3c 461b 17be
000001d0: 6c67 8dbe c365 d03e 80ac 593e 0b04 403e
000001e0: 04b9 fdbc a5a0 963e eda3 65be f1d7 f23e
000001f0: 6054 1f3e f0fe bd3d 332b 593d 092e 703e
00000200: e44d 013e ba99 943d 4a0b 1cbe 4320 1240
00000210: bcfe dcbd 78d4 653e 9002 123d d341 053f
00000220: 5d4a 02bd ea10 ddbd 4fa2 273e 0e2d 12bf
00000230: 96fc c3bb e774 35bf 571a 5b3e 93c6 e9bd
00000240: 5e8a d63c c743 38be 2f2f 4e3e db19 b0bd
00000250: 6833 a3be 4f1b c6bc 0f27 123f bd73 adbc
00000260: 4d66 003e 2c15 39be 7da6 4f3f 7890 8bbe
00000270: 7dfa 9dbe 6ea0 063e 5326 ec3e 98b0 bbbd
00000280: 8966 d53d 662f 6cbe 74ea 77be f778 fa3e
00000290: ceda 123f 5d81 84bd 50a4 b73d c572 db3e
000002a0: 19a0 403e b350 033e ec89 0f3e 6ea0 bc3e
000002b0: 45e1 223e 736c 5c3e 0f7e fa3e 7b40 aa3e
000002c0: 751d 213f ed47 0bba 12a5 a5be df15 723c
000002d0: c02a 8ebe 2711 b53e ea12 fc3e b51b 053e
000002e0: 1689 f7bd ed2d 7cbd aa3f c2be d2aa 5d3e
000002f0: deed 133f 1fc2 57bd bd9f 2bbe 4f38 2cbe
00000300: 4662 9a3e bbea 31bd 342c 6b3e 05fe a73f
00000310: 3cc1 90be 66c5 aebd 916b aabd eb45 8fbd
00000320: 5413 9a3e 8df1 afbc 843b 513d baf1 debe
00000330: ec36 a83d f85f 553e 5198 663d 1dda 50be
00000340: 9c60 033e 8641 a23e 25f8 0bbe fca3 4f3d
00000350: 28e7 87be 3206 443e bb94 6ebe 4af8 113d
00000360: 684f f83d 7851 d1bd 3464 05be c932 8e3d
00000370: fefa 2d3e 5b6c 04bd a5f5 6e3e 3fda 0bbf
00000380: 7aac ab3c 455d 163e c737 f2bb 02bd 94be
00000390: 700d 7fbd 93a1 0d3d e30a 883e 6522 b3bd
000003a0: 0f9d 6c3e 4a9a 183e 507c 153d dfa0 a43e
000003b0: 2d98 19be 8f25 1a3f be71 743e cb99 fdbd
000003c0: 154d c23e fc1a 7bbe b14e 523e 38f7 203d
000003d0: c03c 1cbd 3163 c9be 6012 c03e 743b c13d
000003e0: 1ac3 5e3c 5799 fc3e 5abb 83bf 0458 88be
000003f0: b1ce ba3e 2967 d9bd d8ae 213d e11d 87be

h_22.bias f4 [32]
-0.1688495 0.1391781 -0.28024554 -0.035295032 0.043065917 -0.18932477 0.17765467 -0.14048716
0.12556584 -0.04851608 0.122270405 0.032646477 -0.0815388 0.013659494 0.01742628 -0.15026739
0.24411342 0.14805192 0.24945548 0.12185512 -0.048156466 -0.019295886 -0.060068574 -0.39493445
0.20453992 0.033301823 -0.31057402 0.12241866 0.018064901 0.035499997 0.1489913 0.13051257
00000000: e2e6 2cbe b484 0e3e 587c 8fbe 8691 10bd
00000010: e365 303d 5ade 41be 1beb 353e dedb 0fbe
00000020: 5594 003e ccb8 46bd e868 fa3d 50b8 053d
00000030: d0fd a6bd 12cc 5f3c 8fc1 8e3c b2df 19be
00000040: def8 793e ec9a 173e 4271 7f3e 2d8f f93d
00000050: b73f 45bd 6812 9ebc 770a 76bd d934 cabe
00000060: ea72 513e 7e67 083d 8f03 9fbe a2b6 fa3d
00000070: d8fc 933c 7268 113d 2d91 183e 16a5 053e

h_32.weight f4 [64, 64]
-0.0031947743 0.2038539 -0.5011908 -0.067137256 0.16084312 -0.19665734 -0.31767133 -0.2063261
-0.019509483 0.053979613 -0.02974799 0.10745235 -0.05462956 -0.099004656 -0.100004904 -0.04432913
0.09654065 0.33178174 -0.013382046 0.072384246 0.07758547 -0.13723797 0.27729622 0.056851044
-0.0076923235 0.19109422 0.0014128307 -0.13020274 0.11931495 0.06166104 -0.018221503 -0.32757849
0.16591404 0.19783017 -0.55988544 0.12567523 -0.047837872 -0.2566173 0.08953364 -0.10561227
0.21085098 -0.111234605 -0.5091065 -0.18734646 0.12205733 0.5840456 0.06239594 0.03677833
-0.048788268 0.11497885 0.25199905 0.2304534 0.21107024 -0.06924452 0.0047288537 -0.12110343
-0.27989104 -0.10555063 0.85377693 -0.20961188 -0.22881225 0.3096481 -0.06094089 -0.16287535
-0.30309772 -0.09752924 -0.6585104 -0.039524343 0.038171843 -0.20672628 -0.7606001 0.108994186
-0.23320836 0.055204228 0.123499975 0.09446135 -0.012512706 -0.07468562 -0.09123485 -0.2003048
-0.03606998 0.056077626 0.14422247 0.0014966257 0.15466613 -0.15597163 0.03262949 -0.08724079
0.101350464 -0.18032756 -0.008852659 -0.0023324143 -0.13041796 -0.20601471 0.01633417 0.2129214
0.10175119 0.21850654 0.119464055 -0.11338504 -0.29633883 0.20620212 0.030175002 -0.48109505
-0.4277175 -0.09674412 -0.7507752 0.04403754 -0.16327406 -0.022425463 0.044520386 0.0157229
0.1933474 0.057756137 0.15433495 -0.1756233 0.18018022 -0.015038407 0.04331015 -0.50226885
0.48623568 -0.5739316 0.2959511 0.07075702 0.0571364 0.14931089 -0.022573827 0.04458682
-0.05448442 -0.02631798 -0.39557862 -0.26373434 -0.044846885 0.3320251 -0.389554 0.27987304
0.011914982 0.042692438 -0.1769409 0.02287177 -0.06022386 -0.18496409 -0.25738496 0.07302261
0.04976459 0.28076467 0.31244126 -0.055225622 -0.185307 0.0025454299 0.08915984 -0.25110856
0.11726205 -0.43442357 -0.025932522 -0.06874382 0.38023642 -0.47718316 0.32089457 -0.50471586
0.15346469 0.38573572 0.09585146 0.02796295 -0.42170173 0.04758696 0.12032063 -0.23862867
0.07935785 0.061177 0.30309132 0.1762536 0.035744205 -0.23849455 0.021150747 0.069396034
0.19896519 0.09261097 0.13071042 -0.0049990774 0.04198188 0.25980297 -0.08289087 -0.49133426
-0.15210155 -0.6350999 0.12763245 -0.30953908 -0.21141458 0.18075651 -0.11467366 0.22950792
0.039260354 0.15540056 -0.52303654 -0.10232565 0.08330567 0.4469153 0.06768371 0.40246585
0.22414549 0.19685812 0.56689954 -0.19844405 0.18069807 0.12060138 0.1325978 -0.10294808
-0.14613894 0.009670068 0.18071416 0.26623374 -0.376497 -0.30641136 -0.01591008 -0.10157941
-0.56218934 -0.28676733 0.06278177 -0.098432206 -0.03195694 0.07619445 0.059541054 0.08877744
0.16400634 0.39317507 0.17001607 0.22203234 -0.111738645 0.69444746 0.06072172 0.29329413
-0.04898785 0.06369169 -0.13996032 0.08712865 -0.14431189 0.23792356 -0.10441244 -0.00013808906
0.061806686 -0.025637234 0.2729811 -0.021457355 0.1228721 0.22480983 -0.12164651 0.17356016
0.36704296 -0.28286123 -0.11822875 0.05596298 0.1042674 0.16335279 -0.03354837 0.29305106
00000000: 6b5f 51bb 14bf 503e 0a4e 00bf 427f 89bd
00000010: 0fb4 243e 8b60 49be d1a5 a2be 2647 53be
00000020: 5ad2 9fbc ba19 5d3d 0fb2 f3bc fa0f dc3d
00000030: 3fc3 5fbd f4c2 cabd 5fcf ccbd 7692 35bd
00000040: 1bb7 c53d 4cdf a93e 5e40 5bbc 313e 943d
00000050: 22e5 9e3d 1c88 0cbe c5f9 8d3e a4dc 683d
00000060: e30f fcbb 34ae 433e bb2e b93a de53 05be
00000070: 665b f43d 4990 7c3d 4345 95bc 5eb8 a7be
00000080: 5fe5 293e fe93 4a3e a754 0fbf 02b1 003e
00000090: a5f1 43bd 5863 83be 6a5d b73d 3f4b d8bd
000000a0: 52e9 573e f8ce e3bd ce54 02bf c0d7 3fbe
000000b0: 32f9 f93d 0384 153f e392 7f3d e0a4 163d
000000c0: 35d6 47bd 087a eb3d 0506 813e fafb 6b3e
000000d0: cc22 583e 12d0 8dbd 80f4 9a3b 1305 f8bd
000000e0: e14d 8fbe ee2a d8bd 2091 5a3f 7fa4 56be
000000f0: c24d 6abe 328a 9e3e 289d 79bd ccc8 26be
00000100: a02f 9bbe 69bd c7bd 2394 28bf 47e4 21bd
00000110: 145a 1c3d 0eb0 53be b0b6 42bf 5838 df3d
00000120: 2cce 6ebe d41d 623d 8eed fc3d f474 c13d
00000130: 1802 4dbc c6f4 98bd 56d9 babd b41c 4dbe
00000140: 1ebe 13bd a7b1 653d 0eaf 133e 6d2a c43a
00000150: cc60 1e3e 07b7 1fbe 80a6 053d 4dab b2bd
00000160: d590 cf3d caa7 38be be0a 11bc 6bdb 18bb
00000170: 498c 05be 85f5 52be 3dcf 853c 1108 5a3e
00000180: ee62 d03d 2ec0 5f3e 92a9 f43d 6a36 e8bd
00000190: b9b9 97be a626 533e 9131 f73c 1752 f6be
000001a0: cafd dabe c821 c6bd ce32 40bf b560 343d
000001b0: 5131 27be 9bb5 b7bc 025b 363d 50cd 803c
000001c0: dcfc 453e b391 6c3d fb09 1e3e 98d6 33be
000001d0: 2a81 383e a763 76bc fc65 313d b194 00bf
000001e0: e2f3 f83e 2eed 12bf e786 973e 0ee9 903d
000001f0: dc07 6a3d f4e4 183e bfec b8bc aba0 363d
00000200: 0e2b 5fbd ce98 d7bc 4889 cabe 3008 87be
00000210: 5eb1 37bd 32ff a93e 9f73 c7be 854b 8f3e
00000220: 0f37 433c 44de 2e3d ff2f 35be 945d bb3c
00000230: 4bad 76bd 3a67 3dbe f6c7 83be e18c 953d
00000240: f4d5 4b3d 63c0 8f3e 4df8 9f3e 4334 62bd
00000250: 1ec1 3dbe 3ad1 263b 6f99 b63d 4d91 80be
00000260: 1627 f03d c46c debe 7170 d4bc 8fc9 8cbd
00000270: 59ae c23e 5a51 f4be 4b4c a43e 0f35 01bf
00000280: d925 1d3e 277f c53e c54d c43d 8e12 e53c
00000290: 4ae9 d7be 8bea 423d aa6a f63d 135b 74be
000002a0: 5e86 a23d bc94 7a3d c92e 9b3e d37b 343e
000002b0: 8468 123d ea37 74be 5544 ad3c 821f 8e3d
000002c0: 88bd 4b3e d2aa bd3d f4d8 053e 4dcf a3bb
000002d0: 31f5 2b3d e504 853e b0c2 a9bd 2a90 fbbe
000002e0: 82c0 1bbe e895 22bf 15b2 023e e87b 9ebe
000002f0: 107d 58be 3c18 393e 06da eabd 2004 6b3e
00000300: 77cf 203d 5321 1f3e b9e5 05bf 1c90 d1bd
00000310: 2a9c aa3d 15d2 e43e c29d 8a3d 0110 ce3e
00000320: 6586 653e 2d95 493e 5420 113f eb34 4bbe
00000330: ea08 393e dbfd f63d b8c7 073e 71d6 d2bd
00000340: 72a5 15be 346f 1e3c 220d 393e ca4f 883e
00000350: 37c4 c0be f3e1 9cbe db55 82bc de08 d0bd
00000360: a4eb 0fbf 2bd3 92be bb93 803d d396 c9bd
00000370: 48e5 02bd d60b 9c3d 52e1 733d f2d0 b53d
00000380: 47f1 273e 3e4e c93e b118 2e3e 725c 633e
00000390: 3bd7 e4bd 4fc7 313f 57b7 783d a62a 963e
000003a0: 7ca7 48bd ca70 823d c251 0fbe 8170 b23d
000003b0: 7fc6 13be 3ca2 733e 30d6 d5bd 00cc 10b9
000003c0: 0229 7d3d 2d05 d2bc 2ec4 8b3e 56c7 afbc
000003d0: 5ea4 fb3d 8c34 663e ce21 f9bd c1b9 313e
000003e0: 0eed bb3e 30d3 90be ea21 f2bd 7039 653d
000003f0: 268a d53d f445 273e 046a 09bd ca0a 963e

h_32.bias f4 [64]
0.12268216 0.12512165 0.063927084 0.17045835 -0.10038274 0.11605533 0.25646046 -0.08841105
-0.053661775 0.3301832 -0.09164445 0.16393422 0.4543049 0.07092047 0.5599487 -0.15404303
-0.23432624 0.24536876 -0.040954236 -0.13168819 0.080076806 0.22257952 0.22029811 0.024395669
0.08544108 0.15404627 0.062434357 0.21197894 0.022558162 -0.16049194 0.082752235 0.05105058
-0.014981712 -0.135918 0.13727407 -0.013352608 -0.12723714 -0.09883841 0.40963235 0.01283998
-0.08204737 0.28404835 -0.03825699 0.061607167 0.010708296 -0.11021794 0.041318893 0.13097508
0.20741133 -0.18893687 0.22951387 0.1357982 0.20628184 0.13457185 0.8174858 0.37362775
-0.1685791 0.09246485 -0.22002779 0.0760815 -0.10198003 0.1915522 0.15762116 0.2037591
00000000: c940 fb3d e41f 003e 34ec 823d a28c 2e3e
00000010: 7795 cdbd 6bae ed3d c94e 833e da10 b5bd
00000020: 73cc 5bbd c60d a93e 16b0 bbbd 5fde 273e
00000030: a79a e83e c03e 913d cc58 0f3f 75bd 1dbe
00000040: 38f3 6fbe f341 7b3e a1bf 27bd 45d9 06be
00000050: 4fff a33d e3eb 633e d495 613e 6dd9 c73c
00000060: bcfb ae3d 4ebe 1d3e 2bbb 7f3d 0211 593e
00000070: e5cb b83c 0058 24be 017a a93d 6a1a 513d
00000080: db75 75bc 172e 0bbe 9391 0c3e e6c4 5abc
00000090: 744a 02be cb6b cabd 55bb d13e c85e 523c
000000a0: 7408 a8bd c96e 913e 5db3 1cbd cc57 7c3d
000000b0: d971 2f3c f1b9 e1bd 003e 293d 551e 063e
000000c0: a363 543e ab78 41be af05 6b3e af0e 0b3e
000000d0: 8c3b 533e 34cd 093e c046 513f 234c bf3e
000000e0: 00a0 2cbe 365e bd3d f74e 61be 9ed0 9b3d
000000f0: e8da d0bd 4326 443e 7167 213e 3aa6 503e

h_33.weight f4 [12, 64]
-0.84726113 0.7967665 0.2725439 0.120923966 0.07804056 -0.28514868 -0.0849191 0.6831441
1.2397017 -0.21093106 -0.26355115 -0.8065523 0.5913295 -0.08901908 -0.055456262 -0.1685316
-0.11749546 -0.51246977 -0.03259499 -0.09840478 0.6118721 -0.034053367 0.34223375 0.30712068
0.36271194 1.2316505 -0.009468051 -0.26193804 0.2676018 -0.53171986 0.18110223 0.26491785
-0.15968049 0.46238354 -0.13579378 -1.017612 0.25900972 -0.5155776 -0.3163379 -1.1400512
0.41266507 -0.34651208 -0.6339607 0.9649973 -0.03814641 -0.08882281 0.5790128 0.117433526
-0.14284341 0.2290196 0.23039578 0.5968697 -0.2225455 1.1617899 0.12517162 -0.1644917
0.12280315 0.11316722 1.3813945 0.112656325 0.4524167 -1.0240831 0.05682812 0.6311792
-0.32959962 -0.13866735 0.18335466 0.048595235 0.09066722 0.32516235 0.017408663 -0.123788126
-1.2925768 0.8639592 -1.2105067 0.8460443 -0.41542792 0.9379171 -0.15832207 0.3910606
-0.34012643 0.88342 0.2743223 0.22258405 -0.81770694 -0.1433787 0.2354126 0.073851824
-0.9132549 -0.10559171 -0.013906364 -0.16914198 -0.31420314 0.39034423 0.16509661 -0.32430118
0.12766598 -0.115915045 0.10278926 0.70490897 -0.19953218 0.64975864 -0.2553816 0.7569711
0.075316876 0.1583622 0.80916595 -0.029567035 0.38126126 1.051785 -0.5939418 0.19256598
-0.018802874 -0.39089853 -0.40635774 -1.2151752 0.042833313 -0.45279557 -0.085980915 0.016063996
-0.28388557 -0.007316889 -0.12967457 -0.59376955 0.16944265 0.3802185 0.76694417 0.06727836
0.07022474 -0.036795106 -0.25939026 -0.13927485 -0.064538985 -0.37663454 0.18851194 0.031517997
0.5374401 -0.39976665 0.4255239 -0.33337152 0.28520587 -0.50651205 0.058052618 -0.3098065
0.4353225 -0.5789263 -0.02366995 -0.0036554062 -0.03008795 -0.029771686 0.08144207 -0.295897
0.47651982 0.21921259 0.03874539 0.24512762 0.008912502 -0.45440036 -0.014158295 -0.0883612
-0.015254323 0.58377457 0.013546496 0.043350525 0.3575851 -0.13206221 -0.04842998 -0.4861533
-0.09444815 0.077867866 -0.3528401 0.90990204 -0.26907474 0.07324189 0.30850345 -0.22871079
0.10109609 0.31347036 0.15289977 0.7108562 -0.02893452 0.13392453 -0.08622627 -0.17099378
-0.042883832 0.3753261 0.25381023 0.36633098 0.307791 0.041419417 -0.65504724 -0.9937321
0.31500903 0.06302992 0.29057685 0.37634942 0.19380723 -0.04372531 0.081009425 -0.098040044
-0.16227616 0.124407426 0.2017104 -0.022009483 -0.22949824 -0.17904152 0.26576373 -0.08016245
-0.13977355 -0.058097553 0.1664603 0.031155786 0.17720942 -0.1526658 -0.15641879 0.12755625
-0.17210902 0.1364743 0.020738745 0.21993168 -0.14902201 -0.3002072 0.21018025 0.17700279
0.30298534 -0.04026482 0.32494676 0.20766236 -0.036170334 0.14160275 0.32333633 -0.14688931
-0.3708224 -0.4760285 0.14107473 -0.1515547 0.39282402 -0.51631075 -0.009222646 0.2276906
-0.04934732 0.17739654 0.0353307 -0.3684958 0.11817359 0.37834746 -0.21222362 -0.18184586
-0.55744225 0.4489831 -0.27196532 -0.05240978 -0.5930046 0.015115758 0.22610949 -0.3603297
00000000: 1be6 58bf e4f8 4b3f e08a 8b3e fca6 f73d
00000010: bbd3 9f3d 02ff 91be 11ea adbd 88e2 2e3f
00000020: 8cae 9e3f 50fe 57be 2df0 86be 367a 4ebf
00000030: 5f61 173f a34f b6bd 1b26 63bd 8c93 2cbe
00000040: 76a1 f0bd 3831 03bf 5382 05bd 7288 c9bd
00000050: a6a3 1c3f 8b7b 0bbd 4339 af3e ec3e 9d3e
00000060: 61b5 b93e b9a6 9d3f e21f 1bbc be1c 86be
00000070: 1a03 893e cb1e 08bf dd72 393e 50a3 873e
00000080: 4883 23be 89bd ec3e 860d 0bbe 1c41 82bf
00000090: ec9c 843e e5fc 03bf 0bf7 a1be 33ed 91bf
000000a0: d648 d33e 086a b1be 404b 22bf 100a 773f
000000b0: 693f 1cbd bce8 b5bd 2f3a 143f fd80 f03d
000000c0: 8b45 12be 1d84 6a3e dfec 6b3e 74cc 183f
000000d0: f8e2 63be 88b5 943f fd2c 003e 8370 28be
000000e0: 3880 fb3d 37c4 e73d 89d1 b03f 5cb8 e63d
000000f0: 29a3 e73e 2815 83bf 9ac4 683d f694 213f
00000100: 48c1 a8be d0fe 0dbe 53c1 3b3e cc0b 473d
00000110: bcaf b93d ae7b a63e 9d9c 8e3c a184 fdbd
00000120: 2873 a5bf 6e2c 5d3f e2f1 9abf 5c96 583f
00000130: f8b2 d4be 561b 703f 2e1f 22be 1839 c83e
00000140: 0d25 aebe d027 623f f973 8c3e 13ed 633e
00000150: 3e55 51bf ded1 12be 0010 713e a03f 973d
00000160: 13cb 69bf 7740 d8bd 85d7 63bc 8e33 2dbe
00000170: 3cdf a0be 33db c73e 160f 293e ce0a a6be
00000180: dfba 023e de64 edbd 2d83 d23d ea74 343f
00000190: 2a52 4cbe 9556 263f 61c1 82be dcc8 413f
000001a0: bc3f 9a3d b329 223e 8025 4f3f 9136 f2bc
000001b0: ad34 c33e e4a0 863f 920c 18bf 0430 453e
000001c0: 7c08 9abc da23 c8be 1f0e d0be dc8a 9bbf
000001d0: fc71 2f3d d2d4 e7be c316 b0bd a498 833c
000001e0: 7359 91be 83c2 efbb 69c9 04be 4801 18bf
000001f0: 6082 2d3e 00ac c23e 7456 443f 3dc9 893d
00000200: fdd1 8f3d 77b6 16bd cdce 84be 119e 0ebe
00000210: 042d 84bd 3ed6 c0be 4609 413e 0419 013d
00000220: ad95 093f 37ae ccbe 45de d93e acaf aabe
00000230: 8106 923e c6aa 01bf 95c8 6d3d f59e 9ebe
00000240: 97e2 de3e 8434 14bf 7ce7 c1bc 8a8f 6fbb
00000250: 017b f6bc c0e3 f3bc 1acb a63d d07f 97be
00000260: 68fa f33e 4479 603e 7cb3 1e3d bc02 7b3e
00000270: be05 123c 2aa7 e8be 31f8 67bc b8f6 b4bd
00000280: 45ed 79bc 4072 153f 1ff2 5d3c 5290 313d
00000290: 6515 b73e 513b 07be 845e 46bd 16e9 f8be
000002a0: 086e c1bd 3079 9f3d 75a7 b4be 57ef 683f
000002b0: 2ac4 89be d8ff 953d 2af4 9d3e 2933 6abe
000002c0: 780b cf3d 307f a03e c291 1c3e acfa 353f
000002d0: 1608 edbc 8323 093e 6697 b0bd fe18 2fbe
000002e0: f5a6 2fbd be2a c03e 6af3 813e bc8f bb3e
000002f0: c896 9d3e 68a7 293d 2db1 27bf 3a65 7ebf
00000300: dd48 a13e d515 813d 7dc6 943e dfb0 c03e
00000310: 6775 463e 5019 33bd 45e8 a53d 38c9 c8bd
00000320: b92b 26be 52c9 fe3d 2c8d 4e3e 3b4d b4bc
00000330: 9601 6bbe a956 37be 2f12 883e 362c a4bd
00000340: cc20 0fbe b3f7 6dbd 9274 2a3e 6b3a ff3c
00000350: 6376 353e 6c54 1cbe 3f2c 20be 1b9e 023e
00000360: 593d 30be ebbf 0b3e 4de4 a93c c535 613e
00000370: 3a99 18be c2b4 99be 7e39 573e 3840 353e
00000380: e520 9b3e b9ec 24bd 6c5f a63e 71a5 543e
00000390: 5827 14bd 5000 113e 578c a53e 276a 16be
000003a0: 6fdc bdbe 02ba f3be e575 103e 2831 1bbe
000003b0: 3b20 c93e f12c 04bf 951a 17bc ba27 693e
000003c0: 6a20 4abd 70a7 353e edb6 103d 7bab bcbe
000003d0: ff04 f23d c2b6 c13e 2651 59be cd35 3abe
000003e0: 89b4 0ebf 1de1 e53e 0a3f 8bbe a3ab 56bd
000003f0: 26cf 17bf 16a8 773c 3f89 673e 227d b8be

h_33.bias f4 [12]
-0.15043709 -0.2642778 -0.108199455 0.04289614 -0.5515118 0.24507134 -0.06334322 -0.19060855
0.14607167 -0.018442195 0.06130834 -0.066199325
00000000: 2e0c 1abe 6b4f 87be ad97 ddbd ddb3 2f3d
00000010: e12f 0dbf fbf3 7a3e 17ba 81bd e32e 43be
00000020: d093 153e 1614 97bc 741e 7b3d 8393 87bd

h_34.weight f4 [6, 6]
-0.10429583 -0.6797737 0.4284056 0.099563316 0.36278242 -0.020712182 0.29838726 -0.21444784
0.530278 -0.026553014 -0.23677064 -0.31336147 0.617158 -0.8092436 -0.32587567 0.24567044
-0.08992096 0.20921275 0.35273567 -0.005774679 0.43522456 0.08170242 0.39475295 0.28310806
-0.11692613 0.31412867 -0.06709699 0.7547329 0.016292406 0.37128347 0.0330336 -0.47909454
0.2622181 -0.30158415 -0.27087456 0.22280765
00000000: 0d99 d5bd a605 2ebf fb57 db3e dae7 cb3d
00000010: 9ebe b93e 98ac a9bc 37c6 983e 3798 5bbe
00000020: 4dc0 073f b585 d9bc 0174 72be ea70 a0be
00000030: 11fe 1d3f 972a 4fbf 2dd9 a6be 0891 7b3e
00000040: 7b28 b8bd de3b 563e c599 b43e 8539 bdbb
00000050: c1d5 de3e 9953 a73d 0f1d ca3e 8af3 903e
00000060: f876 efbd 79d5 a03e 266a 89bd 2d36 413f
00000070: a777 853c de18 be3e 3d4e 073d e14b f5be
00000080: 7341 863e 3d69 9abe 12b0 8abe b027 643e

h_34.bias f4 [6]
-0.1678239 0.31086662 0.53224874 -0.20215026 0.71297514 0.057484247
00000000: 07da 2bbe e929 9f3e 7441 083f 7a00 4fbe
00000010: 8a85 363f 9a74 6b3d

h_35.weight f4 [6, 6]
-0.39923072 -0.12753743 -0.11704393 0.17177334 0.1020128 0.45344606 -0.30062386 -0.00088867714
0.09510856 0.47379327 0.12475292 -0.06695629 0.4344186 -0.3805719 -0.1653432 -0.16538805
0.35839218 -0.10502015 -0.3067856 0.34148738 0.20692754 -0.27089414 0.63429415 -0.061430145
0.04361325 -0.68326175 -0.052003663 0.4532275 -0.16598286 0.08472387 0.041850694 0.16170195
-0.22081454 -0.030250402 0.42501876 0.3436335
00000000: f867 ccbe 2c99 02be bab4 efbd 5ae5 2f3e
00000010: 16ec d03d 152a e83e 5feb 99be 1df6 68ba
00000020: 47c8 c23d 0895 f23e 757e ff3d 6120 89bd
00000030: 1d6c de3e 52da c2be ba4f 29be 7c5b 29be
00000040: 2e7f b73e ce14 d7bd 0113 9dbe 6fd7 ae3e
00000050: d0e4 533e a3b2 8abe 1a61 223f 2d9e 7bbd
00000060: cfa3 323d 3eea 2ebf cb01 55bd 6f0d e83e
00000070: 69f7 29be b583 ad3d a26b 2b3d 3295 253e
00000080: 351d 62be b1cf f7bc 0f9c d93e bbf0 af3e

h_35.bias f4 [6]
-0.50998616 -0.79401696 0.4250914 0.01182899 0.7686895 -0.6101084
00000000: 748e 02bf b244 4bbf 94a5 d93e 61ce 413c
00000010: d6c8 443f 1030 1cbf

model.0.weight f4 [64, 18]
-0.01124688 -0.0011250892 0.0005617619 0.0026045097 0.0015730158 -0.0006795255 0.0021984682 0.001043736
-0.00078050426 0.001462486 0.004231194 -0.0032563389 -0.023319392 0.026351416 0.46019536 -0.48754245
0.06920812 1.1013212 -0.009308479 0.015688485 0.0052402853 -0.007161543 -0.0038414397 -0.0002259812
-0.006177207 -0.003989693 -0.00318957 -0.009516607 0.007712434 -0.00496445 0.31437308 -0.8093731
-0.73624843 0.50083053 -0.60713005 -0.61015743 0.0099810865 -0.02841989 0.018493319 0.0024128112
0.0027154002 0.0023930478 -0.000976924 0.0019784723 -0.009322905 0.006758534 0.007685177 0.00558165
0.53493655 -0.30110985 0.3270539 0.08928919 0.4917659 0.2470005 -0.005629172 -0.0108063165
0.0030475198 0.0023612936 0.00046193303 -0.0018381564 0.007911843 0.00048488297 0.010691803 -0.0025438936
0.005504215 -0.017819185 0.75939703 0.9359004 0.21258567 0.21285251 -0.15307339 0.81109965
0.021899432 -0.026669344 -0.0045412723 0.0054069534 -0.000935381 0.00016304447 -0.0092060305 -0.003861996
0.003369792 0.0134346355 -0.022887763 0.0030923814 -0.49953973 0.10370611 0.054420736 0.20921926
-0.21815835 -0.15082629 0.004226689 -0.004689366 0.002132357 -0.0024457322 -0.0024097636 0.005277938
-0.0014108374 -0.0047577904 0.002871347 -0.0024717045 -0.0019126477 0.0068133157 0.1173475 0.012581321
-0.0077179936 0.06986582 0.026971217 -0.03037086 0.01984795 -0.009917997 0.01442443 0.007418979
3.1627264e-05 -0.0007978971 0.0012201432 -0.005317126 -0.0011089426 0.007159231 -0.0108101675 -0.0017454498
-0.25675333 0.09650454 -0.801993 -0.3202758 -0.83401835 0.61004156 0.008755273 0.0016685865
0.013929356 0.0051752217 8.99967e-05 -0.002320998 -0.0028202455 -0.0008536073 0.00056725903 0.0030658343
0.0049307356 -0.011201353 -0.041767497 0.33937824 0.25514054 -0.35006157 -0.9873354 0.30028823
-0.0081060175 -0.012418954 -0.006989492 -0.0010787576 -0.0014526346 -0.0011968034 0.0013553778 -0.0029784932
0.007745094 0.02564098 0.0070061116 3.5350422e-05 0.10752796 -0.31370458 0.03876898 -0.04125462
0.09376166 0.19938026 0.0020942388 0.0027441655 -0.004484955 2.2052673e-05 -0.000616176 0.0015692383
-0.0016468829 0.00018543654 0.0028246858 -0.0028123974 -0.0033821722 0.0076035233 0.09344972 -0.65196997
-0.38298464 0.73483604 1.0667405 -0.5589281 -0.0040018745 0.009012908 -0.015364417 0.0004028696
-0.0018615782 -0.00094955286 -0.005493633 0.0029205242 0.005502126 -0.0069752918 0.0035174806 0.0073405188
-0.0975111 0.21538259 0.044924047 -0.15713415 -0.3833174 -0.14274314 -0.0017065301 -0.009914379
-0.0131690465 0.003497467 0.00221617 -0.00010023155 0.00092863117 0.0035105986 -0.0039397227 -0.0074614235
0.0043235505 -0.013315293 0.38477406 -0.40050822 0.060674414 -0.5596317 -0.8261533 -0.1782626
-0.0035357708 -0.009913932 0.0096351495 -0.003669467 -0.0011724724 0.0045037703 0.000970857 -0.002481178
0.0062048244 -0.005966157 0.0029339364 0.011763094 -0.4634034 -0.29819855 0.195132 0.21748209
0.055900488 0.05142688 0.0006852257 0.006056451 -0.0018086062 0.006643204 0.0013989336 0.0011892564
-0.0016912309 -0.005055262 -0.00022704928 -0.019267092 0.0055204714 0.002979515 1.4928916 -0.38722503
-0.69060594 0.04028135 0.41577736 0.55220467 0.037366614 -0.012786798 -0.023532769 -0.0029553818
00000000: d544 38bc bb77 93ba 3443 133a 6cb0 2a3b
00000010: a72d ce3a 2f22 32ba 2d14 103b f8cd 883a
00000020: c19a 4cba e3b0 bf3a d4a5 8a3b 4d68 55bb
00000030: 4f08 bfbc edde d73c ba9e eb3e 2a9f f9be
00000040: fdbc 8d3d 18f8 8c3f 9782 18bc 2385 803c
00000050: b3b6 ab3b 60ab eabb aac0 7bbb 5ef5 6cb9
00000060: 2b6a cabb f8bb 82bb 1b08 51bb 8beb 1bbc
00000070: 96b8 fc3b d3ac a2bb 82f5 a03e 1333 4fbf
00000080: c77a 3cbf 6e36 003f e06c 1bbf 4733 1cbf
00000090: b687 233c d4d0 e8bc 4d7f 973c 4120 1e3b
000000a0: dbf4 313b aed4 1c3b 210c 80ba 42a9 013b
000000b0: 19bf 18bc b176 dd3b f0d3 fb3b 46e6 b63b
000000c0: 9af1 083f 122b 9abe 9c73 a73e 40dd b63d
000000d0: bdc8 fb3e b3ed 7c3e eb74 b8bb fa0c 31bc
000000e0: e6b8 473b efbf 1a3b 9a2f f239 4bee f0ba
000000f0: ada0 013c e437 fe39 ac2c 2f3c 74b7 26bb
00000100: b45c b43b 8af9 91bc d867 423f 2b97 6f3f
00000110: 0fb0 593e 02f6 593e 45bf 1cbe 3aa4 4f3f
00000120: 7066 b33c ab79 dabc f4ce 94bb d02c b13b
00000130: 5b34 75ba ebf6 2a39 e4d4 16bc 8b19 7dbb
00000140: bad7 5c3b f21c 5c3c 1e7f bbbc 8da9 4a3b
00000150: acc3 ffbe de63 d43d 47e8 5e3d 933d 563e
00000160: e764 5fbe 3572 1abe 0a80 8a3b 41a9 99bb
00000170: 04bf 0b3b 9448 20bb 20ed 1dbb 8ef2 ac3b
00000180: d9eb b8ba 3de7 9bbb 352d 3c3b 52fc 21bb
00000190: cfb1 faba 3c42 df3b e353 f03d e321 4e3c
000001a0: 39e7 fcbb d015 8f3d bef2 dc3c 4fcc f8bc
000001b0: 2b98 a23c 187f 22bc 7254 6c3c e81a f33b
000001c0: 84a7 0438 f829 51ba 36ed 9f3a 493b aebb
000001d0: f059 91ba fc97 ea3b 211d 31bc 94c7 e4ba
000001e0: 2c75 83be 2ca4 c53d 6a4f 4dbf 31fb a3be
000001f0: 3a82 55bf af2b 1c3f 4772 0f3c 79b4 da3a
00000200: f437 643c e894 a93b 9cbc bc38 e31b 18bb
00000210: ded3 38bb 9ec4 5fba 1cb4 143a 2aec 483b
00000220: 0292 a13b e185 37bc 6514 2bbd fcc2 ad3e
00000230: c8a1 823e 453b b3be 03c2 7cbf 61bf 993e
00000240: 1acf 04bc de78 4bbc 1c08 e5bb 1965 8dba
00000250: 5466 beba 0fde 9cba efa6 b13a d332 43bb
00000260: 8fca fd3b 080d d23c 8693 e53b 3a45 1438
00000270: 9e37 dc3d e39d a0be 39cc 1e3d 9bfa 28bd
00000280: 1d06 c03d 572a 4c3e 7f3f 093b 75d7 333b
00000290: 88f6 92bb c1fd b837 df86 21ba e6ae cd3a
000002a0: 38dc d7ba be71 4239 5d1e 393b 3350 38bb
000002b0: 6fa7 5dbb fa26 f93b 9162 bf3d 81e7 26bf
000002c0: 9016 c4be 371e 3c3f f48a 883f e915 0fbf
000002d0: 2822 83bb e0aa 133c 09bb 7bbc 3e38 d339
000002e0: 3300 f4ba 6aeb 78ba ef03 b4bb 4466 3f3b
000002f0: 2e4b b43b fd90 e4bb 8885 663b bc88 f03b
00000300: e6b3 c7bd 418d 5c3e 4702 383d c6e7 20be
00000310: 2e42 c4be 422b 12be a6ad dfba eb6f 22bc
00000320: fcc2 57bc c235 653b 2a3d 113b 6733 d2b8
00000330: 626f 733a 1212 663b ca18 81bb f57e f4bb
00000340: 92ac 8d3b 6328 5abc 1b01 c53e 6a0f cdbe
00000350: bc85 783d 0644 0fbf c87e 53bf 798a 36be
00000360: 64b8 67bb 0b6e 22bc bfdc 1d3c 717b 70bb
00000370: a5ad 99ba 5d94 933b 1c81 7e3a 429b 22bb
00000380: d751 cb3b c17f c3bb 4947 403b feb9 403c
00000390: 3643 edbe 7bad 98be afd0 473e a0b3 5e3e
000003a0: e9f7 643d fea4 523d b8a0 333a 3175 c63b
000003b0: c10e edba 3caf d93b 6c5c b73a d3e0 9b3a
000003c0: 4bac ddba 9ca6 a5bb 1414 6eb9 05d6 9dbc
000003d0: 12e5 b43b f743 433b 1217 bf3f 5c42 c6be
000003e0: 8dcb 30bf 0ffe 243d c5e0 d43e 495d 0d3f
000003f0: bc0d 193d b87f 51bc cbc7 c0bc 14af 41bb
