GANs/saved_models/python/RecreatingBestModelNewRerun.pth (torch, 461102 bytes, 58 tensors)

h_11.weight f4 [64, 6]
0.4294208 -0.19379592 -0.045349818 0.762103 -0.25937858 -0.22971015 -0.23088397 0.12675749
0.1266415 -0.28734368 0.23380981 0.16384237 0.45310408 0.10887416 0.019339852 0.11174628
0.5714454 -0.10253134 -0.038900897 0.14430283 -0.39711797 0.48504004 -0.3991069 0.14114372
-0.2959754 0.056307226 0.1910457 -0.42388204 -0.27787384 -0.4021183 0.28300813 -0.112139836
0.36242637 0.34745467 -0.11173972 0.17428334 -0.075909756 0.37164557 0.049771782 -0.16606088
-0.07845774 -0.15526578 0.33585873 0.28496948 0.21024556 -0.440009 0.48804152 0.4779767
0.020825895 -0.35139626 -0.32072276 -0.13147789 -0.3081079 0.38698328 0.10617961 0.009002241
0.2148896 -0.04340508 0.05118357 -0.09768593 0.22837411 -0.1315855 0.40013516 -0.12753119
0.18133983 0.07958757 0.37001723 -0.45739806 -0.37370488 -0.48710722 0.2596956 0.4176829
0.59689915 -0.2469792 -0.5923056 -0.33830112 -0.39805987 0.22369435 0.30789167 0.2677463
-0.11077158 -0.250743 0.15062182 -0.3225231 0.1323471 -0.0914666 0.34826705 -0.353454
-0.23506112 -0.18200013 -0.06565599 -0.30946192 0.19638476 0.12683764 -0.5234906 -0.21192195
0.45916727 -0.31196892 -0.20071833 -0.62511283 -0.35742462 -0.04984982 -0.05911274 -0.5167098
0.06537573 -0.11835427 -0.25524396 -0.041502807 -0.57885486 -0.13002555 0.46454912 0.065561906
0.054581642 -0.2568271 -0.28638166 -0.49440295 0.052192774 -0.41940147 -0.2103931 -0.60153097
-0.06500106 -0.24577677 0.35202318 -0.19843076 -0.47584403 -0.53539073 -0.20354792 -0.4706467
0.6106304 0.0028362863 0.30363855 0.42365956 -0.57070106 0.30683684 -0.40025625 0.016471453
-0.7788599 -0.3328533 0.30507097 -0.48698387 0.5758059 -0.47895455 0.30253035 -0.44304794
-0.0066245594 -0.10841453 0.21628782 0.82810754 0.18750483 -0.36174628 0.12758781 -0.07735708
0.18361692 -0.27294457 0.07174302 -0.31793323 0.19273716 0.15121141 0.036437538 -0.039485693
0.57276005 0.12556364 -0.0057434104 -0.54260534 0.15325718 -0.052108236 -0.18947452 0.42339236
0.12317096 -0.1530189 -0.16348681 0.10639311 0.11610256 -0.011147862 -0.18156967 -0.14221475
-0.5697849 0.17961368 0.24366942 -0.525732 -0.081023954 0.07887748 0.03581663 -0.18870212
0.18410908 0.21889152 0.4632318 -0.03010252 -0.18313725 0.72518563 -0.26250914 -0.07345769
0.41777653 0.25630724 -0.08574535 0.020130167 0.02997956 0.2836102 0.08611721 0.28554887
-0.19771118 0.096654676 0.34128729 0.28102416 0.37009272 -0.28902552 -0.22165692 -0.46791154
-0.44794044 -0.13578482 0.26918945 0.16909786 -0.35215396 -0.07852481 -0.022000212 0.57265455
-0.5596769 -0.18431947 0.21323472 0.07739675 -0.2931361 0.4014952 -0.2896329 -0.048783913
-0.3747499 0.4404936 0.28378955 0.5352031 -0.52962583 -0.54476106 -0.16427216 0.70609903
-0.16993886 0.40442914 0.10178582 0.15727057 -0.113153614 -0.30039123 -0.44604376 -0.25813153
0.29488853 0.009600066 -0.13658401 -0.007992784 -0.14027625 -0.2533771 -0.29051813 0.08623982
-0.34074128 0.37267515 0.0071213646 -0.16630395 -0.19998899 -0.3112662 -0.047733214 -0.64102095
00000000: 0bdd db3e 7072 46be bbc0 39bd 2f19 433f
00000010: 45cd 84be 2339 6bbe d96c 6cbe b7cc 013e
00000020: 4fae 013e b61e 93be d76b 6f3e 4bc6 273e
00000030: 42fd e73e 6af9 de3d 9c6e 9e3c 3cdb e43d
00000040: 3f4a 123f f4fb d1bd 8c56 1fbd 1fc4 133e
00000050: 0c53 cbbe 2b57 f83e bd57 ccbe fb87 103e
00000060: 168a 97be 68a2 663d 7ca1 433e 1107 d9be
00000070: 7b45 8ebe 73e2 cdbe 71e6 903e 92a9 e5bd
00000080: f38f b93e 94e5 b13e cbd7 e4bd 5577 323e
00000090: 9376 9bbd 5448 be3e 7fdd 4b3d dd0b 2abe
000000a0: 74ae a0bd fefd 1ebe adf5 ab3e 85e7 913e
000000b0: 9d4a 573e dc48 e1be 94e0 f93e 5db9 f43e
000000c0: 119b aa3c 36ea b3be c635 a4be 24a2 06be
000000d0: 52c0 9dbe ac22 c63e b274 d93d 237e 133c
000000e0: 050c 5c3e 86c9 31bd dda5 513d 900f c8bd
000000f0: e7da 693e 59be 06be 84de cc3e 8997 02be
00000100: 26b1 393e cffe a23d e672 bd3e 1430 eabe
00000110: 3f56 bfbe 1e66 f9be d2f6 843e 88da d53e
00000120: 62ce 183f 1ee8 7cbe 57a1 17bf ce35 adbe
00000130: 81ce cbbe 2210 653e faa3 9d3e 0b16 893e
00000140: 36dc e2bd 6361 80be 9b3c 1a3e bf21 a5be
00000150: 0086 073e d752 bbbd 0f50 b23e ecf7 b4be
00000160: ddb3 70be 3e5e 3abe a676 86bd cb71 9ebe
00000170: 1619 493e bae1 013e 7b03 06bf 1102 59be
00000180: f917 eb3e 64ba 9fbe 1b89 4dbe 6507 20bf
00000190: 5c00 b7be 532f 4cbd 3320 72bd 1847 04bf
000001a0: b6e3 853d b963 f2bd 56af 82be d9fe 29bd
000001b0: d52f 14bf 6b25 05be 62d9 ed3e 5245 863d
000001c0: 0091 5f3d d77e 83be 9ea0 92be 6222 fdbe
000001d0: 17c8 553d cabb d6be 4a71 57be effd 19bf
000001e0: 471f 85bd e8ac 7bbe 623c b43e 6f31 4bbe
000001f0: d4a1 f3be 5e0f 09bf de6e 50be 9bf8 f0be
00000200: 4652 1c3f fde0 393b 8376 9b3e e8e9 d83e
00000210: 7719 12bf b819 9d3e 63ee ccbe 24ef 863c
00000220: 5d63 47bf bf6b aabe 4332 9c3e f355 f9be
00000230: 0468 133f 8839 f5be 42e5 9a3e 2ed7 e2be
00000240: d512 d9bb 7008 debd 8e7a 5d3e dbfe 533f
00000250: 4401 403e cf36 b9be 61a6 023e 646d 9ebd
00000260: 1306 3c3e 64bf 8bbe 01ee 923d 25c8 a2be
00000270: e45c 453e 2ad7 1a3e 873f 153d c0bb 21bd
00000280: 67a0 123f c193 003e 3833 bcbb 2fe8 0abf
00000290: 73ef 1c3e 726f 55bd 9c05 42be e2c6 d83e
000002a0: 0e41 fc3d fdb0 1cbe 1669 27be a1e4 d93d
000002b0: 2ec7 ed3d 86a5 36bc 66ed 39be bea0 11be
000002c0: 6cdd 11bf a6ec 373e 7a84 793e 5f96 06bf
000002d0: e3ef a5bd 848a a13d 75b4 123d 213b 41be
000002e0: 1787 3c3e 1925 603e b82c ed3e 8f99 f6bc
000002f0: 5588 3bbe c4a5 393f 9967 86be fc70 96bd
00000300: cee6 d53e b43a 833e 429b afbd 05e8 a43c
00000310: b297 f53c 5b35 913e 385e b03d 7633 923e
00000320: cd74 4abe e3f2 c53d 35bd ae3e 66e2 8f3e
00000330: cb7c bd3e 27fb 93be 08fa 62be 1a92 efbe
00000340: 7358 e5be 2d0b 0bbe 33d3 893e fd27 2d3e
00000350: 864d b4be 9ed1 a0bd ca39 b4bc 7d99 123f
00000360: fc46 0fbf 3ebe 3cbe 345a 5a3e 3082 9e3d
00000370: ef15 96be c790 cd3e c34a 94be a4d1 47bd
00000380: 38df bfbe 6188 e13e dd4c 913e 1203 093f
00000390: 8f95 07bf 7675 0bbf f636 28be e8c2 343f
000003a0: 7404 2ebe 5611 cf3e 1675 d03d 890b 213e
000003b0: 15bd e7bd e1cc 99be d95f e4be d129 84be
000003c0: a1fb 963e 9849 1d3c aedc 0bbe 2af4 02bc
000003d0: 94a4 0fbe a5ba 81be cbbe 94be 819e b03d
000003e0: a475 aebe 47cf be3e 565a e93b 954b 2abe
000003f0: eac9 4cbe 495e 9fbe e783 43bd f319 24bf

h_11.bias f4 [64]
-0.18782443 0.78085375 -0.17938508 0.12712963 0.55285996 0.46775222 0.35819495 -0.09719162
0.65631926 0.7966165 0.29166356 -0.2096741 -0.6500642 0.39356938 0.44401175 -0.021697413
-0.0012166426 0.55367875 0.39947584 0.20700309 -0.26997453 -0.37824926 0.07943936 0.120126836
-0.08335281 0.5006981 -0.25583994 -0.027663913 0.89199764 0.13044721 0.7112803 -0.35942668
0.273315 0.53439194 -0.510735 -0.0533192 -0.1125103 -0.12801212 -0.44617152 0.4755492
0.86548185 0.35566568 0.030114852 -0.08534552 0.05127086 0.37848356 0.56715316 0.25667632
0.03085701 0.39788216 0.013346642 0.37564635 0.25618902 0.11094375 -0.2212953 0.449892
0.12387621 0.60926485 0.31043383 0.62963045 0.76099545 -0.2141392 0.001477275 0.7298969
00000000: 0c55 40be 08e6 473f b9b0 37be 452e 023e
00000010: 3b88 0d3f 387d ef3e 5465 b73e 660c c7bd
00000020: 8a04 283f 0fef 4b3f ed54 953e cfb4 56be
00000030: 9b6a 26bf ed81 c93e 8255 e33e c6be b1bc
00000040: c077 9fba e4bd 0d3f 1988 cc3e 9ef8 533e
00000050: 1a3a 8abe e3a9 c1be 1ab1 a23d 0f05 f63d
00000060: e1b4 aabd c02d 003f 74fd 82be 6e9f e2bc
00000070: f559 643f f493 053e 7716 363f c606 b8be
00000080: f2ef 8b3e e9cd 083f 87bf 02bf 3c65 5abd
00000090: cd6b e6bd 9c15 03be 9870 e4be 2f7b f33e
000000a0: 3890 5d3f d019 b63e 6cb3 f63c a2c9 aebd
000000b0: 6501 523d 99c8 c13e f330 113f 146b 833e
000000c0: d7c7 fc3c 36b7 cb3e e0ab 5a3c b854 c03e
000000d0: 352b 833e 7a36 e33d 3c9b 62be 3f58 e63e
000000e0: cfb2 fd3d c8f8 1b3f 2ff1 9e3e 762f 213f
000000f0: 99d0 423f 4e47 5bbe 20a1 c13a 86da 3a3f

h_12.weight f4 [64, 6]
0.097711176 -0.55304617 -0.17636155 -0.2072407 -0.17665707 0.28542966 -0.027084904 -0.010016476
-0.45550603 0.66085494 0.2963914 -0.09947911 -0.023112489 0.098038875 0.14296556 -0.28866455
0.15300722 -0.20856658 -0.52760625 -0.2666991 0.31432998 0.46518564 0.51497054 0.24099606
0.310735 -0.05082827 -0.21926509 0.20352231 -0.21519545 -0.2767498 -0.38001686 -0.08021514
-0.078869335 -0.09982837 -0.60971856 -0.013533216 -0.22772586 -0.2368788 0.35944214 -0.09101906
0.40948087 0.44240937 0.122109324 0.1405018 0.094012946 0.0063935285 -0.0296929 0.005611012
0.15245003 0.37957737 -0.10580126 -0.172573 -0.09886339 -0.19723466 0.06941801 0.3047363
0.31924096 0.18743722 -0.30044279 -0.21910882 -0.30011392 -0.31865785 -0.08689171 -0.06325964
0.24125001 -0.3910474 -0.31205043 -0.32840014 0.7730129 -0.3301255 0.32961896 0.0528815
-0.23533238 0.23545283 -0.35099027 0.46503282 0.5006089 -0.2044506 0.15708742 0.07706871
0.087778166 0.05960076 0.11166855 -0.19639471 -0.05223175 0.38788486 0.2742814 -0.015337256
-0.38397014 0.017892614 -0.40688685 0.36296776 -0.33728597 0.14762981 0.06546297 0.16845168
0.37031886 0.07862437 0.22681 0.34788394 0.4857637 -0.18088977 -0.28134727 0.12281572
-0.37926275 0.2338023 -0.11228306 -0.32661766 0.12385046 0.15071166 0.27673492 0.55524886
0.4977203 0.49500123 -0.12800643 -0.7316819 -0.54631686 -0.119630046 -0.26595473 -0.33501402
-0.4334204 -0.5896991 -0.35491228 -0.32118025 -0.3227399 0.171059 0.25607336 -0.30335462
-0.37110037 0.38172323 -0.0069296267 -0.10693552 0.2797922 -0.53404456 -0.15587674 0.5423145
0.14352782 0.21046883 -0.3390915 0.054212056 0.12032916 0.12893562 0.15081193 0.397109
-0.49532878 -0.034442987 -0.38668126 -0.20774288 0.07257538 -0.4039982 0.41575432 -0.21792866
-0.41623032 0.21692824 -0.14243765 -0.26423156 -0.15557241 -0.42432165 -0.3346691 -0.07919517
0.43926686 0.38693333 0.27490833 -0.21441707 -0.47401246 0.20552178 0.21223299 0.046376735
-0.06283244 -0.36145043 -0.32991293 0.52117187 -0.13607898 -0.16308331 -0.38999566 -0.31464863
-0.012374452 -0.5704908 -0.17181626 0.09455091 -0.52616 0.22115988 -0.2900672 -0.21081005
0.26691338 0.40315285 -0.14186941 -0.34195182 -0.6713741 -0.25359428 -0.55319154 -0.15945712
-0.1047576 -0.7278048 0.1886301 0.5684578 -0.41700515 -0.21195172 0.011483004 -0.16194253
-0.12416258 -0.12430428 0.5111454 -0.2425054 0.29751545 -0.12297218 -0.010473961 0.4014024
0.02144387 -0.12301739 -0.19880381 0.41855264 -0.44282705 0.10986834 -0.320325 0.36609086
0.20898636 0.08295053 -0.03624277 -0.020180276 0.51960886 -0.26095566 0.11444383 0.28746396
0.3888216 0.56749505 -0.09335486 0.5338079 -0.12422019 -0.1345677 -0.44277507 -0.09491152
0.47706363 0.1038381 -0.4180489 0.11483393 -0.26977757 0.44389117 -0.37382004 -0.10870594
-0.49543762 -0.17709775 0.1410575 0.43459433 -0.103818946 0.36684394 0.109847695 0.2884334
0.28011596 0.5965998 -0.27074465 0.5938904 0.17117514 -0.25509664 -0.44503775 -0.60006815
00000000: cc1c c83d 6f94 0dbf 1f98 34be e836 54be
00000010: 97e5 34be d623 923e 29e1 ddbc 251c 24bc
00000020: 1638 e9be ca2d 293f 9dc0 973e b4bb cbbd
00000030: 6756 bdbc 9bc8 c83d 9065 123e d7cb 93be
00000040: edad 1c3e 7a92 55be 3411 07bf c98c 88be
00000050: dcef a03e d02c ee3e 1cd5 033f acc7 763e
00000060: a818 9f3e 4e31 50bd 0787 60be 2768 503e
00000070: 325c 5cbe 26b2 8dbe 9291 c2be d647 a4bd
00000080: 3f86 a1bd d172 ccbd 8416 1cbf 6cba 5dbc
00000090: f830 69be 5b90 72be cd08 b83e 3368 babd
000000a0: 7aa7 d13e 7b83 e23e 7414 fa3d b4df 0f3e
000000b0: dc89 c03d ce80 d13b 863e f3bc 95dc b73b
000000c0: dc1b 1c3e f757 c23e 55ae d8bd fab6 30be
000000d0: e478 cabd e2f7 49be 082b 8e3d 6506 9c3e
000000e0: 8d73 a33e 8bef 3f3e a3d3 99be 105e 60be
000000f0: 88a8 99be 1f27 a3be 48f4 b1bd 458e 81bd
00000100: 3e0a 773e 5d37 c8be 13c5 9fbe 1024 a8be
00000110: 2ce4 453f 3606 a9be d1c3 a83e 469a 583d
00000120: f9fa 70be 8c1a 713e ffb4 b3be c818 ee3e
00000130: e827 003f 805b 51be 86db 203e 33d6 9d3d
00000140: 0ac5 b33d ed1f 743d 7bb2 e43d b21b 49be
00000150: f6f0 55bd d898 c63e 9d6e 8c3e 1d49 7bbc
00000160: bc97 c4be 8893 923c 7953 d0be e9d6 b93e
00000170: bfb0 acbe 452c 173e 7311 863d 997e 2c3e
00000180: 6f9a bd3e d005 a13d e140 683e d81d b23e
00000190: 05b6 f83e 2b3b 39be c00c 90be cf86 fb3d
000001a0: ba2e c2be df69 6f3e a9f4 e5bd 6e3a a7be
000001b0: 4fa5 fd3d 2854 1a3e 33b0 8d3e ca24 0e3f
000001c0: 32d5 fe3e cd70 fd3e 1e14 03be 814f 3bbf
000001d0: 6cdb 0bbf 9900 f5bd 382b 88be f586 abbe
000001e0: 47e9 ddbe 85f6 16bf 10b7 b5be bd71 a4be
000001f0: 2a3e a5be 172a 2f3e 0c1c 833e 4c51 9bbe
00000200: de00 bebe 3a71 c33e ec11 e3bb 0301 dbbd
00000210: ec40 8f3e 25b7 08bf 279e 1fbe 20d5 0a3f
00000220: f5f8 123e 2485 573e 679d adbe 760d 5e3d
00000230: 226f f63d b307 043e 716e 1a3e df51 cb3e
00000240: bc9b fdbe 1714 0dbd 16fb c5be 8dba 54be
00000250: 67a2 943d dad8 cebe c0dd d43e b128 5fbe
00000260: 241c d5be 7022 5e3e 2ddb 11be 5c49 87be
00000270: 604e 1fbe b040 d9be c059 abbe 1431 a2bd
00000280: 96e7 e03e 201c c63e c9c0 8c3e 2690 5bbe
00000290: c3b1 f2be 4d74 523e 9b53 593e 88f5 3d3d
000002a0: 4bae 80bd 0810 b9be 59ea a8be 856b 053f
000002b0: 4a58 0bbe 50ff 26be 83ad c7be a019 a1be
000002c0: 37be 4abc af0b 12bf 9af0 2fbe e8a3 c13d
000002d0: 6cb2 06bf bc77 623e b083 94be 97de 57be
000002e0: dfa8 883e 0d6a ce3e 3746 11be 4f14 afbe
000002f0: 2cdf 2bbf 1cd7 81be f69d 0dbf ba48 23be
00000300: 278b d6bd 6a51 3abf 4028 413e 7386 113f
00000310: b381 d5be df09 59be 3623 3c3c 43d4 25be
00000320: f348 febd 3e93 febd 6dda 023f 5653 78be
00000330: f253 983e d7d8 fbbd fa9a 2bbc 9e84 cd3e
00000340: 0eab af3c 8bf0 fbbd 3a93 4bbe 884c d63e
00000350: 3aba e2be a702 e13d a301 a4be 4370 bb3e
00000360: 8500 563e f8e1 a93d 4c73 14bd 1b51 a5bc
00000370: 1605 053f fb9b 85be 8761 ea3d 7a2e 933e
00000380: a013 c73e 5b47 113f d530 bfbd a2a7 083f
00000390: 2867 febd 1dcc 09be 6ab3 e2be f960 c2bd
000003a0: af41 f43e 12a9 d43d 810a d6be 0d2e eb3d
000003b0: 4920 8abe b445 e33e 5765 bfbe 38a1 debd
000003c0: 00aa fdbe 1d59 35be 6171 103e 2683 de3e
000003d0: 079f d4bd f8d2 bb3e d4f7 e03d 8bad 933e
000003e0: 5c6b 8f3e c4ba 183f 0b9f 8abe 3409 183f
000003f0: 8948 2f3e 079c 82be fddb e3be 119e 19bf

h_12.bias f4 [64]
-0.13478836 -0.33792475 -0.29547054 0.24161975 -0.2758946 0.20774789 0.12626663 -0.2238812
0.1177674 -0.3986232 -0.186859 -0.4466124 -0.09668804 -0.1487238 0.058458447 -0.108154126
0.36445644 0.44906917 0.29748654 -0.05249116 -0.40253446 0.26045018 -0.059189208 0.23688224
0.313876 0.26820114 0.41317883 0.44845393 0.10386259 -0.34072104 0.37900975 -0.424716
-0.1463395 0.47411156 0.55653244 0.08487057 0.088814326 -0.2261606 -0.077989236 0.43091694
0.03789118 0.13102956 -0.08554939 -0.27570623 0.47967657 -0.0025256546 0.56029314 -0.10965831
0.19712791 0.28612953 0.10114557 0.35378772 0.39925423 0.34463435 0.34562102 -0.17583168
-0.39114735 0.044344623 -0.1031233 -0.20460534 0.038100097 0.014221332 0.57810265 0.35369474
00000000: f605 0abe 7904 adbe ea47 97be 2b6b 773e
00000010: 0f42 8dbe ddbb 543e 0a4c 013e 1d41 65be
00000020: 0930 f13d 5718 ccbe f757 3fbe 61aa e4be
00000030: 6104 c6bd 0d4b 18be 2072 6f3d e97f ddbd
00000040: 099a ba3e 65ec e53e 2850 983e f800 57bd
00000050: ff18 cebe ba59 853e 6270 72bd 4291 723e
00000060: 5bb4 a03e a951 893e 2d8c d33e c19b e53e
00000070: e9b5 d43d fd72 aebe 910d c23e 6074 d9be
00000080: 06da 15be c0be f23e e978 0e3f 9fd0 ad3d
00000090: 49e4 b53d a596 67be d2b8 9fbd 25a1 dc3e
000000a0: c833 1b3d 9d2c 063e 8534 afbd 5e29 8dbe
000000b0: 2b98 f53e 7485 25bb 5f6f 0f3f 8994 e0bd
000000c0: e6db 493e 927f 923e 6925 cf3d aa23 b53e
000000d0: 0d6b cc3e ea73 b03e 3df5 b03e 380d 34be
000000e0: 7744 c8be b5a2 353d 4f32 d3bd 1084 51be
000000f0: d90e 1c3d 9700 693c 89fe 133f 7a17 b53e

h_21.weight f4 [64, 64]
0.20471935 -0.1844835 0.03810387 -0.069099285 0.11033469 0.033976622 0.2594361 0.06221794
0.06826886 0.10978527 -0.25438064 -0.31861213 -0.033322826 0.024289604 -0.06913352 0.14381433
0.070275426 0.10804889 0.03287411 -0.22453777 0.027681809 -0.17545706 -0.022100799 -0.15681766
-0.0730869 -0.015016077 -0.050801262 -0.014299888 0.18859492 0.023193505 -0.051303055 0.2570671
0.13981876 0.08606028 0.10850651 -0.14839867 0.013315102 -0.014223242 -0.009766843 0.062942825
0.019326093 0.15406454 -0.1541791 -0.051180415 0.036971483 -0.03916208 -0.07716622 -0.010488017
-0.028224057 0.10312834 -0.04351353 0.0014928322 -0.14524926 0.1110828 0.005572751 0.045752488
0.17221132 0.04298524 0.06589355 -0.104926124 0.004632327 -0.1258855 0.00986741 -0.050410394
-0.14030787 0.10403431 -0.092811115 -0.19141853 0.0048719905 0.07111446 0.01607126 -0.15307818
0.037006386 0.06810087 0.10208892 0.043015786 0.09557801 0.021651857 0.16282405 -0.029207265
0.04128899 0.11289636 0.15973347 0.13509206 -0.045269832 -0.027484559 -0.031126011 0.17694971
-0.0021425183 0.07172984 -0.0015858251 -0.19306806 0.21410485 -0.07823109 0.10204043 0.088318974
0.07965188 -0.013657873 0.1711715 -0.05219753 -0.13181911 -0.094864 -0.10557733 -0.07908202
0.14441824 -0.088586055 -0.03139092 -0.04700216 -0.18196005 -0.004930314 0.013544211 -0.14587161
-0.117296875 0.030839361 -0.05961586 0.012776656 -7.859557e-05 0.114611775 -0.060049433 0.17185928
0.020902881 0.16499597 0.01956926 0.036619335 0.015024156 -0.1006905 -0.12223497 -0.037847452
0.041384798 -0.17304187 -0.45277587 -0.11671564 -0.55527496 -0.19209939 -0.1518164 -0.06333463
0.062722 -0.47890007 -0.32358438 0.39386973 0.43028623 -0.419081 0.09894827 -0.23231685
0.2173127 -0.14536355 -0.034235712 -0.6313417 -0.48250467 -0.39372215 -0.10923813 -0.6412614
0.07497397 -0.59078854 -0.11358276 0.056116853 -0.3144917 -0.48259076 -0.007897442 -0.03503287
-0.009108068 -0.25317731 0.715066 0.12917766 -0.191395 -0.1365605 -0.1851151 0.19496787
-0.37099016 -0.0945796 -0.3435368 -0.11623564 -0.080172904 -0.3590003 -0.20610918 0.088647924
0.01567232 0.031206263 0.18106952 -0.059096865 0.2805255 -0.26011795 -0.14227965 -0.34097415
-0.20390299 -0.45264217 -0.27885836 -0.26842952 -0.21464436 0.27997994 -0.01999012 0.0010661858
-0.13235974 -0.009021483 0.06261253 0.025994943 -0.11572081 0.0869933 0.21003538 0.019636502
0.049235057 0.18713216 0.034580056 0.17043185 -0.037859324 -0.019957881 -0.07858976 0.06927666
-0.068917766 0.10611019 0.07718366 0.009132251 -0.16788141 0.084532246 0.07446636 -0.15912154
0.01018791 0.14061704 -0.123160556 0.03829091 0.022333482 0.027941335 0.17720906 0.14001252
-0.042016692 -0.12047561 -0.015698018 -0.021556351 0.2744459 -0.4774944 -0.16421328 0.16122949
0.09699695 0.055488374 -0.12771934 -0.0072796247 -0.044263393 0.0033221885 0.24024574 0.030592373
-0.12060821 0.16711913 -0.04364903 -0.17781393 0.06515435 -0.2164197 -0.0038100844 -0.10756458
-0.025106445 -0.028954266 -0.18874398 -0.02485515 0.13736917 0.031873208 -0.026374163 0.1877781
00000000: f3a1 513e 3ee9 3cbe ce12 1c3d ed83 8dbd
00000010: 27f7 e13d 122b 0b3d cfd4 843e 3dd8 7e3d
00000020: 8bd0 8b3d 1ad7 e03d 2e3e 82be 2121 a3be
00000030: 847d 08bd fefa c63c e095 8dbd 1044 133e
00000040: 90ec 8f3d bd48 dd3d 01a7 063d 3bed 65be
00000050: f6c4 e23c 04ab 33be bc0c b5bc cf94 20be
00000060: 96ae 95bd fe05 76bc fc14 50bd 144a 6abc
00000070: 071f 413e 4e00 be3c 2723 52bd 4d9e 833e
00000080: a62c 0f3e 5f40 b03d a938 de3d d2f5 17be
00000090: 9627 5a3c 9a08 69bc 1c05 20bc 2be8 803d
000000a0: c151 9e3c 18c3 1d3e 20e1 1dbe 8ea2 51bd
000000b0: 696f 173d 6b68 20bd 5309 9ebd efd5 2bbc
000000c0: 2336 e7bc f334 d33d 3e3b 32bd 23ab c33a
000000d0: 39bc 14be 617f e33d a09b b63b f666 3b3d
000000e0: 2a58 303e 4b11 303d 33f3 863d 82e3 d6bd
000000f0: c6ca 973b 21e8 00be ebaa 213c 217b 4ebd
00000100: deac 0fbe f10f d53d c113 bebd 3803 44be
00000110: 38a5 9f3b 75a4 913d e0a7 833c 87c0 1cbe
00000120: 0294 173d 7878 8b3d ff13 d13d 5231 303d
00000130: 67be c33d 3c5f b13c 59bb 263e 1344 efbc
00000140: a51e 293d 3536 e73d 2c91 233e 9355 0a3e
00000150: dc6c 39bd 4c27 e1bc fafb febc 4e32 353e
00000160: 7e69 0cbb 18e7 923d 76db cfba a2b3 45be
00000170: 4d3e 5b3e 9f37 a0bd 93fa d03d 94e0 b43d
00000180: 8620 a33d 45c5 5fbc 9547 2f3e 14cd 55bd
00000190: 97fb 06be 0f48 c2bd ed38 d8bd c1f5 a1bd
000001a0: 60e2 133e 9b6c b5bd c493 00bd 5685 40bd
000001b0: bc53 3abe 798e a1bb 8ae8 5d3c 5e5f 15be
000001c0: 5839 f0bd d4a2 fc3c c32f 74bd 2e55 513c
000001d0: add3 a4b8 94b9 ea3d 65f6 75bd e1fb 2f3e
000001e0: 853c ab3c b4f4 283e b64f a03c 28fe 153d
000001f0: e127 763c d236 cebd 5456 fabd ee05 1bbd
00000200: 1b83 293d e331 31be 3dd2 e7be 9c08 efbd
00000210: 8026 0ebf b4b5 44be c275 1bbe 96b5 81bd
00000220: 6474 803d 6432 f5be daac a5be 4ba9 c93e
00000230: 7a4e dc3e c991 d6be 64a5 ca3d 78e4 6dbe
00000240: 3887 5e3e 2fda 14be bf3a 0cbd 9c9f 21bf
00000250: da0a f7be f395 c9be 3eb8 dfbd b529 24bf
00000260: f48b 993d eb3d 17bf 149e e8bd c9da 653d
00000270: 0e05 a1be 2316 f7be 4664 01bc a07e 0fbd
00000280: 023a 15bc 75a0 81be 910e 373f 2647 043e
00000290: 0dfd 43be 84d6 0bbe d08e 3dbe a8a5 473e
000002a0: 6cf2 bdbe f3b2 c1bd 0ee4 afbe f40c eebd
000002b0: b131 a4bd e3ce b7be 490e 53be 0b8d b53d
000002c0: 3d63 803c 47a4 ff3c 4a6a 393e 8e0f 72bd
000002d0: 0aa1 8f3e 2e2e 85be c2b1 11be 2a94 aebe
000002e0: f2cb 50be b7c0 e7be 86c6 8ebe 986f 89be
000002f0: bbcb 5bbe 8859 8f3e 52c2 a3bc 42bf 8b3a
00000300: 5089 07be d8ce 13bc 003b 803d 59f3 d43c
00000310: 08ff ecbd 8b29 b23d 8413 573e bbdc a03c
00000320: b3aa 493d 939f 3f3e d1a3 0d3d b085 2e3e
00000330: 6112 1bbd b67e a3bc abf3 a0bd ece0 8d3d
00000340: c224 8dbd 4d50 d93d 7712 9e3d 709f 153c
00000350: 1be9 2bbe 3e1f ad3d d281 983d c2f0 22be
00000360: 31eb 263c eafd 0f3e 9a3b fcbd eed6 1c3d
00000370: b5f4 b63c 3ae5 e43c 4b76 353e 715f 0f3e
00000380: b219 2cbd ebbb f6bd 2199 80bc f296 b0bc
00000390: 2c84 8c3e 257a f4be 8727 28be 5819 253e
000003a0: 56a6 c63d c747 633d dcc8 02be eb89 eebb
000003b0: 884d 35bd 13b9 593b fb02 763e db9c fa3c
000003c0: 7001 f7bd 4721 2b3e 53c9 32bd db14 36be
000003d0: a56f 853d 209d 5dbe 9cb2 79bb d24a dcbd
000003e0: 08ac cdbc 7f31 edbc 1a46 41be 079d cbbc
000003f0: 81aa 0c3e 7b8d 023d a10e d8bc e748 403e

h_21.bias f4 [64]
0.18777545 0.20659205 -0.1693509 0.23608056 0.013429885 0.23583631 0.01601419 0.1486075
0.19617675 -0.026364854 0.21186818 0.17857634 0.28712282 0.09702577 0.17574795 0.28451964
0.12536475 -0.03534005 0.28526473 0.061537102 0.21120675 0.1777236 0.021595234 0.26185083
0.24003628 0.03883366 -0.14373676 0.1274366 0.1966904 0.23272628 0.112212464 0.013745225
0.16102216 0.121923335 0.237022 0.21185513 0.117451005 0.013581444 -0.063347235 0.23313574
0.22277945 0.026658427 0.059156265 0.25197807 0.017998088 0.17898893 -0.0023539732 -0.0015630203
0.14274609 0.16688845 0.19891466 0.19103245 0.14792627 0.2779785 0.10559621 0.27530664
0.24621524 0.14821927 0.08723613 0.07632862 0.27220547 0.030014856 0.06141065 0.072076276
00000000: 3548 403e de8c 533e 536a 2dbe 1abf 713e
00000010: 0509 5c3c 137f 713e 3130 833c 912c 183e
00000020: 8fe2 483e 1bfb d7bc f9f3 583e b7dc 363e
00000030: c301 933e 72b5 c63d 45f7 333e 8fac 913e
00000040: 9e5f 003e bac0 10bd 380e 923e 540e 7c3d
00000050: 9546 583e 2dfd 353e 7de8 b03c 5011 863e
00000060: 12cc 753e 0b10 1f3d bb2f 13be bd7e 023e
00000070: 3569 493e cc4f 6e3e a6cf e53d a733 613c
00000080: fee2 243e f1b2 f93d e5b5 723e 8df0 583e
00000090: 278a f03d b484 5e3c 32bc 81bd 23bb 6e3e
000000a0: 4c20 643e c662 da3c d74d 723d 4503 813e
000000b0: ba70 933c e048 373e 1e45 1abb 42de ccba
000000c0: 082c 123e cee4 2a3e 49b0 4b3e 039e 433e
000000d0: fc79 173e 3353 8e3e d342 d83d fef4 8c3e
000000e0: d91f 7c3e cbc6 173e dba8 b23d 2e52 9c3d
000000f0: 845e 8b3e b7e1 f53c bc89 7b3d ba9c 933d

h_22.weight f4 [64, 64]
-0.03051347 0.11387687 -0.014465064 -0.02029798 -0.04789355 -0.22920597 -0.084553875 0.12297784
-0.019358546 0.023323491 0.20399004 0.37307945 0.0901092 -0.0009264499 0.010254264 -0.04187529
-0.108869486 0.036916863 0.025651788 0.17475882 0.18171738 0.16700372 0.17096218 0.00016240061
0.04666474 -0.30631596 -0.04701283 0.025477046 0.10861694 0.05632147 -0.08543283 0.08308835
-0.013509698 -0.10456784 0.11952016 -0.019026661 0.4949212 0.3393846 0.01134162 0.13645694
-0.026295653 -0.0761303 0.2131286 0.1687203 -0.09266143 0.07555855 -0.16602525 0.16963792
0.12276366 0.06664539 0.038774993 0.11737897 -0.0057119085 0.07506121 0.034167502 -0.21929203
0.15838926 -0.02578448 0.12417749 0.08047671 0.14512666 0.15609445 -0.14694062 -0.058969565
0.018554637 -0.313981 -0.12146546 0.013575633 0.08051481 -0.29647434 0.08872118 0.07204379
-0.09111005 0.053683147 -0.06095854 0.13549243 0.09318793 -0.11735104 0.10928783 0.15084267
-0.068674944 0.10096154 0.130313 -0.0021822078 0.11731038 -0.25187162 0.062782705 0.099285536
-0.030436477 0.35991412 0.13084377 -0.05263857 0.030644465 0.0378057 0.17617492 -0.49217618
-0.1617551 0.021061555 -0.193286 0.14945161 -0.27720436 0.3291928 0.09080094 0.04183034
0.04525233 -0.21186279 -0.35249117 -0.18183842 -0.026041118 0.15593106 -0.13879426 -0.09036216
0.13227712 -0.04131624 0.2318906 0.10173406 0.036439262 -0.12603489 0.08911884 -0.20243645
0.16118541 -0.22900407 0.099376336 0.08137377 -0.035516873 0.021203429 0.0014242128 -0.0802387
-0.07432713 -0.22476393 -0.0841265 0.121769875 0.028461944 -0.43050626 0.065097764 -0.003070727
-0.0047995895 0.067520306 -0.18441665 0.23298939 0.1641955 0.07249881 -0.059984908 0.19274133
-0.09794447 0.1235259 0.17241399 -0.06940575 0.065950334 -0.28085577 -0.08424624 0.03890218
-0.09260042 0.018078793 0.11514037 -0.05626687 0.08716683 -0.065925434 0.12799819 -0.0086733475
0.051156953 -0.02592939 -0.28504124 -0.029268436 0.43784153 0.12580156 0.13699386 0.001412672
-0.0067163566 0.14832559 -0.1677871 -0.21860966 0.14164959 0.007937294 0.12028456 0.01584093
-0.015272957 -0.05980859 0.090011224 -0.0040992126 0.16707955 0.086621135 -0.037823033 0.030028895
0.14675145 0.09334688 -0.010613744 -0.0040641124 -0.17774329 -0.06932611 0.072202444 0.053693604
-0.053835846 -0.07539042 0.0760185 0.13513559 0.08809263 -0.20689842 0.14955468 0.08167204
-0.020901307 0.011259496 -0.22455494 -0.11072627 0.21402764 -0.093083024 -0.078146115 -0.02246687
-0.05395222 0.07845073 0.12257793 -0.2195673 0.018139275 -0.25432506 -0.01782583 0.15307668
-0.016652476 0.1276355 0.10661821 -0.12495788 -0.079809636 -0.24820441 0.16916803 -0.34426242
-0.30918333 0.11774672 0.03205952 0.085298166 -0.72750795 -0.30277857 0.12836994 0.18447149
0.0142018385 0.075192854 -0.46498352 0.054691177 0.06681859 0.06908116 -0.20713732 0.016035575
0.1003958 0.12864223 0.050197087 -0.059715427 0.073637344 -0.029459491 0.009155007 -0.13596042
0.057193242 0.28810662 0.01897246 0.35119164 -0.04651819 0.047420092 0.1101693 -0.025814548
00000000: 62f7 f9bc 4738 e93d e0fe 6cbc f347 a6bc
00000010: 072c 44bd f8b4 6abe 952a adbd cedb fb3d
00000020: d095 9ebc e810 bf3c c4e2 503e 4504 bf3e
00000030: 2c8b b83d 00dd 72ba 8001 283c 6d85 2bbd
00000040: f7f6 debd 2336 173d b323 d23c faf3 323e
00000050: 1f14 3a3e 0603 2b3e b610 2f3e 154a 2a39
00000060: 8723 3f3d 72d5 9cbe 8690 40bd 3db5 d03c
00000070: 8f72 de3d 57b1 663d 68f7 aebd 3a2a aa3d
00000080: c857 5dbc aa27 d6bd fcc6 f43d cddd 9bbc
00000090: 5066 fd3e d1c3 ad3e 34d2 393c 5ebb 0b3e
000000a0: fb69 d7bc 34ea 9bbd 623e 5a3e 04c5 2c3e
000000b0: 47c5 bdbd 71be 9a3d 8602 2abe 90b5 2d3e
000000c0: 846b fb3d 617d 883d 87d2 1e3d 6364 f03d
000000d0: f62a bbbb b1b9 993d 39f3 0b3d 178e 60be
000000e0: cb30 223e f939 d3bc c550 fe3d f9d0 a43d
000000f0: 159c 143e 39d7 1f3e 9a77 16be 128a 71bd
00000100: e5ff 973c 1ec2 a0be e2c2 f8bd 556c 5e3c
00000110: f3e4 a43d 7ccb 97be 73b3 b53d b28b 933d
00000120: e897 babd dce2 5b3d a9af 79bd 87be 0a3e
00000130: 50d9 be3d be55 f0bd 4cd2 df3d 8076 1a3e
00000140: 73a5 8cbd edc4 ce3d c570 053e 5f03 0fbb
00000150: 6d40 f03d 51f5 80be 3894 803d 3756 cb3d
00000160: eb55 f9bc aa46 b83e e9fb 053e 8b9b 57bd
00000170: 1a0a fb3c 26da 1a3d 3367 343e 84fe fbbe
00000180: 21a3 25be 4889 ac3c c4ec 45be d809 193e
00000190: bbed 8dbe f58b a83e d8f5 b93d 4a56 2b3d
000001a0: 825a 393d 8ff2 58be b979 b4be da33 3abe
000001b0: 2f54 d5bc 64ac 1f3e 1520 0ebe cc0f b9bd
000001c0: a773 073e 383b 29bd bb74 6d3e f259 d03d
000001d0: 5641 153d 4a0f 01be f083 b63d 804b 4fbe
000001e0: ca0d 253e 0b80 6abe d285 cb3d 4ba7 a63d
000001f0: 247a 11bd d0b2 ad3c a7ac ba3a 3054 a4bd
00000200: d338 98bd 8428 66be 844a acbd 7c62 f93d
00000210: 0629 e93c 516b dcbe fa51 853d 403e 49bb
00000220: e045 9dbb 1648 8a3d b8d7 3cbe c594 6e3e
00000230: dd22 283e 427a 943d bcb2 75bd fc5d 453e
00000240: 1c97 c8bd 26fb fc3d 4b8d 303e 9a24 8ebd
00000250: f810 873d 54cc 8fbe 4b89 acbd e457 1f3d
00000260: 4aa5 bdbd fa19 943c b7ce eb3d 1778 66bd
00000270: 8684 b23d ea03 87bd f511 033e a81a 0ebc
00000280: f489 513d df69 d4bc edf0 91be 5cc4 efbc
00000290: c42c e03e 20d2 003e 1e48 0c3e 6829 b93a
000002a0: e214 dcbb aae2 173e 62d0 2bbe 36db 5fbe
000002b0: 970c 113e 6d0b 023c c057 f63d d7c4 813c
000002c0: 6d3b 7abc daf9 74bd ce57 b83d b052 86bb
000002d0: e716 2b3e 6c66 b13d 53ec 1abd 28ff f53c
000002e0: 0346 163e a62c bf3d 45e5 2dbc 3f2c 85bb
000002f0: 5602 36be d9fa 8dbd e0de 933d d3ed 5b3d
00000300: fa82 5cbd 4b66 9abd 96af 9b3d fc60 0a3e
00000310: e969 b43d 2edd 53be dd24 193e ac43 a73d
00000320: 3839 abbc c079 383c bbf1 65be 74c4 e2bd
00000330: 102a 5b3e 50a2 bebd 120b a0bd 710c b8bc
00000340: 01fd 5cbd c7aa a03d 230a fb3d 40d6 60be
00000350: d198 943c e536 82be 7a07 92bc 22c0 1c3e
00000360: c66a 88bc e1b2 023e a65a da3d ebe9 ffbd
00000370: 3c73 a3bd 4c29 7ebe 623a 2d3e 2a43 b0be
00000380: 474d 9ebe 3125 f13d d850 033d ceb0 ae3d
00000390: f63d 3abf cb05 9bbe 6973 033e 18e6 3c3e
000003a0: d4ae 683c b6fe 993d 5212 eebe db03 603d
000003b0: 2fd8 883d 6c7a 8d3d ce1b 54be 0a5d 833c
000003c0: 509c cd3d caba 033e 769b 4d3d 2a98 74bd
000003d0: 2dcf 963d 0855 f1bc e2fe 153c 3539 0bbe
000003e0: 7643 6a3d b682 933e 226c 9b3c 64cf b33e
000003f0: dc89 3ebd 923b 423d 71a0 e13d 0879 d3bc

h_22.bias f4 [64]
-0.121346176 -0.017897982 0.087123044 0.10987883 0.16183162 0.18187486 -0.0031057624 0.14143747
-0.06300227 0.02910573 0.18155438 0.112236574 -0.06840172 0.15235941 -0.110046536 0.05024981
-0.109037995 0.11500762 -0.074105486 -0.11504053 0.19862553 0.20407069 -0.10695466 0.1369829
0.21773797 -0.1693053 0.08982966 0.08907896 -0.14461136 0.10002213 0.19266614 0.112124294
0.009016085 -0.099925786 -0.0060206773 0.14320591 -0.048476305 0.07422923 0.025158709 -0.04149626
0.11229393 0.16894901 -0.012619704 0.08703381 0.08405327 0.12165862 0.124007784 0.08408523
0.108058974 0.24724713 -0.03591864 0.20399943 0.081404075 -0.083979845 0.13944007 0.08370752
-0.027582427 0.21006832 0.07397256 0.1619881 0.028689228 0.07331987 0.16359743 0.012148063
00000000: 5884 f8bd ca9e 92bc 916d b23d 2708 e13d
00000010: 30b7 253e 673d 3a3e 0c8a 4bbb fcd4 103e
00000020: 5607 81bd 246f ee3c 64e9 393e 4adc e53d
00000030: 3316 8cbd 1b04 1c3e 1460 e1bd bfd2 4d3d
00000040: 504f dfbd 1d89 eb3d 9ec4 97bd 5f9a ebbd
00000050: 7e64 4b3e e8f7 503e 0b0b dbbd 3f45 0c3e
00000060: b4f6 5e3e 5e5e 2dbe 9df8 b73d 086f b63d
00000070: 0015 14be 67d8 cc3d 464a 453e 6ca1 e53d
00000080: 34b8 133c e4a5 ccbd 1a49 c5bb 92a4 123e
00000090: 178f 46bd 7f05 983d a319 ce3c fbf7 29bd
000000a0: 5cfa e53d f800 2d3e e0c2 4ebc c83e b23d
000000b0: 1f24 ac3d 2828 f93d cbf7 fd3d e134 ac3d
000000c0: 064e dd3d 5a2e 7d3e 6d1f 13bd 3ae5 503e
000000d0: 2eb7 a63d a0fd abbd 61c9 0e3e d96e ab3d
000000e0: 8bf4 e1bc 261c 573e ed7e 973d 35e0 253e
000000f0: ac05 eb3c ba28 963d 1686 273e ab08 473c

h_32.weight f4 [128, 128]
0.011237935 0.036473326 -0.26292375 -0.11936929 0.08111887 0.073310755 0.16330338 -0.022934742
0.029309737 -0.0702777 0.037347827 0.1049743 0.052030575 -0.09639719 -0.034713257 -0.01243557
-0.0861389 -0.069162115 -0.07588229 0.017107526 0.0889383 -0.07161149 0.15921116 -0.055913586
0.06268072 0.10889881 -1.0116311 -0.059460543 0.011824261 0.011775345 0.0667125 0.017421544
0.1673932 0.06227175 0.13728401 -0.050680816 -0.05788493 0.04833406 -0.1150015 -0.039178073
-0.075511135 -0.19887623 0.05666903 0.00839651 0.06838849 -0.11285303 0.003942049 -0.06376842
-0.061815504 -0.05386731 0.031548724 -0.04130217 0.03385697 -0.045980427 0.01982096 0.08052118
-0.030457435 -0.058029424 0.012593996 -0.029401213 -0.0924738 0.022563273 0.0029394017 -0.07731147
-0.10499705 -0.07176699 0.0036875966 -0.011195069 -0.003820137 0.058932856 0.196571 0.16826622
-0.06747091 -0.119862646 0.14798565 0.12948635 -0.0500831 0.09558026 0.016364472 0.12784177
-0.00016865061 0.029185265 -0.0481244 0.05174764 0.0565748 -0.27465013 0.0037162355 0.09550215
0.3296544 -0.0016825498 0.028621435 -0.04341037 -0.19725357 0.09013189 0.06532766 -0.11071354
0.0029520476 0.030530315 0.008010739 0.24674064 0.025111929 -0.15320928 -0.042579733 0.16392371
0.092989504 0.106484294 0.036084425 -0.050292436 0.12950446 -0.087809086 -0.075465955 0.100595884
0.042956665 0.039494876 0.0306053 -0.082826406 0.11784761 0.08984246 -0.3691874 -0.0713111
0.026763363 -0.08566322 -0.14219284 -0.07622217 0.041883923 -0.0032632488 -0.23615783 0.28132668
0.015730284 0.07809736 0.029602181 0.109925635 -0.045104116 0.049287498 0.10562599 0.007961377
-0.037246298 -0.037191957 -0.0856569 0.025610873 0.09713684 0.09336025 0.106269084 0.0332655
0.022224769 0.0949242 0.058436483 -0.048216656 -0.08081991 -0.0591186 -0.021803102 0.08465183
0.04550027 -0.060074147 -0.11921486 -0.05790389 -0.0024763923 0.0835708 0.043362323 0.17813344
-0.013087365 0.05235546 0.11380112 -0.014793003 0.07757172 0.057651877 -0.0050433157 -0.08483497
-0.08053059 0.12023661 -0.0389477 0.11114153 0.029667072 0.0029257862 -0.058970913 -0.02222883
-0.027820116 -0.021922812 0.11582337 0.017376024 -0.013661412 -0.058918837 0.13226314 0.062157415
0.0736624 -0.017545046 0.07431666 -0.0015936472 0.022844696 -0.0028172724 -0.026322855 0.07735466
0.0095195705 0.06729822 -0.039059024 -0.047642052 0.11983974 0.025694313 -0.070019044 -0.07178849
0.13221005 -0.060519025 -0.11064723 -0.07342129 0.009971422 -0.03635575 -0.043252613 0.0992524
0.03565346 0.046412334 0.007295124 -0.033788342 9.6631054e-05 -0.05531694 -0.006436166 0.058236524
0.06833656 0.06367261 0.08519623 0.0020544257 0.1562209 -0.00373739 0.062580846 0.01998617
-0.012435814 -0.080990575 -0.06896054 0.028492916 0.00065011805 0.0070682587 -0.07572652 0.048847463
-0.068988964 0.08574029 -0.07811387 0.060382206 -0.07518293 0.031026104 -0.08025602 -0.0091040805
-0.09604478 0.048370156 0.13237701 0.15036932 0.039285608 0.038045708 -0.07819382 -0.018926611
-0.021010188 0.066238925 0.15797311 0.022355383 0.0219343 0.044061225 0.054885317 -0.031041428
00000000: 511f 383c 0e65 153d f19d 86be e377 f4bd
00000010: a621 a63d f323 963d 0039 273e a4e1 bbbc
00000020: f91a f03c c1ed 8fbd 09fa 183d c4fc d63d
00000030: 031e 553d e46b c5bd 7d2f 0ebd 90be 4bbc
00000040: 9769 b0bd dea4 8dbd 2d68 9bbd 1525 8c3c
00000050: 4925 b63d 0ba9 92bd 4008 233e a505 65bd
00000060: c05e 803d 5706 df3d 217d 81bf e68c 73bd
00000070: 8cba 413c 60ed 403c 90a0 883d a0b7 8e3c
00000080: 1f69 2b3e aa10 7f3d 2e94 0c3e b096 4fbd
00000090: c018 6dbd eff9 453d e885 ebbd 3079 20bd
000000a0: 95a5 9abd 36a6 4bbe c91d 683d 8491 093c
000000b0: 440f 8c3d 7d1f e7bd 4e2c 813b 0499 82bd
000000c0: 4132 7dbd f8a3 5cbd 3c39 013d 772c 29bd
000000d0: 9bad 0a3d f955 3cbd 915f a23c 4ae8 a43d
000000e0: df81 f9bc 43b0 6dbd 0c57 4e3c d0da f0bc
000000f0: e762 bdbd 9dd6 b83c faa2 403b 7a55 9ebd
00000100: b108 d7bd 92fa 92bd 9bab 713b 866b 37bc
00000110: 435b 7abb 9463 713d e949 493e fb4d 2c3e
00000120: 302e 8abd 8c7a f5bd 8d89 173e 1298 043e
00000130: f023 4dbd 95bf c33d c90e 863c f4e8 023e
00000140: ced7 30b9 f015 ef3c 171e 45bd 55f5 533d
00000150: faba 673d f19e 8cbe 168c 733b a296 c33d
00000160: 76c8 a83e 0189 dcba 8077 ea3c 12cf 31bd
00000170: d7fc 49be 1197 b83d 82ca 853d c8bd e2bd
00000180: 2477 413b b61a fa3c 7a3f 033c 94a9 7c3e
00000190: 88b7 cd3c e5e2 1cbe 1668 2ebd 9edb 273e
000001a0: 4871 be3d 7014 da3d 43cd 133d 71ff 4dbd
000001b0: d19c 043e 40d5 b3bd e58d 9abd 3705 ce3d
000001c0: 54f3 2f3d 61c5 213d f7b7 fa3c e4a0 a9bd
000001d0: 165a f13d 53ff b73d 2206 bdbe 8e0b 92bd
000001e0: d73e db3c 3370 afbd 009b 11be 5e1a 9cbd
000001f0: 7a8e 2b3d 3bdc 55bb 5cd3 71be 0d0a 903e
00000200: ccdc 803c 82f1 9f3d 4680 f23c b120 e13d
00000210: 18bf 38bd b0e1 493d 7052 d83d 6f70 023c
00000220: 938f 18bd 9856 18bd e36c afbd e5cd d13c
00000230: aeef c63d a933 bf3d 9ba3 d93d 6841 083d
00000240: b810 b63c 9e67 c23d 185b 6f3d d47e 45bd
00000250: e984 a5bd 5826 72bd 6b9c b2bc f05d ad3d
00000260: 7e5e 3a3d 4f10 76bd ec26 f4bd a12c 6dbd
00000270: f84a 22bb 2b27 ab3d b19c 313d 9d68 363e
00000280: 636c 56bc ae72 563d 9010 e93d 5a5e 72bc
00000290: ecdd 9e3d 6024 6c3d 6642 a5bb f5bd adbd
000002a0: 39ed a4bd 9d3e f63d a087 1fbd 2c9e e33d
000002b0: 5c08 f33c 8cbe 3f3b 7c8b 71bd 3c19 b6bc
000002c0: 03e7 e3bc 7897 b3bc ce34 ed3d 2a58 8e3c
000002d0: 1dd4 5fbc e154 71bd fd6f 073e c698 7e3d
000002e0: 50dc 963d a1ba 8fbc 5533 983d ede1 d0ba
000002f0: cd24 bb3c fda1 38bb 07a3 d7bc 1f6c 9e3d
00000300: f9f7 1b3c a6d3 893d 5bfc 1fbd 5024 43bd
00000310: 8a6e f53d e17c d23c 2566 8fbd d805 93bd
00000320: 1262 073e cce2 77bd 049b e2bd e75d 96bd
00000330: 2d5f 233c c4e9 14bd a729 31bd d844 cb3d
00000340: 5d09 123d dc1a 3e3d f00b ef3b a565 0abd
00000350: 67a6 ca38 0494 62bd 79e6 d2bb 6c89 6e3d
00000360: 0af4 8b3d c966 823d 5c7b ae3d 8ba3 063b
00000370: 5ff8 1f3e 00ef 74bb 632a 803d 09ba a33c
00000380: 96bf 4bbc 63de a5bd 2f3b 8dbd fa69 e93c
00000390: af6c 2a3a da9c e73b 8116 9bbd 4714 483d
000003a0: 164a 8dbd 9b98 af3d 2afa 9fbd 5553 773d
000003b0: 82f9 99bd 752a fe3c 455d a4bd 4829 15bc
000003c0: 20b3 c4bd c91f 463d d78d 073e 6afa 193e
000003d0: f2e9 203d d1d5 1b3d 1524 a0bd fb0b 9bbc
000003e0: 8f1d acbc 46a8 873d b4c3 213e a322 b73c
000003f0: 90af b33c 8b79 343d 6dcf 603d 984a febc

h_32.bias f4 [128]
-0.057012025 0.005901916 0.08607873 0.04815149 0.016415311 -0.003668732 0.025933202 0.09052682
-0.06920478 0.13287431 0.058950923 0.042640876 0.029729804 0.07241785 0.15000191 0.06382606
0.027131528 -0.107594565 -0.002128079 -0.023505328 0.060708236 -0.0009183344 0.12576236 0.10009152
-0.016303485 -0.010434973 -0.09315143 0.08418994 0.015732404 0.114203826 0.094756246 0.002241139
0.032446153 0.041083474 -0.028588243 0.0143116 -0.077392474 0.012131882 0.003941441 -0.06930787
0.074623965 -0.058892626 -0.035765488 0.087752335 -0.08245306 0.065969534 0.0050834366 0.13543674
0.06604179 0.004319689 -0.0058771973 0.024241572 0.027729966 -0.05724996 -0.096855484 -0.010232277
-0.07665236 0.03103546 0.0119258845 0.10311989 0.014965058 0.017317438 -0.02418006 0.08569599
0.011092711 -0.07273719 0.11672799 0.024470514 0.12416749 0.071060464 0.0064549125 0.026577584
-0.016424533 -0.096877836 0.13136362 0.106354825 -0.019473795 -0.02647576 0.030303707 0.059946023
0.018385777 0.011475369 -0.041023415 0.031665187 -0.0169622 0.039585616 0.02639728 -0.035568748
0.016137278 0.14241537 -0.04756719 0.12425022 0.07343358 0.008544189 -0.020634195 0.013479764
0.044593442 0.07902658 -0.01608594 0.09188557 0.097710945 -0.023889165 -0.041169014 0.029042423
0.047112755 0.0401 -0.072087914 0.0641439 0.039443497 0.07806418 0.19542305 0.0752549
0.08140854 0.01154028 0.05368151 -0.012786263 0.13831468 0.025713999 0.06903184 0.13408786
0.049717244 0.008442626 0.09973413 0.07159591 -0.2016494 0.14646539 0.009565623 0.11994358
00000000: 7185 69bd dc64 c13b 0c4a b03d 7f3a 453d
00000010: 6779 863c 1c6f 70bb de71 d43c 2066 b93d
00000020: 3cbb 8dbd 3410 083e 8676 713d 33a8 2e3d
00000030: eb8b f33c cf4f 943d 1a9a 193e 3db7 823d
00000040: f042 de3c 8a5a dcbd 3e77 0bbb 3f8e c0bc
00000050: 33a9 783d 61bc 70ba d9c7 003e c8fc cc3d
00000060: e38e 85bc 73f7 2abc 2dc6 bebd c66b ac3d
00000070: 3ee1 803c b2e3 e93d 900f c23d 13e0 123b
00000080: 42e6 043d 2547 283d e431 eabc 337b 6a3c
00000090: f27f 9ebd cdc4 463c 3427 813b 49f1 8dbd
000000a0: 73d4 983d 6539 71bd d57e 12bd 7fb7 b33d
000000b0: 26dd a8bd 091b 873d f592 a63b eeaf 0a3e
000000c0: eb40 873d 2d8c 8d3b 8195 c0bb 4396 c63c
000000d0: f429 e33c ef7e 6abd 2b5c c6bd 48a5 27bc
000000e0: eafb 9cbd 143e fe3c c964 433c 8530 d33d
000000f0: 0130 753c 4ddd 8d3c 4315 c6bc 6181 af3d
00000100: 34be 353c 3cf7 94bd 160f ef3d 6376 c83c
00000110: 864b fe3d 2688 913d bb83 d33b 3cb9 d93c
00000120: be8c 86bc e367 c6bd 2f84 063e 8fd0 d93d
00000130: 8287 9fbc b1e3 d8bc 7b3f f83c f689 753d
00000140: c59d 963c 3003 3c3c 2b08 28bd 5bb3 013d
00000150: 50f4 8abc 8724 223d 1c3f d83c 89b0 11bd
00000160: 5332 843c 56d5 113e d0d5 42bd e676 fe3d
00000170: 5864 963d edfc 0b3c 0b09 a9bc 3ada 5c3c
00000180: 9da7 363d b0d8 a13d a9c6 83bc 802e bc3d
00000190: ad1c c83d 36b3 c3bc d7a0 28bd 60ea ed3c
000001a0: 4ef9 403d e63f 243d d4a2 93bd e15d 833d
000001b0: 818f 213d 1de0 9f3d fb1c 483e 3e1f 9a3d
000001c0: 85b9 a63d 7113 3d3c 25e1 5b3d 797d 51bc
000001d0: 5da2 0d3e 2aa6 d23c 9160 8d3d 544e 093e
000001e0: 4fa4 4b3d f152 0a3c 6841 cc3d e0a0 923d
000001f0: 2e7d 4ebe 06fb 153e 21b9 1c3c fba4 f53d

output.weight f4 [12, 128]
-0.1318644 -0.038899574 -0.027399786 -0.39596578 -0.09870829 0.056619585 0.24005683 -0.07388303
0.037105378 -0.60421574 0.2707384 0.09522036 -0.039323475 0.12829638 0.24837801 0.12303822
-0.5847266 0.13651863 -0.2328205 -0.7270435 -0.13160394 0.0639243 -0.024284676 0.12493262
0.051586747 -0.12209356 -0.19593742 0.081095144 -0.2195202 0.10147835 0.018725632 -0.28028125
-0.06913303 -0.007397863 0.04639067 0.15871815 0.095578566 0.0075214365 -0.088207915 0.036149453
-0.058105476 -0.02043363 -0.0075666215 0.7461731 0.1394135 -0.054190338 0.12287688 0.16748594
-0.07024873 -0.08972028 -0.7490876 -0.09439165 0.27125886 0.010759697 -0.2702041 0.0029001522
0.06388063 -0.22872911 -0.54144186 -0.0020841933 -0.12173569 0.11268239 -0.043146055 0.06301466
-0.017844368 -0.04880212 0.15308754 0.12511717 -0.08841417 -0.035899702 0.31991732 0.03119542
0.1125455 -0.049479023 -0.03201444 -0.048087627 0.1436645 0.008372664 -0.17228144 0.011134584
0.2521886 -0.047674198 -0.12947398 -0.052905384 -0.10231399 -0.22557586 -0.019659827 0.21264288
-0.028352443 0.4942129 0.28901672 -0.24533834 -0.0066953106 -0.25405106 0.10053281 0.095435865
-0.4189566 -0.11791058 0.17144465 0.052762873 0.32755396 -0.035079185 0.05802951 0.011491909
-0.054256927 0.4053414 0.06536432 -0.24671255 -0.08074746 0.31007507 0.5379644 -0.02985729
0.046498425 -0.8756739 0.24771872 -0.07635977 -0.13681968 -0.09720993 -0.03679639 0.037837993
-0.089309976 0.11721233 -0.09544204 0.04009595 0.3985248 -0.09567962 0.22825837 -0.12132565
0.3696453 -0.09940749 0.075348616 0.90876937 0.046251822 0.020953845 -0.090193436 -0.0525769
0.20336206 0.45383286 0.2209156 0.14742762 -0.004906405 -0.091624424 0.09959312 0.13853283
0.47554445 -0.04324925 -0.37672797 0.34367743 -0.00510246 -0.11272117 -0.13872345 -0.36430657
-0.056635987 -0.17399116 -0.1668918 -0.088920504 0.32188773 -0.3650228 0.02811187 0.5270977
0.0576241 -0.02319246 -0.07365525 -0.040905945 -0.10276086 -0.33754644 -0.06517548 -0.06354692
0.002877017 -0.010925488 0.091829956 0.03226144 0.18785328 -0.106735304 -0.10926189 0.06439091
0.0203111 0.056242824 0.65046823 -0.018127847 0.05172482 0.0360928 0.24527478 0.063120395
0.36780703 0.044597324 -0.070658036 0.05563232 0.043787435 0.022789335 -0.043690573 0.05905914
0.29130518 0.049152445 -0.24211793 -0.19269058 0.10423223 -0.14470313 -0.29050562 0.048670072
0.13770282 0.10138571 0.037588794 0.46463963 -0.08513918 -0.024485856 -0.06781652 0.0052114697
-0.4483549 -0.1505883 -0.06590679 -0.13016869 0.065437526 -0.293103 -0.12435122 0.008619233
0.014956001 -0.865164 0.46878508 -0.17162478 -0.04296114 -0.26596105 -0.0072869873 0.06773846
0.47233084 0.01734742 -0.047835812 -0.10464872 -0.3280105 -0.10753963 -0.16528404 0.103060715
-0.11649521 -0.42906618 0.24586973 0.12823471 0.13920659 -0.11482812 -0.5985661 0.032637294
-0.1011458 1.2204502 -0.1738534 -0.15627983 0.06419441 -0.09947141 0.014406987 -0.03695343
0.40717584 -0.004843073 -0.33086506 -0.17513551 0.12551159 -0.13250731 -0.04400703 -0.12259781
00000000: 7607 07be 2955 1fbd 8475 e0bc 07bc cabe
00000010: 9227 cabd f0e9 673d 75d1 753e fc4f 97bd
00000020: cffb 173d e2ad 1abf 399e 8a3e e402 c33d
00000030: a711 21bd 2060 033e ce56 7e3e 76fb fb3d
00000040: a4b0 15bf 8acb 0b3e 7f68 6ebe 861f 3abf
00000050: 2fc3 06be beea 823d a8f0 c6bc acdc ff3d
00000060: a04c 533d 300c fabd d2a3 48be 3615 a63d
00000070: e7c9 60be e2d3 cf3d 7f66 993c 0681 8fbe
00000080: 9e95 8dbd c669 f2bb 2504 3e3d 0387 223e
00000090: b2be c33d 6276 f63b 5aa6 b4bd 7311 143d
000000a0: 0200 6ebd 6e64 a7bc 6cf1 f7bb 3305 3f3f
000000b0: 6ac2 0e3e b0f6 5dbd e0a6 fb3d 6f81 2b3e
000000c0: 91de 8fbd 44bf b7bd 34c4 3fbf 6950 c1bd
000000d0: 71e2 8a3e 7149 303c 3158 8abe 7b10 3e3b
000000e0: d9d3 823d f737 6abe ef9b 0abf f696 08bb
000000f0: 9050 f9bd 06c6 e63d ebb9 30bd d40d 813d
00000100: 5a2e 92bc bbe4 47bd fbc2 1c3e b71e 003e
00000110: 7d12 b5bd 910b 13bd 34cc a33e 8a8d ff3c
00000120: 417e e63d 84aa 4abd 9321 03bd 88f7 44bd
00000130: c91c 133e 802d 093c 8c6a 30be d56d 363c
00000140: dd1e 813e 0546 43bd d494 04be 51b3 58bd
00000150: ff89 d1bd 5cfd 66be a50d a1bc 0ebf 593e
00000160: 6243 e8bc 7909 fd3e 00fa 933e f939 7bbe
00000170: 5664 dbbb fb12 82be 25e4 cd3d e173 c33d
00000180: 7b81 d6be 1a7b f1bd 308f 2f3e e21d 583d
00000190: 27b5 a73e 31af 0fbd 5ab0 6d3d 8f48 3c3c
000001a0: 833c 5ebd e888 cf3e bbdd 853d 37a2 7cbe
000001b0: ed5e a5bd 29c2 9e3e 09b8 093f 4797 f4bc
000001c0: 2275 3e3d 2a2c 60bf faa9 7d3e 8362 9cbd
000001d0: 751a 0cbe 0016 c7bd d0b7 16bd 03fc 1a3d
000001e0: 26e8 b6bd 050d f03d 1e77 c3bd a73b 243d
000001f0: 710b cc3e adf3 c3bd 90bc 693e 9579 f8bd
00000200: 2642 bd3e 2796 cbbd 6050 9a3d 1ca5 683f
00000210: 8d72 3d3d 66a7 ab3c 56b7 b8bd e05a 57bd
00000220: 253e 503e c85c e83e b337 623e 44f7 163e
00000230: e9c5 a0bb 96a5 bbbd 7af7 cb3d 8ddb 0d3e
00000240: 907a f33e 2026 31bd 7de2 c0be 7df6 af3e
00000250: 8932 a7bb 5bda e6bd 850d 0ebe 6486 babe
00000260: 23fb 67bd bd2a 32be afe5 2abe f41b b6bd
00000270: 78ce a43e 45e4 babe dd4a e63c e0ef 063f
00000280: 4007 6c3d 1dfe bdbc 90d8 96bd fe8c 27bd
00000290: 4974 d2bd e3d2 acbe b97a 85bd e324 82bd
000002a0: 568c 3c3b d100 33bc 5811 bc3d 9224 043d
000002b0: 9c5c 403e 0a98 dabd b3c4 dfbd 62df 833d
000002c0: 7763 a63c e05e 663d 1685 263f da80 94bc
000002d0: 68dd 533d 0bd6 133d 5029 7b3e 4445 813d
000002e0: 3451 bc3e afab 363d 29b5 90bd b7de 633d
000002f0: 745a 333d b3b0 ba3c e3f4 32bd ffe7 713d
00000300: f425 953e 1354 493d c3ed 77be ae50 45be
00000310: b577 d53d 0f2d 14be 27bd 94be 455a 473d
00000320: f801 0d3e 50a3 cf3d b5f6 193d 3fe5 ed3e
00000330: 735d aebd 9096 c8bc 63e3 8abd fac4 aa3b
00000340: c68e e5be d233 1abe 24fa 86bd f14a 05be
00000350: 1c04 863d 9911 96be daab febd af37 0d3c
00000360: 040a 753c 637b 5dbf 9904 f03e 68be 2fbe
00000370: 05f8 2fbd 0c2c 88be aec7 eebb 76ba 8a3d
00000380: 59d5 f13e 2d1c 8e3c 7cef 43bd 1152 d6bd
00000390: fef0 a7be bd3d dcbd 3840 29be 7f11 d33d
000003a0: 0a95 eebd 90ae dbbe 46c5 7b3e f64f 033e
000003b0: 2c8c 0e3e 012b ebbd a13b 19bf afae 053d
000003c0: 8725 cfbd b637 9c3f a006 32be d207 20be
000003d0: 5c78 833d abb7 cbbd 480b 6c3c 7b5c 17bd
000003e0: 5a79 d03e a4b2 9ebb 2567 a9be b956 33be
000003f0: 1c86 003e ffaf 07be b740 34bd 9014 fbbd

output.bias f4 [12]
-0.0141934045 -0.044943284 -0.07853968 -0.1038763 -0.03567096 -0.086889856 -0.030171478 0.047839854
0.029967118 0.009878548 -0.011579627 0.08832541
00000000: 748b 68bc 7316 38bd 69d9 a0bd 19bd d4bd
00000010: b61b 12bd 4ff3 b1bd 2d2a f7bc b9f3 433d
00000020: 9a7d f53c a2d9 213c 7ab8 3dbc f4e3 b43d
