GANs/saved_models/python/RecreatingBestModelExtraLayerGen.pth (torch, 127982 bytes, 14 tensors)

h_11.weight f4 [64, 12]
0	0x3ea1d0ad	0.3160452
1	0x3e83655e	0.25663275
2	0xbe0c6170	-0.13709044
3	0x3e8e994c	0.2785133
4	0xbe496ef5	-0.19671233
5	0x3e01e133	0.12683563
6	0xbe28e147	-0.16492186
7	0x3e1ec107	0.15503322
8	0x3ea73d3c	0.32663906
9	0xbe9f2c86	-0.31088656
10	0x3e8f217d	0.27955237
11	0xbdfb7945	-0.1227899
12	0x3e4078fd	0.18796153
13	0x3da002ec	0.07813057
14	0x3dd77ea2	0.105222
15	0xbce60a24	-0.028081007
16	0x3e5ea37b	0.2174205
17	0xbce7ce7f	-0.028296707
18	0xbba359ee	-0.0049850857
19	0x3e2b801e	0.16748092
20	0xbdb3eb2c	-0.0878509
21	0xbd20c073	-0.039246034
22	0xbe422a15	-0.18961366
23	0x3e5933cf	0.2121117
24	0xbe9c00bd	-0.30469313
25	0xbe18e769	-0.14932026
26	0xbb21c404	-0.0024683485
27	0xbe048b11	-0.12943675
28	0x3ded5dc3	0.11590149
29	0xbeb057f9	-0.34442118
30	0x3e8a1076	0.26965684
31	0xbe1d463d	-0.15358825
32	0x3e9ac038	0.30224776
33	0x3dcc75de	0.09983419
34	0xbec1625e	-0.3777036
35	0x3e8ae897	0.27130577
36	0x3e1d4cdc	0.15361351
37	0x3daeae1b	0.08529302
38	0x3d747d9d	0.059690107
39	0xbc4e4638	-0.012589984
40	0x3d2a69f7	0.041604962
41	0xbe041e9f	-0.12902306
42	0x3d3a76cf	0.04552346
43	0x3e82f9b3	0.2558113
44	0x3e17e2ad	0.14832564
45	0xbd8be01b	-0.06829854
46	0x3e22d7a1	0.15902568
47	0x3c9f2d49	0.019430773
48	0x3d835aaa	0.06413777
49	0xbe9f9d06	-0.31174487
50	0xbeacf1dd	-0.33778277
51	0x3dca647f	0.09882449
52	0xbe8c6c1c	-0.2742623
53	0x3e6da4de	0.23207423
54	0x3da67344	0.08127454
55	0x3c1f2041	0.00971228
56	0x3dd16469	0.1022423
57	0xbdc7ac73	-0.09749689
58	0x3ea44d3f	0.32090184
59	0xbea4780a	-0.32122833
60	0xbdbc125b	-0.091831885
61	0xbe3cc485	-0.18434341
62	0x3e386688	0.18007863
63	0xbce89581	-0.028391602
64	0x3e9dc830	0.30816793
65	0xbd2b03f0	-0.041751802
66	0x3ea241f3	0.3169094
67	0xbe635db1	-0.22203709
68	0xbdda6f4e	-0.10665761
69	0xbea21f57	-0.31664535
70	0x3e4495be	0.19197747
71	0xbb8b2f5b	-0.0042475886
72	0x3e64b1dd	0.22333474
73	0xbe95be73	-0.29246864
74	0xbe9266bc	-0.28594005
75	0xbe209205	-0.15680702
76	0xbe8c51eb	-0.27406248
77	0x3e450863	0.1924148
78	0x3d855846	0.065109774
79	0x3ecb2cf1	0.39682725
80	0xbe7870c2	-0.24261764
81	0xbe7bc96b	-0.24588554
82	0x3e4e59ec	0.2015149
83	0xbe2bd631	-0.16780926
84	0x3e8826c2	0.2659207
85	0xbe0a695e	-0.13516757
86	0x3e2cd046	0.16876325
87	0xbe9d57b5	-0.30730978
88	0xbdf09f49	-0.11749131
89	0x3e3fedb7	0.18743025
90	0xbd6ddab6	-0.058069907
91	0x3df205f8	0.11817545
92	0x3e8dbb10	0.2768178
93	0x3f00ec91	0.5036097
94	0xbed0b5e4	-0.40763772
95	0x3e212591	0.15736987
96	0x3ec584e2	0.38577944
97	0xbca03188	-0.019554868
98	0xbe147898	-0.14499128
99	0xbdc1d4ac	-0.09464392
100	0xbe7c90f2	-0.24664667
101	0x3dddf05e	0.10836862
102	0xbd93bf45	-0.07214216
103	0xbe5e8198	-0.21729124
104	0xbd0b75f5	-0.03404804
105	0xbeed5c99	-0.4635971
106	0xbedf51e4	-0.43617165
107	0xbe10be07	-0.1413499
108	0xbee9d679	-0.45671442
109	0xbec63052	-0.3870874
110	0x3ed04a3e	0.40681642
111	0xbceb2a22	-0.028706614
112	0xbb21e4ce	-0.0024703029
113	0xbef211ea	-0.47279292
114	0xbe82fecb	-0.25585017
115	0x3dd833de	0.10556768
116	0xbc5637af	-0.013074799
117	0xbe32aef8	-0.17449558
118	0xbe847803	-0.25872812
119	0xbe26dc4d	-0.16294976
120	0xbd0d0db0	-0.03443688
121	0xbe702b61	-0.23454048
122	0x3d507b41	0.050898794
123	0xbd5c709d	-0.053818334
124	0xbeb594a8	-0.35464978
125	0xbd95ccf8	-0.07314485
126	0xbda0381f	-0.07823204
127	0xbe9118e1	-0.28339294
128	0x3ea6b88f	0.32562682
129	0x3da25784	0.079268485
130	0x3e68c00a	0.22729507
131	0x3dcc965b	0.099896155
132	0xbe982424	-0.29715073
133	0x3d9d1f94	0.07672039
134	0xbe605625	-0.21907862
135	0x3e0afce3	0.13573031
136	0xbefd8375	-0.49514356
137	0xbe49eb18	-0.19718587
138	0xbe44a270	-0.1920259
139	0xbd8fcdb0	-0.07021654
140	0xbc0be41f	-0.008538275
141	0xbe362421	-0.1778722
142	0x3ed3225f	0.4123716
143	0xbe90dabc	-0.2829188
144	0xbe7eb6a8	-0.24874365
145	0x3e842d4c	0.2581581
146	0xbd2dd6e7	-0.042441275
147	0x3f01a088	0.50635576
148	0x3e8a18e7	0.26972124
149	0xbea5ce05	-0.32383743
150	0x3dc16b80	0.09444332
151	0xbe373de7	-0.17894708
152	0xbeca9ab0	-0.39571142
153	0xbee71258	-0.45131183
154	0x3ef36bf9	0.47543314
155	0xbe6eae3e	-0.23308656
156	0x3e876e32	0.2645126
157	0x3e5958e9	0.21225323
158	0x3dcc4fb7	0.09976142
159	0xbd803dac	-0.06261763
160	0x3edcee9d	0.43150797
161	0x3d0ef840	0.03490472
162	0x3e01a891	0.12661959
163	0xbe98cdd7	-0.29844543
164	0x3e2ec16d	0.17065974
165	0xbe96fb01	-0.29488376
166	0xbeb73ae4	-0.35787117
167	0x3edfbe0a	0.43699676
168	0xbd24ab49	-0.040202413
169	0xbe29ad8e	-0.16570112
170	0xbd9908e6	-0.074724
171	0xbc7f657b	-0.01558816
172	0x3e0007a2	0.12502912
173	0x3cfe9fed	0.031082118
174	0xbe10297f	-0.1407833
175	0x3b40d6ef	0.0029424985
176	0xbe65cb07	-0.2244073
177	0x3e073ce1	0.13206817
178	0x3e8a782c	0.2704481
179	0xbe6c6835	-0.23086627
180	0x3d8a65b2	0.06757678
181	0x3d92b065	0.07162551
182	0x3df4a778	0.11946005
183	0xbdc54670	-0.096325755
184	0x3de52db6	0.11190359
185	0x3d300924	0.042977467
186	0x3cbbe4b6	0.022936206
187	0xbd7d9dd7	-0.061918106
188	0xbdf9424b	-0.121708475
189	0x3c1c8525	0.0095532285
190	0xbd8f5899	-0.069993205
191	0xbdef6aba	-0.11690278
192	0x3eee41e4	0.46534646
193	0x3e9684c8	0.2939818
194	0xbdb640f9	-0.08899111
195	0x3d73a955	0.05948766
196	0x3e05d8a5	0.13070925
197	0xbe18b3bf	-0.14912318
198	0x3e2a6deb	0.16643493
199	0x3ea9473e	0.33062166
200	0xbefd62d1	-0.49489453
201	0xbde87513	-0.11350455
202	0x3e88506f	0.26623866
203	0x3e5c78af	0.21530412
204	0xbd414f93	-0.04719503
205	0xbe009ea3	-0.12560515
206	0xbe90cd19	-0.28281477
207	0xbeb5ed27	-0.35532495
208	0xbdd42adb	-0.103597365
209	0xbe23a88f	-0.15982269
210	0x3e7517d2	0.23934868
211	0x3e009922	0.12558416
212	0xbee7ae2a	-0.45250064
213	0xbdf2688f	-0.11836349
214	0xbe3794f6	-0.17927918
215	0x3e8131e3	0.25233373
216	0xbce28b7e	-0.027654406
217	0xbd6d7667	-0.057974245
218	0xbd394bdd	-0.045238364
219	0xbd4b7253	-0.049669575
220	0xbe13d84e	-0.14437982
221	0x3e50cb91	0.20390154
222	0xbe1a2a63	-0.15055232
223	0x3bea3394	0.007147262
224	0xbe61da71	-0.22055985
225	0x3e7d91c8	0.24762642
226	0x3e8b2f8d	0.27184716
227	0xbcaeea4b	-0.021351954
228	0xbeb76dc0	-0.3582592
229	0xbe5a4de5	-0.21318777
230	0xbd998328	-0.07495719
231	0x3e93887b	0.28815064
232	0x3e14b10a	0.1452066
233	0x3ec605ba	0.38676244
234	0x3e1ae067	0.15124665
235	0x3e9cf7db	0.3065785
236	0x3e49676b	0.19668357
237	0xbdeb5602	-0.11491014
238	0xbef029a1	-0.4690676
239	0xbe848733	-0.258844
240	0x3deda2b1	0.116032965
241	0xbebe5fb6	-0.37182397
242	0x3d23b54e	0.039967827
243	0xbebd01f9	-0.36915568
244	0xbe0a5d80	-0.1351223
245	0xbe734054	-0.23755008
246	0xbcf06898	-0.02934675
247	0x3e962b8d	0.29330102
248	0x3d5d00c1	0.053955797
249	0x3ef71744	0.48259938
250	0xbec0edc1	-0.37681392
251	0xbe41b3fa	-0.18916312
252	0x3cf3011a	0.029663611
253	0xbe1e16b4	-0.15438348
254	0x3e21e31a	0.15809289
255	0xbe67f6ce	-0.22652742

h_11.bias f4 [64]
0	0x3e4d0616	0.20021853
1	0x3f2f9671	0.6858893
2	0x3e73e225	0.23816736
3	0x3eedf8e0	0.4647894
4	0xbcae31a3	-0.021263903
5	0x3ddb3a50	0.107044816
6	0x3eabc60f	0.33549544
7	0x3ba9f59e	0.0051867506
8	0x3d82ffd6	0.06396453
9	0x3e0d0238	0.13770378
10	0x3e61a2a4	0.22034699
11	0x3e34d244	0.17658335
12	0x3e92b549	0.28653935
13	0xbdc3a4a0	-0.09552884
14	0x3ee4c579	0.4468191
15	0x3f19d852	0.60095704
16	0x3e2a0a45	0.1660548
17	0x3c8cd880	0.017193079
18	0x3f25c89f	0.6475925
19	0x3e2c3d92	0.16820362
20	0xbd80ffe5	-0.06298808
21	0x3eff2d45	0.49839225
22	0x3e9e9bd9	0.30978277
23	0x3ed55465	0.4166595
24	0x3f026507	0.50935405
25	0xbddec299	-0.1087696
26	0x3f0b1fc9	0.54345375
27	0xbdeadde1	-0.11468101
28	0x3dd98219	0.10620517
29	0x3e9454e4	0.28971016
30	0x3e36e6cb	0.17861478
31	0x3f2886a6	0.6583046
32	0x3ee734aa	0.45157367
33	0x3e9a7698	0.30168605
34	0xbdf86227	-0.12128096
35	0x3f07914a	0.5295607
36	0x3da05695	0.07829014
37	0x3e09da90	0.13462281
38	0x3f014488	0.50495195
39	0x3e76d860	0.24105978
40	0x3f3212e8	0.695601
41	0xbe37c846	-0.17947492
42	0x3cd489da	0.025944639
43	0x3e89d02a	0.2691663
44	0x3ee90bdf	0.4551687
45	0xbea1d5a7	-0.31608316
46	0x3eee8cdf	0.4659185
47	0x3e7bb830	0.2458198
48	0x3f0945b4	0.53621984
49	0x3f08d0b2	0.53443444
50	0x3e838ef6	0.25695008
51	0x3ef55025	0.47912708
52	0x3f04c03b	0.5185582
53	0x3f3e2d54	0.74287915
54	0xbdea79fc	-0.11449048
55	0x3d071995	0.03298338
56	0x3ed93eda	0.42430764
57	0x3eb82e83	0.35972986
58	0x3f1a5296	0.60282266
59	0xbe5a4774	-0.2131632
60	0x3e89d9ee	0.2692408
61	0x3e11373f	0.14181231
62	0x3f1d1453	0.6135914
63	0x3e7af40a	0.24507156

h_12.weight f4 [64, 6]
0	0xbf0aacb6	-0.54169786
1	0xbe4769e6	-0.19473991
2	0xbeaead95	-0.34116808
3	0x3e9820c3	0.29712495
4	0xbe996930	-0.29963064
5	0x3c1cd928	0.009573258
6	0x3e1ffcc9	0.15623774
7	0xbf09fa5c	-0.53897643
8	0x3dfa1391	0.12210763
9	0xbe3e98c4	-0.18612963
10	0xbe449e5a	-0.19201031
11	0xbe849f35	-0.25902715
12	0xbe3074da	-0.17232075
13	0xbe85d057	-0.26135513
14	0x3de13283	0.109959625
15	0xbe45790f	-0.19284461
16	0x3e586a1a	0.21134225
17	0x3efe28f6	0.49640626
18	0x3db7bd46	0.08971648
19	0xbe3fbee7	-0.18725167
20	0xbf0036ae	-0.50083435
21	0x3e27a5e1	0.16371872
22	0xbe761cfc	-0.24034494
23	0x3eb95adb	0.3620213
24	0x3dbea18b	0.093081556
25	0x3e07c92c	0.13260335
26	0xbc2818e2	-0.010259839
27	0x3eba6762	0.36407
28	0x3f051da1	0.51998335
29	0xbec54dff	-0.3853607
30	0x3eef5bbd	0.46749678
31	0xbeb111a1	-0.34583762
32	0xbe4d70f7	-0.20062624
33	0x3eff00d2	0.49805313
34	0x3eb08c25	0.34481922
35	0x3e340f4c	0.1758396
36	0x3d81406b	0.06311115
37	0xbeee67cc	-0.46563566
38	0xbdf6e4c9	-0.12055356
39	0x3eff7cdb	0.49899945
40	0x3dacc945	0.084368266
41	0x3ca51eb9	0.020156251
42	0xbca9922c	-0.020699583
43	0xbe9c8e0a	-0.30577117
44	0x3e92245e	0.2854337
45	0x3d6440a2	0.0557257
46	0x3ebe0654	0.37114203
47	0xbdce0089	-0.10058696
48	0x3e404b3a	0.18778697
49	0x3e2c5b27	0.16831647
50	0x3d9f049f	0.07764553
51	0x3eb4f08e	0.3533978
52	0x3ed4ad6f	0.4153857
53	0x3eee0ddf	0.46494958
54	0x3e97e2ce	0.29665226
55	0xbe6d1e0a	-0.2315599
56	0xbf1134e8	-0.56721354
57	0x3ea73cb1	0.3266349
58	0x3e55c7e3	0.20877032
59	0xbd215ea1	-0.039396886
60	0xbe445659	-0.19173564
61	0xbd9d3b29	-0.076772995
62	0x3e4a804b	0.19775502
63	0x3e3c81b5	0.18408854
64	0xbe57b653	-0.21065645
65	0xbe01a623	-0.12661032
66	0xbcc398a3	-0.023876494
67	0xbeb8588a	-0.3600505
68	0x3ea15ffc	0.31518543
69	0x3e9949d1	0.2993913
70	0x3eb75452	0.3580652
71	0x3d1d3238	0.03837797
72	0xb913cae5	-0.00014094597
73	0x3e8e1a4d	0.2775444
74	0xbf0567eb	-0.5211169
75	0x3bd14281	0.0063861017
76	0x3da91c91	0.08257402
77	0xbe2cc707	-0.16872798
78	0xbece7075	-0.40320173
79	0x3e84a89e	0.25909895
80	0x3ea86f57	0.32897446
81	0x3e9c4667	0.30522463
82	0x3f21ef4c	0.63255763
83	0xbdda0921	-0.106462725
84	0xbe91dba2	-0.2848788
85	0x3e78efa4	0.24310166
86	0xbdd74692	-0.10511507
87	0xbcf9dab9	-0.030499803
88	0xbe78059e	-0.24220893
89	0x3e80c6de	0.25151724
90	0xbec13099	-0.3773239
91	0xbcb3cc79	-0.021948086
92	0x3ec08e92	0.37608773
93	0xbded57f7	-0.115890436
94	0xbe5fbec8	-0.21850121
95	0x3ee5ac3b	0.44857964
96	0xbe992b9a	-0.29916078
97	0xbe2e46b8	-0.17019165
98	0x3e8a6b6e	0.27035087
99	0xbe8a80fc	-0.27051532
100	0xbe8d2536	-0.27567452
101	0xbe553b6d	-0.2082345
102	0xbe3602d4	-0.17774516
103	0xbe8259c4	-0.2545911
104	0xbe72c6ac	-0.237086
105	0x3ea25b6e	0.3171038
106	0x3e2a8d5d	0.16655488
107	0xbe08888d	-0.1333334
108	0xbeeb7bae	-0.45992798
109	0xbdcf79a6	-0.101306245
110	0xbe6be0c6	-0.23034963
111	0xbe132b40	-0.14371967
112	0xbee0a687	-0.4387705
113	0x3e0903d2	0.13380364
114	0xbeef7157	-0.4676616
115	0xbe969bd0	-0.2941575
116	0xbee9f003	-0.45690927
117	0x3eabc27d	0.3354682
118	0xbe815cb0	-0.25266027
119	0xbdfb6f47	-0.12277084
120	0x3ea3d741	0.32000163
121	0x3e5df7b6	0.21676525
122	0x3e6fb43d	0.23408599
123	0xbec67805	-0.38763443
124	0xbe95e3f4	-0.29275477
125	0xbe1dd12c	-0.15411824
126	0x3e9ce3cf	0.30642554
127	0xbddae8fa	-0.10688968
128	0xbed17efd	-0.40917197
129	0x3e7fbb4c	0.24973792
130	0xbe5bd748	-0.21468842
131	0xbc83491e	-0.016026076
132	0xbe809d27	-0.25119898
133	0x3e195d27	0.14976941
134	0x3d6f25b7	0.058385577
135	0xbd21acc1	-0.03947139
136	0x3e442b0c	0.19157046
137	0xbd864638	-0.06556362
138	0x3e38512b	0.17999713
139	0xbc1b3a88	-0.009474404
140	0x3e598497	0.21241985
141	0xbe04b8ee	-0.1296117
142	0x3eea1ff4	0.45727503
143	0xbc110121	-0.008850367
144	0xbd57c431	-0.052677337
145	0x3dc0dff3	0.09417715
146	0x3ec5a8ab	0.38605246
147	0x3f4ecf71	0.8078528
148	0x3dc9e2a8	0.098576844
149	0xbde8f412	-0.11374678
150	0xbc17461f	-0.009233027
151	0x3e734f5a	0.23760739
152	0xbf0f019e	-0.5586184
153	0x3dba7b3b	0.091055356
154	0xbd994047	-0.07482963
155	0x3e7b2c19	0.2452854
156	0x3d864cc8	0.065576136
157	0xbea52c75	-0.3226048
158	0xbe48b807	-0.19601451
159	0x3eee5ee8	0.46556783
160	0x3d25a158	0.040437073
161	0xbe33fd9f	-0.17577218
162	0x3ea81776	0.328304
163	0xbe50b794	-0.2038253
164	0xbd30f21c	-0.043199643
165	0x3d16fe8d	0.036863852
166	0xbcd6829a	-0.026185323
167	0xbec5785b	-0.38568386
168	0x3e35de64	0.17760617
169	0xbe681775	-0.22665198
170	0xbec384a2	-0.38187128
171	0x3e61b0fc	0.2204017
172	0xbe55f2d9	-0.2089342
173	0xbe112a8b	-0.14176385
174	0xbe67b99f	-0.22629403
175	0xbe9c2e9b	-0.30504307
176	0xbe74d035	-0.2390755
177	0xbd8685aa	-0.06568463
178	0x3e4ae709	0.19814695
179	0xbe9a957f	-0.3019218
180	0xbe991b0e	-0.29903454
181	0x3c58c761	0.013231129
182	0x3d033186	0.03202965
183	0x3ed23deb	0.41062865
184	0xbe65530b	-0.2239496
185	0x3e99fdac	0.3007635
186	0x3db3c124	0.08777073
187	0x3e386f68	0.18011248
188	0xbf369a8e	-0.7132958
189	0x3d7557ce	0.05989819
190	0xbe6cb0e6	-0.23114356
191	0xbe3c1eae	-0.18371078
192	0x3e68d838	0.22738731
193	0xbd79b068	-0.06095925
194	0x3e318c8b	0.17338769
195	0xbe756553	-0.23964433
196	0x3d7e1ae6	0.06203737
197	0xbe7cdbcd	-0.24693222
198	0x3e1fb168	0.15595019
199	0xbe974858	-0.2954738
200	0xbe2de8fa	-0.16983405
201	0xbeaf26fe	-0.34209436
202	0x3d3e38e5	0.046440978
203	0x3f0ccae7	0.54997104
204	0x3e2fba2e	0.17160866
205	0xbe775dba	-0.24156848
206	0xbe2fa003	-0.17150883
207	0xbdc94f62	-0.09829594
208	0xbeb70651	-0.35747007
209	0x3f03d4fa	0.5149685
210	0xbdbf594b	-0.09343203
211	0x3d95f68a	0.07322414
212	0xbe76323d	-0.24042602
213	0xbe49b75f	-0.19698857
214	0x3e9566bc	0.29179943
215	0x3e9b9220	0.30384922
216	0x3dbb88ad	0.09156928
217	0xbe4979af	-0.19675325
218	0x3ecaf0aa	0.39636737
219	0xbd76272b	-0.060095947
220	0xbe800248	-0.2500174
221	0xbe438689	-0.1909429
222	0x3ecdc447	0.4018881
223	0x37a4eeac	1.9661464e-05
224	0xbd62fd4c	-0.055417344
225	0xbe2df991	-0.16989733
226	0xbddb2d85	-0.107020415
227	0xbeb00b95	-0.34383836
228	0xbeff2d68	-0.4983933
229	0x3e206de1	0.15666915
230	0x3e8d291b	0.27570423
231	0x3f2b501a	0.669191
232	0xbe308a4c	-0.17240256
233	0x3eaf7380	0.34267807
234	0xbe9c91bd	-0.3057994
235	0x3e74fc13	0.23924284
236	0x3e9402a8	0.28908277
237	0x3eb4bbe0	0.35299587
238	0x3ea9f7c5	0.33196846
239	0x3ead8dca	0.3389724
240	0x3c929995	0.0178955
241	0x3e7ac8d4	0.24490672
242	0xbe595232	-0.21222761
243	0x3eed86bb	0.46391854
244	0xbe10fcce	-0.14158937
245	0xbc167e0f	-0.009185328
246	0xbefaf72f	-0.4901671
247	0xbda79da6	-0.08184366
248	0xbeb04760	-0.34429455
249	0x3a186333	0.00058131217
250	0xbe24c35f	-0.16090153
251	0xbe9b0752	-0.30279022
252	0xbe64996c	-0.22324151
253	0x3c0c40a4	0.008560333
254	0x3df0e5dc	0.11762592
255	0x3ed7994f	0.42109153

h_12.bias f4 [64]
0	0x3ebe1aba	0.37129766
1	0x3dff3d65	0.12462882
2	0x3e6fc532	0.23415068
3	0xbe1d54c2	-0.15364364
4	0xbec67cf4	-0.38767207
5	0x3e0a5262	0.13507989
6	0x3e5dd484	0.216631
7	0xbed29c21	-0.41134742
8	0x3e825b0f	0.25460097
9	0xbe8640c6	-0.26221293
10	0x3f1603b8	0.58599424
11	0x3f023cc4	0.5087397
12	0x3e97b266	0.29628295
13	0xbe71f4f2	-0.23628595
14	0x3ed069f7	0.40705845
15	0x3e514900	0.20438004
16	0x3e9dd274	0.30824625
17	0x3e5f1cb3	0.21788292
18	0x3ec2e72a	0.3806699
19	0xbeab1ad1	-0.33418897
20	0xbdbc132c	-0.09183344
21	0x3eb5a498	0.35477138
22	0x3e93367e	0.28752512
23	0x3f00879c	0.50206923
24	0xbe88ec0c	-0.2674259
25	0x3e5155e8	0.20442927
26	0x3e989bf6	0.2980649
27	0xbde17003	-0.11007693
28	0x3ef8d1a3	0.4859744
29	0x3e22b77f	0.1589031
30	0xbefb0750	-0.49029016
31	0xbd20ecc3	-0.039288294
32	0xbe3d9b97	-0.18516384
33	0x3d8c17dd	0.06840489
34	0xbc032ccd	-0.008006287
35	0xbeff6afb	-0.49886307
36	0xbd985b75	-0.07439319
37	0xbd202925	-0.03910174
38	0xbe014e99	-0.12627639
39	0x3ee013c2	0.43765074
40	0xbc94d5a0	-0.01816827
41	0x3ec6edf1	0.3885341
42	0x3ed83db1	0.42234567
43	0xbe9b7060	-0.30359173
44	0x3e608ed2	0.21929482
45	0x3eb3dd58	0.3512981
46	0xbe53a501	-0.20668413
47	0xbe9a46f4	-0.30132258
48	0x3f0e05b1	0.55477434
49	0x3f21ea91	0.63248545
50	0xbea4a412	-0.32156426
51	0x3eaef092	0.34167916
52	0xbe12730a	-0.14301696
53	0xbf01ac44	-0.5065348
54	0x3e85e68a	0.2615245
55	0x3ebbe149	0.36695316
56	0xbdc5a5bc	-0.09650752
57	0x3ee56277	0.44801685
58	0xbeb974eb	-0.36222014
59	0x3e9e9fb0	0.30981207
60	0x3ef0a11a	0.4699791
61	0x3eae02a7	0.339864
62	0x3e2ec91f	0.17068909
63	0x3e7a7c91	0.24461581

h_21.weight f4 [64, 64]
0	0xbdb18cab	-0.086694084
1	0xbe794a76	-0.24344811
2	0x3dcfba4f	0.101429574
3	0xbe13aa8c	-0.14420527
4	0x3d9ccf2e	0.07656704
5	0x3dade353	0.08490624
6	0x3dd91b8b	0.106009565
7	0x3d91977f	0.07108974
8	0x3da7d3b1	0.08194674
9	0x3e29d2b3	0.16584282
10	0x3e33aa54	0.17545444
11	0x3d9cda5c	0.07658836
12	0x3e935f0e	0.28783458
13	0xbd84eda1	-0.064906366
14	0x3dbebf23	0.093138
15	0x3ce5e252	0.02806202
16	0xbe448290	-0.1919043
17	0xbe37eadf	-0.1796069
18	0xbd29ec83	-0.04148532
19	0x3e3cd0e7	0.18439065
20	0x3da44217	0.08020418
21	0x3d7c74d0	0.06163484
22	0xbdcff34b	-0.10153826
23	0xbd0585f6	-0.03259846
24	0xbdbffdbd	-0.093745686
25	0xbb7e8e14	-0.003884201
26	0xbc792616	-0.015206834
27	0xbcf6f064	-0.030143924
28	0xbc030324	-0.007996354
29	0xbdbbedb6	-0.09176199
30	0x3cc428e8	0.023945287
31	0x3e166438	0.14686668
32	0x3ce5a06d	0.028030599
33	0x3cbf87ee	0.023380246
34	0x3e430ac3	0.19047074
35	0xbd769541	-0.060200933
36	0xbe624401	-0.22096254
37	0xbdfd6589	-0.12372882
38	0xbccaf88c	-0.02477672
39	0xbe5331e4	-0.206245
40	0xbdae950f	-0.085245244
41	0xbe13cd56	-0.14433798
42	0x3d9d320e	0.07675563
43	0x3d999265	0.07498626
44	0xbe318d07	-0.17338954
45	0xbd96a371	-0.07355393
46	0x3e5510a7	0.20807134
47	0x3e4947ee	0.19656345
48	0xbe1a64a8	-0.1507746
49	0x3e08ca54	0.13358432
50	0xbd26af7e	-0.040694706
51	0xbda16727	-0.07881003
52	0x3e57b5b1	0.21065404
53	0x3de5d03a	0.11221357
54	0xbd2c1122	-0.042008527
55	0x3e0093d0	0.12556386
56	0xbd2af040	-0.041733027
57	0xbe302557	-0.17201744
58	0x3d04f4ad	0.032459904
59	0xbdecf1de	-0.1156957
60	0x3d00ac51	0.031414334
61	0xbca875c9	-0.020563977
62	0x3d89b77b	0.06724449
63	0x3c3b412c	0.011429112
64	0x3e0e1538	0.13875282
65	0x3d9a0e33	0.075222395
66	0xbda0b462	-0.07846905
67	0x3e2192c0	0.15778637
68	0xbe32ada7	-0.17449056
69	0x3d3c902b	0.046035927
70	0x3da81bce	0.08208428
71	0x3dbb8c6a	0.09157641
72	0x3e14a790	0.14517045
73	0x3d5086dc	0.050909862
74	0x3dcfa2f9	0.101385064
75	0xbcd59edb	-0.026076725
76	0xbdcb9556	-0.09940593
77	0x3df80d7d	0.12111948
78	0x3dc08de3	0.09402063
79	0x3e0d4257	0.13794838
80	0xbc9f0c67	-0.019415094
81	0x3e103782	0.14083675
82	0xbd00365c	-0.03130184
83	0x3d9fa67e	0.07795428
84	0xbd069203	-0.03285409
85	0x3cd5f7d9	0.02611916
86	0xbcdc7bb6	-0.026914459
87	0xbce1227b	-0.027482262
88	0x3e4ba335	0.19886477
89	0x3e05e6f0	0.13076377
90	0xbc28162e	-0.010259194
91	0x3e06c8b7	0.13162504
92	0x3bd6bf4a	0.006553565
93	0xbe36af67	-0.17840348
94	0x3cadcc72	0.021215651
95	0x3e60add7	0.21941315
96	0x3e2b963f	0.16756533
97	0x3dc30281	0.09521962
98	0x3e1c9342	0.1529055
99	0x3e14261c	0.14467663
100	0x3d971761	0.07377506
101	0xbd784c7b	-0.060619812
102	0x3e2b04a3	0.16700988
103	0xbde020c2	-0.10943748
104	0x3e56f562	0.20992044
105	0x3d66b929	0.056328926
106	0xbd88b667	-0.066754155
107	0x3e41c9ad	0.1892459
108	0x3d25bdcb	0.040464204
109	0xbb957513	-0.0045610755
110	0xbca40519	-0.020021962
111	0xbd2a082b	-0.041511696
112	0x3e197d84	0.14989287
113	0xbcf2e356	-0.029649418
114	0xbd1ce900	-0.038308144
115	0x3cf5e79c	0.030017667
116	0x3c44cf6c	0.012012344
117	0x3dbb2faa	0.091399506
118	0xbe133455	-0.14375432
119	0xbe090552	-0.13380936
120	0x3c773ebc	0.015090641
121	0xbdc4cc80	-0.09609318
122	0x3d3154da	0.04329381
123	0xbd994679	-0.07484145
124	0xbd8d464c	-0.06898174
125	0xbe075be5	-0.13218649
126	0x3e0510d7	0.12994705
127	0x3c85922c	0.016305052
128	0xbd3b96bb	-0.045798045
129	0xbd02c53c	-0.03192638
130	0x3d81df42	0.06341411
131	0x3c48802f	0.012237593
132	0x3e6255c6	0.22103032
133	0xbdb88958	-0.09010571
134	0xbcaffb75	-0.021482209
135	0x3c714782	0.014726521
136	0xbda23278	-0.079197824
137	0x3d4a5664	0.049398795
138	0x3d94427e	0.07239245
139	0x3d1a4cc3	0.037670862
140	0x3da1f584	0.079081565
141	0x3dbe0b2d	0.09279475
142	0x3d879c8d	0.066216566
143	0xbd9892c0	-0.07449865
144	0x3d36aa32	0.044595905
145	0xbe2ecafb	-0.17069618
146	0x3c565ace	0.013083173
147	0x3a82f796	0.0009991999
148	0xbd37900b	-0.044815104
149	0xbd599745	-0.053122777
150	0x3e2cb703	0.16866688
151	0x3dc8f04a	0.098114565
152	0x3d3d2ecc	0.046187207
153	0x3e448857	0.19192635
154	0xbdbd8e7d	-0.09255693
155	0xbca44ab2	-0.020055149
156	0x3d514802	0.051094063
157	0x3e4135df	0.18868206
158	0x3baa7447	0.0052018496
159	0x3dcfa96c	0.101397365
160	0xba12feae	-0.0005607408
161	0x3c9d6ead	0.019217813
162	0x3dea3115	0.11435143
163	0x3b52312d	0.0032072768
164	0xbceef11a	-0.0291677
165	0x3c42eae9	0.011896827
166	0x3e4345c9	0.1906959
167	0x3d86d7b0	0.06584108
168	0xbd340a23	-0.04395498
169	0x3da47885	0.080308
170	0x3d070863	0.032966983
171	0xbdb9e02e	-0.09075962
172	0x3d8e4fa1	0.06948782
173	0x3e32d8c0	0.17465496
174	0x3d1662bc	0.036715254
175	0xbdc8986e	-0.09794699
176	0x3c99684c	0.01872649
177	0x3d8f10b5	0.069856085
178	0x3e1b00a5	0.15136965
179	0xbd8efe85	-0.069821395
180	0xbdacb32f	-0.08432614
181	0x3e142dbd	0.14470573
182	0x3c91fded	0.017821277
183	0xbbe6fc11	-0.0070490916
184	0x3c35d8b5	0.01109903
185	0xbdcb055e	-0.09913133
186	0x3d912f75	0.0708913
187	0xbcdf1b35	-0.027234653
188	0x3e2fd7a1	0.171721
189	0x3e37065e	0.17873523
190	0x3cbc09d2	0.022953901
191	0x3e352672	0.17690447
192	0x3c04de8f	0.008109703
193	0x3e224a14	0.15848571
194	0xbe4ae372	-0.19813326
195	0x3d151171	0.036393587
196	0xbd296a84	-0.041361347
197	0xbd708fe2	-0.058730967
198	0x3d3b9edb	0.045805793
199	0xbe0586d3	-0.13039713
200	0xbd5b4a1b	-0.05353747
201	0x3df0bd58	0.117548645
202	0xbe05cac4	-0.1306563
203	0xbe376364	-0.17909008
204	0xbdc6b902	-0.09703256
205	0xbe913fa4	-0.28368866
206	0x3d86d4a4	0.06583527
207	0x3de282e2	0.1106012
208	0xbd78e396	-0.060763918
209	0x3d38bf13	0.045104098
210	0xbc219124	-0.009861264
211	0x3e0a9daf	0.13536714
212	0x3e1d58d4	0.15365916
213	0xbd97746d	-0.07395253
214	0xbe3c3efb	-0.183834
215	0xbe1b140b	-0.15144365
216	0xbe04d7b6	-0.12972912
217	0x3d526403	0.05136491
218	0x3e5bc06d	0.21460123
219	0x3cadcfcc	0.02121725
220	0xbcd4bd07	-0.025969042
221	0x3d672750	0.056433976
222	0xbd64285c	-0.055702552
223	0xbd96418d	-0.073367216
224	0xbd1c8a5d	-0.03821789
225	0xbdd0b054	-0.10189882
226	0xbbba776d	-0.005690506
227	0x3d9045d8	0.07044572
228	0x3e3a1ee7	0.18175851
229	0xbc780eb7	-0.015140227
230	0xbe28de1a	-0.16490975
231	0x3e863e8a	0.2621959
232	0x3e132d06	0.14372644
233	0x3d968bbd	0.07350872
234	0xbe02780c	-0.12741107
235	0x3e0931c9	0.13397898
236	0x3e0fd7bd	0.14047141
237	0x3ddc0e65	0.10744933
238	0x3e1cfd9f	0.15331124
239	0x3c6b59a6	0.014364636
240	0x3dd090a8	0.10183841
241	0x3d8add92	0.067805424
242	0x3d4dbeba	0.05023072
243	0x3e89815f	0.26856515
244	0x3dea7fbb	0.11450144
245	0x3d61e078	0.05514571
246	0x3c10d060	0.008838743
247	0x3d618643	0.055059683
248	0x3c906180	0.017624617
249	0x3dd4c2a3	0.103886865
250	0x3d52b72b	0.051444214
251	0x3e4bacfd	0.19890209
252	0xbdef5c53	-0.11687531
253	0x3d63b3b0	0.055591285
254	0x3d9a36e7	0.07530003
255	0xbd204c4c	-0.039135262

h_21.bias f4 [64]
0	0xbdde9e7a	-0.10870071
1	0x3e5ce6a3	0.21572356
2	0x3cc28388	0.02374436
3	0x3e3d0317	0.1845821
4	0x3e887e8b	0.26659045
5	0x3e97b35f	0.29629037
6	0x3e0dfd91	0.13866259
7	0x3d65cbeb	0.056102674
8	0x3e392897	0.1808189
9	0x3c62ed86	0.013850575
10	0x3e814620	0.25248814
11	0x3eabc933	0.3355194
12	0x3e1ef8cd	0.15524597
13	0x3e179e53	0.1480649
14	0x3e3bc5f4	0.18337232
15	0x3e5de890	0.21670747
16	0x3e3fd04f	0.18731807
17	0x3d242e83	0.04008342
18	0x3eb36205	0.3503572
19	0x3dc77d00	0.09740639
20	0x3c0a42f8	0.008438818
21	0x3e29288a	0.1651937
22	0x3eb41d0a	0.35178405
23	0x3df83707	0.12119871
24	0x3e2d06a3	0.16897063
25	0x3e7c5e14	0.24645263
26	0x3e817f5e	0.25292486
27	0x3e015aa5	0.12632234
28	0x3d062770	0.032752454
29	0x3d8b5f18	0.06805247
30	0x3e4dcb59	0.20097102
31	0x3dafaa42	0.08577396
32	0x3d177e0d	0.036985446
33	0x3e9c8e97	0.30577537
34	0x3e98e033	0.2985855
35	0x3e14cef8	0.14532077
36	0x3e6408d7	0.22268997
37	0x3dc82eb5	0.09774534
38	0x3e634163	0.22192912
39	0x3e5ed3a8	0.21760428
40	0x3d78758d	0.06065898
41	0x3cdc63d8	0.026903078
42	0x3c27ad84	0.01023424
43	0x3e758e2e	0.23980018
44	0x3e79588e	0.24350187
45	0x3da9c993	0.082904
46	0x3e819425	0.25308338
47	0x3e427635	0.18990405
48	0x3e2ff233	0.17182235
49	0x3dd92ea7	0.10604601
50	0xbd23f850	-0.04003173
51	0x3d1aca69	0.03779069
52	0x3dce6668	0.10078126
53	0x3d86cb77	0.065817766
54	0x3e38d9d5	0.18051846
55	0x3decc509	0.11561019
56	0x3d892597	0.06696623
57	0x3e06df1e	0.1317105
58	0xbd9d0339	-0.0766663
59	0xbc36b9c9	-0.011152693
60	0x3e9c6c21	0.30551246
61	0x3eb2db0a	0.3493274
62	0xbdb5eb3a	-0.088827565
63	0x3dc8e100	0.0980854

h_22.weight f4 [64, 64]
0	0xbe3505b6	-0.1767796
1	0x3de54c9c	0.11196253
2	0x3cab6f4b	0.020927092
3	0xbe3a7e51	-0.18212248
4	0x3ec57966	0.38569182
5	0x3d97dfb3	0.07415714
6	0xbd3901ab	-0.045167606
7	0xbe3fedf0	-0.1874311
8	0x3e08f032	0.13372877
9	0x3df3c6a1	0.1190312
10	0x3db7207e	0.08941744
11	0x3d2b341f	0.041797753
12	0x3dfe2bf1	0.12410725
13	0x3da83312	0.08212866
14	0xbdd6d557	-0.1048991
15	0x3dc4bc92	0.096062794
16	0x3d91c79f	0.07118153
17	0xbbd2fbdc	-0.0064387154
18	0x3d5326ea	0.051550783
19	0xbe4c9908	-0.19980252
20	0xbd1deec8	-0.038557798
21	0x3d12337c	0.03569363
22	0x3d9381e5	0.0720251
23	0x3ec82051	0.39087155
24	0x3e2cb25d	0.16864915
25	0xbe127e49	-0.14305986
26	0xbc3f9a3d	-0.011694488
27	0xbafe6f8f	-0.0019411909
28	0x3d4d6eb4	0.050154403
29	0xba8e52e2	-0.0010858441
30	0xbea446fb	-0.32085404
31	0xbbdbf2ca	-0.0067122923
32	0x3d8f54be	0.06998585
33	0x3d396c85	0.045269508
34	0xbe13112c	-0.1436202
35	0xbe5348ee	-0.20633289
36	0xbc003720	-0.007825643
37	0x3d43bc7c	0.047787175
38	0xbe06ed5d	-0.13176484
39	0x3e0140d3	0.12622385
40	0xbcc3e920	-0.023914874
41	0x3bfe1b5b	0.007754726
42	0x3e18cb28	0.14921248
43	0x3e156a5f	0.14591359
44	0xbe245eaf	-0.16051744
45	0x3d3f3d8f	0.046689566
46	0xbe508995	-0.20364983
47	0xbd38d431	-0.045124236
48	0x3d851012	0.06497206
49	0x3dd8f641	0.10593844
50	0xbe36fe67	-0.17870484
51	0x3db07ba4	0.086173326
52	0xbe0cac6e	-0.13737652
53	0xbd57d55d	-0.052693713
54	0x3d777151	0.0604108
55	0xbca29208	-0.019845024
56	0xbd13d029	-0.03608719
57	0x3e92998c	0.28632772
58	0xbd80df71	-0.06292618
59	0xbe03782b	-0.12838809
60	0x3d90b75c	0.07066223
61	0x3da3eee3	0.080045484
62	0x3d687532	0.05675239
63	0x3c61d1b0	0.013782904
64	0xbcb820c7	-0.022476567
65	0xbf3423f5	-0.70367366
66	0x3bc2de84	0.005946936
67	0x3de1e700	0.11030388
68	0x3e9d15a7	0.30680582
69	0x3d18293a	0.03714869
70	0xbce0b6de	-0.027430948
71	0x3e043107	0.12909327
72	0x3d956e8d	0.072964765
73	0x3e59358e	0.21211836
74	0xbe0c99db	-0.13730566
75	0xbcc4c2a8	-0.0240186
76	0xbdfd1654	-0.123577744
77	0x3e038623	0.12844138
78	0x3e0ddbd5	0.1385339
79	0x3d6cb816	0.057792746
80	0x3d16f03d	0.036850203
81	0xbde0c314	-0.10974708
82	0xbe216bf0	-0.15763831
83	0xbdb20025	-0.08691434
84	0x3b82e660	0.003994748
85	0x3e3d5c97	0.18492351
86	0xbd87ea06	-0.06636433
87	0xbd351d09	-0.044217143
88	0xbd983a12	-0.07432951
89	0x3dcad2f7	0.099035196
90	0xbde10e4a	-0.109890535
91	0xbd580244	-0.052736536
92	0xbdf9d115	-0.12198082
93	0xbd96ff79	-0.07372946
94	0x3e594509	0.21217741
95	0x3ec87b7f	0.3915672
96	0xbdb0e388	-0.08637148
97	0x3e7da80b	0.24771135
98	0x3e9a5764	0.301448
99	0x3e537f0c	0.20653933
100	0x3b8d3880	0.004309714
101	0x3de7bb0a	0.11314972
102	0xbbe1db6a	-0.0068926113
103	0x3dcdad86	0.100428626
104	0xbe04f0d6	-0.12982497
105	0xbd88794e	-0.06663762
106	0xbdcdaff5	-0.10043327
107	0x3e9f350e	0.31095165
108	0x3e1a3835	0.15060504
109	0xbd5357ec	-0.05159752
110	0x3e5c3bec	0.21507233
111	0x3d7cd905	0.061730403
112	0xbe60061a	-0.21877328
113	0x3e0c9637	0.13729177
114	0x3d9b7cbd	0.07592151
115	0xbe651275	-0.22370322
116	0xbdc957d2	-0.098312035
117	0x3cc42736	0.023944478
118	0x3e7479bc	0.23874563
119	0x3e620fe4	0.22076374
120	0x3d84686f	0.064652316
121	0x3de143bd	0.10999248
122	0x3e495098	0.1965965
123	0xbd67d02b	-0.05659501
124	0xbcce488e	-0.025181081
125	0x3de1dc4d	0.11028347
126	0xbdc56dae	-0.0964006
127	0x3e659117	0.22418629
128	0x3db23793	0.08702006
129	0x3ec9dfb5	0.39428487
130	0x3e247ac8	0.16062462
131	0x3e4967e7	0.19668542
132	0x3e1313f9	0.14363088
133	0x3e397759	0.18111934
134	0x3d412313	0.04715259
135	0x3eb92b25	0.3616573
136	0x3d3f4b53	0.046702694
137	0x3e6ce1ff	0.23133086
138	0xbe093834	-0.13400346
139	0xbdb8cbdd	-0.09023259
140	0x3d2ffad5	0.04296382
141	0x3e2a8976	0.16654
142	0xbd8a2ba4	-0.06746605
143	0x3d443a34	0.04790707
144	0xbd8628fb	-0.06550785
145	0xbd35fbfa	-0.044429757
146	0x3c8cb708	0.01717712
147	0x3e276d04	0.1635018
148	0x3dbdecb0	0.0927366
149	0x3ae0ffa9	0.0017166036
150	0x3d90a86e	0.070633754
151	0xbe428e50	-0.189996
152	0x3e468afb	0.19388954
153	0x3e4a1acb	0.19736783
154	0x3dd72b5e	0.105063185
155	0xbd263272	-0.040575452
156	0xbdce4029	-0.10070831
157	0x3d82c6f4	0.063856035
158	0x3e5a6b9c	0.21330112
159	0xbef49982	-0.47773367
160	0x3dcf06e4	0.10108736
161	0x3d59f1d6	0.05320915
162	0xbd38657b	-0.045018654
163	0x3eabae1f	0.3353128
164	0x3cb36b08	0.021901622
165	0x3d890a20	0.06691384
166	0x3e18ec35	0.14933856
167	0xbd3011d4	-0.042985752
168	0x3cb5af80	0.022178411
169	0x3e23bfb2	0.15991095
170	0xbe345102	-0.17609027
171	0x3e7e5599	0.2483734
172	0x3e0b2bcb	0.13590924
173	0x3dc80ab5	0.09767667
174	0x3ddf2cfa	0.108972505
175	0x3e3504cc	0.17677611
176	0xbdf2348e	-0.1182643
177	0xb84fcd89	-4.9544065e-05
178	0x3e11b85b	0.14230482
179	0xbd1e577d	-0.038657654
180	0xbc362c02	-0.011118891
181	0x3eb9b8d0	0.36273813
182	0x3e6030a5	0.21893556
183	0x3d6ce849	0.057838712
184	0x3dfeb24e	0.12436353
185	0xbe16e84e	-0.14737055
186	0x3e62ec7e	0.22160527
187	0x3dfee73b	0.124464475
188	0x3ec250df	0.37952325
189	0x3d03ee04	0.03220941
190	0x3d51a13b	0.051179152
191	0x3dbc99c0	0.09209013
192	0x3e101d28	0.14073622
193	0xbd36a714	-0.044592932
194	0xbde70e7c	-0.112820596
195	0x3e36c1b9	0.17847337
196	0xbe85c5eb	-0.26127562
197	0x3e609a1f	0.21933793
198	0x3df6084b	0.120133005
199	0x3c88fd55	0.01672236
200	0xbd6fd58a	-0.058553256
201	0x3d5df29e	0.054186456
202	0x3e064c26	0.13114986
203	0xbd07eb48	-0.033183366
204	0xbd08da67	-0.03341141
205	0x3de2aac4	0.11067727
206	0x3d3eb1b5	0.046556193
207	0x3d483815	0.04888161
208	0xbee05456	-0.43814343
209	0x3de58c73	0.11208429
210	0xbdc7f7df	-0.097640745
211	0x3e3a60c5	0.18200977
212	0x3cb54e38	0.022132024
213	0x3e58073b	0.21096508
214	0xbd83566a	-0.064129665
215	0x3d04e221	0.032442216
216	0x3eba78a7	0.36420175
217	0x3dbbb411	0.09165204
218	0x3e8db83f	0.2767963
219	0xbdc70091	-0.09716905
220	0x3cef287f	0.029194115
221	0xbe0fd4a9	-0.14045967
222	0x3e313fe4	0.17309529
223	0xbd6fff13	-0.058592867
224	0xbd273fdc	-0.040832385
225	0x3c144c2f	0.009051367
226	0x3dc94dd6	0.09829299
227	0xbe1b80c0	-0.15185833
228	0x3db13dee	0.0865439
229	0xbc1b30a0	-0.009472042
230	0x3dc22010	0.09478772
231	0x3cc7fc23	0.02441222
232	0x3efa19e2	0.48847872
233	0x3d153231	0.03642482
234	0x3d2a987e	0.041649334
235	0xbd3ad073	-0.04560895
236	0x3e1f03fd	0.15528865
237	0xbd1fcbe4	-0.039012805
238	0xbe6466f9	-0.22304906
239	0x3dcf44d1	0.101205476
240	0xbcd6cd7e	-0.026221033
241	0xbda36a52	-0.07979263
242	0xbdb00206	-0.08594136
243	0x3cd2f351	0.025750788
244	0xbe8abed8	-0.27098727
245	0xbd60325b	-0.054735523
246	0x3da10e79	0.078640886
247	0x3e2e0d99	0.16997375
248	0x3d7b0129	0.061280403
249	0x3dadd0f3	0.084871195
250	0xbdbeccd4	-0.093164116
251	0x3cd9088e	0.026493337
252	0xbe07e80a	-0.1327211
253	0xbdf4a793	-0.11946025
254	0xbd4b8e4a	-0.049696244
255	0x3e85a394	0.26101363

h_22.bias f4 [64]
0	0x3e58c28c	0.21167964
1	0x3b876104	0.004131438
2	0xbda659ba	-0.08122583
3	0x3e00c03d	0.12573333
4	0x3e4b4b97	0.19853054
5	0x3db95410	0.09049237
6	0x3d0b1e09	0.03396419
7	0xbd0bb22a	-0.034105457
8	0xbdd3fa23	-0.10350444
9	0xbe0adb18	-0.1356014
10	0x3d05aac8	0.032633573
11	0x3e2c12eb	0.16804092
12	0xbc365a94	-0.011129994
13	0x3d68a914	0.05680187
14	0x3e02c8dc	0.12771934
15	0x3e1142fc	0.14185709
16	0x3cb99059	0.022651838
17	0x3dd5270d	0.10407839
18	0x3e06b76c	0.13155907
19	0x3d2b4ced	0.04182141
20	0x3e2a60b5	0.16638453
21	0xbdc49592	-0.09598841
22	0x3e014ff8	0.12628162
23	0x3cf37453	0.029718554
24	0xbccdeef2	-0.025138352
25	0x3dfdbfb2	0.123900786
26	0x3e438cba	0.19096652
27	0x3cdc9ea8	0.026931122
28	0x3d2478f2	0.040154405
29	0x3e64b874	0.22335988
30	0x3cf237ee	0.029567685
31	0x3bc466e4	0.005993711
32	0x3d0ea3da	0.03482423
33	0x3ea8e161	0.3298445
34	0xbd9e1521	-0.07718874
35	0xbd7a2996	-0.061074816
36	0xbd8963d6	-0.06708495
37	0xbd4956b6	-0.04915496
38	0x3d80dc37	0.06292003
39	0x3dde4dce	0.10854684
40	0xbd36c137	-0.044617858
41	0x3e585646	0.2112666
42	0x3df0dde2	0.11761071
43	0xbd062e3b	-0.032758933
44	0xbcc620f5	-0.024185637
45	0xbe2a4673	-0.16628437
46	0xbe0eac15	-0.13932832
47	0x3d8347d6	0.06410186
48	0xb9a806bf	-0.00032048483
49	0x3e00917f	0.12555502
50	0x3d8120f5	0.06305114
51	0x3c67606d	0.014122111
52	0x3da5a58b	0.080882154
53	0x3e200c8e	0.15629789
54	0xbe84efe2	-0.25964266
55	0x3e3df3bb	0.18550007
56	0xbd5b5cff	-0.053555485
57	0xbdb71c9a	-0.08941002
58	0x3c68dc3b	0.014212663
59	0x3e177a70	0.147928
60	0xbbf63e92	-0.007514783
61	0x3e3031bd	0.17206474
62	0x3c13e370	0.009026393
63	0x3df36c69	0.11885912

h_32.weight f4 [128, 128]
0	0x3e076298	0.13221204
1	0x3cdbf4c7	0.026850117
2	0x3cad50fe	0.021156784
3	0xbe0f3195	-0.13983758
4	0xbc1ee0eb	-0.009697179
5	0xbc947108	-0.018120304
6	0x3d97bd91	0.07409204
7	0x3e005cb8	0.1253537
8	0xbc3e61a0	-0.011619955
9	0x3cf7d162	0.030251209
10	0xbcfcd251	-0.030862005
11	0xbde00b17	-0.10939615
12	0x3dfad00b	0.12246712
13	0xbd4c2e91	-0.049849097
14	0x3d3932a2	0.045214303
15	0x3e32d6c0	0.17464733
16	0xbdc54d39	-0.0963387
17	0xbc9e4b71	-0.019323083
18	0xbe005886	-0.12533769
19	0x3d9f54e6	0.07779865
20	0xbc70c130	-0.014694497
21	0x3aa6c478	0.0012723347
22	0x3c28e09d	0.010307458
23	0x3d59aa75	0.053141076
24	0xbd48aaaf	-0.0489909
25	0xbd5733d3	-0.052539658
26	0xbde2846a	-0.11060412
27	0x3d852975	0.06502048
28	0x3de8a6cf	0.11359941
29	0xbdba55ad	-0.090983726
30	0xbc24e6be	-0.010064779
31	0x3e032294	0.1280616
32	0x3dbd2a26	0.09236555
33	0x3d104891	0.035225455
34	0xbb95eeb8	-0.0045755766
35	0xbcaf3e6b	-0.021392068
36	0xbc212d41	-0.0098374495
37	0xbbe369bb	-0.0069400943
38	0xbdc309e0	-0.09523368
39	0xbdbbad7f	-0.09163951
40	0x3de77bcd	0.1130291
41	0x3ddfd2f7	0.1092891
42	0x3e225c78	0.15855587
43	0x3d3c1a57	0.045923557
44	0xbb15e1fb	-0.002287029
45	0x3d9f8fe8	0.0779112
46	0xbb462f43	-0.0030240573
47	0xbddf9298	-0.109166324
48	0x3bd3fd13	0.006469378
49	0xbe17fad3	-0.14841776
50	0x3e2975b5	0.16548808
51	0x3db6a5ac	0.08918318
52	0x3dfdb03d	0.123871304
53	0x3cf82637	0.03029166
54	0xbe097fc5	-0.13427646
55	0x3dece785	0.11567596
56	0x3d80cbe8	0.06288892
57	0xbcf62843	-0.030048495
58	0x3db32860	0.08747935
59	0x3cb0c2bb	0.02157723
60	0x3d416bdc	0.047222003
61	0xbd566a8a	-0.052347697
62	0xbd1f6aa0	-0.038920045
63	0xbdda0054	-0.10644594
64	0x3d237cef	0.039914068
65	0x3dd43659	0.103619285
66	0x3dd279d7	0.10277145
67	0xbdd33a00	-0.10313797
68	0xbe26d372	-0.16291597
69	0x3dc08b4d	0.094015695
70	0x3d045a33	0.032312583
71	0xbdc713b6	-0.097205564
72	0x3c96b6ef	0.018397776
73	0x3c48b181	0.0122493515
74	0x3d826aff	0.06368064
75	0x3cde1d8c	0.027113698
76	0xbbc2fbc3	-0.0059504225
77	0x3ce275aa	0.027643997
78	0xbd28671d	-0.04111396
79	0x3e1b0019	0.15136756
80	0x3d5e507a	0.054275967
81	0x3cea74a8	0.02862008
82	0xbd27b4a0	-0.04094374
83	0xbcae2f0d	-0.02126267
84	0xbd3e8a11	-0.04651839
85	0xbd91543d	-0.07096145
86	0xbe1b8372	-0.15186861
87	0x3d434d92	0.0476814
88	0x3e11ded4	0.14245158
89	0x3dd66d6f	0.104700916
90	0x3c9b4120	0.018951952
91	0x3cda3fe9	0.026641803
92	0x3dae2609	0.085033484
93	0x3d846083	0.06463721
94	0xbd6a8901	-0.057259563
95	0x3e27c265	0.1638275
96	0x3de64108	0.112428725
97	0xbcc63c97	-0.024198813
98	0x3e2ef00d	0.1708376
99	0xbd8a4019	-0.06750507
100	0xbd57d18b	-0.05269007
101	0x3db32834	0.087479025
102	0x3d0fcb70	0.035106122
103	0x3cb06138	0.021530733
104	0xbd926add	-0.07149289
105	0x3f17f300	0.59355164
106	0x3d45ea83	0.04831935
107	0x3dafc59a	0.085826114
108	0x3db2f4bb	0.08738085
109	0x3decc695	0.11561314
110	0xbd0abb0b	-0.033869784
111	0xbb989062	-0.0046558836
112	0x3ba2c5f5	0.004967446
113	0xbd054793	-0.03253896
114	0xbdfea73f	-0.124342434
115	0x3e19137a	0.14948836
116	0x3dff03f0	0.12451923
117	0x3e60d2c8	0.21955407
118	0xbd03b3db	-0.032153945
119	0x3df34ce1	0.11879898
120	0x3c5d092e	0.013490958
121	0xbcc5e3d2	-0.024156485
122	0x3e11577c	0.14193529
123	0xbc9289f4	-0.017888047
124	0x3dc99774	0.098433405
125	0xbd4adca5	-0.04952683
126	0x3d1527c4	0.036414877
127	0x3d202782	0.039100178
128	0xbd9838ec	-0.07432732
129	0x3d7b7f51	0.061400715
130	0x3d2b3470	0.041798055
131	0xbd8ed3c6	-0.06973986
132	0x3db6a29f	0.08917736
133	0x3d0c60e7	0.0342721
134	0xbe1779e5	-0.14792593
135	0xbdbb6317	-0.09149759
136	0x3ce1268d	0.027484203
137	0xbd8f72c8	-0.07004315
138	0x3c51a3a5	0.012795364
139	0xbcfece6b	-0.031104287
140	0x3d24845d	0.040165294
141	0x3d26050e	0.040532164
142	0x3dd34194	0.103152424
143	0xbdc2fe0a	-0.0952111
144	0x3bc57764	0.0060261954
145	0x3cec72f5	0.02886341
146	0x3d9aa828	0.075516045
147	0xbd861431	-0.0654682
148	0x3d8feb01	0.07027245
149	0xbd34bb03	-0.04412366
150	0x3d74c19d	0.059754957
151	0x3d41b22d	0.047289062
152	0x3caa3164	0.020775504
153	0xbd85feb9	-0.06542725
154	0x3d7b217e	0.061311238
155	0x3b96da72	0.0046036774
156	0x3bf50b18	0.007478129
157	0x3bc9b84b	0.0061560026
158	0x3db48356	0.08814113
159	0x3cd469ed	0.025929416
160	0xbd4a3e42	-0.04937578
161	0x3c443b2d	0.011976999
162	0xbca081d8	-0.019593164
163	0x3dbebf4a	0.09313829
164	0xbda9d65b	-0.08292838
165	0x3df6d626	0.12052564
166	0xbde0378f	-0.10948097
167	0x3da9fc3c	0.08300063
168	0xbdddb0c4	-0.10824731
169	0xbd1f87cc	-0.038947865
170	0xbdcd2b7b	-0.10018059
171	0x3d3f6073	0.04672284
172	0x3cb5808c	0.022156022
173	0xbcc1b59c	-0.023646168
174	0xbd7e9b6d	-0.062159944
175	0x3d5df56d	0.054189134
176	0xbd8c400c	-0.068481535
177	0x3d89abfd	0.06722257
178	0xbd2752b5	-0.04085036
179	0xbd89481e	-0.067032084
180	0x3db0d91b	0.086351596
181	0xbcac7d05	-0.021055708
182	0x3dded940	0.10881281
183	0xbca270bc	-0.019829147
184	0xbd8971a2	-0.06711127
185	0xbce13ab3	-0.02749381
186	0x3c630dfd	0.013858316
187	0xbd8a4037	-0.06750529
188	0xbd96b5ca	-0.07358892
189	0x3dbdd41c	0.09268972
190	0xbb0d0d1f	-0.0021522713
191	0x3dcce446	0.10004477
192	0x3dea893c	0.11451957
193	0xbd1821df	-0.037141677
194	0xbd583216	-0.05278214
195	0x3d591d9d	0.053006757
196	0x3e524f79	0.20538129
197	0xbdac57e8	-0.08415204
198	0xbd5902e8	-0.052981287
199	0x3dd54c8a	0.10414989
200	0x3c01db06	0.007925754
201	0xbcb29fa0	-0.02180463
202	0x3d854f0d	0.06509218
203	0x3e00ebf8	0.12590015
204	0x3c21d609	0.00987769
205	0x3d1e7952	0.03868992
206	0x3e078e39	0.13237847
207	0xbc367d35	-0.01113825
208	0xbdbd560b	-0.09244927
209	0x3d3df5a0	0.046376824
210	0xbd5fc444	-0.054630533
211	0xbdaa20bd	-0.083070256
212	0xbcaf21df	-0.021378456
213	0x3e1da0ed	0.1539342
214	0x3e142026	0.14465389
215	0x3da1f9b6	0.07908957
216	0x3d2a4d6f	0.041577753
217	0xbbabdd78	-0.005244907
218	0x3ddac446	0.106819674
219	0x3c98b9b9	0.018643247
220	0xbd8135fa	-0.06309123
221	0xbe1db8d7	-0.15402542
222	0x3dc3574f	0.09538137
223	0x3c4f3513	0.012646931
224	0xbc9b79ce	-0.01897898
225	0x3d50f8a6	0.05101838
226	0xbe394a3d	-0.18094726
227	0x3ccc613e	0.024948712
228	0x3c1e7a35	0.009672691
229	0xbccae70a	-0.024768371
230	0x3cb3346a	0.021875579
231	0x3b2a4034	0.002597821
232	0x3d0dc214	0.034608915
233	0xbf2685ad	-0.65047723
234	0xbd66d6b1	-0.05635709
235	0x3d4dfd28	0.050290257
236	0x3cd9348e	0.026514318
237	0xbd4cd9e9	-0.050012503
238	0x3db8b924	0.09019688
239	0x3dc523aa	0.09625943
240	0x3e401aee	0.18760273
241	0x3b364eda	0.0027817995
242	0x3e21e845	0.1581126
243	0xbd9fd86b	-0.0780495
244	0x3dcc8083	0.09985449
245	0xbe19f9a6	-0.1503664
246	0xbae588f4	-0.0017512129
247	0x3e3aa08f	0.1822531
248	0xb7c9d055	-2.405808e-05
249	0xbc913925	-0.017727444
250	0x3e0a9aa8	0.13535559
251	0x3e01605f	0.12634419
252	0xbe23eea0	-0.16008997
253	0x3d0b9a76	0.034082852
254	0xbd8e75e5	-0.0695608
255	0x3ccb4e39	0.024817573

h_32.bias f4 [128]
0	0xbdb25c14	-0.08708969
1	0x3d633fab	0.05548064
2	0xbd69fc0a	-0.05712513
3	0x3c97b605	0.01851941
4	0xbd99b05b	-0.0750434
5	0xbd1ec46e	-0.03876155
6	0x3cffc08e	0.031219747
7	0x3e261cb4	0.16221887
8	0x3da33d20	0.07970643
9	0x3db81623	0.08988597
10	0xbd4194d6	-0.04726108
11	0x3ccae1cb	0.02476587
12	0x3ddf77ff	0.10911559
13	0xbd9ed52f	-0.07755505
14	0xbe3e21ba	-0.18567553
15	0xbc477c65	-0.012175654
16	0xbc66cca5	-0.014086877
17	0x3d969c08	0.07353979
18	0x3d9b371c	0.07578871
19	0x3db6562f	0.08903157
20	0x3c729006	0.014804846
21	0x3e0dd17f	0.13849448
22	0x3d94c9e1	0.07265068
23	0x3e1e3352	0.15449265
24	0x3d8d577a	0.069014505
25	0x3d514976	0.05109545
26	0xbdd5564a	-0.10416849
27	0xbc6e33d7	-0.014538727
28	0xbdb6e210	-0.08929837
29	0x3d159a1c	0.036523923
30	0x3d429455	0.04750474
31	0xbdbc59a7	-0.09196787
32	0xbccd4d38	-0.025061235
33	0x3e18f3f9	0.14936818
34	0xbc4d98d2	-0.012548642
35	0x3d3e441b	0.04645167
36	0x3d17d55c	0.03706871
37	0xbc0d6ad7	-0.00863143
38	0xbd6402b7	-0.05566665
39	0x3cfc8ae5	0.030827949
40	0x3e055345	0.13020046
41	0xbd8cce47	-0.06875282
42	0xbcbe1fac	-0.023208462
43	0xbd9ba7e5	-0.07600383
44	0x3de02979	0.1094541
45	0x3d8f158f	0.06986534
46	0x3db3f6f8	0.0878734
47	0xbd97f538	-0.07419819
48	0x3dd1c719	0.10243053
49	0x3e0615ca	0.1309425
50	0x3d313961	0.04326761
51	0x3d1d74c3	0.03844143
52	0x3c88f47e	0.016718145
53	0xbca264f5	-0.01982353
54	0xbd36f497	-0.044666853
55	0xbdf80d9f	-0.12111973
56	0xbd002bf8	-0.031291932
57	0x3e3eba6a	0.18625799
58	0x3d927cc3	0.07152703
59	0x3be62383	0.0070232763
60	0x3d3773cc	0.044788167
61	0x3d2e163c	0.042501673
62	0x3d62507d	0.05525254
63	0x3dd569f0	0.104205966
64	0x3dce3e8f	0.10070526
65	0x3e3c9bdb	0.18418829
66	0x3dac7cb7	0.08422225
67	0xbd6a4dd4	-0.05720313
68	0xbd0b6053	-0.03402741
69	0x3df42ed3	0.119229935
70	0x3d6a536f	0.057208475
71	0xbe0f48a8	-0.1399256
72	0x3dafaa63	0.085774206
73	0x3e0bc628	0.1364981
74	0xbd534bd7	-0.051586
75	0xbd891bf0	-0.06694782
76	0xbb375bb9	-0.0027978255
77	0x3d206a75	0.039164025
78	0xbde55a03	-0.11198809
79	0x3df8ff80	0.12158108
80	0xbc37963c	-0.011205252
81	0x3bf0518c	0.00733394
82	0xbd3766a3	-0.044775616
83	0x3e3da56b	0.18520133
84	0x3d4fd2de	0.050738208
85	0x3d1270c2	0.035752065
86	0x3de0a265	0.10968474
87	0x3e0fea5a	0.14054242
88	0x3d0af4f8	0.033925027
89	0x3c182b81	0.009287716
90	0x3cdc4791	0.026889594
91	0x3e27c60d	0.16384144
92	0x3dabab2e	0.08382259
93	0x3d77c81e	0.06049358
94	0x3dd11622	0.102092996
95	0xbd3ed3dd	-0.046588767
96	0x3dab5a65	0.08366851
97	0xbdb5fad5	-0.08885733
98	0xbdaea019	-0.0852663
99	0x3ddfe8bc	0.109330624
100	0xbb7ab4cd	-0.0038254738
101	0x3e57001d	0.20996137
102	0x3d2c0eb3	0.042006206
103	0xbcbe2d44	-0.023214944
104	0xbcfd2bea	-0.030904729
105	0x3de8913f	0.113558285
106	0xbd92d26d	-0.07169042
107	0x3d20ca18	0.03925523
108	0x3c9430b9	0.018089639
109	0x3e095fb5	0.13415416
110	0xbcf09927	-0.029369904
111	0xbc8d1eb8	-0.017226562
112	0xbd887519	-0.066629596
113	0x3daef945	0.08543638
114	0x3da2458a	0.0792342
115	0x3dc07a04	0.09398273
116	0x3e0febce	0.14054796
117	0x3de5b276	0.11215679
118	0x3bd742a6	0.0065692244
119	0x3dcd39b4	0.100207716
120	0x3d428291	0.0474878
121	0x3ca9a67e	0.020709272
122	0x3d0918aa	0.033470787
123	0x3d86c80d	0.065811254
124	0xbc8b85de	-0.017031606
125	0x3bedee61	0.007261083
126	0xbd1a3be5	-0.037654776
127	0xbd3c327a	-0.045946576
