GANs/saved_models/python/RecreatingBestModelTanh.pth (torch, 465342 bytes, 58 tensors)

h_11.weight f4 [64, 12]
0.015689062 0.3117504 -0.31809592 0.037236676 0.32055214 0.048972294 0.04403028 0.004893323
0.32728037 0.13212985 -0.11536185 0.6225534 -0.10748216 -0.043380413 0.52370733 0.18129006
-0.033337485 0.25136045 0.17947713 -0.09811791 -0.28804168 -0.08554355 0.2580347 0.108379625
-0.23883578 0.18370643 -0.31133533 0.11137447 -0.049387246 -0.14626959 0.10804912 0.00010875735
0.1651484 0.08735298 -0.06832179 -0.2702173 -0.2349051 -0.10416961 -0.21210434 0.07286736
-0.26846886 0.009865386 -0.36412334 0.3663835 0.3925055 0.25140315 -0.21648179 0.091451965
0.32631227 0.18302353 0.04377904 0.112460785 0.15650532 0.0031597244 0.1831049 -0.038082566
-0.29744932 0.043930855 0.2977164 -0.29826617 0.085050695 -0.1208961 0.16458733 -0.18036391
0.11060719 0.30655554 0.2024147 0.029736571 0.329636 -0.062252495 -0.0969966 0.19515567
-0.2458131 -0.011169176 0.28304052 -0.0875978 0.15669598 0.01322811 -0.36416644 -0.18423824
-0.2124113 0.0036598076 0.3927038 0.19843426 -0.42613283 -0.18904023 0.04041297 0.113662794
-0.16213347 0.05337828 0.03730324 -0.114127636 -0.16900547 -0.10894069 0.2832457 -0.04409539
-0.03742248 -0.08463453 -0.06687551 0.024946589 0.2624907 -0.087646805 -0.29460764 -0.10069641
0.18800873 0.10870213 0.084138766 -0.19798462 0.21949513 -0.14487462 0.34173325 0.09144305
-0.16887578 0.17325369 -0.04237525 -0.17153895 0.22423048 -0.45450595 -0.3816864 -0.3966297
-0.007245955 -0.3036956 0.112263285 0.14383948 -0.0012219199 0.16335131 0.006550201 0.4433138
0.2810088 -0.2736977 -0.48520535 0.3174937 -0.14267333 -0.26506802 -0.11445958 -0.27631333
0.032205887 0.22418988 -0.19878325 0.32222837 0.2654346 0.16829151 0.27276698 -0.11301085
-0.025746586 -0.15073398 0.13160299 -0.099576674 -0.19124657 -0.23384227 0.214797 -0.108870655
-0.033621114 0.26836866 0.5255257 -0.30121374 0.046224825 -0.24422936 -0.16106595 0.06428153
0.1633513 -0.13641402 -0.07888552 0.26263624 0.21827485 0.26516497 0.19937702 0.07109035
-0.33862603 -0.036146555 -0.1528884 -0.36478168 -0.37782708 -0.1544252 0.08743718 0.23854451
0.045016967 -0.11940387 0.008284224 -0.13115165 0.3699952 0.39572623 -0.0492172 0.20627265
-0.3724795 -0.46219486 -0.15983456 0.26078936 -0.12607928 0.2984393 0.0026721256 -0.22560371
-0.37183884 -0.12205203 0.122685246 -0.1516012 -0.2991684 0.19737387 0.045480028 0.009177812
0.12713253 -0.2875942 -0.17275353 0.30194578 0.15284234 0.119140804 -0.1640484 0.00095480867
0.5065333 0.36709026 0.2034984 0.15004839 0.26862654 0.11915252 0.24482091 0.5465724
0.14208144 0.09904539 -0.39251727 0.06652002 0.33903438 0.19805886 -0.06348712 -0.08446123
0.49829444 0.30558562 0.036330402 0.25401402 -0.31818098 -0.0008465247 -0.23205069 -0.04746172
-0.41884688 -0.1950836 -0.040827326 -0.014589312 0.02535158 0.005777195 0.23769 -0.11459878
-0.24025188 -0.07902195 0.043670356 0.20194563 -0.3183771 0.052981816 -0.31718042 0.09625564
0.3360374 0.23027256 0.09925009 0.02512033 -0.086718984 -0.2934666 -0.12997098 0.08444818
00000000: 5986 803c c09d 9f3e 78dd a2be 7c85 183d
00000010: 691f a43e 2c97 483d 1859 343d 2b58 a03b
00000020: 4b91 a73e 0c4d 073e d542 ecbd a95f 1f3f
00000030: 9b1f dcbd a9af 31bd af11 063f 1aa4 393e
00000040: e38c 08bd 51b2 803e dac8 373e 0bf2 c8bd
00000050: 337a 93be 7531 afbd 201d 843e 23f6 dd3d
00000060: 5e91 74be 8a1d 3c3e 5867 9fbe 4c18 e43d
00000070: 484a 4abd b2c7 15be db48 dd3d a814 e438
00000080: aa1c 293e 1fe6 b23d 4bec 8bbd ec59 8abe
00000090: f68a 70be e056 d5bd e131 59be 7c3b 953d
000000a0: c074 89be 6ea2 213c 606e babe 9e96 bb3e
000000b0: 7bf6 c83e eab7 803e 67ad 5dbe 2b4b bb3d
000000c0: 6712 a73e 856a 3b3e a751 333d d751 e63d
000000d0: ee42 203e 6113 4f3b da7f 3b3e 77fc 1bbd
000000e0: 474b 98be d7f0 333d 496e 983e 58b6 98be
000000f0: 0f2f ae3d 6098 f7bd 9589 283e 51b1 38be
00000100: 0686 e23d d9f4 9c3e cd45 4f3e 1c9a f33c
00000110: 0dc6 a83e 79fc 7ebd 27a6 c6bd e3d6 473e
00000120: 6eb6 7bbe ebfe 36bc b0ea 903e 7a66 b3bd
00000130: e974 203e b7ba 583c 0674 babe f3a8 3cbe
00000140: 5982 59be 62d9 6f3b 7910 c93e 5a32 4b3e
00000150: 152e dabe c393 41be 1288 253d 0ac8 e83d
00000160: 5106 26be 2fa3 5a3d 48cb 183d c0bb e9bd
00000170: c50f 2dbe 4c1c dfbd 9505 913e 5e9d 34bd
00000180: 5048 19bd de54 adbd 07f6 88bd ca5c cc3c
00000190: 2e65 863e 2b80 b3bd d0d6 96be eb39 cebd
000001a0: 5c85 403e 399f de3d f250 ac3d 7bbc 4abe
000001b0: 55c3 603e 035a 14be a9f7 ae3e 7e46 bb3d
000001c0: c6ed 2cbe 6a69 313e ac91 2dbd e8a7 2fbe
000001d0: ad9c 653e 01b5 e8be 666c c3be 0c13 cbbe
000001e0: 7a6f edbb fd7d 9bbe 4bea e53d a84a 133e
000001f0: d428 a0ba 9145 273e 12a3 d63b 07fa e23e
00000200: 63e0 8f3e 1b22 8cbe d66c f8be 898e a23e
00000210: f518 12be ffb6 87be c969 eabd f178 8dbe
00000220: 52ea 033d 0892 653e d68d 4bbe 1efb a43e
00000230: 0be7 873e 9c54 2c3e 1da8 8b3e 3c72 e7bd
00000240: 81ea d2bc 025a 1abe efc2 063e dbee cbbd
00000250: 24d6 43be 5974 6fbe bff3 5b3e 94f7 debd
00000260: 4bb6 09bd 9e67 893e da88 063f b038 9abe
00000270: 3e56 3d3d 4317 7abe 79ee 24be 09a6 833d
00000280: 9045 273e 1eb0 0bbe bb8e a1bd 4278 863e
00000290: 7183 5f3e b4c3 873e 7d29 4c3e d197 913d
000002a0: 6460 adbe 690e 14bd c78e 1cbe aac4 babe
000002b0: 8d72 c1be a421 1ebe 4412 b33d 0345 743e
000002c0: b663 383d 048a f4bd 8eba 073c 9e4c 06be
000002d0: 0370 bd3e a19c ca3e fa97 49bd 2339 533e
000002e0: a2b5 bebe cea4 ecbe acab 23be 2f86 853e
000002f0: ed1a 01be 09cd 983e d41e 2f3b a904 67be
00000300: a961 bebe 6af6 f9bd 6742 fb3d 583d 1bbe
00000310: 9a2c 99be 601c 4a3e 4449 3a3d 895e 163c
00000320: 082f 023e 8c3f 93be 4de6 30be a398 9a3e
00000330: b482 1c3e 1800 f43d 4efc 27be 204c 7a3a
00000340: 2bac 013f 41f3 bb3e e261 503e 49a6 193e
00000350: 6b89 893e 3d06 f43d 55b2 7a3e 2bec 0b3f
00000360: cc7d 113e 4fd8 ca3d 06f8 c8be a63b 883d
00000370: ea95 ad3e f1cf 4a3e 8905 82bd 02fa acbd
00000380: 7320 ff3e b875 9c3e 30cf 143d 200e 823e
00000390: 9ee8 a2be 50e9 5dba b29e 6dbe 3867 42bd
000003a0: 1973 d6be ffc3 47be 8e3a 27bd 0208 6fbc
000003b0: 1eae cf3c a04e bd3b 0265 733e c4b2 eabd
000003c0: 9704 76be 43d6 a1bd b0df 323d d6ca 4e3e
000003d0: 5302 a3be 7603 593d 7965 a2be ad21 c53d
000003e0: 180d ac3e 92cc 6b3e a243 cb3d 26c9 cd3c
000003f0: b999 b1bd 4141 96be 1d17 05be 2bf3 ac3d

h_11.bias f4 [64]
0.16706572 0.25387493 0.035489187 0.13990644 0.2674963 0.29020593 0.082301095 -0.1666226
-0.28930092 0.06652969 0.020692728 0.11876736 0.0983338 0.42072725 0.19497865 0.05186279
0.029743599 0.24204127 0.063208796 0.2764529 -0.11888243 0.06124457 0.110843875 0.34275058
0.13923284 0.10465665 0.14353088 0.04056823 -0.02433655 -0.3580145 0.2619689 -0.0018844316
0.04576788 0.4672068 0.10970261 0.040267948 -0.09156682 0.30561212 0.03130348 0.029617457
0.32112336 0.08721814 0.07150261 -0.054127734 -0.11369774 0.030688899 -0.1331451 -0.16318603
0.007064111 -0.07018091 0.06489604 0.0382856 -0.124358416 0.51997215 0.10217783 0.26331535
-0.15585116 0.026170788 0.3123266 -0.25837553 0.21118782 0.25056237 0.22406515 0.16504624
00000000: 4713 2b3e e5fb 813e 1c5d 113d a243 0f3e
00000010: 46f5 883e df95 943e 7a8d a83d 1d9f 2abe
00000020: 401f 94be b840 883d cc83 a93c 4d3c f33d
00000030: 3b63 c93d 9069 d73e 7ca8 473e 146e 543d
00000040: d9a8 f33c abd9 773e 9d73 813d 3c8b 8d3e
00000050: a278 f3bd 96db 7a3d 1d02 e33d 017d af3e
00000060: 0e93 0e3e 3a56 d63d c2f9 123e df2a 263d
00000070: 725d c7bc ad4d b7be ca20 863e 08ff f6ba
00000080: 1a77 3b3d bb35 ef3e c3ab e03d 01f0 243d
00000090: 6387 bbbd 3179 9c3e 1438 003d 4fa0 f23c
000000a0: 486a a43e 6d9f b23d f66f 923d 0bb5 5dbd
000000b0: 5cda e8bd 4967 fb3c 3057 08be 3d1a 27be
000000c0: 0f7a e73b 02bb 8fbd 37e8 843d 5cd1 1c3d
000000d0: a0af febd e51c 053f 9c42 d13d 45d1 863e
000000e0: 7297 1fbe 1f64 d63c 46e9 9f3e cc49 84be
000000f0: 9f41 583e b649 803e 5671 653e e201 293e

h_12.weight f4 [64, 6]
0.1902079 -0.4654598 -0.47403005 -0.115848795 0.4199056 -0.23275024 -0.31581715 0.34046006
-0.42368725 0.05267622 -0.33066666 0.22734465 -0.4046661 0.30212286 -0.19308743 0.15012027
0.5462546 -0.37169245 0.35714942 0.3093855 0.36202094 0.006477528 -0.10297765 -0.35011777
-0.086930394 -0.2574252 -0.34809658 -0.017452244 -0.11169816 -0.15099622 -0.4100219 -0.362038
0.10231802 -0.4303668 0.36189342 -0.07415781 -0.34873736 0.39011115 -0.43813422 0.29688963
-0.13955893 -0.23304448 -0.5059252 -0.02642523 0.025020774 -0.038743254 -0.48781204 0.34522316
-0.07121311 0.15458462 -0.37805855 0.2065409 0.47219542 0.009689644 -0.116993606 -0.293669
0.03056915 0.55551755 0.23001951 -0.40460044 -0.1781993 -0.36335453 0.1773901 -0.13776827
-0.3390347 0.25760338 -0.2552787 0.023222636 -0.4632824 0.55025214 0.039165273 -0.25249395
0.3459026 0.33196408 -0.00856578 -0.1243684 -0.2780674 -0.31416002 0.14752047 -0.3661674
0.3511225 -0.21360475 0.31081903 0.21392979 -0.25966826 -0.55168045 -0.028159255 0.29936624
0.21833909 -0.31629273 -0.43826276 0.05620193 -0.51462185 0.30807823 0.111694194 -0.23072588
-0.017255072 0.22137532 -0.405486 0.16583113 -0.2818259 -0.10649156 -0.24247101 -0.13231029
0.11742882 0.27008584 0.31539753 0.03944486 -0.16959746 -0.5566638 0.120369464 -0.08469787
-0.15331677 -0.24285738 -0.28036743 -0.45040795 -0.276963 -0.04387567 -0.3086744 -0.30858535
-0.35925573 0.24835086 -0.25315365 -0.42439538 0.46317965 -0.16896728 0.054112878 -0.06176649
-0.35482267 -0.07662102 -0.05452194 -0.14137262 -0.26236737 0.30053088 0.45014396 -0.41541892
0.4740514 0.2542853 -0.04802762 -0.32667342 0.13767956 0.41742292 -0.043844607 0.42270517
-0.05825359 -0.392928 0.29985356 0.2152698 0.16520014 -0.20777898 -0.069178 0.3331401
0.22140999 0.165774 -0.11246077 0.11077461 0.05870697 -0.3926783 0.071645044 -0.39412722
0.54886955 0.34571823 -0.0161207 -0.27898693 0.24415208 -0.18524463 0.538326 0.058495555
-0.08739915 -0.30932224 -0.0992489 0.2781374 0.36983946 -0.16451013 0.41265598 -0.20837098
-0.55187815 -0.3886784 0.109429054 0.25579488 -0.06965561 0.3035441 0.039871536 0.38725734
0.5066844 -0.17830807 -0.5229359 -0.10988169 -0.5251763 -0.3252808 0.23914154 0.37785184
-0.06033026 0.0005159664 -0.2353585 -0.7231405 0.35809135 -0.21362737 -0.436722 -0.21967955
0.3385076 -0.28969532 -0.013689025 -0.22592919 0.21371777 0.21625859 0.33274794 -0.36442655
-0.38461176 -0.25485063 -0.37175944 0.09732001 -0.22559549 0.053929154 0.48281252 0.2406463
0.449836 0.2951082 -0.3262111 0.136391 0.32864192 0.3566028 -0.542388 -0.24296163
-0.22766143 -0.4462305 0.1300739 0.25762725 -0.26325905 0.23512891 -0.58356315 0.5044695
0.18330683 -0.15923822 -0.29427436 0.14189483 -0.40224165 0.57203203 -0.44379732 0.39801008
0.065351866 -0.12809913 0.3386735 0.030583117 0.34043893 0.32420036 -0.30422634 0.35958064
-0.06357164 0.12784104 0.017864356 0.07569275 -0.2925087 0.13956946 0.10785093 -0.09121626
00000000: dcc5 423e bf50 eebe 11b4 f2be 2242 edbd
00000010: defd d63e 1456 6ebe c9b2 a1be c850 ae3e
00000020: 89ed d8be 05c3 573d 244d a9be 09cd 683e
00000030: 6530 cfbe d9af 9a3e b6b8 45be 21b9 193e
00000040: 57d7 0b3f 794e bebe 4adc b63e c767 9e3e
00000050: cf5a b93e 7141 d43b f2e5 d2bd a342 b3be
00000060: 9008 b2bd 3ccd 83be b739 b2be 02f8 8ebc
00000070: 01c2 e4bd c19e 1abe 64ee d1be 0b5d b9be
00000080: 1c8c d13d 0a59 dcbe 184a b93e 0de0 97bd
00000090: b48d b2be a6bc c73e 2153 e0be eb01 983e
000000a0: 89e8 0ebe 36a3 6ebe 5084 01bf b979 d8bc
000000b0: 5ef8 cc3c 3fb1 1ebd 80c2 f9be 17c1 b03e
000000c0: 2ed8 91bd 6e4b 1e3e e490 c1be 757f 533e
000000d0: 99c3 f13e 50c1 1e3c 589a efbd c85b 96be
000000e0: 276c fa3c 6636 0e3f 3c8a 6b3e ca27 cfbe
000000f0: e179 36be 9b09 babe c0a5 353e 2013 0dbe
00000100: f595 adbe 97e4 833e e4b3 82be 663d be3c
00000110: 5a33 edbe 53dd 0c3f c46b 203d e346 81be
00000120: 251a b13e 32f7 a93e 7c57 0cbc dcb4 febd
00000130: da5e 8ebe 95d9 a0be 9b0f 173e 4b7a bbbe
00000140: 54c6 b33e 34bb 5abe ac23 9f3e 6910 5b3e
00000150: 3df3 84be ee3a 0dbf 3dae e6bc 8846 993e
00000160: 4894 5f3e 1ff1 a1be fa63 e0be ff33 663d
00000170: 42be 03bf 6ebc 9d3e edbf e43d 6843 6cbe
00000180: 825a 8dbc 36b0 623e dc9b cfbe a3cf 293e
00000190: 7c4b 90be 3f18 dabd 524a 78be 597c 07be
000001a0: 857e f03d b148 8a3e c97b a13e ef90 213d
000001b0: f5aa 2dbe 8581 0ebf 4484 f63d 1476 adbd
000001c0: 12ff 1cbe 9baf 78be 528c 8fbe df9b e6be
000001d0: 18ce 8dbe f9b6 33bd 920a 9ebe e6fe 9dbe
000001e0: 5ef0 b7be b04f 7e3e 5b9d 81be 5a4a d9be
000001f0: e225 ed3e c205 2dbe 77a5 5d3d dcfe 7cbd
00000200: 51ab b5be 7beb 9cbd 6652 5fbd fcc3 10be
00000210: 0455 86be 2fdf 993e 4579 e63e cab1 d4be
00000220: ddb6 f23e af31 823e 9cb8 44bd bd41 a7be
00000230: dffb 0c3e 75b8 d53e 6796 33bd d06c d83e
00000240: 519b 6ebd dc2d c9be 6886 993e b06f 5c3e
00000250: 3a2a 293e 03c4 54be 32ad 8dbd 5791 aa3e
00000260: 4db9 623e a9c0 293e d551 e6bd ccdd e23d
00000270: b876 703d 210d c9be a3ba 923d 0bcb c9be
00000280: b782 0c3f fb01 b13e 8f0f 84bc 60d7 8ebe
00000290: 0103 7a3e c5b0 3dbe bccf 093f 0999 6f3d
000002a0: 53fe b2bd 7c5f 9ebe 0243 cbbd 0668 8e3e
000002b0: 995b bd3e 5875 28be a547 d33e 345f 55be
000002c0: e347 0dbf db00 c7be 571c e03d 8cf7 823e
000002d0: 9aa7 8ebd 226a 9b3e 5650 233d 9846 c63e
000002e0: 12b6 013f 6496 36be 21df 05bf a709 e1bd
000002f0: f471 06bf 348b a6be 85e1 743e cc75 c13e
00000300: dd1c 77bd eb41 073a d201 71be bc1f 39bf
00000310: c057 b73e 22c1 5abe 079a dfbe adf3 60be
00000320: de50 ad3e f252 94be ef47 60bc fb59 67be
00000330: d5d8 5a3e e472 5d3e f05d aa3e 1e96 babe
00000340: d5eb c4be c87b 82be 4157 bebe b74f c73d
00000350: 8102 67be d1e4 5c3d 3433 f73e fc6b 763e
00000360: e750 e63e 6c18 973e 2405 a7be 15aa 0b3e
00000370: c143 a83e a494 b63e f1d9 0abf efca 78be
00000380: 1420 69be 5378 e4be 1832 053e b8e7 833e
00000390: e4c9 86be a2c5 703e 6564 15bf ea24 013f
000003a0: c9b4 3b3e 580f 23be 21ab 96be e14c 113e
000003b0: 9ef2 cdbe b170 123f 6739 e3be fac7 cb3e
000003c0: 33d7 853d 6b2c 03be 9d66 ad3e 7289 fa3c
000003d0: 034e ae3e 97fd a53e 8ec3 9bbe f41a b83e
000003e0: d931 82bd c3e8 023e 4558 923c cd04 9b3d
000003f0: b3c3 95be 4ceb 0e3e f3e0 dc3d 97cf babd

h_12.bias f4 [64]
0.59758615 -0.23954648 0.22295298 0.063695505 0.47107425 0.05906565 -0.18917444 0.08594753
-0.21399081 -0.38248226 -0.43280193 0.188698 -0.09315271 0.32208908 0.32121235 -0.46503246
0.55787385 -0.25936508 -0.061707433 -0.558899 0.07931753 0.6238339 0.28467607 -0.07164514
0.7020685 0.54829437 -0.20621303 0.014101672 -0.1027469 0.07026211 0.55083203 -0.33110487
0.02160265 0.21907106 -0.017026536 0.0575908 0.16494332 0.20189965 -0.032027327 0.23127197
-0.017403558 -0.18454154 -0.38963696 0.2909554 0.3198037 0.5355242 -0.37352872 -0.103599936
-0.04559576 0.444852 0.5802547 -0.058316875 0.39786008 0.5116517 -0.12049596 -0.2348877
0.38822377 0.004507332 -0.3567468 0.18197626 0.5173071 0.2199125 -0.20153697 -0.09418503
00000000: 68fb 183f ac4b 75be c94d 643e ca72 823d
00000010: a530 f13e d3ee 713d f2b6 41be 4205 b03d
00000020: 6820 5bbe b7d4 c3be 3798 ddbe 0c3a 413e
00000030: d9c6 bebd dce8 a43e f275 a43e bc18 eebe
00000040: d2d0 0e3f 80cb 84be efc0 7cbd 0114 0fbf
00000050: 3b71 a23d 94b3 1f3f 10c1 913e b0ba 92bd
00000060: c3ba 333f 055d 0c3f 8229 53be b30a 673c
00000070: f76c d2bd 95e5 8f3d 5403 0d3f 9486 a9be
00000080: 0af8 b03c 2a54 603e 3c7b 8bbc 55e4 6b3d
00000090: e7e6 283e c8be 4e3e 162f 03bd 8fd2 6c3e
000000a0: e891 8ebc 75f8 3cbe 7f7e c7be 1bf8 943e
000000b0: 50bd a33e 1d18 093f 283f bfbe 342c d4bd
000000c0: 9fc2 3abd a4c3 e33e 928b 143f addd 6ebd
000000d0: 51b4 cb3e 9bfb 023f 96c6 f6bd 6786 70be
000000e0: 44c5 c63e 3eb2 933b 84a7 b6be fc57 3a3e
000000f0: 3d6e 043f be30 613e b55f 4ebe 15e4 c0bd

h_21.weight f4 [64, 64]
0.0887741 0.09545362 -0.056264985 -0.15912117 0.05611303 -0.09148505 -0.11759029 0.27038035
-0.0552007 0.041940466 -0.0013194365 -0.04979958 -0.046299264 -0.18890117 -0.04303409 -0.2379789
0.19118504 0.15978627 0.03694424 0.1254905 -0.1001893 -0.02398324 -0.1481573 -0.17671509
-0.021155443 -0.29254055 0.105082534 -0.07337663 -0.13096923 -0.14373791 -0.00922261 0.041027386
0.04567096 -0.10793565 0.1182721 0.1452734 0.09964207 -0.002040419 0.021434698 -0.11991256
0.18961571 -0.13112453 0.10095485 0.059050765 0.20382354 -0.22864296 0.0164008 0.18292302
0.0285551 -0.046959285 0.0048975693 -0.2259175 -0.011833121 0.08365624 0.042688373 0.025104502
-0.037725735 0.017881889 0.0853255 -0.20062293 0.07463938 0.06072116 -0.09769199 0.035206813
-0.011318504 0.13268174 -0.12776941 -0.192905 0.1992933 0.0025599324 -0.15380517 -0.08309172
-0.060304314 -0.052941374 -0.10821935 -0.19221006 0.14924306 0.05080571 -0.15373513 -0.0096006375
0.03388871 -0.051420625 -0.07953988 -0.037922755 -0.04380783 0.011157115 0.008646315 -0.05204623
-0.012618809 -0.087890476 0.058229838 -0.07579604 -0.024774557 0.02138574 -0.058332317 -0.04939231
-0.026150169 0.005647079 0.09645104 0.17220728 0.06166292 -0.018517103 -0.016276695 -0.19815527
0.16883479 -0.123618275 -0.006208547 0.061791997 -0.10969448 0.14900276 0.001628245 0.009351545
0.16175184 0.12223438 0.043962587 -0.06460812 0.24269384 0.2064512 0.11103698 -0.046944417
-0.09149835 -0.018896595 -0.12018521 0.015181405 0.08170576 0.15152197 0.019609824 0.16467352
0.05844732 0.071256734 -0.0012775165 0.096159026 0.143592 -0.06000292 0.11176784 -0.06712894
0.14747709 0.18050918 0.05262625 -0.06057712 -0.01351303 0.0045039565 0.048589893 -0.14337425
-0.06926597 0.04121542 0.1951811 -0.1516126 -0.13855533 0.00963569 0.09761322 0.045436308
-0.1711411 -0.14123735 0.08804356 0.14125551 0.19328 -0.064592 0.08564766 0.043631613
-0.004390271 -0.0333858 -0.032675184 0.15808852 -0.1942875 0.20929989 0.12777515 -0.066204116
0.15115622 0.009719701 0.023071738 -0.07121451 -0.011796172 0.10898813 -0.10494189 0.07398274
-0.090584695 0.12842819 0.115274236 0.036299724 0.13489084 0.18146731 0.08390062 0.026183346
-0.024107723 0.18558633 -0.15077093 -0.10015443 -0.077837944 0.25502443 -0.01846662 0.15352659
-0.11357502 -0.063520454 0.04336429 0.03557587 0.054691125 0.02671392 0.11565991 -0.08250828
0.009055994 0.016666869 0.13357398 -0.016172841 0.029539904 0.08416488 0.11939542 -0.10693061
0.034957275 0.0032239316 0.017091747 -0.05254843 0.050313164 0.07015042 -0.013259503 0.023521028
0.029542292 -0.21269935 -0.012970546 -0.00086906785 -0.06825974 0.09662888 0.16174273 -0.14363354
0.024855869 -0.07894425 0.03154373 0.023085421 -0.045389365 0.021207737 0.013663757 -0.04907819
-0.09380831 0.08709142 0.023372106 -0.055958454 -0.19758321 0.035091538 -0.05368 -0.010292396
0.06555643 0.07556065 0.0050938264 -0.29528052 -0.0217739 -0.07143084 -0.100967884 -0.024484532
-0.12236347 0.1679395 -0.09048415 0.02378176 0.052846875 0.09089026 -0.020919524 -0.09724675
00000000: 32cf b53d 307d c33d 1d76 66bd a9f0 22be
00000010: c7d6 653d 845c bbbd 2ed3 f0bd 4b6f 8a3e
00000020: 211a 62bd c4c9 2b3d f1f0 acba a5fa 4bbd
00000030: 4ca4 3dbd 4f6f 41be 8444 30bd beb0 73be
00000040: 03c6 433e 039f 233e d852 173d 9580 003e
00000050: 0c30 cdbd 8078 c4bc 8cb6 17be cdf4 34be
00000060: 2e4e adbc e0c7 95be 8335 d73d 7d46 96bd
00000070: cc1c 06be 0830 13be 6e1a 17bc 550c 283d
00000080: 7911 3b3d 5e0d ddbd a538 f23d 8dc2 143e
00000090: 2411 cc3d 8db8 05bb d297 af3c b794 f5bd
000000a0: 9f2a 423e 8245 06be 6bc1 ce3d 37df 713d
000000b0: 1eb7 503e 6121 6abe f85a 863c 2c50 3b3e
000000c0: 63ec e93c 6158 40bd ca7b a03b eb56 67be
000000d0: b5df 41bc f653 ab3d 01da 2e3d f5a7 cd3c
000000e0: 4d86 1abd 0a7d 923c 23bf ae3d 1970 4dbe
000000f0: 88dc 983d c0b6 783d bd12 c8bd 0535 103d
00000100: 3f71 39bc b9dd 073e fcd5 02be e388 45be
00000110: 8b13 4c3e 8ac4 273b 1a7f 1dbe fe2b aabd
00000120: a801 77bd 0ed9 58bd 1ba2 ddbd b7d2 44be
00000130: 2cd3 183e a619 503d be6c 1dbe fe4b 1dbc
00000140: e3ce 0a3d 6f9e 52bd cee5 a2bd e454 1bbd
00000150: d76f 33bd 55cc 363c 46a9 0d3c 6d2e 55bd
00000160: 1fbf 4ebc ecff b3bd 6982 6e3d f43a 9bbd
00000170: 03f4 cabc 2631 af3c deed 6ebd 974f 4abd
00000180: e138 d6bc 220b b93b 1f88 c53d 1b57 303e
00000190: 4292 7c3d 2eb1 97bc b456 85bc 37e9 4abe
000001a0: 07e3 2c3e 942b fdbd 1171 cbbb 9b19 7d3d
000001b0: 80a7 e0bd 2e94 183e d66a d53a 3937 193c
000001c0: 46a2 253e 0556 fa3d 1d12 343d 4351 84bd
000001d0: bc84 783e f267 533e 5b67 e33d ca48 40bd
000001e0: 7d63 bbbd 08cd 9abc aa23 f6bd 6dbb 783c
000001f0: 5955 a73d 9328 1b3e c8a4 a03c 2da0 283e
00000200: 7566 6f3d 0def 913d 5772 a7ba 06ef c43d
00000210: c809 133e 9fc5 75bd 8ae6 e43d e67a 89bd
00000220: 3c04 173e 66d7 383e 9f8e 573d b71f 78bd
00000230: c165 5dbc ed95 933b 3206 473d b3d0 12be
00000240: 51db 8dbd 80d1 283d 8edd 473e 5540 1bbe
00000250: 73e1 0dbe 03df 1d3c 71e9 c73d 6c1b 3a3d
00000260: 9d3f 2fbe 86a0 10be 2f50 b43d 49a5 103e
00000270: 31eb 453e cf48 84bd 0a68 af3d 10b7 323d
00000280: 43dc 8fbb 8cbf 08bd 6ad6 05bd f5e1 213e
00000290: 4df3 46be b652 563e 7dd7 023e 0696 87bd
000002a0: b2c8 1a3e 613f 1f3c f100 bd3c ead8 91bd
000002b0: bb44 41bc 2b35 df3d c6eb d6bd 4384 973d
000002c0: 7884 b9bd ae82 033e e614 ec3d 05af 143d
000002d0: d320 0a3e 91d2 393e 17d4 ab3d 757e d63c
000002e0: 8f7d c5bc 580a 3e3e b263 1abe c41d cdbd
000002f0: 8069 9fbd 9092 823e 4f47 97bc 1336 1d3e
00000300: 059a e8bd 0317 82bd c19e 313d 01b8 113d
00000310: cd03 603d 27d7 da3c 1adf ec3d 1afa a8bd
00000320: 985f 143c f588 883c 9ec7 083e e87c 84bc
00000330: abfd f13c a35e ac3d 9685 f43d 70fe dabd
00000340: 5c2f 0f3d 9948 533b fe03 8c3c 063d 57bd
00000350: 2d15 4e3d 06ab 8f3d 633e 59bc 2caf c03c
00000360: ad02 f23c dccd 59be 6a82 54bc 28d2 63ba
00000370: c3cb 8bbd 5de5 c53d e39f 253e ac14 13be
00000380: 899e cb3c 86ad a1bd 0034 013d a31d bd3c
00000390: 33ea 39bd d9bb ad3c f3dd 5f3c 3606 49bd
000003a0: 921e c0bd fd5c b23d dc76 bf3c b134 65bd
000003b0: 4153 4abe 25bc 0f3d 8fdf 5bbd 70a1 28bc
000003c0: 7342 863d 8bbf 9a3d 1dea a63b 022f 97be
000003d0: 2e5f b2bc 554a 92bd 40c8 cebd c993 c8bc
000003e0: b399 fabd 55f8 2b3e c14f b9bd f7d1 c23c
000003f0: f775 583d ac24 ba3d 6c5f abbc 4e29 c7bd

h_21.bias f4 [64]
-0.03134139 0.18792133 0.14248459 0.07420611 -0.027960587 -0.034987357 0.13718371 -0.07169132
-0.033812184 0.08705712 -0.00411565 0.002809004 -0.122694515 -0.1498091 -0.032576405 0.098744854
-0.09498592 -0.08758599 0.1727167 0.012203433 0.06542148 -0.041806567 -0.11639181 -0.09892275
-0.1521345 -0.090696715 -0.039137788 0.10343826 -0.066162854 -0.07191949 0.22208577 -0.091345236
0.059404097 0.09409136 0.15981689 0.057616357 0.15933765 0.04906284 -0.15374272 0.02993333
0.06565214 -0.08966941 -0.06308264 -0.07665959 0.07183935 -0.021204852 -0.0047791474 -0.093942836
-0.016781928 0.08112406 0.19164832 -0.13341203 -0.06900072 0.0037695556 -0.104502365 -0.14235418
-0.11502052 0.048695203 -0.06523952 -0.06169643 0.15138942 -0.07639395 0.12657 -0.08218978
00000000: d45f 00bd 736e 403e 7be7 113e 5ff9 973d
00000010: 9a0d e5bc e74e 0fbd e379 0c3e e6d2 92bd
00000020: a57e 0abd 014b b23d 93dc 86bb 4417 383b
00000030: 4347 fbbd 8f67 19be d66e 05bd be3a ca3d
00000040: fa87 c2bd 4960 b3bd a6dc 303e e8f0 473c
00000050: b2fb 853d 5d3d 2bbd d45e eebd 0398 cabd
00000060: 25c9 1bbe 33bf b9bd f24e 20bd 70d7 d33d
00000070: 6480 87bd 874a 93bd 746a 633e 3613 bbbd
00000080: b651 733d f9b2 c03d 0aa7 233e 21ff 6b3d
00000090: 6929 233e 1ef6 483d bb6e 1dbe be36 f53c
000000a0: a174 863d 98a4 b7bd 7931 81bd b4ff 9cbd
000000b0: 8220 933d ccb5 adbc 659a 9cbb 1a65 c0bd
000000c0: 417a 89bc 5f24 a63d 753f 443e 2a9d 08be
000000d0: 4050 8dbd a60a 773b 5605 d6bd 4bc5 11be
000000e0: e18f ebbd 9f74 473d 4c9c 85bd 65b5 7cbd
000000f0: d405 1b3e 6e74 9cbd 919b 013e 1e53 a8bd

h_22.weight f4 [64, 64]
-0.02788889 -0.010270076 -0.16208184 -0.07812539 -0.050448094 -0.09758758 0.059527528 0.0645802
0.08020821 -0.04968112 0.1396806 -0.14082691 -0.046274558 -0.038953386 -0.04444941 -0.016870001
-0.003290548 -0.023869295 0.20335034 0.21925385 -0.10406984 0.07190594 -0.18887573 0.022955451
0.037444398 -0.079454705 0.019425513 0.09867733 -0.11450343 0.35108882 0.18787076 0.016685614
0.4851358 -0.1887947 -0.039018854 -0.054335587 0.23124243 -0.028905619 -0.1312034 0.028666304
-0.040484793 -0.06897401 -0.42359143 0.17750959 -0.07569216 -0.07399817 0.08619326 0.1325668
-0.00056779385 -0.10638869 -0.009156308 0.035469964 -0.030692086 -0.06517935 -0.20597444 0.070526324
-0.21953137 0.014383962 0.1705862 0.16121852 0.012729324 0.05153426 0.14470029 0.25421163
-0.14157417 -0.080666825 0.0092672445 -0.03362967 -0.022539916 0.06211062 0.21368654 0.013144004
0.21576694 0.064789824 0.37006468 -0.05326555 0.12320313 0.05617936 0.025622623 -0.07430312
-0.16741824 0.18546733 0.10647698 0.56401247 0.1518989 -0.25890037 0.18443185 0.037564877
0.006177566 0.019080814 0.059821308 0.10148425 0.14036468 -0.05633969 0.26347917 0.09800252
0.53235894 0.16352582 0.059759453 0.09985954 0.12098893 0.08387948 -0.05772674 -0.1353236
0.0885458 0.26243836 0.03467204 -0.12935564 0.023179406 -0.0873851 -0.04017998 -0.020933595
-0.021831453 -0.20010947 -0.17999734 0.001135081 -0.09014536 -0.08176345 -0.09322177 -0.033589073
0.0120226415 0.16299757 0.26575848 0.008884564 -0.16484581 -0.053331986 0.17210348 0.008442436
0.07556568 -0.10205362 0.12687048 0.09437014 -0.021093117 0.0947284 0.59227693 -0.15614621
0.048737146 -0.119595595 -0.11730483 -0.02312139 0.03002283 -0.0059158807 -0.07567239 0.06281814
-0.050468978 0.106501535 0.009663181 -0.17298053 0.42298838 -0.13307379 0.24074312 -0.008573381
-0.0026697677 -0.17044298 0.052984223 0.13948904 0.06710787 0.33036876 -0.076101586 0.011466704
0.796631 -0.026048204 0.09545171 0.09559473 0.36288574 -0.07129591 0.12568425 -0.11407282
-0.0067682294 0.1937398 0.0849786 0.12230904 0.10501794 -0.063381836 0.033395413 -0.061789382
-0.016874641 -0.14379543 0.036485963 -0.09191176 -0.05155777 0.0015083934 0.22422232 0.06402425
-0.07711207 0.124741405 0.79417515 0.17703106 -0.14878607 0.038198102 0.23235796 0.83391863
-0.21783423 -0.11494367 -0.07949959 0.0178494 -0.012281338 -0.059872456 -0.2455418 0.09315229
-0.05389708 0.11224759 -0.18716474 -0.049157485 0.08111055 0.09983384 -0.09499737 0.05660729
0.04970141 0.19615272 -0.07203559 -0.187029 -0.2342932 -0.2485394 0.22157072 -0.009255281
0.023471307 0.13387726 -0.025715422 0.01773329 -0.030438296 -0.23464674 0.11462077 0.115912184
-0.41106692 -0.03201471 -0.105584815 0.10939893 -0.12740315 -0.04986765 -0.15981591 0.11644947
-0.03154984 -0.1021248 -0.08754632 0.0047012125 -0.019459743 -0.08199241 -0.0021902376 -0.02318416
-0.09650914 0.019699791 0.017705647 -0.07897569 0.06842118 -0.17566967 0.34483492 -0.023081707
0.017686116 -0.078371 0.24383588 0.03667019 0.23180982 -0.0808508 -0.08980858 -0.25227508
00000000: 3e77 e4bc d243 28bc c8f8 25be 3400 a0bd
00000010: a9a2 4ebd ffdb c7bd 23d3 733d a042 843d
00000020: 3444 a43d 6e7e 4bbd 6e08 0f3e ee34 10be
00000030: 648a 3dbd 968d 1fbd 9610 36bd f532 8abc
00000040: 3ca6 57bb 8a89 c3bc 123b 503e 1584 603e
00000050: 9122 d5bd 6c43 933d a468 41be 120d bc3c
00000060: 4c5f 193d 26b9 a2bd 4122 9f3c 5717 ca3d
00000070: c680 eabd eac1 b33e 3161 403e 45b0 883c
00000080: b863 f83e 6653 41be 3cd2 1fbd fe8e 5ebd
00000090: d1ca 6c3e 7acb ecbc 2f5a 06be 99d5 ea3c
000000a0: 62d3 25bd 3f42 8dbd fae0 d8be 13c5 353e
000000b0: 7e04 9bbd 5a8c 97bd 1886 b03d 97bf 073e
000000c0: 00d8 14ba 50e2 d9bd 5704 16bc f448 113d
000000d0: f86d fbbc c07c 85bd f7ea 52be 1b70 903d
000000e0: d5cc 60be b6aa 6b3c 26ae 2e3e 7816 253e
000000f0: a88e 503c 9715 533d 502c 143e 0728 823e
00000100: d2f8 10be a634 a5bd a4d5 173c 44bf 09bd
00000110: a1a5 b8bc b567 7e3d a5d0 5a3e f359 573c
00000120: 02f2 5c3e 87b0 843d 1e79 bd3e fa2c 5abd
00000130: ec51 fc3d 541c 663d 89e6 d13c 3c2c 98bd
00000140: b06f 2bbe 26eb 3d3e 9a10 da3d 1f63 103f
00000150: 638b 1b3e 978e 84be b4db 3c3e a1dd 193d
00000160: 2e6d ca3b 5e4f 9c3c 3007 753d f9d6 cf3d
00000170: c2bb 0f3e 72c4 66bd bee6 863e 8cb5 c83d
00000180: ad48 083f 5073 273e 54c6 743d 2983 cc3d
00000190: 0bc9 f73d 01c9 ab3d e072 6cbd 4592 0abe
000001a0: 8057 b53d 525e 863e 4504 0e3d ce75 04be
000001b0: bde2 bd3c f6f6 b2bd c393 24bd ee7c abbc
000001c0: e0d7 b2bc 7fe9 4cbe 3951 38be 00c7 943a
000001d0: 219e b8bd 9873 a7bd 0eeb bebd b294 09bd
000001e0: 9dfa 443c d6e8 263e 7f11 883e 9090 113c
000001f0: 57cd 28be a472 5abd e53b 303e 2552 0a3c
00000200: 2ec2 9a3d 7d01 d1bd 56ea 013e 2245 c13d
00000210: 79cb acbc f700 c23d 769f 173f cbe4 1fbe
00000220: 9aa0 473d 89ee f4bd 843d f0bd 1269 bdbc
00000230: 70f2 f53c 01da c1bb 20fa 9abd cca6 803d
00000240: 8fb8 4ebd 7a1d da3d 5252 1e3c cf21 31be
00000250: ef91 d83e 7f44 08be 5d85 763e 5e77 0cbc
00000260: 45f7 2ebb 9b88 2ebe fc05 593d 37d6 0e3e
00000270: da6f 893d 1826 a93e 26db 9bbd d8de 3b3c
00000280: 02f0 4b3f 0b63 d5bc 307c c33d 2bc7 c33d
00000290: 29cc b93e 9703 92bd 5fb3 003e 039f e9bd
000002a0: 06c8 ddbb ba63 463e 4309 ae3d 297d fa3d
000002b0: a513 d73d 56ce 81bd a1c9 083d dd16 7dbd
000002c0: b03c 8abc 1c3f 13be 4e72 153d 3c3c bcbd
000002d0: 3e2e 53bd 49b5 c53a 899a 653e 251f 833d
000002e0: efec 9dbd 6c78 ff3d 104f 4b3f a147 353e
000002f0: 605b 18be 9d75 1c3d 3fef 6d3e b17b 553f
00000300: f00f 5fbe 9667 ebbd aed0 a2bd e838 923c
00000310: aa37 49bc d23c 75bd 4f6f 7bbe a1c6 be3d
00000320: 2fc3 5cbd 11e2 e53d 1da8 3fbe 5c59 49bd
00000330: 4a1d a63d af75 cc3d fb8d c2bd 0cdd 673d
00000340: b593 4b3d 42dc 483e 6587 93bd 8884 3fbe
00000350: 8eea 6fbe 1d81 7ebe 6fe3 623e 76a3 17bc
00000360: e646 c03c 1f17 093e 26a9 d2bc 6845 913c
00000370: bc59 f9bc 3c47 70be 4bbe ea3d 5e63 ed3d
00000380: 5d77 d2be db21 03bd da3c d8bd 8c0c e03d
00000390: f975 02be 0542 4cbd c8a6 23be 0f7d ee3d
000003a0: 683a 01bd cf26 d1bd 7c4b b3bd a10c 9a3b
000003b0: 0a6a 9fbc a3eb a7bd 178a 0fbb b5ec bdbc
000003c0: 96a6 c5bd 7561 a13c 6f0b 913c 02be a1bd
000003d0: 6720 8c3d c0e2 33be 348e b03e d915 bdbc
000003e0: 79e2 903c fa80 a0bd 1db0 793e 7b33 163d
000003f0: 8e5f 6d3e 1b95 a5bd 90ed b7bd 332a 81be

h_22.bias f4 [64]
-0.07960072 -0.16924794 -0.031164305 0.1767619 0.027890405 0.18054675 0.20218346 -0.099697374
0.0001223163 0.08010321 -0.048378717 0.056168232 0.13746758 -0.09229931 -0.13818398 0.041693565
0.029310146 0.10962199 0.1583814 0.030645411 0.010624498 -0.08005596 -0.16523339 -0.044800412
0.29762784 0.23357598 0.06457707 -0.13166904 0.025340965 -0.05608663 -0.07184697 0.2118123
-0.20073037 -0.12327115 -0.050302222 0.14779907 -0.055236883 -0.022710357 0.09635479 0.04251287
-0.11871001 -0.11512845 -0.17685947 0.06729316 -0.013148549 -0.042745687 0.045690317 -0.13623963
0.047233555 -0.19107735 0.058484726 0.22517699 0.16946861 -0.119894505 -0.08056085 0.071274795
-0.07585286 -0.056426577 0.22632855 -0.037601493 0.122833766 0.15905665 -0.10573648 -0.19467366
00000000: b405 a3bd 554f 2dbe 494c ffbc 1201 353e
00000010: 6b7a e43c 3fe1 383e 2e09 4f3e 232e ccbd
00000020: 0842 0039 270d a43d c328 46bd a910 663d
00000030: 4dc4 0c3e 6c07 bdbd 1a80 0dbe dfc6 2a3d
00000040: d51b f03c 7e81 e03d bc2e 223e 160c fb3c
00000050: 6012 2e3c 61f4 a3bd f132 29be a380 37bd
00000060: ad62 983e 8b2e 6f3e fc40 843d 40d4 06be
00000070: db97 cf3c 18bb 65bd 8124 93bd 53e5 583e
00000080: 438c 4dbe 9675 fcbd b409 4ebd a458 173e
00000090: 1240 62bd 120b babc a955 c53d fa21 2e3d
000000a0: 3c1e f3bd 77c8 ebbd a61a 35be ffd0 893d
000000b0: 036d 57bc 1a16 2fbd c525 3b3d 6782 0bbe
000000c0: f977 413d c8a9 43be ae8d 6f3d cc94 663e
000000d0: 2e89 2d3e 408b f5bd 16fd a4bd 85f8 913d
000000e0: bf58 9bbd 8e1f 67bd acc2 673e 0604 1abd
000000f0: 4590 fb3d bfdf 223e 5e8c d8bd 8858 47be

h_32.weight f4 [128, 128]
-0.05484312 0.24335532 0.17376496 -0.04805018 -0.009661337 0.008662639 0.048040785 0.023921823
0.015110346 -0.16889581 0.05082841 0.088511616 -0.2213262 0.034765504 -0.03077818 -0.04251213
0.12219687 -0.11800708 -0.11143337 0.1167268 -0.008987773 0.093498886 -0.12248083 0.24921809
0.04611359 -0.008320088 -0.03405233 -0.04906138 -0.080491416 -0.072623916 0.07163163 0.12716724
0.04134052 -0.06328884 0.097742155 -0.088281125 -0.030530207 -0.10183799 -0.068597265 -0.09894129
-0.093942516 -0.18389466 0.07087675 -0.13421665 0.046572942 0.06574891 -0.09653026 -0.052133948
-0.098098435 0.11963857 0.08411881 -0.0011288878 0.105945244 0.016554436 0.060056098 -0.057373885
-0.15771618 0.121171646 -0.22792742 0.029819299 0.1448716 0.017474152 0.11900873 0.07065428
0.119591065 -0.005585255 0.014125305 0.4230028 0.08492642 0.106899865 0.30798763 -0.027408982
0.3681658 0.022436779 0.3794258 0.22109257 -0.06278206 -0.004178777 0.101082675 0.1075842
0.16348542 0.16381982 0.23995504 -0.050986603 -0.044984005 0.30197614 0.028418947 0.12620057
-0.03977796 0.00046325833 0.0739108 -0.10925726 0.010502249 -0.12038884 0.23586288 0.16089086
0.2640796 0.09654106 -0.10722952 -0.020668099 -0.10011192 -0.10590132 0.057690807 0.056177516
-0.230737 -0.15061076 0.12885894 -0.0074123614 0.13630655 0.40950146 0.35770404 -0.13447282
0.2602885 0.357985 -0.0139020905 -0.2446692 -0.11017086 -0.06117988 -0.24200782 0.0006614004
-0.004418666 0.044308905 -0.15679367 0.044123117 -0.010600784 0.110543534 0.0979766 0.13209847
0.37129664 -0.063914664 -0.26671404 -0.16899627 0.041033696 0.073090136 0.036055576 -0.0069221216
-0.060404155 0.19119722 -0.05685792 0.17812182 0.08159766 0.14716619 0.060041346 0.015794173
0.37196565 -0.003974662 0.057390925 -0.04659595 -0.1624249 -0.20093949 -0.26950377 -0.030765034
0.21083803 0.09455211 -0.16039205 -0.116235495 0.007206018 -0.17926086 -0.29001212 -0.052345093
-0.2830354 -0.28721687 -0.19805919 -0.23687014 0.054779965 -0.0057392903 0.04842946 -0.052613538
-0.19813138 -0.13006367 0.030879991 0.071289815 -0.04179862 0.1727188 -0.18924485 0.09472174
0.090112224 0.15130939 -0.16622503 0.10292311 0.14833142 0.1904748 -0.07716579 0.07525794
0.10126874 -0.05275308 0.054134227 -0.16952397 -0.09595575 0.037786294 0.079421595 0.15498051
0.059167888 0.047360152 -0.06839592 -0.11670305 -0.1413489 0.07574418 -0.010895933 0.2665995
0.05261487 0.030111883 0.25832176 -0.11909305 0.12109639 0.0151253715 0.19854015 -0.10475605
0.11519714 0.13044783 -0.41670376 -0.22372167 -0.08912951 0.043612346 -0.061923675 0.2321845
0.18913691 -0.2578479 0.10563805 -0.065173656 -0.2617257 0.031010324 0.15194006 -0.029646114
-0.0748882 0.1189644 -0.22303228 0.06586666 -0.11030223 0.43247673 0.056955047 0.13691838
-0.0076128347 -0.19808997 0.026381621 0.093925446 0.27772897 0.07850581 0.073990695 -0.09690891
0.028764566 0.35205993 0.2187162 -0.10400137 -0.32403317 0.06181659 -0.535612 0.12772103
-0.11407273 0.34209326 0.050648265 -0.23815253 0.042269684 -0.31301773 0.099549524 -0.1426363
00000000: 2ea3 60bd 2332 793e 71ef 313e 44d0 44bd
00000010: 964a 1ebc beed 0d3c 6ac6 443d b3f7 c33c
00000020: 6291 773c 06f3 2cbe 7331 503d 9445 b53d
00000030: 56a3 62be 4666 0e3d 8622 fcbc 3321 2ebd
00000040: 5a42 fa3d b2ad f1bd 2e37 e4bd 760e ef3d
00000050: 7441 13bc 587c bf3d 3bd7 fabd 0733 7f3e
00000060: 9be1 3c3d fa50 08bc 757a 0bbd 96f4 48bd
00000070: afd8 a4bd d9bb 94bd 9bb3 923d 2138 023e
00000080: ad54 293d 949d 81bd 0a2d c83d bccc b4bd
00000090: 7c1a fabc 7090 d0bd b97c 8cbd bba1 cabd
000000a0: ef64 c0bd e24e 3cbe d427 913d 1770 09be
000000b0: 45c3 3e3d 5da7 863d a8b1 c5bd 688a 55bd
000000c0: d5e7 c8bd 1105 f53d 7c46 ac3d 30f7 93ba
000000d0: d2f9 d83d 2b9d 873c 62fd 753d e100 6bbd
000000e0: 5a80 21be d728 f83d ce65 69be 9a47 f43c
000000f0: 3959 143e f425 8f3c d9ba f33d 31b3 903d
00000100: 29ec f43d 8404 b7bb d36d 673c d393 d83e
00000110: e7ed ad3d 51ee da3d 8eb0 9d3e cd88 e0bc
00000120: 3a80 bc3e 56cd b73c 1944 c23e 1766 623e
00000130: e193 80bd 1fee 88bb 6f04 cf3d 1b55 dc3d
00000140: b968 273e 62c0 273e c6b6 753e 54d7 50bd
00000150: 2641 38bd 9e9c 9a3e dace e83c b93a 013e
00000160: 37ee 22bd 7be1 f239 8c5e 973d 45c2 dfbd
00000170: a011 2c3c 6d8e f6bd 0a86 713e 93c0 243e
00000180: 7135 873e 52b7 c53d 279b dbbd 2550 a9bc
00000190: 7a07 cdbd cbe2 d8bd 324d 6c3d 651a 663d
000001a0: 5246 6cbe b539 1abe 99f3 033e 65e3 f2bb
000001b0: f293 0b3e 2daa d13e fc24 b73e 3eb3 09be
000001c0: 8944 853e cf49 b73e 98c5 63bc 908a 7abe
000001d0: 43a1 e1bd c197 7abd e6d0 77be d461 2d3a
000001e0: 75ca 90bb 417d 353d 858e 20be 71ba 343d
000001f0: e9ae 2dbc a664 e23d f5a7 c83d d244 073e
00000200: 981a be3e b1e5 82bd be8e 88be 5c0d 2dbe
00000210: f312 283d 48b0 953d 03af 133d f7d2 e2bb
00000220: 596a 77bd 34c9 433e dae3 68bd 9165 363e
00000230: ad1c a73d bcb2 163e eaed 753d c862 813c
00000240: 4872 be3e e23d 82bb bf12 6b3d 65db 3ebd
00000250: b752 26be 15c3 4dbe 66fc 89be f406 fcbc
00000260: ede5 573e 89a4 c13d d03d 24be e00c eebd
00000270: 7620 ec3b 2990 37be 787c 94be cf67 56bd
00000280: 04ea 90be 170e 93be 07d0 4abe 168e 72be
00000290: f560 603d a810 bcbb f85d 463d 4b81 57bd
000002a0: f4e2 4abe 692f 05be 09f8 fc3c 6500 923d
000002b0: 0835 2bbd 32dd 303e 67c9 41be 79fd c13d
000002c0: c28c b83d d9f0 1a3e e536 2abe 5ac9 d23d
000002d0: 31e4 173e d30b 433e 1909 9ebd d620 9a3d
000002e0: fc65 cf3d 9d13 58bd dabb 5d3d b197 2dbe
000002f0: 7384 c4bd cdc5 1a3d caa7 a23d 36b3 1e3e
00000300: 075a 723d b8fc 413d 2913 8cbd 0202 efbd
00000310: c4bd 10be c41f 9b3d db84 32bc bb7f 883e
00000320: b182 573d 32ad f63c c042 843e 0fe7 f3bd
00000330: 6201 f83d 68d0 773c 1c4e 4b3e 578a d6bd
00000340: 7aec eb3d 1e94 053e 325a d5be 4b17 65be
00000350: 8889 b6bd dca2 323d aea3 7dbd c6c1 6d3e
00000360: 1bad 413e a404 84be c358 d83d c479 85bd
00000370: e900 86be 5d09 fe3c 2d96 1b3e 68dc f2bc
00000380: fc5e 99bd 9ba3 f33d 9362 64be 19e5 863d
00000390: 23e6 e1bd 976d dd3e b249 693d 5534 0c3e
000003a0: 1675 f9bb 19d8 4abe 451e d83c fc5b c03d
000003b0: 7e32 8e3e a7c7 a03d 6f88 973d 2e78 c6bd
000003c0: aba3 eb3c 3341 b43e 24f7 5f3e acfe d4bd
000003d0: ade7 a5be 6533 7d3d de1d 09bf 4dc9 023e
000003e0: f79e e9bd d926 af3e 8e74 4f3d 42de 73be
000003f0: fa22 2d3d dc43 a0be 9fe0 cb3d 400f 12be

h_32.bias f4 [128]
0.029844772 -0.019225867 0.192344 -0.044711914 0.009985434 0.009337148 0.110694654 -0.017499046
-0.0070491615 -0.0359641 0.07060634 -0.11473995 -0.06748249 -0.0553943 0.12532257 0.07360567
-0.020654427 0.026407272 -0.04616249 -0.0050703348 0.06829859 -0.071986064 -0.06093332 -0.09186235
-0.067517616 -0.038881212 0.037005235 -0.077211395 0.008263377 -0.03302937 0.05024008 0.045185704
0.02607907 -0.08188708 -0.06352621 -0.053047076 0.014215727 0.08100754 -0.13590154 0.018025987
-0.07351158 0.018906653 -0.08092667 -0.034504794 0.06954258 0.12393388 -0.023606714 -0.10389279
-0.039630916 -0.061548743 -0.010773183 -0.0014775567 0.02024628 0.018045692 -0.0011347419 -0.011143189
0.0048098527 0.019144515 0.07019992 0.09783187 0.05702624 -0.061062496 0.15873976 0.094962604
-0.16830496 0.008632174 0.10458386 0.080690615 -0.10043773 0.013390778 -0.12951453 0.07912473
0.08430821 -0.10382915 0.11049118 -0.024583375 -0.06532553 0.08146563 0.10897569 -0.0022406147
-0.13328569 0.11380152 0.020471182 0.019072685 -0.09184616 -0.09961961 -0.002522648 -0.06014098
-0.13769323 0.10004562 -0.030315328 -0.060413633 0.10900748 0.04255347 0.10789312 -0.057260487
-0.04833889 -0.012524662 0.19579759 0.0054389047 -0.10302047 0.05248958 0.13347876 0.01841
-0.032907 -0.020577712 0.0827555 -0.048294846 0.061126385 0.10786316 0.07305687 0.07230611
0.091656365 0.038006764 -0.04375615 0.094548166 -0.05208953 0.010104885 -0.09978822 -0.0044559566
0.0015154353 -0.026029333 0.024962854 0.085979775 0.02593599 0.032557167 0.034470562 0.054085508
00000000: 067d f43c 917f 9dbc d3f5 443e d723 37bd
00000010: f299 233c d6fa 183c e1b3 e23d 295a 8fbc
00000020: a7fc e6bb 184f 13bd 0f9a 903d c7fc eabd
00000030: 4234 8abd 22e5 62bd 8f54 003e 92be 963d
00000040: 7933 a9bc 1054 d83c e114 3dbd 0d25 a6bb
00000050: 22e0 8b3d 6e6d 93bd 3895 79bd 5422 bcbd
00000060: ad46 8abd e841 1fbd cd92 173d 0221 9ebd
00000070: 1d63 073c ce49 07bd 8bc8 4d3d a514 393d
00000080: c6a3 d53c 6ab4 a7bd 081a 82bd e447 59bd
00000090: 15e9 683c 48e7 a53d c629 0bbe 3cab 933c
000000a0: 3d8d 96bd 20e2 9a3c e2bc a5bd e654 0dbd
000000b0: 576c 8e3d 0cd1 fd3d de62 c1bc bec5 d4bd
000000c0: 0754 22bd 891a 7cbd 0182 30bc 93aa c1ba
000000d0: 87db a53c 8fd4 933c 9fbb 94ba ec91 36bc
000000e0: f89b 9d3b f5d4 9c3c fac4 8f3d 135c c83d
000000f0: 5994 693d ab1c 7abd ad8c 223e c17b c23d
00000100: 2358 2cbe f66d 0d3c 1030 d63d 1f41 a53d
00000110: 4cb2 cdbd fe64 5b3c 759f 04be 250c a23d
00000120: c8a9 ac3d 61a4 d4bd 3349 e23d 1363 c9bc
00000130: 64c9 85bd 74d7 a63d a62e df3d 47d7 12bb
00000140: 0b7c 08be c510 e93d 2eb3 a73c 523e 9c3c
00000150: d719 bcbd 5e05 ccbd 0353 25bb 6356 76bd
00000160: 74ff 0cbe b8e4 cc3d da57 f8bc 4974 77bd
00000170: 503f df3d 8c4c 2e3d 11f7 dc3d f989 6abd
00000180: 00ff 45bd 3d34 4dbc 2a7f 483e d738 b23b
00000190: 65fc d2bd 50ff 563d a8ae 083e 91d0 963c
000001a0: 7ec9 06bd 9792 a8bc b77b a93d d1d0 45bd
000001b0: a95f 7a3d 5ce7 dc3d d79e 953d 3a15 943d
000001c0: 55b6 bb3d fbac 1b3d a639 33bd 78a2 c13d
000001d0: d55b 55bd f68e 253c c45d ccbd 4603 92bb
000001e0: 92a1 c63a 783b d5bc e67e cc3c 2a16 b03d
000001f0: b777 d43c aa5a 053d 0131 0d3d c488 5d3d

output.weight f4 [12, 128]
-0.31243482 0.058766104 0.08637515 0.08844753 -0.34547916 -0.46262354 -0.21020731 0.09562115
-0.13633561 -0.2806538 0.31261507 0.21169266 0.39293724 -0.115344964 0.117852226 0.12048005
-0.019529568 -0.013641377 -0.28960285 0.08957594 0.24889009 -0.13443889 0.20883486 -0.11820692
0.0009146478 0.09265104 -0.1356409 -0.036492668 0.08980374 -0.30217862 -0.29830587 -0.0031797516
0.1497589 0.22701159 0.04625132 0.08417149 0.1659402 -0.064628586 0.07817416 0.08996851
-0.22850654 -0.049162537 0.2290819 0.043015983 0.093377076 0.033929814 -0.012433155 0.14478661
-0.19989522 -0.0518345 0.04360757 -0.18525739 0.11116117 -0.09528775 -0.10603342 0.06276458
0.20652695 -0.07238374 0.022351462 0.101761065 -0.15368836 -0.13930413 -0.074674405 -0.15490398
-0.13146856 0.07619529 -0.3656069 0.15339139 -0.1373569 -0.05090178 0.094423406 0.3047122
-0.014871283 0.11322209 -0.1688819 -0.11107204 0.19197991 -0.24821566 -0.15893383 0.06449052
0.038284875 0.25371358 0.039128467 0.004703422 0.21518943 -0.15526253 -0.57925 -0.21121007
0.06174607 0.11546545 0.0030785773 -0.13019353 -0.15860449 0.121791914 -0.20066729 -0.18018813
0.14170842 -0.512638 0.055109024 -0.09951083 -0.08103592 0.24405237 -0.08374057 0.41372478
0.052027132 0.039905857 0.26373127 -0.040180214 0.13551128 -0.10578253 -0.095080525 -0.15105549
0.0851495 0.39580467 -0.08268633 0.17053849 -0.236325 -0.025963787 -0.10465804 -0.3312557
-0.07895542 0.066848546 -0.14725299 -0.64711493 -0.095982976 0.42190394 -0.09034798 -0.15527183
0.04135978 0.11111888 -0.031003293 -0.036455836 -0.15718646 0.08531356 -0.031551126 0.14439996
-0.1833291 0.124324456 0.10760097 0.14400217 -0.4741337 -0.057908583 -0.19089828 -0.41029137
-0.011158406 -0.21860525 0.1378776 -0.014266647 0.13380489 0.22419582 -0.0245001 0.1446521
0.36691105 0.112440124 0.2991581 -0.09930589 -0.088987224 0.0012803263 -0.051893197 -0.0919086
-0.19499606 -0.105519705 -0.01679817 0.4461647 0.030681487 0.18943025 0.17953268 0.018325798
0.1086605 -0.16450447 -0.3287741 -0.18247287 -0.16335477 0.0013844704 -0.036697265 -0.11006746
0.34856838 -0.01290546 -0.02075702 0.11824157 0.05418559 -0.3334668 0.04101776 -0.19881319
-0.0875298 0.13308726 -0.022551343 -0.38589174 -0.096300244 0.07615488 0.11768123 0.051714588
-0.0078047407 0.1433033 0.16480824 0.18584792 -0.066348806 0.20863125 -0.13028574 0.18111905
-0.1556612 0.026001452 -0.11949083 0.20971079 0.16207634 0.11553299 0.34380466 0.11865654
0.3253743 -0.30134952 -0.06278362 -0.09164567 -0.023832504 -0.015372393 0.3403194 -0.06143329
0.030922621 0.033017624 -0.084473275 -0.16083908 0.058627788 -0.21184218 -0.25255534 0.14021003
0.073076986 0.24128449 -0.018791882 -0.13633218 -0.106412955 -0.085542895 -0.10091688 0.21844262
0.11886733 0.26238328 -0.113192245 -0.21724139 -0.113920756 -0.09440675 0.043159027 0.1685511
-0.045385644 -0.10693558 -0.03187944 0.07869505 0.08116439 0.14027189 0.29105306 0.31173143
0.023763355 -0.29681477 -0.1936738 0.1065483 -0.03555625 -0.20349555 0.10813221 -0.034634568
00000000: 75f7 9fbe bab4 703d 74e5 b03d fb23 b53d
00000010: a5e2 b0be fedc ecbe 9640 57be 06d5 c33d
00000020: 909b 0bbe dbb1 8fbe 150f a03e f6c5 583e
00000030: 122f c93e fb39 ecbd 825c f13d 3fbe f63d
00000040: 79fc 9fbc 1580 5fbc d346 94be 9773 b73d
00000050: 0bdd 7e3e 59aa 09be ced8 553e 7816 f2bd
00000060: fac4 6f3a d4bf bd3d 73e5 0abe 5679 15bd
00000070: 06eb b73d 28b7 9abe 8cbb 98be 6163 50bb
00000080: 665a 193e ba75 683e 0672 3d3d 1a62 ac3d
00000090: 3aec 293e fe5b 84bd c619 a03d 6941 b83d
000000a0: 9efd 69be a85e 49bd 7294 6a3e 8731 303d
000000b0: 7b3c bf3d fdf9 0a3d 6fb4 4bbc f142 143e
000000c0: 55b1 4cbe 6a50 54bd da9d 323d 1db4 3dbe
000000d0: 78a8 e33d 3926 c3bd 0d28 d9bd b78a 803d
000000e0: cd7b 533e ed3d 94bd 6a1a b73c 1b68 d03d
000000f0: 7b60 1dbe bea5 0ebe e5ee 98bd 269f 1ebe
00000100: b29f 06be 470c 9c3d d430 bbbe a212 1d3e
00000110: 4aa7 0cbe 637e 50bd 0f61 c13d 3d03 9c3e
00000120: afa6 73bc fce0 e73d 60ef 2cbe bd79 e3bd
00000130: 6296 443e 3f2c 7ebe 8dbf 22be 9b13 843d
00000140: 9ad0 1c3d bfe6 813e 2c45 203d 2a1f 9a3b
00000150: 9e5a 5c3e 24fd 1ebe ba49 14bf 7447 58be
00000160: 72e9 7c3d 2679 ec3d f5c1 493b 7451 05be
00000170: 3769 22be 0a6e f93d ba7b 4dbe 3d83 38be
00000180: 031c 113e 3e3c 03bf 00ba 613d 56cc cbbd
00000190: 29f6 a5bd dde8 793e 2d80 abbd bcd3 d33e
000001a0: 671a 553d 5374 233d c907 873e 0294 24bd
000001b0: 78c3 0a3e 83a4 d8bd 94b9 c2bd 4aae 1abe
000001c0: dc62 ae3d e9a6 ca3e 7357 a9bd a4a1 2e3e
000001d0: 2eff 71be 02b2 d4bc f456 d6bd 599a a9be
000001e0: 61b3 a1bd e4e7 883d 7dc9 16be 53a9 25bf
000001f0: b992 c4bd cb03 d83e 5d08 b9bd 94ff 1ebe
00000200: df68 293d 4c92 e33d 9efa fdbc b752 15bd
00000210: 7df5 20be e0b8 ae3d c13b 01bd 95dd 133e
00000220: a0ba 3bbe d29d fe3d e65d dc3d 4e75 133e
00000230: a7c1 f2be 8d31 6dbd d77a 43be b611 d2be
00000240: bfd1 36bc 0eda 5fbe c92f 0d3e a8be 69bc
00000250: 2604 093e 9793 653e 6fb4 c8bc ae1f 143e
00000260: c4db bb3e 0247 e63d 402b 993e e360 cbbd
00000270: ef3e b6bd 9fd0 a73a f68d 54bd 933a bcbd
00000280: 0cad 47be b71a d8bd 519c 89bc b36f e43e
00000290: be57 fb3c 01fa 413e 6ad7 373e fc1f 963c
000002a0: 6589 de3d dc73 28be 1455 a8be 2bda 3abe
000002b0: 7946 27be 1e77 b53a df4f 16bd 0c6b e1bd
000002c0: 8e77 b23e 6c71 53bc a00a aabc a328 f23d
000002d0: b6f1 5d3d 29bc aabe 3d02 283d af95 4bbe
000002e0: d342 b3bd 0748 083e 98bd b8bc 9a93 c5be
000002f0: 1039 c5bd 17f7 9b3d db02 f13d add2 533d
00000300: e9be ffbb 1abe 123e 7ec3 283e eb4e 3e3e
00000310: e2e1 87bd 6ea3 553e a069 05be 4677 393e
00000320: a665 1fbe ff00 d53c 9cb7 f4bd 6dbe 563e
00000330: 57f7 253e 8f9c ec3d 2a07 b03e 3302 f33d
00000340: 7697 a63e 7c4a 9abe b394 80bd bab0 bbbd
00000350: 623c c3bc 7ddc 7bbc 583e ae3e 79a1 7bbd
00000360: 7051 fd3c 7d3d 073d 5300 adbd 00b3 24be
00000370: b123 703d 28ed 58be ef4e 81be 3893 0f3e
00000380: 63a9 953d 4813 773e 6ff1 99bc aa9a 0bbe
00000390: 09ef d9bd 1d31 afbd 82ad cebd 6caf 5f3e
000003a0: b770 f33d 1a57 863e 56d1 e7bd 8774 5ebe
000003b0: 494f e9bd 5358 c1bd 85c7 303d a998 2c3e
000003c0: 4ce6 39bd 0b01 dbbd 0494 02bd df2a a13d
000003d0: 8439 a63d 6fa3 0f3e e804 953e 439b 9f3e
000003e0: 5eab c23c 1bf8 97be 6d52 46be ff35 da3d
000003f0: 6ea3 11bd 2361 50be 6c74 dd3d fadc 0dbd

output.bias f4 [12]
-0.014203405 -0.15177946 -0.060342286 -0.14360042 -0.14915685 0.05854413 -0.022960244 0.17378968
0.12756757 0.15005666 0.03457874 0.13399357
00000000: 66b5 68bc 136c 1bbe 7929 77bd fd0b 13be
00000010: 93bc 18be f8cb 6f3d 1f17 bcbc ecf5 313e
00000020: 13a1 023e 74a8 193e 70a2 0d3d 9c35 093e
