GANs/saved_models/python/RecreatingBestModelNewRerunX.pth (torch, 461178 bytes, 58 tensors)

h_11.weight f4 [64, 6]
0.13961346 0.040885523 -0.052845996 0.29652938 -0.069133766 0.1451119 -0.07315456 0.33481064
0.10750099 -0.26868403 0.38003257 0.07757246 0.11710484 0.026714077 0.11209392 0.015888685
0.42670047 0.46819657 -0.1771794 -0.02527561 -0.1828623 0.19108897 -0.57351446 -0.44997504
-0.38633388 -0.16810721 -0.25351605 0.16517535 -0.3774495 -0.281129 -0.093045615 -0.3948078
-0.10651116 0.23967929 -0.28197947 0.024065599 0.04477735 0.24034818 0.056112047 -0.19427592
0.12869479 -0.11512668 0.31071255 0.2254122 0.28470862 -0.22464725 0.44174415 0.2724999
-0.13031459 -0.32699814 -0.1723269 0.19053149 -0.2834212 -0.124594115 0.03591064 0.1133422
-0.009989088 -0.06403086 0.031332258 -0.033563174 0.10573762 -0.3758776 0.014767974 -0.24905248
0.07273612 -0.06335862 0.29456285 -0.41639563 -0.39221868 -0.041892897 0.16879988 -0.037942454
0.24430843 -0.7032826 -0.08985724 0.14703317 -0.2509579 0.036093336 -0.062410586 0.3700755
0.07205443 -0.3258685 0.45831007 0.09058167 0.08208435 -0.05744278 0.03887009 -0.10723264
0.0502002 -0.033197563 -0.14999129 -0.02447113 -0.22918855 0.33476475 -0.6292521 -0.4286291
0.12546755 -0.3057417 0.5414861 -0.5329011 -0.12176331 -0.14961335 -0.11826974 -0.02321494
-0.0252938 -0.065759875 -0.05001756 -0.09581848 -0.017997919 0.14875014 0.09459258 0.07068584
-0.09519523 -0.059158962 0.065935165 -0.2713627 0.10565256 -0.40770638 -0.00677067 -0.2540569
0.42998913 -0.78866744 0.027489947 -0.6534071 0.025563722 -0.31140158 0.10806375 -0.07134952
0.27283657 -0.16032858 0.4046192 0.44139627 -0.38997483 0.10866573 -0.4332451 0.2323189
-1.002366 -0.99724823 -0.03823308 -0.2577765 0.4045121 -0.42955518 -0.044095263 -0.09567316
0.0305934 -0.1669832 -0.1158882 0.030974563 0.031034557 0.06030405 -0.17112756 0.1560286
0.0014672955 -0.42503354 0.23203667 -0.17560329 0.29175583 0.5253215 0.120928824 -0.44114608
0.6445189 0.08711998 -0.052723676 -0.30231813 0.28477177 -0.1644122 -0.35997745 -0.19721593
0.078058966 0.010514354 -0.066270865 0.020418823 0.05975774 -0.0006566052 -0.041609105 0.15204494
-0.3727218 0.08761987 0.06351745 -0.15101133 -0.013381769 -0.061863497 0.019702207 0.062477242
-0.019640127 0.08948253 0.22451204 -0.24121943 -0.0023810612 0.31111 -0.33449462 0.0025315857
0.21961904 0.51423055 0.009056106 -0.0992199 0.18038033 -0.07263956 0.3261928 0.21246226
0.13739139 -0.31847674 0.6205329 0.27588204 -0.012855932 0.0348222 -0.1680386 -0.23576781
-0.16651295 0.2204494 0.112182856 -0.43992803 0.20270409 -0.039514337 0.19811773 0.3761413
0.1395117 -0.038381744 0.46273845 -0.029864732 0.055222042 0.285609 0.02589841 0.37647918
-0.65219927 0.6762711 0.110138334 0.19727506 -0.4054987 0.07846016 -0.058596175 0.61028916
-0.0016454005 0.2763327 -0.16212513 0.12748557 -0.07281061 -0.20035861 -0.1572054 -0.40297154
0.048699293 0.15926784 0.060826343 -0.022317903 -0.05167912 -0.08545414 -0.36865455 -0.019613236
-0.24068731 0.123331115 -0.41552073 -0.39752775 0.10947793 -0.21634674 0.16903462 -0.8109455
00000000: d5f6 0e3e 9477 273d 0b75 58bd b3d2 973e
00000010: 0196 8dbd 3798 143e 0fd2 95bd 4d6c ab3e
00000020: 7b29 dc3d f490 89be a193 c23e 4fde 9e3d
00000030: aad4 ef3d 7bd7 da3c 7f91 e53d fd28 823c
00000040: 7c78 da3e 76b7 ef3e 846e 35be cc0e cfbc
00000050: 4140 3bbe d4ac 433e d8d1 12bf 2163 e6be
00000060: 8ecd c5be 4c24 2cbe dbcc 81be ba23 293e
00000070: 1041 c1be 24f0 8fbe b38e bebd 3f24 cabe
00000080: 8622 dabd 7d6e 753e 9d5f 90be 3825 c53c
00000090: 7468 373d d51d 763e bfd5 653d 44f0 46be
000000a0: 91c8 033e 89c7 ebbd b715 9f3e 75d2 663e
000000b0: 54c5 913e ee09 66be 4a2c e23e 1b85 8b3e
000000c0: 3071 05be 4d6c a7be 7676 30be b01a 433e
000000d0: 951c 91be 332b ffbd 0917 133d f51f e83d
000000e0: 46a9 23bc 9d22 83bd 4156 003d 8a79 09bd
000000f0: f78c d83d 0773 c0be 5ff5 713c 9d07 7fbe
00000100: adf6 943d 2ac2 81bd f1d0 963e cf31 d5be
00000110: e3d0 c8be e397 2bbd e0d9 2c3e 8c69 1bbd
00000120: fd2b 7a3e 540a 34bf 1307 b8bd dd8f 163e
00000130: 8e7d 80be 9bd6 133d 3ea2 7fbd 897a bd3e
00000140: 4691 933d 3cd8 a6be 9ea7 ea3e e282 b93d
00000150: d71b a83d 1f49 6bbd 3e36 1f3d c99c dbbd
00000160: ba9e 4d3d 2bfa 07bd 5197 19be ae77 c8bc
00000170: 67b0 6abe 4966 ab3e aa16 21bf 4675 dbbe
00000180: 917a 003e 2d8a 9cbe d59e 0a3f 356c 08bf
00000190: 0b5f f9bd 3e34 19be 6837 f2bd 422d bebc
000001a0: f134 cfbc 1dad 86bd 37df 4cbd 7b3c c4bd
000001b0: 5f70 93bc f551 183e c1b9 c13d bdc3 903d
000001c0: b7f5 c2bd ab50 72bd 0409 873d 0df0 8abe
000001d0: 5f60 d83d e4be d0be 7fdc ddbb bf13 82be
000001e0: 8927 dc3e 1ce6 49bf 9932 e13c b045 27bf
000001f0: 036b d13c 0770 9fbe 8750 dd3d b21f 92bd
00000200: 3cb1 8b3e 2d2d 24be 3f2a cf3e b1fe e13e
00000210: c8aa c7be 238c de3d 4dd2 ddbe 01e5 6d3e
00000220: 874d 80bf a94b 7fbf 4a9a 1cbd 48fb 83be
00000230: 361c cf3e a8ee dbbe 3c9d 34bd 4af0 c3bd
00000240: 039f fa3c a5fd 2abe cb56 edbd 5ebe fd3c
00000250: 2f3c fe3c 6101 773d 103c 2fbe f6c5 1f3e
00000260: 4452 c03a ff9d d9be 059b 6d3e 59d1 33be
00000270: 0561 953e 787b 063f 88a9 f73d e6dd e1be
00000280: 31ff 243f f66b b23d c8f4 57bd 71c9 9abe
00000290: 9bcd 913e ac5b 28be f74e b8be f9f2 49be
000002a0: 61dd 9f3d 6644 2c3c 05b9 87bd 6045 a73c
000002b0: 88c4 743d 0720 2cba 4f6e 2abd abb1 1b3e
000002c0: 64d5 bebe 0c72 b33d 7015 823d b7a2 1abe
000002d0: 353f 5bbc 9464 7dbd 8666 a13c 23e8 7f3d
000002e0: 55e4 a0bc 9e42 b73d 7ce6 653e 3a02 77be
000002f0: 940b 1cbb cf49 9f3e e142 abbe f6e8 253b
00000300: d0e3 603e 9da4 033f 1060 143c ce33 cbbd
00000310: 9fb5 383e 0dc4 94bd be02 a73e b58f 593e
00000320: 54b0 0c3e 620f a3be 3edb 1e3f 6940 8d3e
00000330: b0a1 52bc b9a1 0e3d 5012 2cbe 1e6d 71be
00000340: 5f82 2abe 7dbd 613e 20c0 e53d 3f3e e1be
00000350: a991 4f3e c9d9 21bd 60df 4a3e 9895 c03e
00000360: 28dc 0e3e 2d36 1dbd 0eec ec3e e2a6 f4bc
00000370: 8230 623d 583b 923e e728 d43c e1c1 c03e
00000380: 88f6 26bf 1a20 2d3f 3590 e13d 7902 4a3e
00000390: 879d cfbe b8af a03d 8b02 70bd e93b 1c3f
000003a0: 7baa d7ba 7b7b 8d3e 2104 26be 948b 023e
000003b0: bb1d 95bd cf2a 4dbe 74fa 20be 4952 cebe
000003c0: e978 473d 1c17 233e 0b25 793d 09d4 b6bc
000003d0: 7cad 53bd 9502 afbd 4ac0 bcbe f0ab a0bc
000003e0: bc76 76be 0695 fc3d 22bf d4be c288 cbbe
000003f0: f735 e03d 008a 5dbe 6917 2d3e 209a 4fbf

h_11.bias f4 [64]
0.3680672 0.36077088 0.21170914 -0.47878447 0.38645384 0.6181711 0.4351968 0.095938966
0.42400014 0.4807437 0.15766063 -0.29529646 -0.28963313 0.36531186 0.6870607 -0.43238527
0.14880185 0.59522045 0.53153205 0.10882058 -0.45730263 0.3228109 -0.7602402 0.24844427
0.59306556 0.29195163 -0.29956275 -0.120922565 0.71968603 0.4747383 0.47382468 -0.043592073
-0.5040927 -0.022415873 -0.65058684 -0.75625646 -0.4953248 -0.2490494 -1.6735009 0.5271986
0.6114994 0.26255113 -0.28130293 -0.034091063 -0.37280932 0.77994573 0.24204957 -0.27170688
-0.72133774 0.49975485 -1.3711591 0.46938485 0.059726536 0.1753672 -0.09392066 -0.31395656
0.065705985 0.6634075 0.3250726 0.64723796 0.5389533 -0.5069476 -1.5490978 0.4415527
00000000: 4e73 bc3e f6b6 b83e 48ca 583e 3d23 f5be
00000010: 47dd c53e 7640 1e3f 1dd2 de3e a67b c43d
00000020: 8c16 d93e 0a24 f63e ca71 213e 1931 97be
00000030: cb4a 94be 280a bb3e 36e3 2f3f 9a61 ddbe
00000040: 835f 183e 5e60 183f 7c12 083f 53dd de3d
00000050: 9223 eabe 7847 a53e 1a9f 42bf 2d68 7e3e
00000060: 25d3 173f af7a 953e 4a60 99be 40a6 f7bd
00000070: 583d 383f e610 f33e 2699 f23e 9a8d 32bd
00000080: 380c 01bf 7ea1 b7bc dc8c 26bf 069a 41bf
00000090: 369b fdbe ce06 7fbe 4735 d6bf 7df6 063f
000000a0: 3a8b 1c3f 1a6d 863e f006 90be 12a3 0bbd
000000b0: dde0 bebe 86aa 473f d8db 773e 2a1d 8bbe
000000c0: 97a9 38bf dedf ff3e 2482 afbf 3653 f03e
000000d0: d0a3 743d 7693 333e 7a59 c0bd eabe a0be
000000e0: dc90 863d 13d5 293f ea6f a63e 63b1 253f
000000f0: d8f8 093f 51c7 01bf d648 c6bf 3213 e23e

h_12.weight f4 [64, 6]
0.6503572 -1.2508091 0.0068846853 -0.28139386 -0.33950827 0.44014254 -0.11729723 0.008900288
-0.29075843 1.1394304 0.37174064 -0.25669548 -0.023112489 0.098038875 0.14296556 -0.28866455
0.15300722 -0.20856658 -0.41306534 -0.3674337 0.54253453 0.27420375 0.48420924 0.29661494
0.31074896 -0.05126592 -0.22211985 0.2021898 -0.21439384 -0.27689877 -0.96380997 -0.006835805
0.48623812 -0.35913512 -0.45461804 0.44859543 -0.18669662 -0.13011104 0.44681293 -0.1764549
0.5575367 0.4242986 0.122109324 0.1405018 0.094012946 0.0063935285 -0.0296929 0.005611012
0.15245003 0.37957737 -0.10580126 -0.172573 -0.09886339 -0.19723466 0.06941801 0.3047363
0.31924096 0.18743722 -0.30044279 -0.21910882 -0.15377028 -0.21882287 -0.3145367 -1.2557441
0.47516066 -0.031006644 -0.6495998 -0.8958969 0.3592564 -0.20122619 0.38019162 -0.31699535
-0.274425 0.94342124 -0.27088675 0.93609476 0.85190815 -0.33290294 0.15708742 0.07706871
0.087778166 0.05960076 0.11166855 -0.19639471 -0.05223175 0.38788486 0.2742814 -0.015337256
-0.38397014 0.017892614 -1.0417793 0.060864434 -0.62613696 -0.3769677 -0.22580281 -0.36759177
0.8065698 -0.18867324 -0.0014580374 0.42869952 0.7785588 -0.2865347 -0.5122065 0.11731941
-0.07833504 0.044243112 -0.15327545 -0.77936935 0.48198843 0.6484079 0.3251469 0.6147041
0.9619319 0.71720344 0.6885619 -1.0124044 -0.92175967 -0.2663577 -0.59176296 -0.19076043
-0.8079275 -1.0428017 -0.053377584 -0.9928596 -0.38032985 0.17892224 0.54071313 -0.61165905
-0.6834119 0.3198815 -0.4371251 -0.6381486 0.5309323 -0.76863897 0.21486466 0.5408211
0.43633842 0.087839775 -0.38088503 0.14406098 0.38723385 -0.12089517 0.31844774 0.3981566
-0.5746204 -0.543598 -0.025631849 -0.75139767 -0.16185537 -0.8025838 0.46865997 -0.55973774
0.45963204 0.5827065 -0.91141176 -0.13907641 0.15111595 -0.1897591 -0.2692494 -0.50264573
0.5159927 0.5082295 1.0819019 -0.70054895 -1.0768541 0.27737162 -0.39185104 -0.4605484
-0.12792397 -0.7582115 -0.05800265 0.77168554 -0.312856 -0.0662722 -0.64889294 -0.53401566
-0.06080199 -0.94872993 -0.19167094 0.41156337 -0.7012295 -0.06645393 -0.4587751 -0.4579954
0.055656996 0.23880251 0.016950492 -0.3625816 -1.2086464 -0.4583857 -0.2945456 -0.12152984
-0.049664043 -1.240205 0.29571375 0.46698102 -0.70045555 -0.019462971 0.4631606 -0.38478896
-0.03175577 -0.59780085 0.6725084 -0.6886749 0.2337763 -0.019773077 0.3170294 0.89500564
-0.19418459 -0.39674112 -0.27345502 0.6239012 -0.75908256 0.2972764 -0.37641636 0.53806037
0.19208035 0.25354415 0.4530577 -0.24473566 1.16192 -0.30313754 0.21939413 0.75482124
0.14894886 0.74612856 -0.063635215 1.1394747 -0.085394934 -0.2631689 -0.58789474 -0.28099385
0.70020485 -0.018260628 -1.00614 0.22438619 0.193855 0.5494429 -1.1873624 -0.3267036
-0.8180411 0.010906577 0.4533814 0.36430568 0.20289987 0.61909926 -0.013374022 0.5525878
0.83377695 1.1061282 -0.2207918 0.681545 0.58568376 -0.92779624 -0.5515931 -0.77037036
00000000: cf7d 263f 831a a0bf ed98 e13b db12 90be
00000010: 07d4 adbe 5d5a e13e 8839 f0bd 83d2 113c
00000020: 4ade 94be dbd8 913f ca54 be3e 976d 83be
00000030: 6756 bdbc 9bc8 c83d 9065 123e d7cb 93be
00000040: edad 1c3e 7a92 55be 4d7d d3be 4520 bcbe
00000050: 8be3 0a3f 6f64 8c3e 46ea f73e eadd 973e
00000060: 7d1a 9f3e 37fc 51bd 6373 63be d80a 4f3e
00000070: 0f8a 5bbe adc5 8dbe 40bc 76bf e3fe dfbb
00000080: 34f4 f83e 8fe0 b7be b2c3 e8be 4dae e53e
00000090: 662d 3fbe d43b 05be aac4 e43e 98b0 34be
000000a0: baba 0e3f ab3d d93e 7414 fa3d b4df 0f3e
000000b0: dc89 c03d ce80 d13b 863e f3bc 95dc b73b
000000c0: dc1b 1c3e f757 c23e 55ae d8bd fab6 30be
000000d0: e478 cabd e2f7 49be 082b 8e3d 6506 9c3e
000000e0: 8d73 a33e 8bef 3f3e a3d3 99be 105e 60be
000000f0: f575 1dbe 1a13 60be f40a a1be 39bc a0bf
00000100: 4248 f33e a501 febc 2c4c 26bf 8059 65bf
00000110: 74f0 b73e 3d0e 4ebe 7aa8 c23e 374d a2be
00000120: 6f81 8cbe 0e84 713f abb1 8abe e8a3 6f3f
00000130: a716 5a3f 4172 aabe 86db 203e 33d6 9d3d
00000140: 0ac5 b33d ed1f 743d 7bb2 e43d b21b 49be
00000150: f6f0 55bd d898 c63e 9d6e 8c3e 1d49 7bbc
00000160: bc97 c4be 8893 923c 0659 85bf fc4c 793d
00000170: 834a 20bf e901 c1be da38 67be fd34 bcbe
00000180: 5c7b 4e3f 8f33 41be 9e1b bfba 817e db3e
00000190: a14f 473f adb4 92be f71f 03bf 2945 f03d
000001a0: 1f6e a0bd 4438 353d 3df4 1cbe c084 47bf
000001b0: 30c7 f63e 0ffe 253f a879 a63e 3f5d 1d3f
000001c0: 2b41 763f a59a 373f 9845 303f 7896 81bf
000001d0: 71f8 6bbf 0960 88be c77d 17bf b456 43be
000001e0: 56d4 4ebf 877a 85bf 74a2 5abd 0c2c 7ebf
000001f0: 98ba c2be 6437 373e 2d6c 0a3f b095 1cbf
00000200: 15f4 2ebf 82c7 a33e dcce dfbe b55d 23bf
00000210: 2eeb 073f 86c5 44bf 7b05 5c3e 4073 0a3f
00000220: c067 df3e 57e5 b33d 5d03 c3be b984 133e
00000230: 8443 c63e e397 f7bd 950b a33e 2fdb cb3e
00000240: 531a 13bf 3d29 0bbf e2f9 d1bc 995b 40bf
00000250: 6abd 25be 2276 4dbf 33f4 ef3e f94a 0fbf
00000260: e454 eb3e 412c 153f 4852 69bf 0c6a 0ebe
00000270: 24be 1a3e 3650 42be 0fdb 89be 64ad 00bf
00000280: 1918 043f 541b 023f c37b 8a3f 2d57 33bf
00000290: 5bd6 89bf a703 8e3e b3a0 c8be 00cd ebbe
000002a0: 80fe 02be 261a 42bf 3094 6dbd 2f8d 453f
000002b0: a92e a0be b8b9 87bd d91d 26bf 40b5 08bf
000002c0: 820b 79bd f7df 72bf 6345 44be 6fb8 d23e
000002d0: c783 33bf 0019 88bd 92e4 eabe 607e eabe
000002e0: 97f8 633d a588 743e c2db 8a3c 4ca4 b9be
000002f0: edb4 9abf 88b1 eabe aece 96be a3e4 f8bd
00000300: 866c 4bbd 0abf 9ebf cb67 973e 2318 ef3e
00000310: 0e51 33bf cf70 9fbc 6323 ed3e 0f03 c5be
00000320: 5712 02bd 7a09 19bf 8329 2c3f 004d 30bf
00000330: 0e63 6f3e 26fb a1bc ad51 a23e 171f 653f
00000340: 53d8 46be a721 cbbe 4c02 8cbe fdb7 1f3f
00000350: 3c53 42bf 9d34 983e a5b9 c0be 53be 093f
00000360: b6b0 443e 8ad0 813e 2ef7 e73e fc9b 7abe
00000370: cbb9 943f d834 9bbe dba8 603e f73b 413f
00000380: 0d86 183e 4802 3f3f 2e53 82bd 4fda 913f
00000390: 8ae3 aebd 13be 86be 4580 16bf 6dde 8fbe
000003a0: a040 333f 5097 95bc 32c9 80bf 7ec5 653e
000003b0: ed81 463e 4aa8 0c3f 7efb 97bf b245 a7be
000003c0: 246b 51bf 80b1 323c 9b21 e83e 4686 ba3e
000003d0: fcc4 4f3e 4a7d 1e3f b71e 5bbc 6576 0d3f
000003e0: 6872 553f 9c95 8d3f 3f17 62be bc79 2e3f
000003f0: 5fef 153f 0e84 6dbf 3535 0dbf fe36 45bf

h_12.bias f4 [64]
-0.7678567 -0.96659327 -0.29547054 0.23218334 -0.27553874 -0.54171085 -0.08114449 -0.2238812
0.1177674 -0.3986232 -0.12113205 -1.4303977 -0.6734149 -0.1487238 0.058458447 -0.36439422
0.72494316 1.1472012 0.16837943 0.45787 -0.6567364 1.085493 -0.9333803 0.34887478
0.9069855 1.1119807 0.5976427 0.49251997 0.21259105 -1.0260954 0.096935384 0.11629493
-0.58831644 1.5516708 1.3096353 0.3554212 0.50217927 -1.0054344 -0.30423516 0.95616525
0.10259318 0.42493886 0.39567232 -0.79601604 0.6532905 -0.5450142 1.1339774 -0.57484883
0.34346554 0.5775406 -0.012219978 0.3666191 0.43065643 0.13493669 0.95705867 -0.5529619
-0.57942265 -0.322677 -0.4123455 -1.1740899 -0.4618713 -0.42786276 1.2987189 0.79536927
00000000: 4292 44bf a872 77bf ea47 97be 78c1 6d3e
00000010: 6a13 8dbe 90ad 0abf 152f a6bd 1d41 65be
00000020: 0930 f13d 5718 ccbe 1514 f8bd 4617 b7bf
00000030: eb64 2cbf 0d4b 18be 2072 6f3d e191 babe
00000040: e095 393f 7dd7 923f a86b 2c3e f06d ea3e
00000050: e01f 28bf 6ff1 8a3f 03f2 6ebf b79f b23e
00000060: 3430 683f 6255 8e3f 1dff 183f 942b fc3e
00000070: 78b1 593e 1857 83bf 0f86 c63d 092c ee3d
00000080: e89b 16bf 269d c63f 21a2 a73f c4f9 b53e
00000090: d28e 003f 13b2 80bf b6c4 9bbe 3fc7 743f
000000a0: 601c d23d 9691 d93e 9095 ca3e b5c7 4bbf
000000b0: 0c3e 273f 0d86 0bbf 2c26 913f 4b29 13bf
000000c0: b7da af3e b3d9 133f 4d36 48bc 80b5 bb3e
000000d0: 007f dc3e d82c 0a3e cc01 753f e98e 0dbf
000000e0: 0b55 14bf eb35 a5be f31e d3be 9448 96bf
000000f0: 657a ecbe d410 dbbe 6c3c a63f 529d 4b3f

h_21.weight f4 [64, 64]
0.13077678 0.014616011 -0.005824341 -0.11345908 -0.026325343 0.04428992 0.07420027 -0.01889925
0.01482185 0.17088695 -0.0046494645 -0.00923617 -0.020819008 0.07973705 -0.061122146 0.006446297
0.15061733 0.15028456 0.04322257 0.02688888 -0.03129545 0.03511564 -0.055042904 -0.1030706
-0.045335595 0.039661262 -0.12135186 0.11263592 0.24846934 -0.01385351 0.08388212 0.2006562
-0.05223277 0.007947482 -0.013855346 -0.06155463 0.042433795 0.043137603 -0.5121543 0.00087055477
0.047515303 0.027117077 0.041091844 -0.0781975 0.11210515 -0.0048539997 -0.097324856 -0.07566095
0.033421718 0.10724704 -0.124691494 -0.017547341 0.0244832 0.058293834 0.14626838 -0.11604793
-0.06339739 0.01636589 0.051112436 0.0081944205 -0.009060125 -0.011519538 -0.9700583 -0.102667734
-0.17758845 0.10173677 -0.0320651 -0.08041603 -0.10237335 0.13229653 -0.021067653 -0.08463206
-0.064720266 0.08655339 -0.09370271 -0.019730637 0.14184855 -0.11691735 0.019923752 0.1288484
-0.045827467 0.053443387 0.08445399 -0.10743898 -0.044587627 0.062439747 0.08515882 0.1701419
-0.052373976 -0.028960532 -0.13382712 -0.012073474 0.15831786 0.022724373 -0.092542626 -0.07058187
-1.2636275 -0.16089974 0.1544483 -0.078169204 -0.06038846 0.05035631 -0.15123078 -0.009878097
0.10156166 -0.047985032 0.0006866675 0.16479963 -0.026342122 0.042171426 -0.13339332 0.21122548
-0.011650121 0.019140234 -0.08842501 0.0360675 -0.17513451 -0.051396597 -0.017842872 -0.23454309
0.051618777 0.020348942 0.06709758 0.01744898 -0.027506998 0.12872928 -0.9661469 -0.09604158
0.027123986 -0.00913779 -0.0399729 0.117939316 0.071036726 0.04034601 0.025826637 0.04244454
-0.12566383 -0.020790102 -0.1500518 -0.1857027 0.038117994 -0.004509394 0.08546037 -0.07768858
-0.04325438 0.090308875 0.04393137 0.0054482785 -2.9558904 -0.086708225 0.039181422 0.050088394
-0.015894702 -0.05681028 0.057254516 -0.15157211 0.048476312 -0.046939015 0.22662917 -0.07482568
-0.05041419 0.011474762 0.13523969 -0.24781737 0.13853899 -0.03670053 -0.44343898 0.0013856989
-0.042654876 -0.0646385 -0.23854613 -0.1366961 0.018170996 -0.034322854 -0.11156868 0.31871542
0.002887236 -0.014418552 -0.396442 0.10719504 0.0015949411 -3.282077e-05 -0.08818507 0.08277273
-0.15943387 -0.08563111 -0.0069493665 0.050144423 0.14765055 -0.08905409 -0.81705076 0.103165515
-0.1684571 -0.17404546 0.09653228 0.21983382 -0.13534287 0.018122392 -0.11137998 0.04959348
-0.024931652 0.2055935 -0.007524517 -0.072695605 0.018237917 -0.057067987 -0.1800161 0.04033318
-0.07731161 0.07115933 -0.011553095 0.032012697 -0.0073550385 0.033985104 0.03181194 0.046077456
-0.08560202 0.00998532 -0.0003234923 -0.030187672 0.13065922 0.10726729 0.09827167 -0.23381852
0.014233316 -0.05510516 -0.21342455 0.09003379 -0.14180706 0.013782743 -0.7565542 0.034944247
0.14138487 -0.05839545 -0.040848892 0.19425228 -0.15831421 -0.15417977 0.0004624125 0.014854884
0.032489445 0.1520865 -0.29275712 -0.012211937 0.10250354 0.06824585 -0.011796086 -0.0103515
-0.15382794 -0.05664996 0.050834123 0.008687715 0.19917375 0.02297329 -0.32531938 -0.0218965
00000000: 59ea 053e fe77 6f3c 1dda bebb 3c5d e8bd
00000010: 3fa8 d7bc 5969 353d 50f6 973d 9ad2 9abc
00000020: 58d7 723c fdfc 2e3e 895a 98bb 4e53 17bc
00000030: a08c aabc 2e4d a33d 375b 7abd 753b d33b
00000040: 6e3b 1a3e 32e4 193e 260a 313d 1246 dc3c
00000050: a82f 00bd 6bd5 0f3d ab74 61bd ae16 d3bd
00000060: d1b1 39bd d973 223d 5387 f8bd a9ad e63d
00000070: bf6e 7e3e d5f9 62bc 64ca ab3d d278 4d3e
00000080: 07f2 55bd 2836 023c 8801 63bc b520 7cbd
00000090: 0fcf 2d3d 0eb1 303d 8b1c 03bf f135 643a
000000a0: 689f 423d a224 de3c ec4f 283d 0326 a0bd
000000b0: 6397 e53d 4d0e 9fbb 4152 c7bd 21f4 9abd
000000c0: 36e5 083d 56a4 db3d 415e ffbd 71bf 8fbc
000000d0: fe90 c83c 84c5 6e3d 61c7 153e 8aaa edbd
000000e0: 7ed6 81bd c211 863c 465b 513d e441 063c
000000f0: eb70 14bc 72bc 3cbc be55 78bf 7643 d2bd
00000100: bfd9 35be 5e5b d03d b256 03bd 29b1 a4bd
00000110: 1ea9 d1bd be78 073e 1296 acbc 9353 adbd
00000120: 0f8c 84bd e742 b13d 35e7 bfbd 25a2 a1bc
00000130: bf40 113e 5d72 efbd 2337 a33c d6f0 033e
00000140: 95b5 3bbd 74e7 5a3d 37f6 ac3d f808 dcbd
00000150: 84a1 36bd d2c0 7f3d bf67 ae3d ae39 2e3e
00000160: 1886 56bd a33e edbc fa09 09be d2cf 45bc
00000170: 141e 223e 7728 ba3c fd86 bdbd 3a8d 90bd
00000180: 8cbe a1bf e7c2 24be b227 1e3e 2d17 a0bd
00000190: e459 77bd 6b42 4e3d 3edc 1abe bed7 21bc
000001a0: 8fff cf3d f48b 44bd 7a01 343a 3cc1 283e
000001b0: 6fcb d7bc f2bb 2c3d 4298 08be 7e4b 583e
000001c0: 26e0 3ebc fbcb 9c3c 2c18 b5bd 84bb 133d
000001d0: 7656 33be 3d85 52bd 372b 92bc 102c 70be
000001e0: 366e 533d d3b2 a63c 756a 893d 2af1 8e3c
000001f0: 5b56 e1bc 9cd1 033e 6755 77bf 73b1 c4bd
00000200: 1f33 de3c abb6 15bc a0ba 23bd 2b8a f13d
00000210: b47b 913d dc41 253d 6292 d33c 53da 2d3d
00000220: 05ae 00be 0150 aabc 2ea7 19be d928 3ebe
00000230: 9d21 1c3d 8ac3 93bb d905 af3d 311b 9fbd
00000240: 812b 31bd dcf3 b83d 61f1 333d 7987 b23b
00000250: 4f2d 3dc0 1594 b1bd b37c 203d 7d29 4d3d
00000260: 9b35 82bc e5b1 68bd b683 6a3d b835 1bbe
00000270: 198f 463d 2043 40bd 7a11 683e 353e 99bd
00000280: 1c7f 4ebd a400 3c3c 467c 0a3e d6c3 7dbe
00000290: 2add 0d3e 4c53 16bd 6f0a e3be 57a0 b53a
000002a0: e1b6 2ebd 3161 84bd 7045 74be 10fa 0bbe
000002b0: 57db 943c 1f96 0cbd 1f7e e4bd ab2e a33e
000002c0: c837 3d3b ca3b 6cbc 72fa cabe 1389 db3d
000002d0: 580d d13a 09a9 09b8 609a b4bd c084 a93d
000002e0: a242 23be 5d5f afbd 83b7 e3bb 3d64 4d3d
000002f0: b531 173e fe61 b6bd 3d2a 51bf 7148 d33d
00000300: 0580 2cbe f938 32be b7b2 c53d 1e1c 613e
00000310: 5297 0abe 6975 943c 301b e4bd 8822 4b3d
00000320: 773d ccbc 1a87 523e 3990 f6bb 6fe1 94bd
00000330: af67 953c 1fc0 69bd 2456 38be 6834 253d
00000340: 8d55 9ebd fcbb 913d 3149 3dbc bf1f 033d
00000350: 8902 f1bb f733 0b3d 3d4d 023d b7bb 3c3d
00000360: 1d50 afbd 7899 233c 679a a9b9 234c f7bc
00000370: 88cb 053e f4ae db3d a842 c93d 1f6e 6fbe
00000380: db32 693c f3b5 61bd f78b 5abe a363 b83d
00000390: df35 11be 04d1 613c 89ad 41bf b321 0f3d
000003a0: 32c7 103e 1130 6fbd 2b51 27bd 12ea 463e
000003b0: 1f1d 22be 4de1 1dbe f56f f239 e661 733c
000003c0: a713 053d 90bc 1b3e 43e4 95be 9414 48bc
000003d0: 60ed d13d 7bc4 8b3d 5f44 41bc 5699 29bc
000003e0: 1285 1dbe ca09 68bd 7137 503d eb56 0e3c
000003f0: 34f4 4b3e 7b32 bc3c 4390 a6be 4a60 b3bc

h_21.bias f4 [64]
0.29950207 0.14469327 0.19602787 0.33966154 -0.013996688 0.17012745 -0.044914618 0.2001492
0.16447414 0.15063338 0.19241108 0.13521886 0.18493502 0.22049373 0.21762463 0.22801042
0.0815576 -0.03344075 0.11523748 0.057237685 0.13172139 0.26536748 0.17422737 0.26349986
0.30558035 0.0015264844 0.1836562 0.15762164 0.20236298 0.16149266 0.043192815 0.2914765
0.12240029 0.25957417 0.20800959 0.1445866 0.08210918 0.16631445 0.061900526 0.37634262
0.18461525 0.19418065 -0.027740251 0.26136136 0.071403846 0.1087628 -0.053562555 0.008798172
0.11769305 0.1993085 0.2135811 0.24539886 0.19321407 0.2395924 0.19999325 0.31144544
0.22617422 0.29208964 0.16064286 -0.053516965 0.44869646 -0.064512916 0.050430823 0.09123904
00000000: 5658 993e 792a 143e 88bb 483e 1ee8 ad3e
00000010: 5d52 65bc e435 2e3e 64f8 37bd e9f3 4c3e
00000020: e96b 283e a33f 1a3e 6907 453e d076 0a3e
00000030: 9b5f 3d3e 1cc9 613e fed8 5e3e 907b 693e
00000040: ac07 a73d 2bf9 08bd a101 ec3d 1072 6a3d
00000050: f9e1 063e 3fde 873e a968 323e 74e9 863e
00000060: 0775 9c3e 5114 c83a 5f10 3c3e 9167 213e
00000070: 3e38 4f3e 555e 253e f3ea 303d 683c 953e
00000080: 01ad fa3d e8e6 843e 7700 553e 820e 143e
00000090: dc28 a83d 564e 2a3e 688b 7d3d fbaf c03e
000000a0: c80b 3d3e 4bd7 463e 863f e3bc 28d1 853e
000000b0: 2e3c 923d 08bf de3d 6964 5bbd 3526 103c
000000c0: 0e09 f13d 8717 4c3e 01b5 5a3e d749 7b3e
000000d0: e9d9 453e b657 753e 08cb 4c3e c775 9f3e
000000e0: 379a 673e c68c 953e 907f 243e 9b34 5bbd
000000f0: 8bbb e53e 591f 84bd 8d90 4e3d 89db ba3d

h_22.weight f4 [64, 64]
-0.94282264 0.39309436 -0.014465064 0.06228441 -0.050285928 -0.77917016 0.05262025 0.12297784
-0.019358546 0.023323491 0.07674517 0.00044842827 0.7269693 -0.0009264499 0.010254264 -0.24936771
0.034010172 0.004637966 0.34107307 0.075521775 0.1988156 -0.1818635 0.68516177 0.08369253
-0.92833656 -0.10795302 0.061240554 -0.1747308 -0.06988694 -0.19480947 -0.113322996 0.22238375
-0.47389385 -0.1351654 0.117971085 -0.10726813 0.5295089 -0.17463934 0.09546425 0.16178606
-0.012956985 0.14559588 0.10773395 0.49936083 -0.16961779 0.12971061 -1.1675981 0.41077092
0.17342237 -0.27904263 1.0702718 0.45314193 -0.24102743 0.14106178 -0.06360785 0.70099324
0.16727142 -0.29859886 0.016076585 0.3141107 0.11402636 0.23408626 0.2523165 0.5713893
1.1138248 0.33817562 -0.12146546 -0.006115311 0.08600731 -0.44975293 0.0729846 0.07204379
-0.09111005 0.053683147 -0.24146761 -0.48888323 0.9642948 -0.11735104 0.10928783 0.49099433
-0.26567057 0.2434624 0.21802568 0.4084006 0.14733164 -0.9257179 0.30795628 0.06166973
0.18697795 -0.5979213 0.15292692 -0.018182723 -0.04527382 0.44096693 0.20115983 0.096911244
-0.84046906 0.21555245 0.019902613 0.07173417 -1.1251731 -0.18969597 0.23715302 0.5874295
-0.063084 -0.2506202 -0.39868712 -1.076066 -1.1237704 0.030921618 0.75155634 -0.18530107
0.13902497 0.33499402 0.2638906 -0.5927536 0.21746145 -0.16074175 0.15895775 -0.879688
-0.13768543 0.98718643 0.047465995 0.13316256 -0.28029 0.6966736 0.5146677 -0.35929433
-0.7854219 -0.1459492 -0.0841265 0.035403106 0.033677537 0.17583016 0.016501188 -0.003070727
-0.0047995895 0.067520306 -0.36736444 -0.10503738 -0.36995703 0.07249881 -0.059984908 0.63942915
0.008082084 0.063160986 -0.13689917 -0.5069108 0.13037708 0.028174972 -0.020245308 0.032208573
-0.5306347 -1.0762501 0.15974557 0.55297077 -0.06700762 0.48712507 0.18681797 0.012317601
-0.80503505 -0.37556708 -0.29376283 0.29192778 0.9587642 -0.3992876 0.23733875 0.67268234
-0.02301387 -0.22689681 -0.45941135 -0.3748331 0.32906532 0.14835498 -0.26160067 0.27511415
-0.14829794 0.24969843 0.16141169 0.24026039 0.26823792 0.17103745 -0.36313328 -0.16219567
0.116629854 0.5387084 0.03432097 0.35034093 -0.08897685 0.081048556 0.59623474 1.0208582
-1.6576501 -0.38708013 0.0760185 0.2391968 0.093102485 0.43371356 0.2146465 0.08167204
-0.020901307 0.011259496 0.5273801 -0.5318513 0.007690474 -0.093083024 -0.078146115 -0.09164288
0.12530662 -0.06846835 0.028473949 -0.55091286 0.08973064 -1.1360594 -0.10543569 0.21200593
-0.17523326 -0.6459503 0.12264091 -1.1094881 0.054955512 -0.09005215 0.14251961 -0.23407678
-0.5347287 0.36537 0.37966982 0.11040897 0.022511525 -0.16192205 0.06602903 -0.13507944
0.123764396 0.47617045 -0.880161 0.14773723 0.07255636 0.103132494 0.07848244 -0.04192515
0.20443404 -0.1054995 -0.6363489 -0.40123165 -0.17440751 -0.01883059 0.16416979 -0.32549426
0.32158566 -0.3825138 0.053837895 -0.14494818 -0.3729216 -0.33349523 -0.22348946 0.47305328
00000000: d35c 71bf aa43 c93e e0fe 6cbc f01d 7f3d
00000010: 9ef8 4dbd b277 47bf 5588 573d cedb fb3d
00000020: d095 9ebc e810 bf3c 922c 9d3d 061b eb39
00000030: a91a 3a3f 00dd 72ba 8001 283c 405a 7fbe
00000040: 404e 0b3d 14fa 973b 21a1 ae3e 29ab 9a3d
00000050: 5196 4b3e 6d3a 3abe c366 2f3f fd66 ab3d
00000060: 77a7 6dbf 7916 ddbd 60d7 7a3d a1ec 32be
00000070: e220 8fbd 227c 47be e315 e8bd 91b8 633e
00000080: 37a2 f2be cc68 0abe d39a f13d 65af dbbd
00000090: e58d 073f a8d4 32be c382 c33d 3fab 253e
000000a0: 8949 54bc 1617 153e 9ea3 dc3d 39ac ff3e
000000b0: 49b0 2dbe dcd2 043e db73 95bf 9150 d23e
000000c0: a295 313e adde 8ebe abfe 883f 3802 e83e
000000d0: e5cf 76be 8072 103e d544 82bd 4b74 333f
000000e0: 3349 2b3e f3e1 98be 0bb3 833c 1ed3 a03e
000000f0: a786 e93d 4fb4 6f3e a12f 813e 9246 123f
00000100: d091 8e3f 5b25 ad3e e2c2 f8bd f262 c8bb
00000110: 9a24 b03d 0446 e6be f378 953d b28b 933d
00000120: e897 babd dce2 5b3d 4943 77be e74e fabe
00000130: 06dc 763f be55 f0bd 4cd2 df3d 9c63 fb3e
00000140: f905 88be 354e 793e 2042 5f3e e219 d13e
00000150: 1bde 163e d9fb 6cbf 72ac 9d3e 6699 7c3d
00000160: 2677 3f3e 5f11 19bf e098 1c3e eff3 94bc
00000170: 0b71 39bd 6bc6 e13e d8fc 4d3e 6779 c63d
00000180: fb28 57bf c8b9 5c3e ce0a a33c 5de9 923d
00000190: ac05 90bf a93f 42be 3ed8 723e c861 163f
000001a0: 2f32 81bd 4a51 80be b820 ccbe 88bc 89bf
000001b0: b5d7 8fbf 554f fd3c ff65 403f 90bf 3dbe
000001c0: 905c 0e3e 5684 ab3e ab1c 873e b3be 17bf
000001d0: 37ae 5e3e 7c99 24be d2c5 223e 3c33 61bf
000001e0: 69fd 0cbe 40b8 7c3f b46b 423d c45b 083e
000001f0: 2c82 8fbe 3359 323f 43c1 033f 6df5 b7be
00000200: 6911 49bf b573 15be 844a acbd d902 113d
00000210: 75f1 093d d20c 343e 802d 873c 403e 49bb
00000220: e045 9dbb 1648 8a3d 3117 bcbe d61d d7bd
00000230: 026b bdbe 427a 943d bcb2 75bd a1b1 233f
00000240: b86a 043c 8c5a 813d 4c2f 0cbe e8c4 01bf
00000250: 9281 053e 33cf e63c 7dd9 a5bc 23ed 033d
00000260: add7 07bf 90c2 89bf 5894 233e 7e8f 0d3f
00000270: 4b3b 89bd 7568 f93e 364d 3f3e c3cf 493c
00000280: c716 4ebf 544a c0be 1568 96be 8f77 953e
00000290: 9271 753f 6d6f ccbe ee08 733e e934 2c3f
000002a0: 9587 bcbc a357 68be f737 ebbe 20ea bfbe
000002b0: 407b a83e 5eea 173e 86f0 85be c3db 8c3e
000002c0: 6adb 17be f2b0 7f3e 1b49 253e d206 763e
000002d0: 7b56 893e 7124 2f3e 9bec b9be 9f16 26be
000002e0: a2db ee3d cbe8 093f 2594 0c3d e35f b33e
000002f0: 7f39 b6bd c9fc a53d d7a2 183f 7bab 823f
00000300: e12d d4bf 5e2f c6be 96af 9b3d 02f0 743e
00000310: 84ac be3d b40f de3e 4bcc 5b3e ac43 a73d
00000320: 3839 abbc c079 383c 6202 073f 6827 08bf
00000330: 5f00 fc3b 50a2 bebd 120b a0bd 43af bbbd
00000340: 6150 003e 2239 8cbd 3342 e93c a008 0dbf
00000350: b3c4 b73d 656a 91bf abee d7bd 1518 593e
00000360: 5970 33be 005d 25bf 282b fb3d b503 8ebf
00000370: 0819 613d 436d b8bd a9f0 113e d3b1 6fbe
00000380: fbe3 08bf c711 bb3e 1564 c23e 191e e23d
00000390: 176a b83c e5ce 25be 3a3a 873d 4452 0abe
000003a0: 3078 fd3d 9dcc f33e 3b52 61bf 6e48 173e
000003b0: 6e98 943d 2137 d33d 67bb a03d b5b9 2bbd
000003c0: 2857 513e 1f10 d8bd c3e7 22bf 3c6e cdbe
000003d0: e297 32be 9c42 9abc 201c 283e 2fa7 a6be
000003e0: e0a6 a43e d9d8 c3be 2085 5c3d 4c6d 14be
000003f0: 94ef bebe e3bf aabe 6cda 64be 0a34 f23e

h_22.bias f4 [64]
-0.03836969 0.05209807 -0.032517653 0.15124023 0.26545918 0.3849186 -0.24198009 0.16037898
0.011643004 0.19742365 0.19312102 0.34444526 -0.03789048 0.13466643 0.0023812677 -0.062064957
-0.109037995 0.35528865 -0.074105486 -0.14844906 0.045841485 0.21428874 -0.09902361 0.22976053
0.35248223 -0.17553377 0.2246337 0.045938987 -0.18542297 0.17889597 0.112676315 0.18928619
-0.22418165 0.187606 0.0016124685 0.088626415 -0.2067062 0.02196784 -0.37346584 0.017644888
0.28654584 0.0892241 -0.012619704 0.382995 0.35963187 -0.020338645 0.045518532 0.07170081
-0.0047415136 0.3608722 -0.30574098 0.031033859 0.39960828 -0.24779348 0.3790014 0.0038168759
0.23665269 0.24989235 0.24952406 0.12981449 0.1870339 0.10475317 0.11362048 0.23712198
00000000: 8929 1dbd c964 553d 3b31 05bd b8de 1a3e
00000010: 44ea 873e 0d14 c53e a1c9 77be 633a 243e
00000020: 4cc2 3e3c 6d29 4a3e 84c1 453e 215b b03e
00000030: 0c33 1bbd ffe5 093e 0b0f 1c3b d337 7ebd
00000040: 504f dfbd 65e8 b53e 9ec4 97bd 0803 18be
00000050: 48c4 3b3d 826e 5b3e e4cc cabd 5846 6b3e
00000060: 8d78 b43e 20bf 33be 6006 663e 852a 3c3d
00000070: 85df 3dbe 8130 373e d7c2 e63d 3dd4 413e
00000080: e08f 65be ca1b 403e 7759 d33a c481 b53d
00000090: caaa 53be e6f5 b33c ea36 bfbe 038c 903c
000000a0: 23b6 923e 20bb b63d e0c2 4ebc ec17 c43e
000000b0: ab21 b83e 3b9d a6bc a471 3a3d e0d7 923d
000000c0: b35e 9bbb 3ec4 b83e 158a 9cbe b83a fe3c
000000d0: 7599 cc3e 93bd 7dbe 790c c23e 8d24 7a3b
000000e0: 1555 723e c8e3 7f3e 3c83 7f3e 17ee 043e
000000f0: d185 3f3e d488 d63d dbb1 e83d 1bd0 723e

h_32.weight f4 [128, 128]
0.008658869 -0.020534594 0.1544813 -0.2517086 0.07097892 0.029379547 0.023083132 -0.21250501
-0.15324174 0.016153455 0.10838145 0.060462955 -0.096042216 -0.059208814 -0.004106247 -0.15559445
0.32848412 0.10191746 -0.0663851 0.39887393 0.28879815 -0.14618975 0.04377977 0.043901645
-0.066402964 0.27750218 0.15415955 -0.19980797 0.12366618 0.29214942 -0.00787124 0.124242194
-1.2781861 -0.055848464 0.03666755 -0.638914 0.056388307 0.16128679 -0.084833086 -0.093788095
-0.1251525 0.100833535 -0.38546067 0.10938957 0.082353085 0.065839075 0.008757879 -0.2622649
0.19454093 -0.08590636 -0.033703294 -0.15510242 -0.00873351 0.039512765 0.19130914 0.07731737
-0.5630294 -0.050013773 0.021839056 -0.64170706 -0.053190872 0.10298727 0.019262519 -0.22528559
0.03155466 -0.15186203 0.03400288 -0.16699125 -0.2354426 -0.20817177 -0.20116639 0.14556888
0.024324123 -0.29175943 0.32089388 0.2764862 -0.03798766 0.02119427 -0.47872975 0.04072117
-0.00016865061 0.44095528 -0.0481244 -0.11098202 0.14823256 0.37085748 0.14910015 0.18650773
0.38105375 0.0077233845 0.2646677 -0.068063475 0.082399935 0.11965593 -0.08956229 -0.34779984
-0.046405025 -0.070859216 0.020923875 0.08451474 -0.06460099 0.21646515 0.1396997 -0.18701914
0.070498005 -0.20190927 0.036084425 0.19994394 0.16398871 0.008692898 -0.16039349 -0.45350632
0.15721317 -0.091721274 -0.19497836 -0.23251964 0.11431023 0.13797314 -0.09021368 -0.39546525
0.28569743 -0.18190436 0.021005744 -0.16353889 -0.019350385 -0.54742444 0.22514999 0.3809284
0.16286448 0.17637579 0.01704279 0.08184585 -0.11707231 0.20615762 -0.020828867 -0.079260945
-0.09617815 -0.0061383927 0.084695965 0.01005259 -0.019419553 0.068549074 0.07222413 -0.15748683
-0.13209923 0.099710315 0.1655724 0.06777063 0.2889988 -0.06680191 0.11414478 0.14466469
0.06669201 0.34001482 -0.05348562 0.035590455 0.06271932 0.09751855 0.09630354 0.09257065
-0.92991257 -0.0115217455 0.14969812 -0.016781624 -0.07039219 0.035065804 0.02224068 -0.034380414
-0.26364613 -0.011716147 0.034406506 0.443835 0.17908227 -0.22395828 -0.24696447 -0.24539176
0.07094161 -0.16620645 0.24305943 -0.0563526 -0.024121536 -0.3790711 0.26249596 0.45895702
0.012417703 -0.058545657 0.23050095 -0.15620145 0.10816445 0.073784955 0.13168684 0.13804339
0.099253595 -0.4091354 0.047688372 0.07993679 0.05560417 0.08805953 -0.0057124593 -0.0502434
0.041949462 -0.11443056 -0.21813647 -0.051458724 0.008676388 -0.078117155 -0.28720355 0.09928734
0.03565346 0.5373782 0.007295124 -0.0056855665 -0.1083925 -0.14877963 -0.11767155 -0.066893
0.057126615 -0.006771635 0.20454827 -0.003758157 0.26787362 -0.052894197 -0.23561446 0.33523425
-0.047139127 0.29673013 -0.11807255 0.1638405 -0.05326861 -0.16727337 0.17318298 0.0804696
0.28021613 -0.08116802 -0.07811387 -0.32936755 -0.4987028 0.08496378 0.023760421 -0.32636508
-0.016606368 0.06524992 0.026844272 0.120705575 -0.041157413 0.022051314 0.1443725 0.22305728
0.09022478 -0.23719308 -0.042012498 -0.050441388 -0.21043146 -0.1879076 0.07816019 -0.47836402
00000000: eedd 0d3c 2a38 a8bc 5930 1e3e f3df 80be
00000010: 655d 913d 60ad f03c d618 bd3c ea9a 59be
00000020: 67eb 1cbe 4054 843c 18f7 dd3d 01a8 773d
00000030: c8b1 c4bd f184 72bd b28d 86bb 2754 1fbe
00000040: 122f a83e 1aba d03d e9f4 87bd 3439 cc3e
00000050: 5add 933e c4b2 15be 6b52 333d 36d2 333d
00000060: 47fe 87bd c414 8e3e 00dc 1d3e 769a 4cbe
00000070: b244 fd3d 9c94 953e 60f6 00bc b172 fe3d
00000080: 9a9b a3bf 5cc1 64bd b730 163d de8f 23bf
00000090: 6df7 663d 5d28 253e f8bc adbd f913 c0bd
000000a0: fa27 00be d081 ce3d 1a5b c5be a407 e03d
000000b0: bca8 a83d a3d6 863d 357d 0f3c 9647 86be
000000c0: bd35 473e acef afbd 770c 0abd 2bd3 1ebe
000000d0: ff16 0fbc 23d8 213d 8be6 433e 9258 9e3d
000000e0: b222 10bf 3edb 4cbd d2e7 b23c ea46 24bf
000000f0: acde 59bd fdea d23d 6ecc 9d3c 44b1 66be
00000100: 763f 013d b881 1bbe 9b46 0b3d c1ff 2abe
00000110: dd17 71be fb2a 55be 90fe 4dbe 0210 153e
00000120: 6243 c73c 7e61 95be 344c a43e 998f 8d3e
00000130: f398 1bbd 9b9f ad3c 111c f5be 3ecb 263d
00000140: ced7 30b9 e4c4 e13e 171e 45bd 8b4a e3bd
00000150: 47ca 173e 08e1 bd3e b6ad 183e e2fb 3e3e
00000160: 7a19 c33e 7214 fd3b 8682 873e dd64 8bbd
00000170: 4cc1 a83d 2b0e f53d 6f6c b7bd d212 b2be
00000180: 3213 3ebd a31e 91bd 8c68 ab3c 1016 ad3d
00000190: 864d 84bd 0aa9 5d3e 700d 0f3e f281 3fbe
000001a0: 4261 903d 4ec1 4ebe 43cd 133d 1bbe 4c3e
000001b0: a8ec 273e a86c 0e3c 313e 24be fb31 e8be
000001c0: 7dfc 203e 5dd8 bbbd 68a8 47be a119 6ebe
000001d0: 7b1b ea3d d548 0d3e f3c1 b8bd 6c7a cabe
000001e0: ef46 923e 2345 3abe 3d14 ac3c bd76 27be
000001f0: b384 9ebc 0224 0cbf b88d 663e 0c09 c33e
00000200: f2c5 263e db9b 343e 529d 8b3c cc9e a73d
00000210: 9bc3 efbd fc1a 533e 4da1 aabc 9053 a2bd
00000220: 0df9 c4bd 9224 c9bb 1475 ad3d 9eb3 243c
00000230: c115 9fbc 7563 8c3d 3fea 933d 3a44 21be
00000240: 0545 07be ec34 cc3d d08b 293e 54cb 8a3d
00000250: a7f7 933e 71cf 88bd bdc4 e93d fb22 143e
00000260: d295 883d 6c16 ae3e bd13 5bbd 4cc7 113d
00000270: fd72 803d ceb7 c73d ca3a c53d ae95 bd3d
00000280: c00e 6ebf b4c5 3cbc 774a 193e 9e79 89bc
00000290: c829 90bd 29a1 0f3d 1632 b63c 7ad2 0cbd
000002a0: a0fc 86be 15f5 3fbc d6ed 0c3d 573e e33e
000002b0: 5861 373e 5255 65be 41e4 7cbe fa47 7bbe
000002c0: d649 913d 0632 2abe 92e4 783e fcd1 66bd
000002d0: 879a c5bc 9b15 c2be df65 863e 6afc ea3e
000002e0: 9f73 4b3c 92cd 6fbd 7108 6c3e 46f3 1fbe
000002f0: 5385 dd3d 911c 973d ead8 063e 3f5b 0d3e
00000300: 7845 cb3d 327a d1be e254 433d e6b5 a33d
00000310: 33c1 633d 8e58 b43d 952f bbbb 06cc 4dbd
00000320: 33d3 2b3d 925a eabd 2b5f 5fbe 62c6 52bd
00000330: 6927 0e3c e3fb 9fbd 580c 93be 2957 cb3d
00000340: 5d09 123d 9e91 093f f00b ef3b fd4d babb
00000350: e3fc ddbd b059 18be c8fd f0bd 32ff 88bd
00000360: 99fd 693d 97e4 ddbb 1a75 513e 694b 76bb
00000370: bb26 893e 96a7 58bd eb44 71be d3a3 ab3e
00000380: f514 41bd 03ed 973e 05d0 f1bd cec5 273e
00000390: 3030 5abd b649 2bbe e156 313e 3fcd a43d
000003a0: 7d78 8f3e 6b3b a6bd 2afa 9fbd dda2 a8be
000003b0: f955 ffbe 7e01 ae3d 37a5 c23c 5319 a7be
000003c0: 140a 88bc c0a1 853d 85e8 db3c 7c34 f73d
000003d0: ad94 28bd f5a4 b43c 62d6 133e 2169 643e
000003e0: c5c7 b83d bee2 72be 4c15 2cbd a19b 4ebd
000003f0: 587b 57be da6a 40be 7312 a03d 21ec f4be

h_32.bias f4 [128]
-0.06364663 0.028926594 0.106864415 -0.043694098 -0.02180736 0.11714291 -0.071243495 0.08676652
-0.05686019 0.07371758 0.07594902 0.03140458 0.04529027 0.06995253 0.15801921 0.052247453
0.14971502 -0.13906723 -0.19590168 0.047541965 0.15078445 -0.056262814 0.23943694 0.035768196
0.025336616 0.074830666 -0.088760056 0.13303085 -0.036464293 0.19255057 -0.055043202 -0.03219188
0.031159189 0.08786753 -0.0035681406 -0.08658053 -0.008623183 -0.036577992 0.073340826 -0.12208178
0.0885264 -0.021595098 -0.04791915 0.09677523 -0.14064917 0.084169336 0.15868074 0.109131835
0.06444293 0.024699828 0.03694209 0.05289925 0.068286575 0.007342738 -0.08915441 -0.008915626
0.044348054 -0.06937429 -0.12631617 0.11533332 -0.04624201 -0.012720866 0.048630252 0.13006845
0.09474095 -0.04837901 0.13600957 0.054837048 0.20360667 0.24423964 0.03166842 0.12726857
-0.024029562 -0.032202315 0.015420402 0.08173866 0.10117379 0.00808677 0.036115605 0.076819465
0.06589203 -0.008330091 0.037394684 0.04535824 -0.06441036 0.027080968 0.13978764 -0.09760292
0.012560067 0.07866975 -0.02247563 0.10473082 0.04905406 0.024926323 -0.022080082 0.053291302
-0.04855109 0.06420968 0.20973781 0.13528086 0.13461703 0.07119923 0.0047991145 -0.0738789
0.1942151 0.016814 -0.16992587 -0.00069001655 -0.047831487 0.092217594 -0.06499841 0.1309486
0.18263279 0.07788804 0.008476366 0.118063085 0.03999267 0.1350363 0.02813334 0.18614803
-0.02580246 0.034895644 -0.030232238 0.14595455 -0.11202344 0.1651687 0.023702247 0.10634523
00000000: 2a59 82bd 77f7 ec3c bbdb da3d 95f8 32bd
00000010: 59a5 b2bc 9fe8 ef3d 1ce8 91bd a5b2 b13d
00000020: 3be6 68bd 3ef9 963d 298b 9b3d 17a2 003d
00000030: 4a82 393d 4643 8f3d cacf 213e 6d01 563d
00000040: e54e 193e a467 0ebe 739a 48be 5dbb 423d
00000050: 3d67 1a3e d673 66bd f52e 753e ac81 123d
00000060: bc8e cf3c d240 993d d5c7 b5bd 3d39 083e
00000070: 955b 15bd fa2b 453e fb74 61bd a2db 03bd
00000080: 8e41 ff3c e4f3 b33d 77d7 69bb 2251 b1bd
00000090: 4048 0dbc ced2 15bd b733 963d 0306 fabd
000000a0: 544d b53d 34e8 b0bc df46 44bd 1732 c63d
000000b0: 5606 10be f960 ac3d 347d 223e 8380 df3d
000000c0: a8fa 833d 4b57 ca3c 9750 173d e2ac 583d
000000d0: d5d9 8b3d 5a9b f03b 9696 b6bd d912 12bc
000000e0: 4ea6 353d 1c14 8ebd 0759 01be e033 ec3d
000000f0: 4368 3dbd 2e6b 50bc 8430 473d aa30 053e
00000100: 8b07 c23d 1229 46bd 1846 0b3e d09c 603d
00000110: 447e 503e f519 7a3e bfb6 013d b152 023e
00000120: a5d9 c4bc 93e6 03bd dba5 7c3c 9966 a73d
00000130: 3434 cf3d 5f7e 043c f5ed 133d 8653 9d3d
00000140: 67f2 863d ef7a 08bc 2b2b 193d 90c9 393d
00000150: 94e9 83bd e8d8 dd3c 7e24 0f3e 0ae4 c7bd
00000160: bdc8 4d3c 9b1d a13d d01e b8bc 1d7d d63d
00000170: e9ec 483d 4a32 cc3c 4ae1 b4bc fb47 5a3d
00000180: 82dd 46bd 5d80 833d 82c5 563e 1187 0a3e
00000190: 0cd9 093e e7d0 913d e441 9d3b d24d 97bd
000001a0: 53e0 463e 84bd 893c 0c01 2ebe 3ae2 34ba
000001b0: f3ea 43bd 94dc bc3d e31d 85bd 6417 063e
000001c0: 1704 3b3e c483 9f3d 75e0 0a3c 0fcb f13d
000001d0: 5bcf 233d f546 0a3e e477 e63c 979d 3e3e
000001e0: ae5f d3bc bcee 0e3d 99a9 f7bc 1c75 153e
000001f0: 8c6c e5bd fc21 293e 372b c23c 87cb d93d

output.weight f4 [12, 128]
-0.4879402 -0.019186815 0.058757287 0.07986928 -0.39057904 0.44611153 0.6765438 -0.22869428
-0.13201913 -0.47818074 -1.0354913 -0.45683944 -0.041038927 0.1680794 0.70892745 -0.5357277
-0.5118312 0.12935592 -0.16285034 -0.5318311 -0.297074 -0.08845147 1.4146756 -0.070789605
0.06925489 0.22728533 -0.9769302 0.12792127 0.19520847 0.08446855 -0.4873436 0.07245493
-0.06416873 -0.7148562 0.05739123 0.2624043 -0.08480408 -0.0031484712 -0.123023815 0.7555768
-0.07812344 -0.040339265 0.27373216 -0.043087423 0.16380747 0.055329543 0.30516115 0.06766211
-0.5127388 -0.47012883 0.11670593 0.23047441 0.64704376 -0.98820186 0.2603198 0.7288146
-0.19170724 -0.64013743 0.20241883 -0.27629724 -0.014788513 0.23643014 -0.42155987 0.12764332
0.22651313 0.2304834 0.6504298 0.22602494 0.24169761 0.4816122 0.28232133 0.7620166
-0.72752625 -0.14137465 0.36537468 -0.16936795 0.25036657 -0.2140563 -0.65793437 -5.8922367e-05
-0.40495566 0.52052957 0.15344761 0.2408884 0.18887231 0.5327846 -0.43946186 -0.0033617218
-0.24411792 0.06709 -0.14885736 -0.10908913 0.14991881 -0.7162966 0.23302461 0.11002949
-0.52968836 0.12941849 0.54104805 -0.076225065 0.10056618 -0.074850805 0.18582293 -0.016264735
0.065351285 -0.043403927 -0.4604262 -0.6378663 -0.2894511 -0.17879654 0.964227 -0.18169634
0.54257184 -0.060394436 0.63940626 -0.19269937 -0.6293308 -0.52202773 -0.5509013 0.18691382
0.34630457 -0.051959667 -0.14194605 -0.1426763 -0.17634127 -0.18257609 -0.115800135 0.07599004
0.07190743 -0.11980395 -0.10443245 0.04192994 0.23412035 -0.3882788 -0.97639763 0.048729744
0.16190241 0.9278822 1.109376 0.8531595 -0.20355682 -0.38430572 -0.34934047 0.23650259
0.89759743 -0.19393657 0.047391668 0.46042183 -0.5062793 -0.074507184 -0.38205883 -0.064393885
0.14492275 -0.092574574 -0.094183534 -0.14600293 0.066401266 0.34747708 -0.20282756 0.27597225
0.057682704 0.46998295 0.0065852697 -0.78890026 -0.39129704 -0.1843892 -0.10540335 -0.86307853
-0.24739102 0.08146763 0.36099228 0.045250464 -0.101156004 0.121857904 0.21348141 -0.1064246
1.1982062 0.08930764 0.6589685 0.9941863 -0.3689321 0.5528764 0.76859057 -0.7512868
-0.3468641 0.5580882 0.35246566 0.17736922 -0.1667998 0.24309856 -0.43328577 -0.17213051
-0.009375649 -0.27162173 -0.54873836 -0.29114753 0.49057567 -0.4499349 -0.6638787 -0.5823067
0.3760316 0.7662482 -0.34691152 0.48849818 -0.32597595 -0.16518627 -0.11583738 0.24227382
0.5066078 -0.11509288 0.3465136 -0.5887838 0.2002913 -0.25924042 -0.63588315 0.046080757
0.03242183 -0.017927526 0.14004454 -0.39567244 0.4922856 0.7115631 -0.14653969 -0.2760581
0.62319577 -0.11269112 -0.6077109 0.6754646 0.19671844 -0.2443063 -0.032354876 0.46551967
-0.54542285 0.20354931 1.049237 -0.22222956 0.3114016 -0.1079737 -0.14675711 0.031896893
-0.22753765 0.10405916 -0.3787492 -0.17222042 0.57065856 -0.011445286 0.25234988 -0.10185143
0.047632735 0.11294952 -0.43002713 0.29665676 0.27163607 -0.14110653 -0.06446874 -0.06799159
00000000: 4cd3 f9be ab2d 9dbc 7bab 703d 8192 a33d
00000010: faf9 c7be bb68 e43e f931 2d3f d52e 6abe
00000020: 0630 07be 1bd4 f4be fb8a 84bf dce6 e9be
00000030: 6f18 28bd 021d 2c3e 457c 353f 7325 09bf
00000040: 5f07 03bf e175 043e 3dc2 26be 1526 08bf
00000050: 151a 98be 0b26 b5bd 1714 b53f 24fa 90bd
00000060: 82d5 8d3d 7cbd 683e 1918 7abf cbfd 023e
00000070: bbe4 473e d9fd ac3d 1a85 f9be 4063 943d
00000080: e56a 83bd d100 37bf 1113 6b3d db59 863e
00000090: c3ad adbd 9556 4ebb e9f3 fbbd 7b6d 413f
000000a0: 2fff 9fbd c93a 25bd 9f26 8c3e 707c 30bd
000000b0: 25bd 273e 3ba1 623d 153e 9c3e 6f92 8a3d
000000c0: da42 03bf bab4 f0be 8503 ef3d 7c01 6c3e
000000d0: a9a4 253f ccfa 7cbf a348 853e 9893 3a3f
000000e0: e74e 44be 0ce0 23bf e246 4f3e d576 8dbe
000000f0: 854b 72bc be1a 723e b2d6 d7be eeb4 023e
00000100: 0ff3 673e d703 6c3e 9182 263f 1573 673e
00000110: 947f 773e e095 f63e 6c8c 903e 8513 433f
00000120: 293f 3abf 84c4 10be 6412 bb3e cb6e 2dbe
00000130: 0c30 803e 9331 5bbe 636e 28bf 6923 77b8
00000140: 5956 cfbe 6d41 053f 5f21 1d3e 73ab 763e
00000150: be67 413e 9264 083f 2501 e1be 5550 5cbb
00000160: 0cfa 79be 7b66 893d 106e 18be 1f6a dfbd
00000170: 5184 193e 375f 37bf 019e 6e3e 2457 e13d
00000180: a899 07bf 4886 043e 2082 0a3f e31b 9cbd
00000190: a4f5 cd3d 614b 99bd 5e48 3e3e 9f3d 85bc
000001a0: e5d6 853d 51c8 31bd fcbc ebbe 354b 23bf
000001b0: ef32 94be 7116 37be 95d7 763f 9b0e 3abe
000001c0: fde5 0a3f 2860 77bd 21b0 233f fc52 45be
000001d0: d31b 21bf 9ca3 05bf de07 0dbf 5666 3f3e
000001e0: d54e b13e a9d3 54bd 4e5a 11be bc19 12be
000001f0: ce92 34be 3af5 3abe 9f28 edbd aba0 9b3d
00000200: 3444 933d c65b f5bd aee0 d5bd bbbe 2b3d
00000210: 3fbd 6f3e 7bcc c6be 32f5 79bf d798 473d
00000220: bfc9 253e b089 6d3f 0800 8e3f a968 5a3f
00000230: 3371 50be b8c3 c4be c1dc b2be bc2d 723e
00000240: f2c8 653f 4f97 46be c41d 423d 69bc eb3e
00000250: 859b 01bf 3997 98bd 379d c3be f1e0 83bd
00000260: a166 143e bd97 bdbd 4ce3 c0bd cb81 15be
00000270: 63fd 873d 84e8 b13e 07b2 4fbe 3c4c 8d3e
00000280: b344 6c3d 9ba1 f03e 3fc9 d73b 5ef5 49bf
00000290: 1658 c8be 86d0 3cbe b6dd d7bd b7f2 5cbf
000002a0: 1254 7dbe 80d8 a63d fbd3 b83e 8d58 393d
000002b0: e12a cfbd a390 f93d df9a 5a3e 24f5 d9bd
000002c0: d25e 993f ede6 b63d 29b2 283f fe82 7e3f
000002d0: abe4 bcbe 4f89 0d3f 5ac2 443f 5554 40bf
000002e0: 2c98 b1be dede 0e3f 6176 b43e 47a0 353e
000002f0: 91cd 2abe d4ee 783e a2d7 ddbe fb42 30be
00000300: 529c 19bc 0112 8bbe 1e7a 0cbf 4a11 95be
00000310: bc2c fb3e de5d e6be f4f3 29bf 0d12 15bf
00000320: 3787 c03e d828 443f 639e b1be 6f1c fa3e
00000330: 52e6 a6be 9726 29be 263c edbd a116 783e
00000340: 0cb1 013f d1b5 ebbd 3b6a b13e 89ba 16bf
00000350: 2a19 4d3e 29bb 84be 3dc9 22bf 2dbf 3c3d
00000360: c1cc 043d bfdc 92bc d667 0f3e 9495 cabe
00000370: dc0c fc3e 0029 363f 800e 16be 7d57 8dbe
00000380: c289 1f3f 9aca e6bd f192 1bbf 3feb 2c3f
00000390: 8f70 493e 6e2b 7abe 8c86 04bd 9858 ee3e
000003a0: d5a0 0bbf 3b6f 503e 664d 863f 2590 63be
000003b0: 0870 9f3e 5121 ddbd 7f47 16be 51a6 023d
000003c0: a1ff 68be f81c d53d 6aeb c1be 8d5a 30be
000003d0: ae16 123f 0285 3bbc 0134 813e 7c97 d0bd
000003e0: 8b1a 433d 1452 e73d 842c dcbe 65e3 973e
000003f0: e213 8b3e 3b7e 10be 3008 84bd 2d3f 8bbd

output.bias f4 [12]
0.03472597 -0.08757871 -0.0860019 -0.23639347 -0.10340667 -0.12575622 -0.043415107 0.12092655
0.08946085 -0.0067284345 0.010027985 0.107095115
00000000: d23c 0e3d 775c b3bd c421 b0bd 2111 72be
00000010: e0c6 d3bd 3dc6 00be 0ad4 31bd 57a8 f73d
00000020: 4037 b73d 337a dcbb 6b4c 243c af54 db3d
