GANs/saved_models/python/RecreatingBestModelBimodal.pth (torch, 465634 bytes, 58 tensors)

h_11.weight f4 [64, 12]
0.093190536 0.33123863 -0.12336308 0.19878404 -0.16848683 -0.006478397 -0.18666646 0.27787897
0.092886224 0.05137651 0.2029469 0.24579665 0.090250485 0.01909019 0.12596911 0.18568102
0.15549159 -0.0013108662 -0.1663532 0.047062337 -0.26782122 -0.119310275 -0.16642228 0.20950495
-0.17983872 -0.18720226 -0.03603546 0.059046976 0.27141175 -0.12974794 0.057096787 -0.07616879
0.10696584 0.068187654 -0.12853257 -0.12357197 0.1704026 0.20132396 0.20336306 -0.06342216
-0.16137087 0.14363536 0.08903403 0.33901826 0.34407005 0.15012945 0.2620757 0.29391712
0.16255012 -0.40538266 -0.18704233 -0.11922232 -0.39254463 0.3078582 -0.162329 0.44265872
0.15606682 0.100896634 -0.09363944 -0.08527638 0.15009014 -0.31696472 0.13317208 0.11905334
0.11219492 0.03624586 -0.15308294 -0.10228346 0.2745792 -0.13716704 0.09620944 0.1645995
0.38423318 -0.15670474 -0.25920558 -0.09612275 -0.1200066 0.13887763 0.16252472 0.25282148
-0.15928707 -0.29941577 0.097893566 -0.029827435 0.2943665 -0.2291793 0.17926913 -0.23114207
-0.2106405 0.086197354 -0.118952185 -0.10668222 0.21242832 0.07728977 -0.069250114 0.07517898
0.25506875 -0.26513582 -0.375534 -0.36243647 -0.07398141 0.12284333 0.21678989 -0.2515272
-0.00091630965 -0.19728 -0.13312538 -0.2890171 -0.21192357 -0.132644 0.1938441 0.07797648
0.001052428 -0.4472668 -0.1510745 0.007338069 0.09021147 0.048456717 -0.26030016 -0.16479072
0.15442564 -0.23047675 0.1299971 -0.20589343 -0.13787898 -0.015487852 -0.07088982 -0.1675283
0.20184463 -0.027774185 0.29933512 0.19546485 -0.21224074 0.5194604 -0.16246732 0.005335712
-0.29553655 -0.43639764 0.070872605 -0.114624895 -0.10724198 -0.04484242 0.1730006 -0.35390714
0.017883623 0.019854972 0.17217538 0.2234539 0.25161248 -0.083838016 -0.05551484 -0.29972813
-0.091911145 -0.21439256 0.022783935 -0.06854201 0.09334131 0.11698263 0.14534296 0.026547998
0.25787222 0.2601838 -0.049252026 -0.21353021 0.011047775 -0.21209806 -0.11039805 0.39234096
0.12570795 -0.20981108 -0.10453602 -0.10593593 0.09790268 -0.04500796 -0.11994178 -0.0504342
-0.018360551 0.124396786 0.12401969 -0.056710728 0.084741324 0.1564763 0.025861725 -0.01588156
0.09980709 0.19756873 0.050977807 -0.2987369 -0.09380452 0.13253888 -0.13350031 -0.018475395
0.25417933 0.26159206 0.24659929 -0.18829684 -0.07061183 -0.31938246 0.14441861 0.010401301
-0.35659736 -0.109759994 0.24627985 -0.016415332 -0.079951644 -0.23190036 -0.08023919 -0.011510307
-0.23372805 0.19063593 -0.020425592 0.43903852 -0.43701023 -0.4063814 -0.13299017 0.4102835
0.016267944 0.037529215 0.015708797 -0.048629314 -0.12542129 0.120579585 -0.14893143 0.08896972
-0.17355432 0.13152383 0.14013132 0.16983274 -0.02565401 -0.17187098 -0.016407376 0.21920303
0.4950586 0.3603552 0.42833105 0.3709428 0.021815121 -0.33175567 -0.3552233 -0.34175617
0.28613544 -0.08584756 -0.27890164 0.06465439 -0.2990231 -0.23989022 -0.35592842 0.42471138
0.11680371 0.23043698 -0.25585085 -0.058278184 0.17385557 -0.12847242 -0.09552757 -0.14932117
00000000: aeda be3d 1c98 a93e c8a5 fcbd 0b8e 4b3e
00000010: d087 2cbe bc48 d4bb 7e25 3fbe 2746 8e3e
00000020: 223b be3d 2d70 523d 50d1 4f3e 1eb2 7b3e
00000030: 3fd5 b83d 0863 9c3c 0cfe 003e 2a23 3e3e
00000040: 3039 1f3e 5fd1 abba 7e58 2abe 70c4 403d
00000050: dd1f 89be f258 f4bd 9a6a 2abe 7788 563e
00000060: a427 38be f3b1 3fbe eb99 13bd 3edb 713d
00000070: 7bf6 8a3e a5dc 04be 52de 693d 62fe 9bbd
00000080: e810 db3d f8a5 8b3d 0b9e 03be 4d13 fdbd
00000090: 057e 2e3e de27 4e3e 683e 503e 7ae3 81bd
000000a0: 683e 25be 2615 133e 7957 b63d cd93 ad3e
000000b0: f329 b03e 89bb 193e c92e 863e 4e7c 963e
000000c0: 8a73 263e 518e cfbe 0688 3fbe d52a f4bd
000000d0: 9cfb c8be 979f 9d3e 9339 26be 2aa4 e23e
000000e0: fbcf 1f3e e5a2 ce3d 09c6 bfbd 62a5 aebd
000000f0: 3bb1 193e 3349 a2be 435e 083e 3dd2 f33d
00000100: 73c6 e53d 8a76 143d c6c1 1cbe fe79 d1bd
00000110: a595 8c3e 8475 0cbe 7409 c53d c58c 283e
00000120: 36ba c43e 3577 20be 98b6 84be 01dc c4bd
00000130: 05c6 f5bd f035 0e3e e16c 263e d171 813e
00000140: 261c 23be 064d 99be 6c7c c83d aa58 f4bc
00000150: 35b7 963e faad 6abe 5492 373e 82b0 6cbe
00000160: 25b2 57be 3d88 b03d 349d f3bd 357c dabd
00000170: cf86 593e 194a 9e3d 01d3 8dbd 70f7 993d
00000180: 5f98 823e e2bf 87be fe45 c0be 4691 b9be
00000190: 9183 97bd 4995 fb3d 2bfe 5d3e 2cc8 80be
000001a0: 8034 70ba c503 4abe 0552 08be 0dfa 93be
000001b0: 7e02 59be d4d3 07be 117f 463e 22b2 9f3d
000001c0: a0f1 893a 2700 e5be 46b3 1abe 2f74 f03b
000001d0: cbc0 b83d 8d7a 463d 1046 85be e6be 28be
000001e0: c121 1e3e 1902 6cbe f61d 053e bad5 52be
000001f0: 2630 0dbe c2c0 7dbc af2e 91bd 8a8c 2bbe
00000200: 5cb0 4e3e b086 e3bc 7442 993e f027 483e
00000210: a355 59be 5bfb 043f d55d 26be 32d7 ae3b
00000220: 9150 97be 836f dfbe a825 913d 75c0 eabd
00000230: afa1 dbbd afac 37bd 1227 313e 5133 b5be
00000240: ad80 923c e5a6 a23c be4e 303e 19d1 643e
00000250: 5ad3 803e 44b3 abbd 8763 63bd f775 99be
00000260: e93b bcbd b989 5bbe 60a5 ba3c c15f 8cbd
00000270: bb29 bf3d 9794 ef3d c9d4 143e 307b d93c
00000280: d407 843e d036 853e 7ebc 49bd aaa7 5abe
00000290: ba01 353c 3c30 59be 5f18 e2bd eae0 c83e
000002a0: 96b9 003e b7d8 56be fb16 d6bd f0f4 d8bd
000002b0: 3381 c83d 445a 38bd 09a4 f5bd 1794 4ebd
000002c0: de68 96bc bec3 fe3d 09fe fd3d 8249 68bd
000002d0: dc8c ad3d 533b 203e f8db d33c 0c1a 82bc
000002e0: a967 cc3d 754f 4a3e 1bce 503d 0bf4 98be
000002f0: 961c c0bd 46b8 073e 4eb4 08be b659 97bc
00000300: cb23 823e 65ef 853e 8684 7c3e e3d0 40be
00000310: ef9c 90bd 1986 a3be 79e2 133e 386a 2a3c
00000320: ee93 b6be d9c9 e0bd c930 7c3e 7279 86bc
00000330: b0bd a3bd 4a77 6dbe 7254 a4bd ba95 3cbc
00000340: 6856 6fbe 1136 433e 9253 a7bc a8c9 e03e
00000350: cebf dfbe 3911 d0be 932e 08be ae10 d23e
00000360: 5a44 853c 3cb8 193d bcaf 803c 882f 47bd
00000370: 706e 00be 6ef2 f63d 7b81 18be c235 b63d
00000380: 39b8 31be 2fae 063e 967e 0f3e a2e8 2d3e
00000390: 5c28 d2bc f2fe 2fbe c368 86bc c276 603e
000003a0: 5278 fd3e 7a80 b83e 354e db3e 37ec bd3e
000003b0: a0b5 b23c e1db a9be d4df b5be aafa aebe
000003c0: 5880 923e d8d0 afbd 32cc 8ebe 8569 843d
000003d0: 8e19 99be c8a5 75be 403c b6be c573 d93e
000003e0: c936 ef3d acf7 6b3e e2fe 82be 1bb5 6ebd
000003f0: 3207 323e 468e 03be f5a3 c3bd a6e7 18be

h_11.bias f4 [64]
-0.3229583 0.5771579 0.5119767 0.31086627 -0.04990548 0.18195978 0.25663367 0.25104517
-0.045759153 0.6263237 0.54754764 0.23032169 0.68748575 0.08114386 0.59013003 0.57727075
0.12291378 -0.009806402 0.7170644 0.46003562 -0.0058274223 0.4597 0.22682907 0.7262308
0.619878 -0.38351646 0.40008813 -0.2058325 -0.20418686 0.06591052 0.076763004 0.72845364
0.3736216 0.6638123 -0.64058685 0.4573832 -0.29761592 -0.06749546 0.6516468 0.26043192
0.7205035 -0.07113207 0.044267267 0.46531725 0.38816503 0.14351594 0.20364954 0.26775503
0.5829184 0.64812964 -0.040239442 0.37796932 0.5807812 0.58255434 -0.027759489 -0.07571807
0.28217518 -0.21604007 0.578255 -0.06619824 0.5534938 0.0037218544 0.48858023 -0.17158476
00000000: ca5a a5be 9fc0 133f e810 033f dd29 9f3e
00000010: b069 4cbd aa53 3a3e 7d65 833e fe88 803e
00000020: f36d 3bbd c056 203f 152c 0c3f 73d9 6b3e
00000030: 11ff 2f3f c12e a63d c312 173f 04c8 133f
00000040: 38ba fb3d 08ab 20bc 8891 373f ca89 eb3e
00000050: f6f3 bebb cc5d eb3e e145 683e 43ea 393f
00000060: 53b0 1e3f 455c c4be 5ad8 cc3e c1c5 52be
00000070: 5c16 51be 18fc 863d ec35 9d3d f07b 3a3f
00000080: 554b bf3e 9aef 293f 80fd 23bf 212e ea3e
00000090: 1d61 98be 0f3b 8abd 53d2 263f 5557 853e
000000a0: eb72 383f b1ad 91bd 9851 353d 103e ee3e
000000b0: 91bd c63e d8f5 123e 8189 503e 3017 893e
000000c0: 243a 153f d3eb 253f 1dd2 24bd 3285 c13e
000000d0: 14ae 143f 4822 153f de67 e3bc 1312 9bbd
000000e0: 4479 903e 9c39 5dbe 8508 143f f192 87bd
000000f0: c5b1 0d3f 5bea 733b 3027 fa3e eab3 2fbe

h_12.weight f4 [64, 6]
-0.48156482 -0.110809766 -0.34904993 0.10906868 -0.27471092 -0.11194926 -0.016104495 -0.49935928
-0.1619484 -0.51166844 -0.21419789 -0.040374447 -0.10715101 -0.2959026 0.027793387 -0.09247351
0.3716864 0.41467392 0.016337497 -0.2512097 -0.4918025 0.1790028 -0.16564016 0.2866185
0.12021678 -0.18139926 0.13561973 0.32151318 0.49655366 -0.50059867 0.4066628 -0.36796603
-0.24864785 0.49640754 0.47259 0.17324407 -0.052734353 -0.5503663 0.00017822887 0.49962026
0.15108576 0.104042314 -0.13992615 -0.23748088 0.16874523 0.23037006 0.37005162 -0.034054153
0.2986342 0.13810569 0.04206287 0.21746959 0.4108419 0.47418 0.16988634 -0.34801617
-0.6120943 0.43340343 0.10507988 0.0071198107 -0.11473223 0.06097107 0.18335824 0.38143775
-0.2802286 -0.17120005 -0.0722915 -0.32816434 0.40588287 0.43000188 0.5567027 0.06447672
-0.033966277 0.032020252 -0.5960571 0.31103027 0.047346625 -0.19208696 -0.5006572 0.3334624
0.120846204 0.4500633 0.5389358 -0.10964764 -0.21879673 0.19580685 -0.12721345 -0.07202039
-0.28800187 0.17596324 -0.36894646 0.48544025 0.40977663 -0.119333155 -0.11177662 0.3339037
-0.35220116 -0.16435973 0.19503537 0.058135297 -0.23951234 -0.14876379 -0.17454274 -0.36788133
-0.23479804 0.2384254 0.16475055 -0.08118229 -0.4580203 -0.15337501 -0.16147886 -0.2201323
-0.29578215 0.1287711 -0.47466797 -0.37428 -0.48898485 0.32177904 -0.32586223 -0.22088304
0.32000163 0.21676525 0.23408599 -0.38763443 -0.29275477 -0.15411824 0.24225414 -0.25588387
-0.35454446 0.24685444 -0.22546768 0.065604605 -0.2716157 0.38093826 0.028712878 0.02783444
0.25824356 -0.03329738 0.16843691 0.27823037 0.17357261 -0.18331714 0.5976581 -0.041550767
-0.20491475 0.17389561 0.27484435 0.6251922 0.19603054 -0.093521364 0.10742214 0.28597078
-0.49970084 0.16264215 -0.13271412 0.27100277 0.059216682 -0.2914154 -0.13546383 0.4209266
0.059996318 -0.15419908 0.32831812 -0.20381564 -0.04318589 0.036844924 -0.026197504 -0.38569677
0.08688495 -0.36101234 -0.26001093 0.25930798 -0.23631707 -0.12545173 -0.24873419 -0.23613028
-0.2554265 -0.0054993317 0.27613753 -0.31513903 -0.43956143 -0.08460684 0.06747474 0.39812776
-0.1416441 0.1903802 0.25246868 -0.06817595 -0.49818426 0.44741356 0.022901408 -0.2031258
0.22738731 -0.06095925 0.17338769 -0.23964433 0.06203737 -0.24693222 0.13168322 -0.37758228
-0.13598004 -0.3954381 0.052749712 0.46675014 0.05808912 -0.40668514 -0.048160423 0.014936611
-0.23257868 0.5396874 -0.10513452 0.20374474 -0.28460497 -0.055362187 0.24549443 0.17861792
0.09156928 -0.19675325 0.39636737 -0.060095947 -0.2500174 -0.1909429 0.4018881 1.9661464e-05
-0.055417344 -0.16989733 -0.107020415 -0.34383836 -0.4748422 0.25193396 0.24620567 0.43561774
-0.16596414 0.36657083 -0.31622335 0.22851637 0.1940611 0.4298085 0.57567286 0.3610973
-0.10043267 -0.0139855305 -0.40161797 0.31671152 -0.13267846 0.07162897 -0.3266512 -0.35088503
-0.22671394 0.2438378 -0.33684483 -0.6479717 -0.1720124 0.06587247 0.050149623 0.5491205
00000000: aa8f f6be 3bf0 e2bd acb6 b2be 665f df3d
00000010: e9a6 8cbe a745 e5bd 93ed 83bc 05ac ffbe
00000020: cdd5 25be b4fc 02bf b156 5bbe ad5f 25bd
00000030: fd71 dbbd 8c80 97be f5ae e33c c062 bdbd
00000040: ae4d be3e 2450 d43e 37d6 853c 8f9e 80be
00000050: 8acd fbbe 834c 373e 939d 29be a9bf 923e
00000060: 3734 f63d bac0 39be e6df 0a3e 609d a43e
00000070: 483c fe3e 3c27 00bf 1b36 d03e 0b66 bcbe
00000080: 8b9d 7ebe 2129 fe3e 51f7 f13e e566 313e
00000090: faff 57bd cee4 0cbf f3e2 3a39 3ace ff3e
000000a0: 3ab6 1a3e 2314 d53d cd48 0fbe 302e 73be
000000b0: 8dcb 2c3e 21e6 6b3e 6877 bd3e 5e7c 0bbd
000000c0: 95e6 983e 946b 0d3e 1e4a 2c3d 59b0 5e3e
000000d0: df59 d23e b9c7 f23e aff6 2d3e 2d2f b2be
000000e0: 36b2 1cbf 0ee7 dd3e 1f34 d73d 4d4d e93b
000000f0: bbf8 eabd cdbc 793d 43c2 3b3e cf4b c33e
00000100: 207a 8fbe 114f 2fbe 910d 94bd 2805 a8be
00000110: e1cf cf3e 3529 dc3e 1184 0e3f 5f0c 843d
00000120: 3920 0bbd ab27 033d 3397 18bf 5c3f 9f3e
00000130: 89ee 413d 72b2 44be 122b 00bf 95bb aa3e
00000140: 377e f73d b26e e63e b2f7 093f f18e e0bd
00000150: 400c 60be 9781 483e 3e44 02be 6d7f 93bd
00000160: fb74 93be b52f 343e 8de6 bcbe a08b f83e
00000170: 3ece d13e f164 f4bd 24eb e4bd 6df5 aa3e
00000180: b653 b4be eb4d 28be 5ab7 473e 471f 6e3d
00000190: b942 75be 8955 18be 55bb 32be f15a bcbe
000001a0: e66e 70be ca25 743e 5eb4 283e e742 a6bd
000001b0: a381 eabe 570e 1dbe b75a 25be 5d6a 61be
000001c0: c270 97be 92dc 033e ae07 f3be a1a1 bfbe
000001d0: 395c fabe 39c0 a43e 6ad7 a6be 2a2f 62be
000001e0: 41d7 a33e b6f7 5d3e 3db4 6f3e 0578 c6be
000001f0: f4e3 95be 2cd1 1dbe 7811 783e 3603 83be
00000200: da86 b5be 69c7 7c3e 00e1 66be b55b 863d
00000210: 3711 8bbe 570a c33e 4537 eb3c 0d05 e43c
00000220: 8038 843e d562 08bd ba7a 2c3e 3674 8e3e
00000230: 05bd 313e 7db7 3bbe 1f00 193f 2331 2abd
00000240: 2cd5 51be b111 323e 66b8 8c3e 990c 203f
00000250: 3bbc 483e 2188 bfbd 2400 dc3d c36a 923e
00000260: cad8 ffbe aa8b 263e 36e6 07be e0c0 8a3e
00000270: 318d 723d 6634 95be 08b7 0abe b183 d73e
00000280: b3be 753d 5de6 1dbe 5019 a83e 0cb5 50be
00000290: b0e3 30bd b4ea 163d 269c d6bc 0c7a c5be
000002a0: bdf0 b13d 9cd6 b8be 2720 85be 04c4 843e
000002b0: 1afd 71be 6b76 00be 2db4 7ebe 23cc 71be
000002c0: 43c7 82be bd33 b4bb e661 8d3e e759 a1be
000002d0: 320e e1be 5a46 adbd 3230 8a3d 67d7 cb3e
000002e0: 270b 11be 07f3 423e 9343 813e d59f 8bbd
000002f0: 0212 ffbe 6413 e53e bc9b bb3c 3600 50be
00000300: 38d8 683e 68b0 79bd 8b8c 313e 5365 75be
00000310: e61a 7e3d cddb 7cbe f7d7 063e 7752 c1be
00000320: 5a3e 0bbe dd76 cabe 1510 583d e0f9 ee3e
00000330: dbee 6d3d 0939 d0be dd43 45bd b0b8 743c
00000340: 1b29 6ebe f428 0a3f c450 d7bd 76a2 503e
00000350: beb7 91be 76c3 62bd e462 7b3e 9ee7 363e
00000360: ad88 bb3d af79 49be aaf0 ca3e 2b27 76bd
00000370: 4802 80be 8986 43be 47c4 cd3e acee a437
00000380: 4cfd 62bd 91f9 2dbe 852d dbbd 950b b0be
00000390: 841e f3be 7dfd 803e 571d 7c3e 4a09 df3e
000003a0: 81f2 29be 2caf bb3e 07e8 a1be 3200 6a3e
000003b0: f4b7 463e dc0f dc3e 4c5f 133f bfe1 b83e
000003c0: a5af cdbd 9123 65bc dfa0 cdbe 0328 a23e
000003d0: dddc 07be 36b2 923d d33e a7be 34a7 b3be
000003e0: b327 68be 9eb0 793e ed76 acbe 79e1 25bf
000003f0: 0524 30be 25e8 863d b169 4d3d 2993 0c3f

h_12.bias f4 [64]
0.2222041 0.24708048 0.13556986 -0.15163468 -0.1823838 0.15826474 0.18488477 -0.33011678
0.24808046 -0.19710305 0.38227776 0.4661443 0.2709753 -0.2812821 0.29641262 -0.053485647
0.39229906 0.12734348 0.3626995 -0.22694221 -0.09183344 0.31681755 0.04567519 0.36312205
-0.23595756 0.07557895 0.22000886 -0.11008954 0.46339488 0.09188076 -0.45616895 0.11340054
-0.18516384 -0.0002740382 0.092037685 -0.5621909 -0.07439319 -0.03910174 -0.08006149 0.3641359
-0.16144957 0.36709103 0.41144133 -0.32346472 0.06865985 0.41565543 -0.31562424 -0.2854571
0.41087505 0.33674803 -0.45420223 0.15815166 -0.050914697 -0.4522769 0.17817277 0.24984296
-0.17365672 0.18625978 -0.44793367 0.35644448 0.5496831 0.35068053 0.14850248 0.15415949
00000000: 7989 633e aa02 7d3e d3d2 0a3e 1f46 1bbe
00000010: d2c2 3abe 2710 223e 6f52 3d3e 1105 a9be
00000020: ce08 7e3e 62d5 49be e9b9 c33e 77aa ee3e
00000030: 46bd 8a3e 3504 90be 65c3 973e c413 5bbd
00000040: 6cdb c83e 5466 023e c0b3 b93e 8a63 68be
00000050: 2c13 bcbd e935 a23e e815 3b3d 22eb b93e
00000060: dc9e 71be 23c9 9a3d 014a 613e a076 e1bd
00000070: 1842 ed3e fb2b bc3d fa8e e9be 8b3e e83d
00000080: 979b 3dbe c9ac 8fb9 417e bc3d beeb 0fbf
00000090: 755b 98bd 2529 20bd 47f7 a3bd 0570 ba3e
000000a0: 0953 25be 5bf3 bb3e 70a8 d23e 2b9d a5be
000000b0: 899d 8c3d cad0 d43e 8099 a1be 6f27 92be
000000c0: 375e d23e 3d6a ac3e 328d e8be 82f2 213e
000000d0: ee8b 50bd d690 e7be ec72 363e d5d6 7f3e
000000e0: 11d3 31be e2ba 3e3e 9057 e5be e47f b63e
000000f0: 08b8 0c3f 668c b33e 0911 183e fcdb 1d3e

h_21.weight f4 [64, 64]
-0.15162235 0.14603497 0.06284724 -0.04276623 -0.11091375 0.015750598 0.12620807 -0.10792383
0.057313744 0.10810006 0.12891252 0.07454292 0.1975408 0.043651942 0.1581379 0.23436733
-0.11642919 -0.090527244 0.09261322 0.079321906 -0.10150701 0.13574696 0.021085484 0.19942126
-0.011071797 0.016180601 0.21133511 -0.16224162 -0.010061679 0.09818355 0.015641008 0.1098838
0.0391883 0.03402648 0.19349784 0.08033168 -0.086168 0.07249151 0.08389319 0.06726038
0.047344126 -0.07940421 0.022475261 0.03682137 -0.017537652 -0.1673231 0.06594782 0.07282357
-0.05170239 0.14136781 -0.08846879 0.1628992 0.18435504 0.13749778 -0.07581759 0.047256988
0.075487085 -0.035245758 0.22250697 -0.07465298 0.07256232 0.022817709 0.016380828 0.041991185
-0.026493374 -0.014111058 0.0063246964 0.063061155 -0.059296347 -0.014079522 -0.010440417 0.013690022
0.018501692 0.08453676 0.1406479 -0.010681685 -0.020036798 0.061194263 0.07433979 -0.0051399227
-0.081367835 0.017768696 -0.05590973 0.07002664 0.10404907 -0.0364202 -0.038560603 0.007189052
0.13980485 -0.01075528 0.031970326 0.13895686 -0.11635993 -0.14592505 0.05494607 0.064768225
0.11043934 0.02480371 0.015123011 0.09119524 0.044157963 -0.15520895 0.09487891 -0.038651533
0.17295118 -0.015938975 -0.11058477 0.07070625 -0.01041491 -0.050256982 -0.0026676916 0.035005763
0.12844996 0.02904289 0.06907031 0.061432544 0.08392649 0.09223873 -0.08407345 -0.07983898
-0.02883304 -0.124372475 -0.061393887 0.05080773 0.034834623 -0.034775212 0.056205586 -0.057236444
-0.040819384 0.011252025 -0.026068551 0.11469783 0.17319015 -0.027103359 0.051466633 0.071785845
0.033375476 -0.013243098 0.0047785775 0.014951982 0.0091457805 0.09046278 0.06334139 0.032419115
0.028850108 -0.09186469 0.044450462 -0.036175054 0.1079317 0.01753161 0.13191697 0.06538239
0.15089457 0.3260134 -0.025057534 -0.02070976 -0.006898567 -0.003466867 -0.09947607 0.07726104
-0.0577649 0.10306197 -0.08071041 -0.08188368 -0.12499272 -0.087237604 0.12844984 0.04952563
-0.004862229 0.02812264 -0.011122761 -0.1209892 0.21483168 0.16901962 0.12515317 -0.09986417
0.08558276 0.06117181 0.16208927 -0.04675655 -0.1348273 0.0744344 0.0505269 -0.02632287
-0.07286997 -0.0653455 0.04922251 -0.008753117 0.08344611 0.0888845 0.101319194 -0.044728547
0.11097683 0.07601283 -0.25183222 -0.022607928 -0.009165626 -0.072490685 0.011392316 -0.07338372
-0.012825319 -0.14978257 -0.3246115 -0.2880838 -0.115550384 0.1273226 -0.20413315 0.14826219
-0.06989696 0.17654942 -0.01456456 -0.12277945 -0.07874043 -0.29673737 -0.22766234 -0.09893367
-0.39141098 0.27970806 0.08508616 -0.08966702 0.18973124 0.19380718 0.103977606 -0.073921114
-0.044126548 -0.11364122 -0.021379802 0.052977264 0.13784812 0.0067890123 -0.16978309 0.038955193
-0.23884287 0.31489104 0.03120522 -0.054673016 0.258198 0.11653655 0.038275406 -0.17137976
-0.042708963 -0.2126179 -0.13571903 0.017562415 -0.010903828 -0.24240984 0.036350127 0.08730422
0.043452904 0.007737972 -0.09223789 -0.02949297 -0.18497895 0.0063678343 -0.10861574 -0.098739766
00000000: e442 1bbe 318a 153e 0eb6 803d a42b 2fbd
00000010: c026 e3bd 6607 813c b03c 013e 2b07 ddbd
00000020: d1c1 6a3d 9063 dd3d a501 043e f5a9 983d
00000030: 2348 4a3e 61cc 323d e7ee 213e fdfd 6f3e
00000040: 6d72 eebd 5966 b9bd 00ac bd3d 8673 a23d
00000050: e8e2 cfbd 4001 0b3e 77bb ac3c 1635 4c3e
00000060: 7c66 35bc 2e8d 843c 3b68 583e ab22 26be
00000070: bed9 24bc 7514 c93d 9221 803c c20a e13d
00000080: e983 203d 5a5f 0b3d 4c24 463e f084 a43d
00000090: d978 b0bd 6e76 943d 31d0 ab3d cfbf 893d
000000a0: eaeb 413d ad9e a2bd 0a1e b83c 01d2 163d
000000b0: 1fab 8fbc bf56 2bbe a70f 873d 8624 953d
000000c0: e3c5 53bd b9c2 103e 202f b5bd 0ccf 263e
000000d0: 91c7 3c3e 38cc 0c3e 4146 9bbd 8b90 413d
000000e0: f998 9a3d db5d 10bd ded8 633e a9e3 98bd
000000f0: 8e9b 943d 34ec ba3c 1631 863c f3fe 2b3d
00000100: a208 d9bc 1132 67bc 663f cf3b 3526 813d
00000110: bae0 72bd ccad 66bc 480e 2bbc 1d4c 603c
00000120: dc90 973c 9c21 ad3d 0106 103e 3c02 2fbc
00000130: 3624 a4bc d6a6 7a3d 763f 983d cc6c a8bb
00000140: 2ea4 a6bd a88f 913c 9a01 65bd 216a 8f3d
00000150: ae17 d53d 592d 15bd b9f1 1dbd 2492 eb3b
00000160: 0129 0f3e ea36 30bc 51f3 023d b54a 0e3e
00000170: 1d4e eebd 606d 15be 210f 613d 34a5 843d
00000180: 052e e23d 2631 cb3c 81c6 773c 92c4 ba3d
00000190: fbde 343d 18ef 1ebe e04f c23d 1251 1ebd
000001a0: 1d1a 313e 7492 82bc 457a e2bd 70ce 903d
000001b0: 4ca3 2abc 44da 4dbd 70d4 2ebb 3462 0f3d
000001c0: 6388 033e 5beb ed3c bc74 8d3d b1a0 7b3d
000001d0: a7e1 ab3d a9e7 bc3d b32e acbd 9f82 a3bd
000001e0: 4433 ecbc ffb6 febd 2878 7bbd c41b 503d
000001f0: c0ae 0e3d 7470 0ebd d437 663d c370 6abd
00000200: 3a32 27bd 6a5a 383c b78d d5bc b2e6 ea3d
00000210: c258 313e dd07 debc adce 523d 7504 933d
00000220: b9b4 083d 94f9 58bc 9d95 9c3b 28f9 743c
00000230: 2fd8 153c 8d44 b93d 21b9 813d e8c9 043d
00000240: 1057 ec3c 8e23 bcbd b011 363d 4b2c 14bd
00000250: 4c0b dd3d 739e 8f3c 3e15 073e 34e7 853d
00000260: 1b84 1a3e 3aeb a63e 7545 cdbc 84a7 a9bc
00000270: 600d e2bb 6034 63bb 1cba cbbd 093b 9e3d
00000280: e39a 6cbd 2712 d33d 804b a5bd a1b2 a7bd
00000290: 2ffc ffbd a1a9 b2bd 5b88 033e 63db 4a3d
000002a0: 5553 9fbb 7361 e63c 3e3c 36bc 30c9 f7bd
000002b0: d6fc 5b3e 7b13 2d3e 2728 003e 9685 ccbd
000002c0: 0446 af3d 4b8f 7a3d bbfa 253e cc83 3fbd
000002d0: 2b10 0abe 1071 983d 4bf5 4e3d 0fa3 d7bc
000002e0: da3c 95bd ddd3 85bd 8b9d 493d 3c69 0fbc
000002f0: cbe5 aa3d 1409 b63d 7080 cf3d 4835 37bd
00000300: d247 e33d 9dac 9b3d 27f0 80be 4334 b9bc
00000310: 6c2b 16bc ff75 94bd d6a6 3a3c 344a 96bd
00000320: 4921 52bc 9a60 19be 7b33 a6be b87f 93be
00000330: aea5 ecbd db60 023e 4808 51be 0bd2 173e
00000340: 2326 8fbd 5fc9 343e 31a0 6ebc cb73 fbbd
00000350: aa42 a1bd f6ed 97be 5120 69be bc9d cabd
00000360: 0567 c8be e535 8f3e a741 ae3d 58a3 b7bd
00000370: e848 423e 6475 463e 36f2 d43d f463 97bd
00000380: 0abe 34bd babc e8bd b224 afbc b0fe 583d
00000390: 0f28 0d3e 5d76 de3b 9edb 2dbe 7b8f 1f3d
000003a0: 3a93 74be 6639 a13e 17a2 ff3c d0f0 5fbd
000003b0: 8732 843e b7aa ee3d acc6 1c3d 2d7e 2fbe
000003c0: 98ef 2ebd 82b8 59be eef9 0abe 0edf 8f3c
000003d0: f8a5 32bc 493a 78be dfe3 143d 8ecc b23d
000003e0: acfb 313d d08e fd3b 38e7 bcbd 3e9b f1bc
000003f0: 1f6b 3dbe 44a9 d03b ee71 debd 1338 cabd

h_21.bias f4 [64]
0.10640879 0.120121896 0.13162147 -0.12012561 0.308594 0.3173631 0.02944876 0.001559464
0.107729904 0.18604824 0.2395997 0.13245675 0.2993786 0.20524861 0.3321459 0.26646855
0.13899344 -0.32118028 0.19014171 0.1683685 -0.069327645 0.1836913 0.1843673 0.05535312
0.17120127 0.23148303 0.34894156 0.03334409 -0.018145747 0.020805808 0.07109695 0.061863955
0.031484026 0.22668709 0.18944865 0.10484776 0.19439182 0.104209684 0.304017 0.060075276
0.122379094 0.048862886 0.045444712 0.057929855 0.17499363 -0.006076089 0.16586827 -0.084903196
0.044544213 0.04390928 0.057439074 -0.02648072 0.067486055 0.04838179 0.18800855 0.13650073
0.15689564 0.14585167 0.10568476 -0.009912448 0.30000475 0.21433759 0.10518339 0.04293744
00000000: daec d93d 7802 f63d c7c7 063e 6a04 f6bd
00000010: 0800 9e3e 6b7d a23e 873e f13c ee66 cc3a
00000020: 7fa1 dc3d 6e83 3e3e a059 753e bea2 073e
00000030: 2748 993e b12c 523e 070f aa3e 916e 883e
00000040: 4c54 0e3e be71 a4be 82b4 423e cb68 2c3e
00000050: a7fb 8dbd 9219 3c3e c8ca 3c3e f4b9 623d
00000060: 634f 2f3e e309 6d3e 78a8 b23e d093 083d
00000070: 64a6 94bc f170 aa3c 479b 913d 0f65 7d3d
00000080: 65f5 003d a920 683e d4fe 413e 6cba d63d
00000090: a60e 473e e36b d53d 1ea8 9b3e 7e11 763d
000000a0: e4a1 fa3d 7324 483d 3c24 3a3d db47 6d3d
000000b0: 8831 333e ee19 c7bb 5fd9 293e bae1 adbd
000000c0: fe73 363d 38da 333d 3c45 6b3d 18ee d8bc
000000d0: 2136 8a3d fc2b 463d 5085 403e d9c6 0b3e
000000e0: 40a9 203e 245a 153e 4071 d83d d267 22bc
000000f0: 399a 993e 507b 5b3e 646a d73d 2bdf 2f3d

h_22.weight f4 [64, 64]
-0.15554342 -0.29898065 0.0626081 -0.060378984 0.037365656 0.09166383 -0.046931706 -0.1367272
0.17545885 0.13104446 -0.025120793 -0.027161103 0.10049252 0.12224891 -0.03058177 0.2577836
-0.16268347 -0.018898815 0.073594786 -0.21527283 -0.038557798 -0.036915448 -0.021373544 0.34227735
0.007708366 0.15784924 -0.12735318 -0.0010290359 -0.08572696 -0.06727064 -0.26106745 0.16679089
0.06998585 0.15515766 0.111754574 0.001854427 -0.007825643 0.047787175 -0.102802835 0.121653855
-0.012880548 0.110315055 0.07934317 0.20249629 -0.06527035 0.04540804 -0.16937535 -0.0061942968
0.017293584 -0.02624351 -0.117983595 0.18361312 -0.007901683 -0.08091571 0.112856 -0.051154137
-0.009675469 0.5529029 0.10455174 -0.11504179 0.04482694 0.16637534 0.07164147 0.038646508
0.032328878 0.16417538 0.005168574 0.12172811 -0.49709615 -0.051800657 -0.015791282 0.08016179
-0.15460846 0.17755772 -0.06847746 -0.042285703 -0.13245542 -0.0031612804 0.060962494 0.5679527
0.20592326 -0.05771733 -0.09818434 0.045932565 0.003994748 0.08005835 -0.15638854 -0.26890367
-0.101425864 0.10389214 -0.13235164 -0.05285829 -0.0117997825 0.101710364 0.25785586 -0.13707073
-0.08637148 0.22676422 0.35152453 0.11999792 0.004309714 0.11314972 -0.045530006 -0.00915207
0.10640118 -0.07453299 -0.14532518 0.108937204 0.0012240623 -0.18916106 0.26969242 -0.007950487
-0.07357528 0.44372496 0.4270126 0.1267136 -0.0184032 0.0599888 -0.08936146 -0.107630774
0.17852157 -0.09958931 0.24800496 -0.11657744 -0.04831569 0.0984446 -0.068806365 0.13695945
0.026327789 -0.7543456 0.15175548 0.13088049 -0.10498247 0.17096007 0.07113362 0.30834886
0.06774701 0.10940698 0.20598206 -0.012720237 -0.14872527 0.39535135 -0.19814272 -0.06537626
-0.014043986 -0.07606124 -0.029760603 -0.031849265 0.0927366 -0.20021111 0.043299384 -0.2733953
0.18586703 0.11137142 0.006838856 -0.041323014 -0.12779464 0.01462357 0.24773364 -0.17404437
0.10108736 0.0012155607 0.11627666 0.15600727 0.021901622 0.06691384 0.187598 -0.03428649
0.07638402 -0.3377849 0.01049725 0.07841802 0.07838956 0.0029283373 0.0040677534 0.13015723
-0.13083147 0.22850724 0.66825324 0.11098274 -0.08139292 0.103934266 0.15584685 -0.051920246
0.11078915 -0.061335567 0.056945972 0.14714774 -0.095993854 0.010211181 0.07651923 0.22828747
0.15573345 0.21872248 -0.11522073 0.16378437 -0.38767818 -0.08853042 -0.072876886 -0.07080324
-0.24416551 -0.11140996 -0.20598578 -0.24414244 -0.0219913 0.0859339 0.27390295 -0.033076737
0.13731898 0.022590496 0.031839877 0.27519968 0.022132024 -0.15114407 0.020769397 -0.6730961
0.005993333 0.17652886 -0.11845414 -0.099850506 -0.18592365 -0.10641674 0.278522 0.29788962
-0.040832385 0.05466628 0.35531598 0.12316881 0.0865439 -0.009472042 0.097312845 -0.05018161
0.08639268 0.8623483 -0.18168531 -0.13987353 0.2030489 -0.0038316594 0.12973112 0.06785671
-0.013027013 -0.40351692 0.09830603 0.12619124 -0.06528175 0.38718525 -0.12615298 -0.06795668
0.19840989 -0.11702046 0.10464291 -0.06855918 -0.026810987 -0.06645833 -0.07868346 -0.0016129457
00000000: c646 1fbe fe13 99be ad38 803d f44f 77bd
00000010: bb0c 193d 3fba bb3d 763b 40bd 3702 0cbe
00000020: 7cab 333e 8530 063e 1fca cdbc f680 debc
00000030: 06cf cd3d a35d fa3d 9f86 fabc 36fc 833e
00000040: 7f96 26be b0d1 9abc ddb8 963d 7b70 5cbe
00000050: c8ee 1dbd a734 17bd 9217 afbc fa3e af3e
00000060: 7696 fc3b 3ba3 213e df68 02be b7e0 86ba
00000070: 9e91 afbd 30c5 89bd a2aa 85be 3bcb 2a3e
00000080: be54 8f3d a6e1 1e3e 95df e43d 3f10 f33a
00000090: 2037 00bc 7cbc 433d 4b8a d2bd a825 f93d
000000a0: ef08 53bc dcec e13d ac7e a23d 305b 4f3e
000000b0: 76ac 85bd c8fd 393d bb70 2dbe 87f9 cabb
000000c0: 46ab 8d3c a1fc d6bc 62a1 f1bd 1405 3c3e
000000d0: 1076 01bc 23b7 a5bd 0c21 e73d 0087 51bd
000000e0: dc85 1ebc 0b8b 0d3f 391f d63d 089b ebbd
000000f0: 749c 373d 4c5e 2a3e c3b8 923d cd4b 1e3d
00000100: 496b 043d 971d 283e 245d a93b 964c f93d
00000110: 6383 febe ed2c 54bd b85c 81bc dd2b a43d
00000120: ae51 1ebe b1d1 353e e93d 8cbd c633 2dbd
00000130: 65a2 07be 7c2d 4fbb cfb3 793d 5965 113f
00000140: 8cdd 523e 0269 6cbd df14 c9bd c923 3c3d
00000150: 60e6 823b a2f5 a33d 5124 20be bead 89be
00000160: 5db8 cfbd 67c5 d43d 3087 07be ef81 58bd
00000170: e053 41bc 864d d03d af05 843e 455c 0cbe
00000180: 88e3 b0bd e134 683e 06fb b33e 78c1 f53d
00000190: 8038 8d3b 0abb e73d ac7d 3abd 90f2 15bc
000001a0: dde8 d93d c1a4 98bd 20d0 14be 781a df3d
000001b0: b770 a03a 70b3 41be 2015 8a3e c242 02bc
000001c0: a3ae 96bd eb2f e33e 65a1 da3e 36c1 013e
000001d0: 4fc2 96bc d1b6 753d 2403 b7bd 866d dcbd
000001e0: 5cce 363e 7bf5 cbbd 03f5 7d3e 27c0 eebd
000001f0: ace6 45bd 539d c93d 5aea 8cbd 193f 0c3e
00000200: 60ad d73c cb1c 41bf ca65 1b3e 8905 063e
00000210: 0d01 d7bd 2810 2f3e 81ae 913d e7df 9d3e
00000220: f2be 8a3d c410 e03d f6ec 523e 8a68 50bc
00000230: 704b 18be 7e6b ca3e ede5 4abe fde3 85bd
00000240: bf18 66bc ffc5 9bbd 82cc f3bc 6074 02bd
00000250: b0ec bd3d 2404 4dbe b25a 313d 78fa 8bbe
00000260: ed53 3e3e b316 e43d 7b18 e03b 5242 29bd
00000270: 99dc 02be b397 6f3c e3ad 7d3e b038 32be
00000280: e406 cf3d 7353 9f3a 7522 ee3d 5fc0 1f3e
00000290: 086b b33c 200a 893d b119 403e fe6f 0cbd
000002a0: 3a6f 9c3d 24f2 acbe a8fc 2b3c a099 a03d
000002b0: b58a a03d 59e9 3f3b ca4a 853b f047 053e
000002c0: aff8 05be cdfd 693e a512 2b3f eb4a e33d
000002d0: 55b1 a6bd 7ddb d43d 5196 1f3e 53aa 54bd
000002e0: 6ce5 e23d 013b 7bbd 2e40 693d e6ad 163e
000002f0: 6d98 c4bd cc4c 273c 1db6 9c3d 31c4 693e
00000300: 9778 1f3e c9f8 5f3e d9f8 ebbd 17b7 273e
00000310: c17d c6be 704f b5bd 7a40 95bd 4a01 91bd
00000320: 8606 7abe e82a e4bd f0ed 52be 7a00 7abe
00000330: 1927 b4bc 1dfe af3d 023d 8c3e 797b 07bd
00000340: 599d 0c3e b40f b93c 886a 023d f9e6 8c3e
00000350: 384e b53c 83c5 1abe 9524 aa3c 0750 2cbf
00000360: b963 c43b fbc3 343e 1698 f2bd 6c7e ccbd
00000370: c562 3ebe 05f1 d9bd 709a 8e3e fd84 983e
00000380: dc3f 27bd c0e9 5f3d faeb b53e ee3f fc3d
00000390: ee3d b13d a030 1bbc f54b c73d 3b8b 4dbd
000003a0: a5ee b03d dcc2 5c3f b70b 3abe 023b 0fbe
000003b0: 0dec 4f3e 941c 7bbb 3cd8 043e 75f8 8a3d
000003c0: 416f 55bc c599 cebe ac54 c93d 4738 013e
000003d0: 70b2 85bd 253d c63e 3f2e 01be df2c 8bbd
000003e0: f62b 4b3e 6ca8 efbd 064f d63d c168 8cbd
000003f0: b7a2 dbbc 4e1b 88bd cb24 a1bd 7a69 d3ba

h_22.bias f4 [64]
0.15700589 -0.05619682 -0.094011545 0.007027848 0.061607324 0.031927794 -0.023520382 -0.06629501
-0.0920422 -0.18351896 0.032633573 0.04522746 -0.03750333 -0.074775144 0.053609513 0.048671134
-0.08555062 0.07681148 0.20938112 0.012519115 0.111939445 -0.10571919 0.11102368 -0.12302976
0.051042978 -0.041547768 0.15937608 0.026931122 -0.034010388 0.043096278 0.0058873855 -0.045166735
0.11461728 0.24023478 0.069376186 -0.057616428 -0.06708495 -0.09034942 0.063274376 0.13073198
-0.005517047 0.12531349 0.017502747 -0.03251519 -0.009102563 -0.10488352 -0.0749245 0.15541321
-0.012488154 0.07062195 -0.07571328 0.026075434 -0.080738895 0.004818074 -0.11490675 0.044060543
-0.15182209 -0.08884886 -0.0026276163 0.10361927 -0.08440812 0.03803179 0.009026393 0.0003726022
00000000: 27c6 203e a32e 66bd 2089 c0bd dd49 e63b
00000010: f657 7c3d b8c6 023d d1ad c0bc aec5 87bd
00000020: 9f80 bcbd 65ec 3bbe c8aa 053d 6e40 393d
00000030: 179d 19bd b623 99bd a695 5b3d 625b 473d
00000040: 2a35 afbd 564f 9d3d 0168 563e f91c 4d3c
00000050: 8240 e53d 4d83 d8bd 6260 e33d 07f7 fbbd
00000060: 7112 513d fe2d 2abd 7c33 233e a89e dc3c
00000070: 7a4e 0bbd b985 303d f8ea c03b c100 39bd
00000080: 77bc ea3d 1b00 763e 1a15 8e3d 34ff 6bbd
00000090: d663 89bd 1e09 b9bd ff95 813d 9bde 053e
000000a0: 58c8 b4bb 2e52 003e ec61 8f3c a62e 05bd
000000b0: eb22 15bc 2ccd d6bd 0472 99bd a424 1f3e
000000c0: 1d9b 4cbc 3ea2 903d 900f 9bbd 269c d53c
000000d0: 6f5a a5bd efe0 9d3b 3b54 ebbd d478 343d
000000e0: 4077 1bbe 64f6 b5bd 1634 2cbb 5736 d43d
000000f0: 2ade acbd 39c7 1b3d 70e3 133c d259 c339

h_32.weight f4 [128, 128]
0.077604614 0.035371855 -0.08550267 0.068692096 0.057916597 0.06829601 0.057838928 0.08257168
-0.05765746 0.0376789 -0.0106144855 -0.06716163 0.11647548 -0.087291725 0.05968195 0.13440067
0.008091744 0.639876 -0.070028014 0.013572523 0.013695873 0.089502245 0.004774701 -0.0023389424
-0.00890586 -0.013585662 -0.09752234 0.00033978588 0.027700469 -0.053011283 -0.006036975 0.08693743
0.0144759435 0.058500726 0.026246047 0.02287535 -0.006332238 -0.043899823 -0.023364788 -0.057130627
0.10968448 0.12165386 0.10023412 0.048293915 0.051626787 0.11490577 0.00040990737 -0.0936112
-0.011144675 -0.09761833 0.11145019 0.059257448 0.06915394 -0.020488804 -0.027719662 0.08120298
-0.011480719 0.01062282 0.077616096 -0.022425909 0.04180552 -0.06162153 -0.02070868 -0.06588204
-0.01776239 0.0032561242 0.011303957 -0.09311985 -0.06473569 -0.03652558 0.0032537817 -0.0811571
-0.020828912 0.020476619 0.06368064 0.04475063 -0.052927826 -0.015502182 -0.061021533 0.054097127
0.04292675 0.0943787 -0.021995407 -0.0069633764 -0.048964243 -0.073292695 -0.033572715 -0.1432405
0.18885612 -0.025391884 -0.05967615 0.026641803 0.033465575 0.029126216 -0.052925274 0.13910641
-0.019467097 -0.0029505808 0.06034484 -0.07081536 -0.05269007 0.05957211 0.03432916 0.018461004
-0.04539219 0.15557215 0.102444455 0.005448883 0.022393554 -0.063783064 -0.09709248 -0.13504466
-0.029636405 -0.015679777 -0.016931588 0.07414594 0.07726899 -0.06830411 -0.063432254 -0.007864456
-0.17482074 -0.031869445 0.08051487 0.023741279 0.023380883 -0.10718269 0.036414877 0.07162649
-0.022454647 0.122740366 0.0025708715 0.16320916 -0.08696211 0.04598821 -0.11106316 -0.2224544
0.039768238 -0.022900973 -0.11006296 -0.060853958 0.047130417 0.03717857 0.059851635 -0.13844429
0.0042347563 0.093308166 0.06371563 -0.04416839 0.02878504 -0.034684457 -0.06377589 0.03200804
0.11851138 -0.00078252214 -0.12181924 0.028334036 0.0033176218 -0.016482778 0.11672737 -0.013796545
-0.06006879 -0.014229457 -0.17212898 0.024245998 -0.08042883 0.11042055 0.041032985 -0.05289437
-0.04697411 -0.00948066 -0.12765823 0.057560362 0.035896067 -0.03583089 0.008074528 -0.035624173
0.1344163 0.025087608 0.036830615 0.01002808 0.09613916 0.050447136 -0.08012086 -0.028654817
-0.10114157 -0.01921105 -0.003093487 -0.19626912 -0.020238895 0.021555634 0.052227344 -0.04853022
0.034782644 -0.26593283 -0.08911075 -0.3764541 0.09789237 -0.16675138 -0.0416352 -0.031022187
-0.14139177 0.24326143 0.06509218 0.0641947 0.010204268 0.20976475 0.10028517 0.018051779
-0.054105494 0.039503593 -0.009177416 -0.079544865 -0.04034958 0.06725837 -0.08276355 0.020840775
0.15857077 0.0005914869 0.016499441 0.018643247 -0.03836329 0.037610054 -0.34846354 0.058669075
0.20821191 -0.0021378438 -0.1082413 -0.016628532 0.009672691 -0.32666382 0.021381976 0.024614252
0.11700684 0.18553254 0.021013254 0.083324075 -0.07746648 -0.33423024 -0.014929504 -0.20218085
0.16143101 0.021604296 0.14856155 -0.06483232 -0.037164968 -0.16063254 -0.15857057 0.07764567
0.08716351 -0.018523581 0.12397405 0.09161753 -0.041103713 0.047169246 -0.0695608 -0.014740072
00000000: 2bef 9e3d 14e2 103d 061c afbd 71ae 8c3d
00000010: f439 6d3d c7de 8b3d 83e8 6c3d 571b a93d
00000020: 3b2a 6cbd 3155 1a3d 61e8 2dbc 098c 89bd
00000030: b28a ee3d 01c6 b2bd 0f75 743d 54a0 093e
00000040: 3c93 043c eace 233f d96a 8fbd 4a5f 5e3c
00000050: a864 603c f44c b73d 1875 9c3b f148 19bb
00000060: e2e9 11bc 6596 5ebc cbb9 c7bd 4a25 b239
00000070: 18ec e23c 5c22 59bd d1d1 c5bb 400c b23d
00000080: 822c 6d3c 759e 6f3d f301 d73c 1665 bb3c
00000090: aa7e cfbb 4dd0 33bd 8367 bfbc ce01 6abd
000000a0: 42a2 e03d a925 f93d 8c47 cd3d d7cf 453d
000000b0: 9c76 533d b753 eb3d d6e8 d639 3bb7 bfbd
000000c0: 2898 36bc 1eec c7bd ff3f e43d f0b7 723d
000000d0: 95a0 8d3d 23d8 a7bc 5814 e3bc bf4d a63d
000000e0: a019 3cbc 560b 2e3c 30f5 9e3d 8ab6 b7bc
000000f0: 443c 2b3d dc66 7cbd 40a5 a9bc 2aed 86bd
00000100: 6f82 91bc b364 553b 3b34 393c 9fb5 bebd
00000110: 2594 84bd d99b 15bd 663d 553b b235 a6bd
00000120: 65a1 aabc 95be a73c ff6a 823d 704c 373d
00000130: d9ca 58bd ddfc 7dbc b7f1 79bd f394 5d3d
00000140: f6d3 2f3d 9f49 c13d b62f b4bc 092d e4bb
00000150: bb8e 48bd 7b1a 96bd 8b83 09bd a3ad 12be
00000160: 8063 413e a402 d0bc fb6e 74bd e93f da3c
00000170: 3313 093d 1a9a ee3c 2cc8 58bd e971 0e3e
00000180: 7679 9fbc 885e 41bb 272c 773d a507 91bd
00000190: 8bd1 57bd e301 743d bc9c 0c3d 883b 973c
000001a0: 29ed 39bd 4e4e 1f3e 66ce d13d 8b8c b23b
000001b0: b072 b73c b2a0 82bd 6cd8 c6bd 2649 0abe
000001c0: 0cc8 f2bc e072 80bc 1db4 8abc d4d9 973d
000001d0: 343f 9e3d 06e3 8bbd c5e8 81bd ebd9 00bc
000001e0: 3504 33be 8989 02bd fbe4 a43d 127d c23c
000001f0: 4489 bf3c 9982 dbbd c427 153d e9b0 923d
00000200: cff2 b7bc 4d5f fb3d 117c 283b 4d20 273e
00000210: 3119 b2bd 225e 3c3d 1575 e3bd 16cb 63be
00000220: 05e4 223d d29a bbbc b068 e1bd 0042 79bd
00000230: d30b 413d 8e48 183d fd26 753d 57c4 0dbe
00000240: b6c3 8a3b 5a18 bf3d 577d 823d eae9 34bd
00000250: 9bce eb3c 4a11 0ebd ef9c 82bd dd1a 033d
00000260: 18b6 f23d 2c22 4dba 5e7c f9bd c81c e83c
00000270: 756c 593b e406 87bc c20e ef3d e70a 62bc
00000280: b10a 76bd ab22 69bc 9442 30be 8b9f c63c
00000290: dfb7 a4bd 2b24 e23d 3412 283d c4a7 58bd
000002a0: ed67 40bd c554 1bbc d7b8 02be 6ac4 6b3d
000002b0: c107 133d 69c3 12bd 064b 043c a7ea 11bd
000002c0: 6da4 093e 8784 cd3c b3db 163d d14c 243c
000002d0: 9ce4 c43d a8a1 4e3d 6816 a4bd 82bd eabc
000002e0: 5023 cfbd 7e60 9dbc 19bc 4abb c6fa 48be
000002f0: 0acc a5bc 7195 b03c 57ec 553d a0c7 46bd
00000300: 3f78 0e3d 5928 88be b27f b6bd 97be c0be
00000310: cb7b c83d e0c0 2abe ac89 2abd 3e22 febc
00000320: 01c9 10be 8619 793e 0d4f 853d 8378 833d
00000330: cd2f 273c 92cc 563e 5062 cd3d 53e1 933c
00000340: b99d 5dbd 85ce 213d df5c 16bc 6be8 a2bd
00000350: 9a45 25bd c2be 893d f07f a9bd 46ba aa3c
00000360: 6060 223e 040e 1b3a d629 873c b9b9 983c
00000370: d322 1dbd 000d 1a3d d069 b2be fc4e 703d
00000380: 8135 553e 111b 0cbb 9dad ddbd 8f38 88bc
00000390: 357a 1e3c 7b40 a7be 4129 af3c d4a3 c93c
000003a0: 48a1 ef3d 3efc 3d3e fd23 ac3c d0a5 aa3d
000003b0: bfa6 9ebd 3a20 abbe e19a 74bc 7f08 4fbe
000003c0: 2c4e 253e 7efb b03c 8520 183e cfc6 84bd
000003d0: 4b3a 18bd db7c 24be 5360 22be b104 9f3d
000003e0: c882 b23d c4be 97bc 1be6 fd3d f9a1 bb3d
000003f0: 5e5c 28bd 8a34 413d e575 8ebd 5880 71bc

h_32.bias f4 [128]
-0.009733018 0.03329889 0.022677748 0.056028556 0.0015218566 -0.039315466 0.03479868 0.05212819
-0.028030723 0.0059279357 -0.08014121 0.03472225 0.0648107 -0.036930643 -0.014166005 -0.009034693
0.045847103 0.0654609 -0.025892884 -0.006503584 0.009829615 0.11106887 0.037449878 0.18581462
0.040029272 0.014647592 0.05957868 0.06321666 -0.0863762 0.043398403 0.051328413 -0.012706988
-0.004959565 0.02450799 0.054433074 0.022683486 0.05102393 -0.050670855 0.025483819 0.08325106
-0.034175538 -0.03740818 0.030063476 0.0109544005 -0.015899666 -0.026179923 0.032134477 0.03669226
0.050854567 0.13936369 0.0015675218 0.049633548 -0.096109405 -0.07453707 -0.04592012 0.03105699
-0.04267632 0.04146351 0.17895806 0.07445225 -0.032227606 0.031223392 0.04810183 0.02857542
0.058355775 0.11538454 0.040872626 0.081440516 -0.06396997 -0.09473719 0.035558667 0.02192872
0.043283917 0.04128482 -0.08984925 -0.08880907 -0.032574166 0.04314438 -0.09927521 0.09885539
0.08519452 -0.0067063 -0.11914938 0.09117893 0.11539305 0.043561332 0.064764224 0.10929198
0.045212224 -0.18128882 0.11041855 0.104401 -0.047518473 0.07931113 0.062879585 -0.026692834
-0.006153948 -0.08642716 0.025105216 0.029497415 -0.05515872 0.10803913 0.13466361 -0.067444794
0.011031904 -0.018664671 -0.07738554 0.119508795 0.13102156 -0.010223435 -0.030208273 0.039827574
-0.051512666 0.057649776 0.04266291 0.030209469 -0.03925873 0.01971117 -0.23501858 0.043649513
0.02450223 -0.017700486 -0.12715097 0.04673605 0.11405132 -0.05466116 0.005959312 0.024719097
00000000: 3d77 1fbc 6b64 083d afc6 b93c 337e 653d
00000010: 0979 c73a 4109 21bd 1089 0e3d 5e84 553d
00000020: b0a0 e5bc 213f c23b 1321 a4bd eb38 0e3d
00000030: 79bb 843d 9644 17bd 8818 68bc 4006 14bc
00000040: 2cca 3b3d 5d10 863d 501d d4bc 041c d5bb
00000050: 650c 213c 1378 e33d 0b65 193d 3046 3e3e
00000060: bcf5 233d 74fc 6f3c c608 743d bc77 813d
00000070: 01e6 b0bd 86c2 313d be3d 523d f830 50bc
00000080: d983 a2bb fbc4 c83c 37f5 5e3d b8d2 b93c
00000090: 78fe 503d 3e8c 4fbd 71c3 d03c 887f aa3d
000000a0: a6fb 0bbd 5239 19bd ae47 f63c 167a 333c
000000b0: 0440 82bc 4777 d6bc 719f 033d a04a 163d
000000c0: e14c 503d 5bb5 0e3e 4e75 cd3a 8c4c 4b3d
000000d0: 02d5 c4bd e4a6 98bd bc16 3cbd 3b6b fe3c
000000e0: 5dcd 2ebd a4d5 293d c840 373e 6c7a 983d
000000f0: 1801 04bd 33c8 ff3c 6d06 453d 0017 ea3c
00000100: 7706 6f3d bb4e ec3d 0e6a 273d 49ca a63d
00000110: b002 83bd 9205 c2bd f7a5 113d dca3 b33c
00000120: 7a4a 313d 451a 293d e202 b8bd 88e1 b5bd
00000130: 7d6c 05bd 29b8 303d cd50 cbbd b274 ca3d
00000140: 777a ae3d 86c0 dbbb 9704 f4bd 05bc ba3d
00000150: 3153 ec3d 5e6d 323d 1ba3 843d 79d4 df3d
00000160: 7430 393d c7a3 39be 1f23 e23d 31d0 d53d
00000170: bba2 42bd e06d a23d 03c7 803d eeaa dabc
00000180: 0fa7 c9bb b900 b1bd 74a9 cd3c 90a4 f13c
00000190: 1cee 61bd 9f43 dd3d 42e5 093e 7f20 8abd
000001a0: 29bf 343c a7e6 98bc 4f7c 9ebd 07c1 f43d
000001b0: 842a 063e 3280 27bc 5777 f7bc 3d22 233d
000001c0: f2fe 52bd 2c22 6c3d 4ebf 2e3d d979 f73c
000001d0: c3cd 20bd 5279 a13c b6a8 70be d5c9 323d
000001e0: e7b8 c83c 9c00 91bc dd33 02be 4d6e 3f3d
000001f0: bd93 e93d 61e4 5fbd 5546 c33b b47f ca3c

output.weight f4 [12, 128]
-0.015733752 0.16903774 -0.06598521 -0.034980703 -0.04846693 0.045998234 1.833227e-05 0.09453928
0.11367919 -0.06393788 0.032793675 0.022305045 0.071980454 -0.08271088 -0.099078745 -0.028087366
0.05326538 0.07649308 0.072829396 0.12986411 -0.073123574 -0.0152393 0.5714805 -0.22232382
-0.35138005 0.029239835 0.09413214 0.10046993 -0.04351915 0.004487677 0.13084279 0.07398505
-0.13087173 0.106793426 -0.044482887 0.05948001 -0.13610132 0.0013141863 -0.070338674 0.06313026
-0.12882236 -0.038177937 -0.035712324 -0.052625466 0.14353353 0.4658031 0.049136233 -0.033761002
0.05544578 0.10644025 -0.033113953 -0.09929351 0.05137906 0.06642191 0.07690767 -0.14106533
-0.03154009 0.050450623 -0.072140306 0.4241867 0.124151036 -0.09183444 -0.027909905 -0.17554659
0.099725746 0.017032005 0.02526075 -0.029459318 -0.08991008 -0.05204185 -0.015817834 0.04995505
-0.103208974 0.037528213 0.17769986 -0.044927575 -0.11510543 0.18718907 0.023714932 0.032115784
-0.59494615 -0.09412659 -0.13792756 -0.14119935 -0.033710778 -0.05151055 -0.032011464 -0.043871645
-0.4970884 -0.33959612 -0.0644559 0.12708129 -0.05443564 -0.07127724 -0.053501155 0.11049546
-0.023095658 0.03697289 0.027038706 0.24334773 -0.07509743 0.12781885 0.08088097 -0.38472387
-0.08223034 -0.020298526 -0.006334957 -0.022314964 0.33730394 0.10625272 0.0040928056 -0.075944856
-0.0529082 -0.013671055 0.07824086 0.065237455 0.15330799 -0.0013309952 0.44547755 -0.07583923
0.009134812 -0.38616833 0.054825988 0.0032232408 -0.0115734665 0.0052841147 0.13165383 -0.018165292
0.020865386 -0.25248823 -0.07811274 -0.08312095 -0.08297466 -0.026607776 -0.041655347 -0.014321094
0.19956838 0.073458195 0.06439593 0.038227905 0.13293695 0.16422078 0.046171732 0.06896866
-0.14263414 0.02481072 0.064694695 -0.13761143 -0.080666654 -0.021695808 -0.29631785 0.33302492
-0.19299874 0.1695603 -0.015635565 0.056517556 -0.04177336 0.06207094 -0.15504289 0.05497162
-0.18937425 -0.021390038 -0.07913902 -0.104139715 0.12756789 0.04042355 -0.07643945 -0.06671976
0.104799554 0.14338213 -0.07594467 -0.12319653 0.00023105544 -0.046382893 0.031897277 -0.012814533
0.04738706 -0.09786657 -0.08996532 -0.017210426 0.06647398 0.050039265 -0.008277485 -0.020136474
-0.055201054 -0.043357626 -0.09580917 -0.20588051 -0.06308643 -0.047644097 0.0025710983 0.10761564
0.0069758524 -0.09823439 0.0376023 -0.052349176 0.14824662 -0.0026445931 0.26354802 -0.0071183816
0.12740427 0.042904217 0.115594 0.028896822 -0.0084650405 0.11118926 0.11549941 -0.13438699
0.6042434 0.27435657 -0.28420046 -0.44822988 -0.053439423 0.0413142 -0.024766017 -0.030335467
0.23826315 0.82052 -0.0696936 -0.022393238 -0.08593854 0.0053513916 -0.03692264 0.12766932
0.06145896 0.022675812 0.00038490593 0.061464194 -0.02731418 0.082022786 -0.08022052 -0.21603394
-0.077578865 0.058542002 -0.027860247 -0.080952354 -0.3893014 0.12011053 0.15722248 -0.051867824
0.111523636 0.0017074439 0.027703537 0.06320524 -0.11294283 -0.0713512 -0.27076146 0.016324226
0.06323827 0.5593875 -0.3407065 0.04746666 0.067111425 -0.07020581 0.1340246 0.2768239
00000000: 12e4 80bc 3b18 2d3e 4123 87bd ed47 0fbd
00000010: 4285 46bd a568 3c3d 40c8 9937 cf9d c13d
00000020: a3d0 e83d ddf1 82bd a952 063d 12b9 b63c
00000030: 7d6a 933d 5264 a9bd cce9 cabd 7a17 e6bc
00000040: cd2c 5a3d 67a8 9c3d 9427 953d 19fb 043e
00000050: d0c1 95bd 42ae 79bc 8c4c 123f dba8 63be
00000060: 16e8 b3be 6188 ef3c 5ac8 c03d 2ec3 cd3d
00000070: 2341 32bd 5d0d 933b a7fb 053e 7985 973d
00000080: 3d03 06be 83b6 da3d b033 36bd 50a1 733d
00000090: 255e 0bbe c640 ac3a b90d 90bd 704a 813d
000000a0: 02ea 03be 7860 1cbd 1647 12bd cd8d 57bd
000000b0: 74fa 123e be7d ee3e 1343 493d fa48 0abd
000000c0: 1d1b 633d 59fd d93d 7fa2 07bd 655a cbbd
000000d0: d972 523d 3608 883d c581 9d3d 6e73 10be
000000e0: 2e30 01bd 50a5 4e3d 4cbe 93bd 002f d93e
000000f0: e642 fe3d b213 bcbd 50a3 e4bc 7cc2 33be
00000100: 033d cc3d b486 8b3c a2ef ce3c ab54 f1bc
00000110: c722 b8bd d629 55bd 6794 81bc ab9d 4c3d
00000120: 3a5f d3bd 2fb7 193d f4f6 353e fa05 38bd
00000130: 65bc ebbd 7eae 3f3e d145 c23c d78b 033d
00000140: 644e 18bf 71c5 c0bd e23c 0dbe 9096 10be
00000150: 5014 0abd bafc 52bd 741e 03bd c1b2 33bd
00000160: 5f82 febe 8bdf adbe 7401 84bd 9921 023e
00000170: e8f7 5ebd cdf9 91bd 0724 5bbd 724b e23d
00000180: 1b33 bdbc e370 173d 4780 dd3c 2630 793e
00000190: aecc 99bd f2e2 023e eca4 a53d 87fa c4be
000001a0: 6168 a8bd 1849 a6bc 7995 cfbb dfcd b6bc
000001b0: 1ab3 ac3e 079b d93d f11c 863b fa88 9bbd
000001c0: 45b6 58bd 90fc 5fbc be3c a03d 379b 853d
000001d0: c5fc 1c3e ca74 aeba a215 e43e 9951 9bbd
000001e0: 2eaa 153c dbb7 c5be 3791 603d 023d 533b
000001f0: a39e 3dbc 5e26 ad3b 43d0 063e 61cf 94bc
00000200: e3ed aa3c 2346 81be 92f9 9fbd 513b aabd
00000210: 9eee a9bd 8df8 d9bc cc9e 2abd 06a3 6abc
00000220: a75b 4c3e 4071 963d 03e2 833d dd94 1c3d
00000230: a020 083e 7e29 283e 921e 3d3d 713f 8d3d
00000240: af0e 12be da3f cb3c a77e 843d 03ea 0cbe
00000250: 8f34 a5bd 68bb b1bc f9b6 97be 3e82 aa3e
00000260: 76a1 45be 37a1 2d3e 2816 80bc f47e 673d
00000270: 8b1a 2bbd 193e 7e3d 90c3 1ebe ec29 613d
00000280: 53eb 41be 293a afbc a313 a2bd 3447 d5bd
00000290: 28a1 023e 2a93 253d 498c 9cbd 5fa4 88bd
000002a0: 26a1 d63d c4d2 123e e188 9bbd 764e fcbd
000002b0: 7947 7239 fdfb 3dbd b8a6 023d 0cf4 51bc
000002c0: ef18 423d 456e c8bd bd3f b8bd e1fc 8cbc
000002d0: 8323 883d f9f5 4c3d 4a9e 07bc 3ff5 a4bc
000002e0: 801a 62bd c497 31bd 9937 c4bd 57d2 52be
000002f0: 7533 81bd 7526 43bd df7f 283b 9765 dc3d
00000300: b195 e43b 1d2f c9bd df04 1a3d 176c 56bd
00000310: f6cd 173e e950 2dbb c4ef 863e 5041 e9bb
00000320: 4476 023e 55bc 2f3d 8cbc ec3d 07b9 ec3c
00000330: f4b0 0abc 32b7 e33d f48a ec3d be9c 09be
00000340: b2af 1a3f 7778 8c3e b982 91be 637e e5be
00000350: 4ce3 5abd 1439 293d 1ae2 cabc 1682 f8bc
00000360: 41fb 733e 990d 523f 85bb 8ebd 0672 b7bc
00000370: 8c00 b0bd ba5a af3b 323c 17bd bfbb 023e
00000380: 64bc 7b3d a0c2 b93c 33cd c939 e1c1 7b3d
00000390: fdc1 dfbc 90fb a73d a84a a4bd 0038 5dbe
000003a0: abe1 9ebd bdc9 6f3d 2c3b e4bc 59ca a5bd
000003b0: 8352 c7be 82fc f53d eefe 203e 5b73 54bd
000003c0: 8166 e43d 4fcc df3a 87f2 e23c c071 813d
000003d0: 924e e7bd 9420 92bd 3fa1 8abe 62ba 853c
000003e0: 1183 813d 0534 0f3f 1571 aebe 676c 423d
000003f0: b771 893d 10c8 8fbd bf3d 093e ddbb 8d3e

output.bias f4 [12]
-0.021332437 -0.17358516 0.00079358974 -0.008348074 -0.025219545 -0.016019331 0.090621725 0.092717715
0.07165812 -0.04170108 0.10964134 0.11465172
00000000: 5dc1 aebc 4fc0 31be e808 503a 5cc6 08bc
00000010: 3899 cebc f93a 83bc e297 b93d c9e2 bd3d
00000020: 7ec1 923d c0ce 2abd a48b e03d 85ce ea3d
