GANs/saved_models/python/RecreatingBestModelNew.pth (torch, 460530 bytes, 58 tensors)

h_11.weight f4 [64, 6]
0	0x3d91f7c7	0.07127338
1	0xbdb23e49	-0.08703286
2	0xbb9803e0	-0.004639134
3	0x3da6a980	0.08137798
4	0xbdc5af06	-0.09652524
5	0xbe15fd20	-0.14647341
6	0x3d39e5c2	0.04538513
7	0xbd05bf5f	-0.03265321
8	0x3e0328e3	0.12808566
9	0xbb77fd69	-0.0037840253
10	0x3e0b6540	0.13612843
11	0xbd83f9e6	-0.06444149
12	0xbe9b00df	-0.30274102
13	0x3e9a0858	0.3008449
14	0x3e38029f	0.1796975
15	0xbd9a3e0c	-0.07531366
16	0x3f3afaf6	0.73039186
17	0xbec52702	-0.38506323
18	0x3cca0b67	0.02466364
19	0x3e8d4879	0.27594355
20	0x3ee2107b	0.441532
21	0x3ed0f8ab	0.4081472
22	0x3e804fb0	0.25060797
23	0xbeb43987	-0.3520014
24	0x3e3e7b9d	0.18601842
25	0xbddc4186	-0.10754685
26	0x3dde0457	0.108406715
27	0x3eac4083	0.3364297
28	0x3e947804	0.28997815
29	0x3e882cc3	0.2659665
30	0xbe845a4d	-0.25850144
31	0x3ee56c6b	0.4480928
32	0xbe998965	-0.29987636
33	0x3ec797b8	0.3898294
34	0xbce6550a	-0.028116722
35	0x3e17ab28	0.14811385
36	0x3e0cad8a	0.13738075
37	0x3dfcb8b3	0.12339916
38	0x3f03bae8	0.5145707
39	0x3f1238d3	0.57117957
40	0x3f02f514	0.5115521
41	0xbc1844d6	-0.0092937555
42	0xbe77f079	-0.24212827
43	0xbd3e712b	-0.046494644
44	0xbe90dfba	-0.2829569
45	0x3e92c2b1	0.28664163
46	0xbe3a253d	-0.18178268
47	0x3e04bc10	0.12962365
48	0xbeebd15f	-0.46058175
49	0x3dfd12d8	0.1235711
50	0x3ea6bbad	0.3256506
51	0x3d4bc5bc	0.04974912
52	0x3f0268ba	0.5094105
53	0xbe8682e0	-0.26271725
54	0x3e372d1d	0.17888303
55	0x3eef314f	0.46717307
56	0xbe74e0c1	-0.23913862
57	0xbd46ee7b	-0.048567276
58	0x3cb2ad4e	0.021811154
59	0xbcee4343	-0.029084807
60	0xbe34472a	-0.17605272
61	0x3ed55069	0.4166291
62	0xbefc965a	-0.4933346
63	0x3e2851d1	0.1643746
64	0x3e244179	0.16040601
65	0xbc44c562	-0.01200995
66	0xbf01d509	-0.5071569
67	0xbe6a8721	-0.2290311
68	0xbe85aab5	-0.26106802
69	0xbd937ba4	-0.07201317
70	0xbe9f5bd8	-0.3112476
71	0xbe7d12df	-0.2471423
72	0x3d5fe418	0.054660887
73	0x3d371a6d	0.044702936
74	0x3dfff51e	0.12497924
75	0x3d2dde68	0.04244843
76	0x3d5ae0e2	0.05343712
77	0xbc41ab9e	-0.011820702
78	0x3e37aaa1	0.17936184
79	0xbe9b74b8	-0.30362487
80	0x3edbb460	0.42911053
81	0x3d40a38f	0.04703098
82	0xbf0367e0	-0.51330376
83	0xbe9e2d78	-0.30894065
84	0x3d27edc5	0.04099824
85	0x3d94029f	0.072270624
86	0x3f0de48a	0.5542685
87	0x3f107904	0.56434655
88	0x3e87c9d9	0.26521185
89	0x3e77ee15	0.24211915
90	0xbdb0dada	-0.086354926
91	0xbbe1c66b	-0.0068901083
92	0x3ec8d947	0.3922827
93	0x3e619ae2	0.2203174
94	0xbe338e84	-0.17534834
95	0x3c933a3e	0.017972108
96	0x3f2e4881	0.6807938
97	0xbe95456a	-0.2915452
98	0xbdce538b	-0.10074528
99	0x3e42e01e	0.19030806
100	0xbd9af4d5	-0.07566229
101	0x3eb8a869	0.36065987
102	0xbeb262c9	-0.34840992
103	0x3e945db9	0.28977755
104	0xbddf7f92	-0.10913004
105	0xbef60661	-0.48051742
106	0xbe48862f	-0.19582437
107	0xbeb25dff	-0.34837338
108	0x3e59af47	0.21258269
109	0x3ea2f716	0.31829137
110	0xbe41e922	-0.1893659
111	0x3efdebfd	0.49594107
112	0x3edca51a	0.43094712
113	0x3cbef83b	0.023311725
114	0x3e75cf4d	0.2400486
115	0xbd6aa7d3	-0.057288956
116	0xbf0bdb09	-0.54631096
117	0xbeb45930	-0.35224295
118	0xbf432a28	-0.762362
119	0xbe136fd3	-0.14398126
120	0xbe62fbce	-0.22166368
121	0x3f2ac942	0.66713345
122	0xbec14e07	-0.37754843
123	0xbf090249	-0.5351911
124	0x3e856f90	0.26061678
125	0xbe8638f7	-0.26215336
126	0x3d61817f	0.055055138
127	0x3ec5a50b	0.3860248
128	0x3d42c1a6	0.04754796
129	0xbebebeac	-0.37254846
130	0xbde01f26	-0.10943441
131	0xbea6fe50	-0.326159
132	0x3e086857	0.13321052
133	0x3e025a50	0.12729764
134	0x3db370f9	0.08761782
135	0xbe579f00	-0.21056747
136	0xbddedad9	-0.10881586
137	0x3ddfb41b	0.10923024
138	0xbec32500	-0.38114166
139	0xbd9c8a27	-0.07643538
140	0x3f3e7bf9	0.7440792
141	0x3d17166a	0.03688661
142	0xbe9d484f	-0.3071923
143	0xbd01788b	-0.0316091
144	0x3f532e8c	0.824929
145	0x3d636e30	0.055525005
146	0xbf16e33f	-0.589405
147	0x3dd6f0a8	0.1049512
148	0xbea001ab	-0.31251273
149	0x3e182342	0.148572
150	0xbe856004	-0.26049817
151	0xbe81f66c	-0.25383317
152	0xbe04b45e	-0.1295943
153	0xbed162ba	-0.40895635
154	0xbf40275c	-0.7506006
155	0x3d6c8fdc	0.057754382
156	0xbdef084f	-0.116715066
157	0xbf02bab9	-0.51066166
158	0x3e6a911e	0.2290692
159	0x3e4dbc0a	0.20091262
160	0xbe0af99b	-0.1357178
161	0x3ea192ba	0.31557256
162	0x3c58f3fb	0.013241763
163	0x3e0ac722	0.13552526
164	0xbe241019	-0.16021766
165	0xbdbede8c	-0.09319791
166	0x3de09b59	0.1096713
167	0xbcc65778	-0.02421163
168	0xbe2dee6e	-0.16985485
169	0x3e3b7b50	0.18308759
170	0xbf05a929	-0.5221124
171	0xbe68ec06	-0.22746286
172	0x3ec75e3f	0.38939092
173	0xbe9b2987	-0.3030512
174	0x3e5a2bb7	0.21305738
175	0x3e732e5c	0.23748153
176	0x3eac330a	0.3363269
177	0xbd99e2fb	-0.07513996
178	0xbf12fc63	-0.5741636
179	0x3e9a825c	0.3017758
180	0x3f3270b8	0.69703245
181	0x3d310130	0.043214023
182	0xbef83060	-0.48474407
183	0x3c45565e	0.012044517
184	0xbe973fee	-0.29540962
185	0x3df239c8	0.11827427
186	0xbd3e7635	-0.04649945
187	0xbd3611fa	-0.044450738
188	0xbe3a7743	-0.18209557
189	0xbea7e2e4	-0.3279029
190	0xbe0c8ef4	-0.13726407
191	0xbca080f3	-0.019592738
192	0x3d715d61	0.058926944
193	0x3c31df32	0.010856437
194	0xbcca6d91	-0.024710448
195	0x3de90eb8	0.113797605
196	0xbe59d13d	-0.21271224
197	0x3ba7f230	0.0051253065
198	0xbe727a17	-0.23679386
199	0x3c5212c8	0.012821861
200	0xbf033650	-0.5125475
201	0xbd42d46a	-0.047565855
202	0x3eca445e	0.39505285
203	0xbe958f87	-0.29211065
204	0x3e573f02	0.2102013
205	0x3de375a4	0.111064225
206	0xbea5d83b	-0.32391533
207	0xbe68ddd7	-0.22740875
208	0xbeedffb8	-0.4648416
209	0xbdaeaa20	-0.085285425
210	0xbdb62adf	-0.08894896
211	0x3cb7020c	0.022339843
212	0xbd3cd0a0	-0.046097398
213	0xbe9dc631	-0.3081527
214	0x3e4b61d6	0.1986154
215	0xbe0ac070	-0.13549972
216	0xbe1f66cc	-0.15566558
217	0xbcc5d0b3	-0.024147367
218	0x3dd804fc	0.10547826
219	0x3f25169f	0.6448764
220	0x3e522a90	0.20524049
221	0xbd980476	-0.07422726
222	0x3d9cc60a	0.076549605
223	0x3e73be03	0.23802952
224	0xbcd9d10a	-0.026588935
225	0x3f02eda4	0.5114386
226	0xbf081a09	-0.53164726
227	0x3eba9bd0	0.36447
228	0xbe68df87	-0.22741519
229	0x3ea90377	0.33010456
230	0xbf2bcc36	-0.67108476
231	0xbec044d9	-0.37552527
232	0xbe65efd4	-0.22454768
233	0xbe832105	-0.2561113
234	0xbe07b3b4	-0.13252145
235	0xbdca7481	-0.098855026
236	0xbdb7698e	-0.0895568
237	0x3da5fa77	0.08104413
238	0x3d4f8d8d	0.050672103
239	0xbba7d482	-0.0051217685
240	0x3d098beb	0.0335807
241	0x3e2bbd56	0.16771445
242	0x3e0d5d1c	0.1380505
243	0x3e1d9bdd	0.15391488
244	0xbd8195ba	-0.06327386
245	0x3e838f3d	0.2569522
246	0x3e4d0289	0.20020498
247	0xbf28b832	-0.6590606
248	0xbe96ed07	-0.29477713
249	0x3ebc5619	0.36784437
250	0xbe2e3c6a	-0.17015234
251	0x3e08b605	0.13350685
252	0xbe949e28	-0.29026914
253	0xbe95d698	-0.29265285
254	0xbe3c9798	-0.18417203
255	0x3dae0d94	0.084986836

h_11.bias f4 [64]
0	0x3f2a1473	0.66437453
1	0x3f393cee	0.72358596
2	0xbf3886d3	-0.72080725
3	0x3e868ebd	0.26280776
4	0x3f258e41	0.6467019
5	0xbe8786ae	-0.2646994
6	0xbe7991aa	-0.24371973
7	0x3e984b73	0.29745063
8	0x3e7670bd	0.24066444
9	0x3d667ef4	0.056273416
10	0x3e91747a	0.28409177
11	0xbecbda6d	-0.39815083
12	0x3f38b5ad	0.72152215
13	0xbfe28f06	-1.7699897
14	0xbd0a8aa8	-0.03382364
15	0x3dfa9581	0.12235547
16	0x3e87e028	0.26538205
17	0xbc3eabe1	-0.011637659
18	0x3d1bfd8f	0.03808361
19	0xbe29cced	-0.16582079
20	0xbec7f434	-0.390535
21	0x3de22b6b	0.110434376
22	0x3f4ca9ac	0.799464
23	0xbe843845	-0.2582418
24	0xbef251c0	-0.47327995
25	0x3e86fa16	0.26362675
26	0x3e647977	0.2231196
27	0x3f3a1937	0.72694725
28	0x3dd343f8	0.103156984
29	0x3e6233f0	0.22090125
30	0xbea685f4	-0.32524073
31	0x3f445b96	0.7670225
32	0x3f53b109	0.8269201
33	0x3f1e582f	0.6185331
34	0x3e90fbb0	0.28317022
35	0x3efa122a	0.48841983
36	0xbeff41c2	-0.49854857
37	0xbf0a5766	-0.5403961
38	0xbed6322a	-0.41835147
39	0x3f4f5fdd	0.8100565
40	0x3ef55cee	0.47922462
41	0xbecd44cc	-0.4009155
42	0x3cbc0eaa	0.022956211
43	0x3ec2131c	0.37905204
44	0x3f122bb3	0.5709793
45	0x3f3e9dce	0.7445954
46	0xb87c10e4	-6.0097213e-05
47	0x3f42ae27	0.76046985
48	0xbf2b13cb	-0.66827077
49	0x3de515f1	0.111858256
50	0xbdd2b2bf	-0.10287999
51	0xbef8aa1b	-0.4856728
52	0x3f044e47	0.5168194
53	0x3efa7bc0	0.4892254
54	0x3e731d17	0.23741566
55	0x3f57e3b2	0.8433181
56	0x3d90d2d1	0.0707146
57	0x3e52ffc2	0.20605376
58	0x3ea097e2	0.31365877
59	0xbf53763a	-0.82602274
60	0xbe376351	-0.1790898
61	0x3dcfdcc5	0.1014953
62	0x3e5f54c0	0.21809673
63	0x3f15e512	0.5855266

h_12.weight f4 [64, 6]
0	0xbf11b7a0	-0.56920815
1	0xbf0e1d46	-0.5551342
2	0x3e496fe6	0.19671592
3	0xbe3666e7	-0.17812692
4	0xbe99a3c3	-0.30007753
5	0x3f29094e	0.6602982
6	0xbd0ccb88	-0.03437379
7	0x3f171784	0.59020257
8	0xbe5c7e94	-0.2153266
9	0x3ecd0335	0.4004151
10	0x3eaa3088	0.3324015
11	0x3f0b7e44	0.5448954
12	0xbf1cb6e2	-0.6121656
13	0x3e921a71	0.28535798
14	0xbf4965ea	-0.78671134
15	0x3e2a17b9	0.16610612
16	0xbf10c6a7	-0.5655312
17	0xbec878ae	-0.3915457
18	0xbf2c9c43	-0.67425936
19	0x3f0678bb	0.5252797
20	0x3f3c2969	0.73500687
21	0x3d8e8f27	0.06960898
22	0x3e9d1a00	0.306839
23	0xbe8d47ab	-0.2759374
24	0xbd1f766f	-0.038931306
25	0xbe433c09	-0.1906587
26	0x3e98e86a	0.29864818
27	0xbe9da573	-0.3079029
28	0xbe3f1b67	-0.18662797
29	0xbe0c776b	-0.1371743
30	0xbe100a45	-0.14066418
31	0x3d047be0	0.0323447
32	0xbe41b56f	-0.18916868
33	0x3c3a44e0	0.01136896
34	0x3eacb5d9	0.3373249
35	0x3e91fe96	0.28514546
36	0xbeb3c82d	-0.3511366
37	0x3ddfc4ac	0.10926184
38	0xbea896c4	-0.32927525
39	0x3d04d071	0.032425348
40	0xbe470668	-0.19436038
41	0xbed76f97	-0.42077324
42	0xbe8ff0ab	-0.28113303
43	0x3d3c70d3	0.046006035
44	0x3d1e1b90	0.038600504
45	0xbeec43b1	-0.46145394
46	0xbeb6319e	-0.3558473
47	0x3f494795	0.7862485
48	0xbcd61883	-0.026134735
49	0xbd7998e5	-0.060936827
50	0x3eac23a8	0.33620954
51	0x3e40af83	0.18816952
52	0x3f2c62fc	0.6733854
53	0x3d9fa48b	0.07795056
54	0x3e76bd4d	0.2409565
55	0xbcc2ef5b	-0.023795774
56	0xbc6171a8	-0.013760008
57	0xbdb0ed0f	-0.08638965
58	0xbeb1cee2	-0.34728152
59	0xbd8a0ae4	-0.067403585
60	0x3f2145be	0.62997043
61	0x3e52a928	0.2057234
62	0xbdeabae5	-0.114614286
63	0x3f0c1af9	0.54728657
64	0xbea119a1	-0.31464866
65	0x3f5bdcd4	0.8588383
66	0xbc8f622b	-0.017502865
67	0xbf3de469	-0.7417665
68	0xbe60f2e6	-0.21967658
69	0xbed8f5fc	-0.4237517
70	0xbcaf0792	-0.021365914
71	0xbd866065	-0.065613545
72	0xbec960a8	-0.39331555
73	0xbeb50495	-0.35355058
74	0x3ebda942	0.37043196
75	0x3ed0566c	0.40690935
76	0xbcbe5751	-0.023234995
77	0xbe822514	-0.25418913
78	0xbf321711	-0.69566447
79	0x3d00cab7	0.031443324
80	0x3e2588d5	0.16165479
81	0x3e55a7a0	0.20864725
82	0xbe9b1626	-0.30290335
83	0x3e9f4fe7	0.31115648
84	0x3ebf5d32	0.3737579
85	0x3f08fba1	0.53508955
86	0xbdb29edb	-0.087217055
87	0x3d901314	0.07034889
88	0x3edd09be	0.43171495
89	0x3dec578e	0.11540137
90	0xbee32de2	-0.44370943
91	0xbec44da4	-0.38340485
92	0x3e1e9cf4	0.1548956
93	0xbec75974	-0.38935435
94	0xbe69b85c	-0.22824234
95	0x3e01b031	0.12664868
96	0xbc97d716	-0.018535178
97	0x3e1dd640	0.15413761
98	0xbf104e37	-0.56369346
99	0x3d9531aa	0.07284863
100	0x3f174e3a	0.5910374
101	0x3cb46c21	0.022024216
102	0xbd54d035	-0.051956374
103	0xbe098676	-0.13430199
104	0xbee4a47e	-0.44656748
105	0x3f06253c	0.52400565
106	0xbe78332d	-0.24238272
107	0xbec18f48	-0.37804627
108	0x3e8ec52b	0.27884802
109	0x3e9b213e	0.302988
110	0xbe3dd05e	-0.18536517
111	0xbe9fd082	-0.31213766
112	0x3c491160	0.012272209
113	0xbe9a7420	-0.3016672
114	0x3f2a87f2	0.66613686
115	0x3e05f3a3	0.13081221
116	0xbecbaaa9	-0.3977864
117	0x3e38c8a1	0.18045284
118	0x3f1a08c8	0.6016965
119	0x3dcb65e5	0.09931544
120	0x3f800ae5	1.0003325
121	0xbe0ed131	-0.13946988
122	0xbe1c46bf	-0.15261362
123	0xbdeb4071	-0.114869006
124	0x3ebba3a2	0.3664828
125	0x3f114a22	0.5675374
126	0xbdacd10f	-0.08438312
127	0xbd42bf43	-0.047545683
128	0xbd8ed2ee	-0.069738254
129	0x3f82bc36	1.0213687
130	0x3e59b4cc	0.21260375
131	0xbf3faac8	-0.74869967
132	0x3e6ae703	0.22939686
133	0x3e1b7297	0.15180431
134	0xbf02a92c	-0.51039386
135	0x3ed29a34	0.41133273
136	0x3f341a94	0.70353055
137	0x3eb5c5fc	0.35502613
138	0x3d91cb23	0.071188234
139	0x3d01a4cc	0.031651303
140	0xbed2895c	-0.41120422
141	0xbec35754	-0.38152564
142	0x3eacd6b5	0.33757558
143	0x3e28f32c	0.16499013
144	0xbec3f624	-0.38273728
145	0x3e17d17f	0.1482601
146	0x3e9d10b4	0.30676806
147	0x3ed2d90a	0.41181213
148	0x3d5f1d9b	0.054471593
149	0x3e3553a0	0.17707682
150	0x3e8295e2	0.25504977
151	0x3ee4922d	0.44642773
152	0x3e40e838	0.18838584
153	0x3f1085df	0.5645427
154	0x3ead45a5	0.33842197
155	0x3eed7a9f	0.46382615
156	0xbf34aaa6	-0.7057289
157	0xbc86a4c1	-0.016435983
158	0x3ebb85bc	0.3662547
159	0xbf35de6b	-0.7104251
160	0xbe906e20	-0.2820902
161	0x3dbb69ec	0.09151062
162	0xbb69dde4	-0.0035685236
163	0xbf5834f7	-0.8445582
164	0xbe53bfff	-0.2067871
165	0x3e96e45f	0.29471108
166	0xbf5b3fa9	-0.8564401
167	0xbdf7c9ce	-0.12099038
168	0xbf105770	-0.5638342
169	0xbeb24936	-0.3482148
170	0xbec7a08f	-0.38989684
171	0x3e9aa4b7	0.30203792
172	0x3d8f78b2	0.07005443
173	0x3d8b15ff	0.06791305
174	0xbf12a639	-0.57284886
175	0x3ddde523	0.1083472
176	0xbea51afc	-0.3224715
177	0xbeae8ab8	-0.3409021
178	0xbf16f820	-0.5897236
179	0xbd9223ec	-0.07135758
180	0x3e8e772e	0.27825302
181	0x3ec08d77	0.3760793
182	0xbd70676a	-0.058692373
183	0x3ee00341	0.43752483
184	0xbe97a206	-0.29615802
185	0x3f354efb	0.7082364
186	0x3ed7ff4d	0.42186967
187	0xbe644d48	-0.22295105
188	0xbf551285	-0.83231384
189	0x3ed23c54	0.41061652
190	0xbe936a55	-0.28792062
191	0xbe0b6cf3	-0.1361578
192	0x3e156898	0.1459068
193	0x3cca6d4e	0.024710324
194	0x3e63181d	0.22177167
195	0x3d872d86	0.0660048
196	0xbe4014be	-0.18757913
197	0xbecc9edb	-0.39964947
198	0x3eb135a6	0.34611243
199	0xbed4b3ee	-0.41543525
200	0x3e677032	0.22601393
201	0x3ccb11ae	0.024788704
202	0x3ec4e382	0.38454825
203	0x3f000845	0.5001262
204	0x3e3f0f41	0.18658163
205	0xbe9d5801	-0.30731204
206	0xbf09d250	-0.53836536
207	0x3d2e1d36	0.042508326
208	0xbe477a80	-0.19480324
209	0xbf3336e6	-0.70005643
210	0xbb89b2ae	-0.0042022085
211	0xbf44f9c1	-0.76943594
212	0x3eff4cd6	0.4986331
213	0x3e4aed4a	0.19817081
214	0xbf147350	-0.5798845
215	0x3e522568	0.20522082
216	0xbda0d719	-0.078535266
217	0xbcb0c530	-0.021578401
218	0x3e14f0e7	0.14545022
219	0xbe8f585b	-0.27997097
220	0x3f45378f	0.770379
221	0x3e9dd875	0.30829206
222	0x3d8bc8a0	0.068253756
223	0xbcb100b9	-0.02160679
224	0x3eb2d00a	0.34924346
225	0x3f67f610	0.90609837
226	0xbf195b79	-0.599052
227	0x3ed3098f	0.4121823
228	0xbec6aa79	-0.38801935
229	0x3ccecf7d	0.025245422
230	0xbe8b1fb2	-0.2717262
231	0x3f038772	0.5137855
232	0x3d99e9ff	0.07515334
233	0x3ec83a2a	0.39106876
234	0xbd010b4b	-0.03150491
235	0xbe045501	-0.12923051
236	0xbdb622c9	-0.088933535
237	0x3f1c5a01	0.61074835
238	0x3f273c6e	0.65326583
239	0xbf057d22	-0.5214406
240	0xbeb6292c	-0.35578287
241	0xbe39096d	-0.18070002
242	0xbd92bf09	-0.07165343
243	0x3e9de7c5	0.3084089
244	0x3f0f5cb2	0.56000817
245	0xbc38e33a	-0.011284644
246	0xbe9aa5ee	-0.3020472
247	0xbe49e38f	-0.19715713
248	0x3f93497d	1.1506802
249	0x3f080ef3	0.5314781
250	0xbf22c16d	-0.63576394
251	0x3e9623fc	0.2932433
252	0x3f0a21d4	0.5395787
253	0xbf3de403	-0.74176043
254	0xbf045c74	-0.5170357
255	0x3eff8da4	0.4991275

h_12.bias f4 [64]
0	0xbf49df76	-0.788566
1	0x3d8436ac	0.0645574
2	0xbf1317d1	-0.57458216
3	0x3f02634b	0.5093276
4	0xbe7afd93	-0.24510793
5	0x3ec21c0f	0.37912032
6	0x3f0ffde6	0.56246793
7	0xbf39d7d1	-0.72594935
8	0xbe1a696d	-0.15079279
9	0x3db18d80	0.08669567
10	0x3ea3e1dd	0.32008258
11	0x3e60b91c	0.21945614
12	0xbd50114d	-0.05079775
13	0xbcb67a85	-0.022275219
14	0x3f2d0e54	0.6759999
15	0xbed223cf	-0.41042945
16	0x3c85ca96	0.016331952
17	0x3e1b1205	0.15143593
18	0xbe49f115	-0.19720872
19	0x3e792390	0.24329972
20	0xbe7b5b24	-0.24546486
21	0xbd9f40ab	-0.07776006
22	0xbebf3b01	-0.37349704
23	0x3eac1641	0.33610728
24	0xbf060d15	-0.5236371
25	0x3eaa90df	0.33313653
26	0x3e6ca1a0	0.2310853
27	0xbe52bfb8	-0.20580947
28	0x3e384a83	0.17997174
29	0x3ed8c234	0.42335665
30	0x3f0351b4	0.51296544
31	0xbda6da8d	-0.08147154
32	0xbe88f035	-0.26745763
33	0x3b9cdd12	0.004787096
34	0x3f54d7e2	0.8314191
35	0x3ea72319	0.32643965
36	0x3e135ded	0.14391299
37	0xbdb0e0eb	-0.0863665
38	0xbe4cfdb9	-0.20018663
39	0xbddc7227	-0.1076396
40	0xbe721b58	-0.23643243
41	0x3e2898fb	0.16464607
42	0x3f03bd55	0.5146077
43	0x3e87a3cc	0.26492155
44	0xbe303d83	-0.17210965
45	0x3db2bc85	0.087273635
46	0x3c6c1d3b	0.014411266
47	0x3f01cd46	0.5070385
48	0xbee2e314	-0.44313872
49	0xbdd7c51e	-0.10535644
50	0xbefda5bf	-0.49540517
51	0xbddd851b	-0.108164035
52	0xbf5df135	-0.8669618
53	0x3e439f6e	0.19103786
54	0xbf08dd5c	-0.5346277
55	0xbe9bb614	-0.30412352
56	0xbeaa838a	-0.3330348
57	0xbef7d5a9	-0.48405197
58	0x3ebaf744	0.36516774
59	0x3e6def4f	0.2323582
60	0xbf323e3c	-0.6962621
61	0x3ee7a42f	0.4524245
62	0x3f4c49b9	0.7979999
63	0xbe82bec0	-0.25536156

h_21.weight f4 [64, 64]
0	0x3d5c9fa4	0.053863183
1	0x3db2e9ef	0.087360255
2	0x3e37dd3f	0.17955492
3	0xbcf4cb95	-0.029882232
4	0x3d29a843	0.041420233
5	0x3de3fef5	0.111326136
6	0xbe047713	-0.12936048
7	0xbe0cd7ad	-0.13754149
8	0xbcde1098	-0.027107522
9	0x3c013961	0.007887215
10	0xbcac6a23	-0.021046704
11	0xbe34e20a	-0.17664352
12	0x3e3d1892	0.18466404
13	0xbf28b983	-0.6590807
14	0xbbc474eb	-0.005995383
15	0xbd9f3e88	-0.07775599
16	0xbd8253a8	-0.063636124
17	0x3d89dc6b	0.067314945
18	0x3d4ba2fd	0.049715985
19	0xbdbf3223	-0.09335735
20	0x3e9c071c	0.30474174
21	0x3db0100d	0.085968114
22	0xbdbf0402	-0.09326936
23	0x3e12211a	0.1427044
24	0x3d8be4e7	0.06830769
25	0xbe3e5544	-0.18587214
26	0x3df13df3	0.11779394
27	0x3de6e793	0.11274638
28	0x3ddaf693	0.106915615
29	0x3d2f6d6f	0.042828973
30	0x3df6a925	0.120439805
31	0x3c54d02b	0.012989084
32	0xbdbbe2aa	-0.09174092
33	0x3d631146	0.055436395
34	0xbd444e72	-0.047926374
35	0xbccc253f	-0.024920104
36	0xbe153300	-0.14570236
37	0x3e19bf68	0.15014422
38	0x3dfdc04c	0.12390193
39	0x3e1c834e	0.15284464
40	0x3cf3fd21	0.029783787
41	0x3d008b5d	0.031382907
42	0xbdb31d8a	-0.087458685
43	0x3dc16d99	0.09444732
44	0xbdd07511	-0.10178579
45	0x3e126a67	0.14298402
46	0xbdfcce11	-0.123439915
47	0x3df6b8c6	0.120469615
48	0xbe4d53cf	-0.20051502
49	0x3cb0c597	0.021578593
50	0xbde9abe2	-0.11409737
51	0x3df25654	0.11832872
52	0x3e68c1d6	0.22730193
53	0xbd6b6c4b	-0.057476323
54	0xbd9ea4a7	-0.07746249
55	0xbe0c1308	-0.13679135
56	0x3d5701da	0.052492
57	0x3bf05732	0.0073346132
58	0x3d5a7d8c	0.053342387
59	0xbe94ed44	-0.2908727
60	0xbddcf151	-0.10788215
61	0x3c2273f4	0.009915341
62	0x3d6dc507	0.058049228
63	0x3e2174c6	0.15767202
64	0xbae7a2ae	-0.0017672384
65	0x3dd8474f	0.10560476
66	0xbce9dcc9	-0.028547661
67	0x3cc2f894	0.023800172
68	0x3d9aef7a	0.07565208
69	0xbdc511ee	-0.096225604
70	0x3d6552d3	0.05598719
71	0x3cc25032	0.02371988
72	0xbe2b86c2	-0.16750625
73	0x3d552003	0.052032482
74	0xbd3deea3	-0.04637016
75	0x3b8f1b50	0.0043672696
76	0x3e754397	0.23951565
77	0x3f82c613	1.0216697
78	0x3d72f978	0.059319943
79	0x3d2e63f9	0.04257581
80	0xbe127f33	-0.14306335
81	0xbdba8341	-0.09107066
82	0xbd85ec15	-0.0653917
83	0x3e1a2e74	0.15056783
84	0xbca4624f	-0.020066408
85	0x3d180179	0.03711078
86	0x3d43ecfb	0.047833424
87	0xbd7e9229	-0.062151108
88	0xbdab3661	-0.08359981
89	0x3c951f35	0.018203357
90	0x3de29e2c	0.11065325
91	0xbce97544	-0.0284983
92	0xbe46e7d0	-0.19424367
93	0xbdd8d746	-0.10587935
94	0x3e031892	0.12802342
95	0x3ddc6f01	0.1076336
96	0x3e6e9618	0.23299444
97	0x3dc33cc6	0.09533076
98	0x3e0adb56	0.13560233
99	0x3d37f06f	0.04490703
100	0x3cfa3a7f	0.030545471
101	0x3d46566e	0.04842227
102	0xbe2ec2dc	-0.1706652
103	0x3df3e518	0.119089305
104	0xbab7c2a5	-0.0014019801
105	0xbe1d4045	-0.15356548
106	0x3d3f0701	0.04663754
107	0x3da2b667	0.07944947
108	0x3e07051b	0.13185541
109	0x3e80b67c	0.25139225
110	0x3d84dcd3	0.064874314
111	0x3dddf621	0.10837961
112	0x3ec7cc1a	0.39022905
113	0x3c216091	0.009849683
114	0xbe1b51fa	-0.1516799
115	0x3d9de6cb	0.07710036
116	0x3d71fa6c	0.05907671
117	0xbd2e79b6	-0.04259654
118	0xbe220995	-0.15823968
119	0x3e305a98	0.17222059
120	0xbe206800	-0.15664673
121	0xbdbd6f8d	-0.09249792
122	0xbd49f24a	-0.04930333
123	0x3e496fd9	0.19671573
124	0xbeab4b4d	-0.33455887
125	0xbe24b7e7	-0.16085778
126	0x3a826fc6	0.0009951524
127	0x3d9686d7	0.073499374
128	0x3e01957f	0.12654684
129	0x3db281bf	0.08716153
130	0x3d28ba25	0.041193146
131	0x3de1b6ac	0.1102117
132	0xbdf774d6	-0.120828316
133	0x3e7bf2f8	0.24604404
134	0x3d7da669	0.06192628
135	0x3d5c221e	0.053743474
136	0x3da8e68e	0.082471
137	0x3dd7b368	0.10532266
138	0x3d223e2a	0.039610066
139	0x3c8d41d3	0.017243301
140	0x3dcfa6d4	0.10139242
141	0xbf1a3881	-0.6024247
142	0x3e6d6900	0.23184586
143	0x3dc0645b	0.09394141
144	0xbc38131c	-0.011235025
145	0x3d0bc0eb	0.034119528
146	0x3b7816c5	0.0037855369
147	0xbd425b08	-0.047450095
148	0xbd3976f1	-0.045279447
149	0x3e33b5a3	0.17549758
150	0xbc96bd05	-0.018400678
151	0xbcf1140a	-0.0294285
152	0xbe118a72	-0.14212969
153	0xbcd32348	-0.02577366
154	0x3d977360	0.07395053
155	0x3d943630	0.07236898
156	0x3da3105d	0.079621054
157	0x3d641176	0.055680715
158	0xbda5d768	-0.08097726
159	0x3e2d4aad	0.16923018
160	0x3b9c9182	0.004778088
161	0xbd241f12	-0.040068693
162	0xbd3c9d9b	-0.04604874
163	0x3d6cfc5e	0.057857864
164	0x3e830a2d	0.255937
165	0xbbac9b53	-0.0052675395
166	0x3e07f7e6	0.1327816
167	0x3e3d17d4	0.18466121
168	0x3ccc27de	0.024921354
169	0x3c0c4c83	0.008563164
170	0x3d9eea8c	0.0775958
171	0x3d0d6876	0.03452345
172	0xbc1599c1	-0.009130896
173	0x3e2184aa	0.15773264
174	0x3c074434	0.008256007
175	0x3cb3b1ef	0.021935431
176	0xbea821ff	-0.32838437
177	0x3dcbd261	0.09952236
178	0xbd501fd9	-0.050811622
179	0x3e187378	0.14887798
180	0xbd006979	-0.031350587
181	0xbd8cc6ca	-0.068738535
182	0xbdea6525	-0.11445073
183	0x3d1b3aa9	0.03789774
184	0x3db2f845	0.0873876
185	0x3dc2de78	0.09515089
186	0x3e62f4f6	0.22163758
187	0xbecb1067	-0.39660951
188	0xbd761da2	-0.060086854
189	0xbe046347	-0.12928496
190	0x3e60d057	0.21954475
191	0x3d74bf72	0.05975289
192	0xbd240033	-0.040039252
193	0xbd542649	-0.051794324
194	0x3d490965	0.049081225
195	0x39bdee74	0.0003622655
196	0xbd6c3171	-0.05766434
197	0x3dffed66	0.12496452
198	0x3d5b689b	0.053566556
199	0x3dd4a4bc	0.10382983
200	0xbe254c5b	-0.16142409
201	0x3e8cd202	0.27503973
202	0x3e6af32d	0.22944327
203	0xbd829d38	-0.06377643
204	0x3dd60004	0.10449222
205	0xbf66d953	-0.9017536
206	0xbabffbbe	-0.0014647169
207	0x3d81dc19	0.063408084
208	0x3dd53f4f	0.10412466
209	0xbe480f4c	-0.19537085
210	0x3d65e924	0.056130543
211	0xbe1d1725	-0.1534086
212	0x3d3a8cf1	0.04554457
213	0xbd3acd59	-0.04560599
214	0x3cb56cbe	0.022146579
215	0xbc6de2c2	-0.014519395
216	0xbc8418d9	-0.01612513
217	0x3df39ae2	0.11894776
218	0x3e42b5d0	0.19014668
219	0xbe051c34	-0.1299904
220	0x3cb9c87d	0.022678608
221	0x3dbfe757	0.093702964
222	0xbdad2314	-0.08453956
223	0xbdd21487	-0.102578215
224	0xbb58ea5c	-0.0033098673
225	0x3e220368	0.15821612
226	0x3d8a643f	0.06757402
227	0xbd027f5d	-0.031859744
228	0x3d6b97cc	0.05751781
229	0xbc453339	-0.012036138
230	0xbc473aa9	-0.012159982
231	0x3e071f53	0.13195543
232	0x3e2a9f3a	0.16662303
233	0x3dc21097	0.094758205
234	0xba9c9682	-0.001194671
235	0xbd69c504	-0.057072654
236	0xbe29d1d4	-0.1658395
237	0x3d8842e8	0.06653386
238	0xbc82ba6f	-0.01595804
239	0x3dc3f97b	0.09569069
240	0xbe34f30d	-0.17670842
241	0xbe2f8bbd	-0.1714315
242	0xbdf3d74b	-0.11906298
243	0x3d984036	0.07434122
244	0xbbb394d9	-0.0054803905
245	0xbc9821b4	-0.018570758
246	0x3cda3f18	0.026641414
247	0xbd20b54d	-0.039235402
248	0x3e821389	0.2540553
249	0x3d07cf57	0.03315672
250	0xbd22abaa	-0.039714493
251	0xbe4e70ca	-0.20160213
252	0xbef22278	-0.47291923
253	0xbb9c9d8c	-0.0047795232
254	0x3da225c9	0.07917363
255	0x3d322562	0.043492682

h_21.bias f4 [64]
0	0x3dda8a01	0.106708534
1	0x3ea2d654	0.31804144
2	0x3e4edca0	0.2020135
3	0x3d21dfc3	0.039520036
4	0x3ce2faf5	0.027707556
5	0x3e487764	0.19576794
6	0x3dec634b	0.11542376
7	0xbd268b83	-0.040660392
8	0x3e392fd8	0.18084657
9	0x3df701f8	0.120609224
10	0x3e9054b7	0.28189632
11	0xbe9c2846	-0.30499476
12	0x3d08a615	0.033361513
13	0x3de3fda1	0.1113236
14	0x3e2220b5	0.15832789
15	0x3e2f890e	0.17142126
16	0x3e6d5fa5	0.23181017
17	0x3e17f66c	0.14840096
18	0x3d9f6ef5	0.07784835
19	0x3d855cc1	0.06511832
20	0x3e5c21c2	0.21497253
21	0x3e0f8169	0.1401421
22	0x3e1499cf	0.14511798
23	0x3d3fd607	0.04683497
24	0x3e6d4e58	0.23174417
25	0x3dd773e6	0.10520153
26	0x3d74b6ca	0.059744634
27	0x3e6e4b2f	0.23270868
28	0x3d731ecb	0.05935554
29	0x3e2f93fe	0.17146298
30	0x3e64ed94	0.22356254
31	0x3e85bb55	0.26119485
32	0x3e33c0d3	0.17554025
33	0x3e159d13	0.146107
34	0x3db121d0	0.08649027
35	0x3df24e82	0.118313804
36	0x3ddc1cb6	0.10747664
37	0x3e3a66af	0.18203233
38	0x3ceaa82f	0.02864465
39	0x3e983431	0.2972732
40	0x3e391c72	0.18077257
41	0x3e0cc6a8	0.13747656
42	0x39be0c08	0.00036248588
43	0x3e57e148	0.21082032
44	0x3e021cfc	0.12706369
45	0x3e0705d8	0.13185823
46	0x3e5b5833	0.21420364
47	0x3d08d854	0.03340943
48	0x3e636b19	0.22208823
49	0x3e6a956b	0.22908561
50	0x3e070a4f	0.13187526
51	0x3c8cdb43	0.017194396
52	0x3e5fb8da	0.21847859
53	0x3e4a1378	0.19733989
54	0x3dac7fc6	0.08422808
55	0xbd57a1a7	-0.052644398
56	0x3e00d875	0.12582572
57	0x3e878e22	0.26475626
58	0x3ce96265	0.028489301
59	0x3c1e69b5	0.009668757
60	0x3d240f7f	0.04005384
61	0x3e971ad6	0.29512662
62	0x3dfc4e0f	0.12319576
63	0x3dfdf4d6	0.124002144

h_22.weight f4 [64, 64]
0	0x3e9044dd	0.2817754
1	0xbadaae37	-0.0016684
2	0xbf06acdf	-0.5260753
3	0x3e82e0e7	0.25562212
4	0x3da28b27	0.079366975
5	0x3e2fc4b1	0.17164876
6	0x3e018434	0.12648088
7	0xbf78888a	-0.9708334
8	0x3d394412	0.045230933
9	0xbdbdd9f2	-0.092700854
10	0x3e205645	0.15657909
11	0xbe0f6aad	-0.14005537
12	0x3e4b9435	0.19880755
13	0x3e984a39	0.29744127
14	0x3e85bed0	0.2612214
15	0xbc97250f	-0.018450288
16	0xbd489490	-0.048969805
17	0x3e7b0cdf	0.24516629
18	0x3d27db4c	0.040980622
19	0xbebddbf4	-0.37081873
20	0xbf6f5629	-0.93490845
21	0xbea4e3a4	-0.32204926
22	0x3d363372	0.044482656
23	0xbe02a6c0	-0.12758923
24	0x3e602136	0.21887669
25	0xbd84d2ea	-0.06485541
26	0x3f0471a3	0.51735896
27	0xbcaf78f7	-0.021419985
28	0x3e0bd460	0.13655233
29	0x3eba1be4	0.36349404
30	0x3dca97a6	0.09892206
31	0xbf48bb16	-0.7841047
32	0x3d7cc0f8	0.061707467
33	0xbdbce060	-0.09222484
34	0xbf2bace8	-0.6706071
35	0x3e5a3dfb	0.21312706
36	0x3d881260	0.0664413
37	0xbeb357a4	-0.35027802
38	0x3db2a6c9	0.08723218
39	0x3dd86ddf	0.10567831
40	0x3e256d2d	0.16154929
41	0xbe9967f2	-0.29962116
42	0xbe1a6909	-0.1507913
43	0x3e0e2ba5	0.13883837
44	0x3d570f55	0.052504856
45	0xbdfd6f4a	-0.12374742
46	0x3dfb5f6a	0.12274058
47	0x3ec32676	0.3811528
48	0x3e0998cd	0.13437195
49	0x3e129b67	0.14317094
50	0x3d298e55	0.041395504
51	0x3ea20ec1	0.3165188
52	0xbf1ffc22	-0.624941
53	0xbe283004	-0.16424567
54	0xbe1ffd8d	-0.15624066
55	0xbd678e91	-0.056532446
56	0x3c562a5a	0.013071621
57	0x3e11b1ec	0.14228028
58	0x3e62ce00	0.22148895
59	0xbe3dd04e	-0.18536493
60	0x3e3eeb59	0.18644466
61	0xbdc9c162	-0.09851338
62	0x3e193f8a	0.14965644
63	0x3e45e247	0.19324599
64	0x3d8d4ad3	0.06899037
65	0xbd89dbc5	-0.06731371
66	0xbdeeb889	-0.11656291
67	0x3e6bc3fa	0.23023978
68	0x3d10340b	0.035205882
69	0xbac3d969	-0.0014942113
70	0xbd91f692	-0.07127108
71	0xbd0c0468	-0.03418389
72	0x3e36d1e4	0.17853504
73	0xbdb8c236	-0.09021418
74	0xbe3723e5	-0.17884786
75	0xbd2a1210	-0.041521132
76	0x3e0d7417	0.13813816
77	0x3de081c0	0.10962248
78	0xbe4965dc	-0.19667763
79	0xbea3c2e7	-0.31984636
80	0x3d5b14c3	0.053486597
81	0x3dfccfa4	0.12344292
82	0xbd1b1f44	-0.037871614
83	0xbef73ee2	-0.48290163
84	0xbef1683c	-0.47149837
85	0xbcc578cf	-0.024105458
86	0x3bc3ce6f	0.0059755365
87	0x3c0d22f1	0.008614288
88	0x3e8b003e	0.27148622
89	0xbe0f5272	-0.13996294
90	0xbedcd497	-0.43130943
91	0xbec1290b	-0.37726626
92	0x3e05cba8	0.1306597
93	0x3e4ed730	0.20199275
94	0xbe340388	-0.17579472
95	0xbe2b143c	-0.16706938
96	0xbcc908f8	-0.02454041
97	0xbe017ba2	-0.12644818
98	0xbe262cc7	-0.16228019
99	0x3e13baac	0.14426678
100	0x3d5412a9	0.05177561
101	0x3f107dd4	0.56442
102	0x3e05f83a	0.13082972
103	0x3b0fbe35	0.002193344
104	0xbc964698	-0.018344209
105	0x3ed3864e	0.41313404
106	0xbe15a0c8	-0.14612114
107	0xbdae7875	-0.08519069
108	0xbc33555c	-0.010945644
109	0xbc717bf0	-0.014739022
110	0x3ddae084	0.10687354
111	0x3f3baa8d	0.73307115
112	0x3d93da48	0.07219368
113	0x3d41e6ad	0.04733913
114	0xbc9b13b6	-0.018930297
115	0xbd9283c8	-0.071540415
116	0x3e179afe	0.14805219
117	0x3e87ecaa	0.26547748
118	0xbecbf56b	-0.39835677
119	0xbddd7664	-0.10813597
120	0x3ccd5b45	0.025067935
121	0x3e08ddaa	0.13365808
122	0x3e350253	0.17676668
123	0x3e0b8e00	0.13628387
124	0x3d670bd2	0.056407757
125	0x3dc63733	0.09678497
126	0x3f8c7c57	1.0975446
127	0xbc58bcec	-0.013228636
128	0xbd25a082	-0.040436275
129	0xbc8c2069	-0.017105298
130	0xbf8a6aa6	-1.0813797
131	0xbdfddffb	-0.123962365
132	0x3cd1c06a	0.025604445
133	0xbd12e4bb	-0.035862666
134	0x3cb6cebd	0.022315377
135	0xbe8793e3	-0.26480016
136	0x3de144b2	0.10999431
137	0xbda4f3c2	-0.080543056
138	0xbe8e5fd6	-0.27807492
139	0x3e3a61d2	0.18201378
140	0x3d530bde	0.05152499
141	0x3df1e41d	0.11811087
142	0x3e857188	0.2606318
143	0x3e331c23	0.17491202
144	0x3d9b9f75	0.075987734
145	0x3e60e699	0.21962966
146	0x3d80d3f8	0.0629043
147	0x3e811f31	0.2521911
148	0xbd8aa8db	-0.06770488
149	0x3d97f80a	0.074203566
150	0x3d915cfb	0.07097813
151	0xbd7c4faa	-0.06159941
152	0x3e0d9bdd	0.13828988
153	0xbdc28723	-0.094984315
154	0x3ea1aef1	0.31578782
155	0xbee81561	-0.4532881
156	0x3d85cbff	0.0653305
157	0x3c9a48e2	0.018833581
158	0xbe8d27df	-0.27569482
159	0xbea0e2fe	-0.3142318
160	0xbb6d13c0	-0.0036175102
161	0x3e2480fc	0.16064829
162	0xbe80cc78	-0.25155997
163	0x3e8efb54	0.27926123
164	0xbd415234	-0.047197536
165	0x3d977ccb	0.07396849
166	0x3de23ca6	0.11046724
167	0x3e318051	0.17334105
168	0x3deb4fe7	0.114898495
169	0xbe6d0b4c	-0.2314884
170	0xbea07e07	-0.3134615
171	0xbcc21094	-0.023689546
172	0x3dfa63d5	0.12226073
173	0xbda2131a	-0.079137996
174	0xbcf23c09	-0.029569643
175	0x3e025c20	0.12730455
176	0x3d213344	0.03935553
177	0xbd44ae02	-0.04801751
178	0x3de3f76c	0.11131176
179	0xbea87cf6	-0.32907838
180	0xbdb170ca	-0.08664091
181	0xbdcfb196	-0.10141294
182	0xbe87c4ab	-0.26517233
183	0x3e2db931	0.16965176
184	0x3d05a160	0.032624602
185	0x3e580131	0.21094204
186	0x3daedbdd	0.08538029
187	0x3e17cdfa	0.14824668
188	0x3e59a2a4	0.21253449
189	0xbdb8dd27	-0.090265565
190	0xbf44f79f	-0.7694034
191	0x3de14792	0.10999979
192	0x3e850dec	0.25987184
193	0x3e2fce60	0.1716857
194	0x3dbc83c9	0.092048235
195	0xbd0ed87c	-0.034874424
196	0xbd6eb414	-0.058277205
197	0xbc12ec5a	-0.008967483
198	0xbd1ed377	-0.038775887
199	0x3d71835a	0.058963157
200	0xbd7233e6	-0.059131525
201	0xbcde6eb0	-0.02715239
202	0xbf3c1d90	-0.7348261
203	0x3f60610e	0.87648094
204	0xbdaec645	-0.08533911
205	0x3e46f7bf	0.19430445
206	0xbeb18db8	-0.34678435
207	0x3e8d3e56	0.2758662
208	0xbd81566d	-0.063153125
209	0x3d8eee95	0.069791
210	0x3df6c002	0.12048341
211	0xbecaa0e1	-0.39575866
212	0x3f8a31ee	1.0796487
213	0xbee45f48	-0.44603944
214	0x3dcbccaf	0.0995115
215	0x3e38a1c1	0.18030454
216	0x3e4fbfe5	0.20288046
217	0xbd086747	-0.033301618
218	0xbdb91e24	-0.09038952
219	0x3f0878ca	0.5330931
220	0x3dd4b086	0.10385232
221	0x3d1822e8	0.037142664
222	0xbd06a14e	-0.032868676
223	0xbf462851	-0.7740527
224	0xbb2f08c0	-0.0026708096
225	0x3d58318d	0.05278163
226	0xbf169834	-0.58825994
227	0x3d8f44db	0.06995555
228	0x3db0ed45	0.086390056
229	0xbf6cd970	-0.92519283
230	0x3e101e91	0.1407416
231	0xbea2168e	-0.31657833
232	0x3cd9f447	0.026605738
233	0x3e2f2919	0.17105521
234	0xbcfadbd7	-0.030622406
235	0xbd4a5628	-0.04939857
236	0xbc1778d8	-0.00924512
237	0xbca188a8	-0.019718483
238	0xbd99a6d5	-0.07502524
239	0xbe944001	-0.2895508
240	0x3e11d284	0.14240462
241	0xbdfdb33a	-0.123877004
242	0x3e204aa4	0.15653473
243	0xbf05c543	-0.5225412
244	0x3e228bf2	0.15873697
245	0xbf07e98b	-0.53090733
246	0xbe0985f2	-0.13430002
247	0xbd841087	-0.06448465
248	0x3e797ad6	0.24363264
249	0x3e590767	0.2119423
250	0x3da99a4f	0.08281385
251	0xbe3228c4	-0.17398363
252	0x3e85d32a	0.26137668
253	0x3e68aab4	0.22721368
254	0xbf3a2aba	-0.72721446
255	0x3e434aff	0.19071577

h_22.bias f4 [64]
0	0xbc68744a	-0.014187882
1	0xbcebb64f	-0.028773455
2	0x3d136a76	0.0359902
3	0x3d9f22c3	0.07770302
4	0x3e12ee35	0.14348681
5	0x3c199c13	0.00937559
6	0x3dcf670d	0.10127077
7	0xbdeb7336	-0.11496584
8	0x3dbe2e5a	0.092861846
9	0xbcc4bb3b	-0.02401506
10	0x3e3cc963	0.18436198
11	0xbc00f5c5	-0.007871096
12	0xbddb73fa	-0.1071548
13	0x3e1835ae	0.14864227
14	0x3cda46f8	0.026645169
15	0x3dd75e9e	0.10516094
16	0xbd7c3a72	-0.061579175
17	0xbd5f7124	-0.05455126
18	0x3e808cdf	0.25107476
19	0xbc26ed02	-0.010188343
20	0xbd5d00dc	-0.053955898
21	0x3dbeea1e	0.09321998
22	0xbdbdd556	-0.09269206
23	0xbe0b8f4d	-0.13628884
24	0xbe8b031e	-0.27150816
25	0x3e059093	0.13043432
26	0xbdd5ea63	-0.10445096
27	0x3d87a881	0.066239364
28	0x3dee3912	0.11631979
29	0x3e71a82a	0.23599306
30	0xbd7a1a39	-0.061060164
31	0x3e054029	0.13012756
32	0x3e1b3afc	0.1515922
33	0xbdbfdf6a	-0.09368785
34	0x3d25dc84	0.040493503
35	0x3cd2475f	0.025668798
36	0x3dd9ca8f	0.10634338
37	0xbd1bc35d	-0.03802811
38	0x3e439e39	0.19103326
39	0xbe250334	-0.16114503
40	0x3cb152c8	0.021645918
41	0x3e5e0682	0.2168217
42	0x3e24a7ec	0.16079682
43	0xbe1ce24c	-0.153207
44	0x3e030dd0	0.12798238
45	0xbd566790	-0.05234486
46	0x3d95e7ed	0.07319627
47	0xbe890ea1	-0.26768973
48	0xbe50cbf7	-0.20390306
49	0x3e133a71	0.14377762
50	0x3e1d9cf9	0.15391912
51	0x3e479241	0.19489385
52	0xbdc6ed35	-0.097132124
53	0xbdd41384	-0.10355285
54	0x3df4f0ed	0.119600154
55	0xbe502096	-0.2032493
56	0xbd877077	-0.06613248
57	0xbdc923f0	-0.09821308
58	0x3cabe765	0.020984361
59	0xbda0b7c4	-0.078475505
60	0xbbcd76e0	-0.0062702745
61	0x3dcf7484	0.101296455
62	0xbdfbe089	-0.12298686
63	0x3d0b4a1b	0.03400622

h_32.weight f4 [128, 128]
0	0x3bcc2197	0.00622959
1	0x3d6824cf	0.05667573
2	0x3cc615b9	0.02418028
3	0xbbf90b82	-0.007600249
4	0x3e923fc8	0.28564286
5	0x3d804e7a	0.06264968
6	0xbd15c4a4	-0.036564484
7	0xbe2a5a55	-0.16636021
8	0x3ced7021	0.028984131
9	0xbd83717e	-0.06418131
10	0xbe1674c8	-0.14692986
11	0x3ea456cb	0.32097468
12	0xbd797093	-0.060898375
13	0x3d649af3	0.055811834
14	0xbe2da0de	-0.16955897
15	0xbca3e51c	-0.020006709
16	0xbd06b246	-0.03288486
17	0x3d4f7795	0.05065115
18	0x3d249593	0.040181708
19	0xbe85eebe	-0.26158708
20	0x3cb05710	0.02152589
21	0x3d8d9dea	0.06914885
22	0x3d9253ea	0.071449116
23	0xbdb39d45	-0.08770231
24	0x3d0826a5	0.03323998
25	0xbdd62db2	-0.104579344
26	0xbbfbb4da	-0.0076814713
27	0x3dc111a3	0.09427192
28	0x3c2f6efd	0.010707614
29	0xbde1775a	-0.11009093
30	0x3da21ccc	0.07915649
31	0xbd246b7e	-0.040141575
32	0x3e50ad90	0.20378709
33	0x3d2d0cf5	0.042248685
34	0x3e53f971	0.20700623
35	0x3c94634d	0.018113757
36	0x3d4620a1	0.04837096
37	0xbc9750cd	-0.018471146
38	0x3ad91544	0.0016562124
39	0x3d0c2d45	0.03422286
40	0x3e451b02	0.19248584
41	0xbbd22fb7	-0.0064143795
42	0x3d6b1054	0.05738862
43	0xbd5a3406	-0.05327227
44	0x3db567fd	0.08857725
45	0x3de16608	0.11005789
46	0x3d2c15ef	0.042013105
47	0x3eb17473	0.34659156
48	0x3d21e0b0	0.03952092
49	0xbd8d2f82	-0.06893827
50	0xbdc818b2	-0.09770335
51	0x3e41c209	0.18921675
52	0xbdccaeb7	-0.09994262
53	0x3d1489b1	0.036264125
54	0x3e0378f3	0.12839107
55	0xbdc994db	-0.09842845
56	0xbdb191ad	-0.086703636
57	0x3e10fd0d	0.14159031
58	0xbe25a58f	-0.16176437
59	0x3c040f68	0.008060314
60	0x3d8eca76	0.0697221
61	0x3d84fa2f	0.06493031
62	0xbcd540fd	-0.026031965
63	0x3cc68ce5	0.024237106
64	0xbc67addb	-0.0141405715
65	0x3cd58492	0.026064191
66	0x3dca379f	0.0987389
67	0xbdaf73b3	-0.0856699
68	0xbd313620	-0.04326451
69	0xbdf3d130	-0.11905134
70	0x3c427100	0.011867762
71	0xbe084e84	-0.13311201
72	0x3d876a0b	0.06612023
73	0x3df4e1f6	0.11957161
74	0xbdef57ed	-0.116866924
75	0xbd17b493	-0.037037443
76	0xbd0ec0eb	-0.03485195
77	0xbbfd8fbc	-0.0077380817
78	0x3da338fe	0.07969855
79	0x3e3bb1a0	0.18329477
80	0x3e1b2a13	0.15152769
81	0x3e116e2b	0.14202182
82	0xbddfaabd	-0.109212376
83	0x3dc699c5	0.09697298
84	0x3cf7657a	0.030199755
85	0xbce52cec	-0.027975522
86	0xbd5fdb6d	-0.05465262
87	0xbc7b1bb6	-0.015326431
88	0xbd3ae81b	-0.04563151
89	0xbdff4fcf	-0.12466394
90	0x3c8cfc89	0.017210262
91	0x3dc9fdf6	0.09862892
92	0xbe49e4c3	-0.19716172
93	0x3df782ca	0.12085493
94	0x3df50b9c	0.11965105
95	0x3ba0437d	0.0048908577
96	0xbd2c6733	-0.042090606
97	0x3d2c80da	0.04211507
98	0xbd85e24e	-0.06537305
99	0x3c8ab254	0.016930737
100	0xbe0695ea	-0.13143125
101	0x3d7f18c0	0.062279463
102	0x3e7fc79e	0.24978492
103	0x3ca3786f	0.019954888
104	0xbd55d0c4	-0.052201048
105	0xbca3a7d3	-0.019977486
106	0xbda1a472	-0.078926936
107	0xbdc3d292	-0.095616475
108	0x3e15cd0b	0.14628999
109	0xbd2c0ed4	-0.04200633
110	0x3d910500	0.07081032
111	0x3bd1c9c2	0.0064022252
112	0x3d742ded	0.05961411
113	0x3d18f620	0.037344098
114	0x3e75f3a6	0.24018726
115	0xbd040649	-0.032232556
116	0x3d80474e	0.062636
117	0x3d17f3d2	0.03709776
118	0xbe4bc138	-0.19897926
119	0xbd0a19ff	-0.033716198
120	0xbbb62406	-0.0055584935
121	0x3c3063ef	0.0107660135
122	0x3dfc2d5a	0.123133376
123	0x3d86138e	0.065466985
124	0x3d36ffca	0.044677533
125	0x3d937174	0.07199374
126	0xbe0633e0	-0.13105726
127	0x3d8c6f21	0.06857134
128	0xbdb39818	-0.08769244
129	0xbb37b9b8	-0.002803428
130	0x3d0d6fc4	0.034530416
131	0x3c77c5cc	0.015122842
132	0x3e4b4b0f	0.19852851
133	0x3c9f2f1c	0.019431643
134	0xbd6af2b7	-0.057360377
135	0xbe6aa4c5	-0.22914417
136	0x3db5e1be	0.088809475
137	0x3d669344	0.056292787
138	0x3dd1d1ee	0.10245119
139	0x3f1272f5	0.5720666
140	0x3cf4b8d6	0.029873293
141	0x3d651e9a	0.055937387
142	0xbe1dff4b	-0.15429418
143	0x3cc44e5b	0.023963144
144	0xbb1d8563	-0.0024035804
145	0x3d58c20a	0.052919425
146	0x3d57f2df	0.052721854
147	0x3e76d64d	0.24105187
148	0xbd116787	-0.035499122
149	0x3cdab615	0.026698152
150	0x3e2011cb	0.15631787
151	0x3d050bd9	0.032482002
152	0x3b8221d4	0.003971318
153	0xbc7dc849	-0.015489646
154	0xbdb55be0	-0.088554144
155	0x3e0cd0d0	0.1375153
156	0x3d670ef8	0.05641076
157	0x3dc38763	0.09547307
158	0x3ca6305c	0.020286731
159	0xbd1f332f	-0.03886717
160	0x3d8272c1	0.06369544
161	0xbd62dd9f	-0.055387136
162	0x3de8471b	0.11341687
163	0xbe1f94ca	-0.15584102
164	0xbdbd5bde	-0.09246038
165	0xbc838b13	-0.016057527
166	0x3d8e89d2	0.06959881
167	0x3cccba1f	0.024991093
168	0xbd077b86	-0.033076786
169	0xba077e82	-0.00051686924
170	0x3ceb4392	0.028718743
171	0x3ca09c9e	0.01960593
172	0x3da40555	0.080088295
173	0xbcce6be7	-0.025197936
174	0x3c6a3b65	0.014296387
175	0xbba2b6c5	-0.0049656355
176	0x3d61d616	0.05513581
177	0x3e3919fd	0.1807632
178	0xbc361a84	-0.01111472
179	0x3c3e1a6d	0.01160298
180	0x3d6dbf92	0.058044024
181	0xbc1a6d1e	-0.00942543
182	0x3d935ee2	0.07195832
183	0xbdc9c131	-0.098513015
184	0x3de595a2	0.11210181
185	0x3da788c4	0.08180383
186	0x3df027d8	0.117263496
187	0x3cfe344e	0.0310308
188	0x3e0769d3	0.13223962
189	0x3d8b04cc	0.06788024
190	0x3e24644e	0.16053888
191	0x3dd3b919	0.10338039
192	0x3d26717e	0.04063558
193	0x3c304af9	0.010760062
194	0xbdd778a6	-0.10521059
195	0x3daa9b61	0.083304174
196	0x3c30c9c5	0.010790293
197	0xbe28a274	-0.16468221
198	0xbe155874	-0.14584523
199	0xbcd0025e	-0.025391754
200	0xbc3ad251	-0.011402682
201	0xbd8fefad	-0.070281364
202	0x3d796186	0.06088402
203	0xbc1a5de5	-0.0094218
204	0x3d0676b1	0.032828037
205	0x3de827e7	0.11335736
206	0xbb0a2378	-0.002107827
207	0x3e4ff24e	0.20307276
208	0xbd7f4ac3	-0.062327158
209	0xbd575c77	-0.052578416
210	0x3e30d5ee	0.17269108
211	0x3e13aaae	0.14420578
212	0xbe0b3f75	-0.13598426
213	0xbe0f64fd	-0.14003368
214	0xbcd932a8	-0.026513413
215	0xbd6f634b	-0.058444303
216	0xbde2e53c	-0.11078879
217	0xbc8d05b9	-0.017214643
218	0xbdc57679	-0.096417375
219	0x3d8b7b74	0.06810656
220	0x3e9609d5	0.29304376
221	0xbe3fea8e	-0.1874182
222	0xbdd81fcb	-0.10552939
223	0xbd29d878	-0.041466206
224	0xbdec608b	-0.115418516
225	0x3d598804	0.05310823
226	0xbe8578e8	-0.26068807
227	0x3d8dba5f	0.06920313
228	0x3e0ec093	0.13940649
229	0xbdcd25a7	-0.10016947
230	0xbdf738b6	-0.12071364
231	0x3e80013b	0.2500094
232	0x3df2d127	0.11856299
233	0xbee8a2b1	-0.45436624
234	0xbd731471	-0.059345666
235	0x3dcf3cc3	0.10119011
236	0xbf851607	-1.0397347
237	0xbd8d868a	-0.06910427
238	0xba4206f1	-0.0007401547
239	0xbdff641c	-0.12470266
240	0xbe2a1286	-0.16608629
241	0x3da77f2f	0.08178555
242	0x3e8bf9fa	0.27339154
243	0xbd6d52d1	-0.057940308
244	0xbd9bef50	-0.076140046
245	0x3d039991	0.032128874
246	0xbe1de3ab	-0.1541888
247	0x3d4a55dc	0.049398288
248	0xbc4376a2	-0.01193014
249	0xbd773720	-0.060355306
250	0xbe81095e	-0.2520246
251	0x3e8991bc	0.26869
252	0x3cde88e6	0.027164888
253	0x3cbe03d6	0.023195188
254	0x3cc24c04	0.023717888
255	0x3e6c98dc	0.23105186

h_32.bias f4 [128]
0	0xbd1d2686	-0.038366817
1	0x3e106fab	0.14105098
2	0xbc8ba429	-0.017046051
3	0x3d5dc0f7	0.054139104
4	0x3d65951b	0.0560504
5	0xbdb67b4f	-0.08910238
6	0x3ce35b40	0.027753472
7	0xbd27c11e	-0.040955655
8	0x3dc460ba	0.09588762
9	0xbbc85ffd	-0.0061149583
10	0xbd34ce62	-0.044142134
11	0xbe074379	-0.13209333
12	0x3deab8c7	0.11461025
13	0x3dbe352c	0.092874855
14	0x3d747bc6	0.059688352
15	0x3bec369a	0.0072086575
16	0xbdde9dac	-0.10869917
17	0x3d6b9753	0.05751736
18	0x3dc76424	0.09735897
19	0x3e80e8f3	0.25177726
20	0x3da46861	0.08027721
21	0x3b1fdfc8	0.0024394859
22	0xbdffbf52	-0.12487663
23	0x3e09f014	0.13470489
24	0xbd171d7e	-0.03689336
25	0x3d8e0f6c	0.06936535
26	0x3d10f318	0.035388082
27	0xba664ae2	-0.0008784962
28	0xbcb3b05f	-0.021934686
29	0x3d2246ac	0.03961818
30	0x3e04fe5f	0.1298766
31	0x3dd0738f	0.10178291
32	0x3d4b871c	0.049689397
33	0xbd5d6ec1	-0.0540607
34	0xbdacbe84	-0.084347755
35	0x3d8c4e71	0.06850899
36	0x3c83b58f	0.016077785
37	0x3dd9ef2b	0.10641321
38	0xbc019936	-0.0079100635
39	0x3d6dac42	0.058025606
40	0x3dc1ee96	0.09469335
41	0x3d72da17	0.059290018
42	0xbd6bc897	-0.057564344
43	0x3d83b7a3	0.0643151
44	0xbd4c70bf	-0.04991221
45	0x3d0f8b48	0.03504494
46	0x3d1b899a	0.037973024
47	0x3d6a53c9	0.05720881
48	0x3d78d4a7	0.060749676
49	0x3e3012d5	0.17194684
50	0x3e7adb5e	0.24497744
51	0x3d426090	0.04745537
52	0xbda99305	-0.08279995
53	0xbc39d9b0	-0.011343405
54	0x3cb97da6	0.022642922
55	0xbd4f85ac	-0.05066459
56	0x3cf120b4	0.02943454
57	0xbe1b9c3a	-0.15196314
58	0xbdcae0be	-0.099061474
59	0x3db6d309	0.089269705
60	0x3e87b97a	0.26508695
61	0xbdbd4f9a	-0.092436984
62	0xbdcd8ef9	-0.100370355
63	0x3d027fb5	0.031860072
64	0xbd78c5fe	-0.060735695
65	0xbb08a57a	-0.0020850585
66	0x3e090a32	0.13382795
67	0x3d4aa08a	0.04946951
68	0x3c9be274	0.01902888
69	0xbcfb850e	-0.030703094
70	0x3dc1474e	0.094374284
71	0xbd0c41fe	-0.034242623
72	0x3da0747b	0.07834717
73	0x3d4cc938	0.049996585
74	0xbd5e72a2	-0.05430854
75	0xbc9e8423	-0.019350117
76	0x3d454f46	0.048171304
77	0xbc42cb00	-0.011889219
78	0x3c718f1d	0.0147435935
79	0x3db0897c	0.08619973
80	0x3dbb5b81	0.09148312
81	0x3d5228e7	0.05130854
82	0x3de89317	0.1135618
83	0xbcc83f3a	-0.024444211
84	0x3d441ba7	0.047877934
85	0x3d4a1841	0.049339537
86	0x3d740bce	0.05958157
87	0x3d890145	0.06689695
88	0x3d8d97d7	0.06913727
89	0xbc55b1ea	-0.013042906
90	0xbd935978	-0.07194799
91	0x3e10ba33	0.1413353
92	0x3d30d8f6	0.04317566
93	0x3c9856ba	0.018596042
94	0x3b15e239	0.0022870435
95	0x3d60b498	0.054859728
96	0x3da7e93d	0.081987835
97	0x3e022480	0.12709236
98	0x3c4b83b4	0.012421537
99	0x3c63d1c4	0.0139049925
100	0x3d9820b7	0.07428115
101	0x3da56151	0.08075202
102	0xbd69ef74	-0.057113126
103	0xbd96d2c0	-0.07364416
104	0xbd205023	-0.039138924
105	0x3d8974a9	0.06711704
106	0x3e4a2628	0.19741118
107	0x3d9028c7	0.07039028
108	0x3e402be1	0.18766738
109	0x3e103bbf	0.14085291
110	0x3b821f54	0.0039710198
111	0x3dd9b7ba	0.10630746
112	0xbd47d5e0	-0.04878795
113	0x3d1cff38	0.038329333
114	0x3ac58f7f	0.0015072672
115	0xbc25ace8	-0.010112025
116	0xbdeb049d	-0.11475489
117	0x3d49fd47	0.04931381
118	0xbcafefc1	-0.021476628
119	0x3dbb693a	0.0915093
120	0xbd9bd7e3	-0.076095365
121	0x3cd00417	0.025392575
122	0x3d9c42e5	0.076299466
123	0xbcd7493a	-0.026280034
124	0x3d8acc11	0.06777204
125	0xbdc06dd2	-0.093959466
126	0x3cdd0e4c	0.026984356
127	0x3dfb906b	0.12283405

output.weight f4 [12, 128]
0	0xbe1c7058	-0.1527723
1	0xbe642a56	-0.22281775
2	0xbdefabe3	-0.11702707
3	0x3c50c785	0.012742882
4	0xbe4c9284	-0.19977766
5	0xbf15eee5	-0.5856765
6	0x3ed356a5	0.41277042
7	0xbe8d251a	-0.2756737
8	0x3ecafa3e	0.39644045
9	0x3dcdc228	0.10046798
10	0x3cfbcf77	0.030738575
11	0xbb3bc7ef	-0.0028653105
12	0xbeab296c	-0.3343004
13	0x3e236050	0.15954709
14	0x3d807780	0.06272793
15	0xbed1b94d	-0.40961686
16	0x3c8bfeeb	0.017089328
17	0xbdb5715e	-0.08859514
18	0x3e45cb64	0.19315869
19	0x3e82e3f5	0.25564542
20	0xbda24119	-0.07922573
21	0xbf185c41	-0.5951577
22	0xbe186084	-0.14880568
23	0xbd28e267	-0.04123154
24	0xbf05f0ce	-0.52320564
25	0x3ea2a85b	0.3176907
26	0x3f45fca2	0.7733861
27	0x3f3abf84	0.7294848
28	0x3e0fef7c	0.140562
29	0x3d5eab66	0.054362677
30	0xb7fa08ba	-2.9806386e-05
31	0x3bba029c	0.0056765806
32	0x3f6621a8	0.89895105
33	0xbf073067	-0.5280823
34	0x3d1d80ca	0.0384529
35	0xbe828db3	-0.25498733
36	0xbcfd3321	-0.03090817
37	0x3f527d82	0.8222276
38	0x3dbaf17c	0.09128091
39	0x3ebd7ca8	0.37009168
40	0xbf8328af	-1.0246791
41	0x3d4f1330	0.050555408
42	0x3f038dae	0.5138806
43	0x3e27ff0f	0.16405891
44	0xbde17675	-0.11008922
45	0xbe02a72d	-0.12759085
46	0xbdfd0fdb	-0.1235654
47	0x3f59cee5	0.8508132
48	0x3e051cbd	0.12999244
49	0x3db3cb27	0.087789826
50	0x3f9e53f4	1.236937
51	0xbce00ddf	-0.027350364
52	0xbe1918af	-0.14950822
53	0x3e2811fb	0.16413109
54	0x3e300112	0.17187908
55	0xbe31923a	-0.17340937
56	0xbe22f23f	-0.15912722
57	0xbe2416d1	-0.16024329
58	0x3ea8242d	0.328401
59	0x3e77a8b2	0.24185446
60	0x3d0815e4	0.033224
61	0x3ef5b408	0.47988915
62	0xbdf01b1d	-0.117239214
63	0xbeca808c	-0.39551198
64	0xbd086f45	-0.03330924
65	0xbd20c947	-0.039254453
66	0x3e1ec1ef	0.15503667
67	0xbf041a21	-0.5160237
68	0x3b3b50f3	0.0028582185
69	0xbf71d344	-0.9446299
70	0xbd546e51	-0.05186302
71	0x3d798322	0.060916074
72	0xbe89bb95	-0.26900926
73	0xbdda7ec6	-0.10668711
74	0x3dc6e111	0.09710897
75	0xbf02d0e5	-0.511
76	0xbdad4c2e	-0.08461796
77	0xbde8f47c	-0.11374757
78	0x3cdf39d6	0.027249258
79	0x3e6dfa77	0.23240076
80	0x3e253863	0.16134791
81	0xbfb44872	-1.4084609
82	0xbea2f02e	-0.31823868
83	0xbb368ab7	-0.0027853677
84	0x3d513bfc	0.051082596
85	0x3eaa16a0	0.33220387
86	0x3c0b851d	0.008515623
87	0x3f12c516	0.5733198
88	0xbd9c24b9	-0.07624192
89	0x3e7c3023	0.24627738
90	0xbdd36267	-0.10321503
91	0xbed0d48e	-0.40787166
92	0x3914187d	0.00014123502
93	0xbc89b90d	-0.016811872
94	0xbdafec24	-0.08589962
95	0xbe914946	-0.28376216
96	0x3e0a4f5e	0.13506839
97	0xbe33fdc5	-0.17577274
98	0x3f7bbf86	0.98339117
99	0x3e014ccc	0.12626952
100	0x3da90751	0.082533486
101	0xbded74ad	-0.1159452
102	0x3db73687	0.08945947
103	0x3d9030c6	0.07040553
104	0xbe6e9ec6	-0.23302755
105	0x3e99ac06	0.30014056
106	0x3ea6b52b	0.32560095
107	0x3ec3c1e0	0.38233852
108	0xbf541c0e	-0.8285531
109	0xbdcf875b	-0.10133239
110	0xbdd2cebd	-0.102933384
111	0x3d8cc10d	0.06872759
112	0xbe5f9dec	-0.21837586
113	0xbea54d34	-0.32285464
114	0xbd2a0fcc	-0.04151897
115	0x3d0af55c	0.0339254
116	0x3b8ac671	0.004235082
117	0xbf58ced8	-0.8469062
118	0xbc96d75b	-0.018413236
119	0x3ce12151	0.027481707
120	0x3f3ec557	0.74519867
121	0xbc6bd1f2	-0.014393317
122	0x3d273d09	0.040829692
123	0xbe9b02d7	-0.30275604
124	0x3d24a52c	0.040196583
125	0xbe82a991	-0.25519994
126	0xbf446a51	-0.76724726
127	0xbdd60ab3	-0.104512595
128	0xbe36bdd1	-0.17845847
129	0xbe030a52	-0.12796906
130	0x3e4d4f3b	0.20049755
131	0x3db13612	0.08652891
132	0x3e5b01d9	0.21387424
133	0x3e91a681	0.28447345
134	0xbf1601cb	-0.58596486
135	0x3c3a8f6d	0.011386734
136	0xbec935dc	-0.39298904
137	0xbcc78e00	-0.024359703
138	0x3d1a4753	0.037665676
139	0x3e022bb7	0.12711988
140	0x3d61813b	0.055054884
141	0xbd660096	-0.056152903
142	0xbcc5f17c	-0.024163
143	0x3c9b3ea3	0.018950766
144	0xbd9e3851	-0.07725585
145	0x3e300184	0.17188078
146	0x3ee86537	0.4538972
147	0xbe3ec470	-0.18629622
148	0xbe0ce925	-0.13760813
149	0x3f34fd40	0.7069893
150	0xbf0d7265	-0.5525268
151	0xbe5155a8	-0.20442832
152	0x3f105bb6	0.5638994
153	0x3e98a576	0.29813737
154	0xbf171662	-0.5901853
155	0xbdb1e619	-0.08686466
156	0xbcb70281	-0.022340061
157	0xbda1b675	-0.07896129
158	0xbde3e6f9	-0.11128039
159	0xbe9384de	-0.28812307
160	0xbf280799	-0.65636593
161	0x3ebcac1a	0.36850053
162	0xbe2d097a	-0.16898146
163	0x3ee9b6be	0.45647234
164	0xbd9241a8	-0.07141429
165	0x3e7fc7a2	0.24978498
166	0x3cc6e7f9	0.024280535
167	0xbd85d891	-0.065354474
168	0x3ec51184	0.38489926
169	0xbe323d92	-0.174063
170	0xbf073cb6	-0.5282701
171	0x3de262ea	0.110540226
172	0xbdaa254e	-0.083078966
173	0xbe533bbb	-0.20628254
174	0xbd8e8ffc	-0.069610566
175	0xbf0a00b8	-0.53907347
176	0x3d27e4f3	0.040989827
177	0x3d61df49	0.055144582
178	0xbfad90ef	-1.3559855
179	0x3d9324be	0.071847424
180	0x3e8eb88b	0.2787517
181	0x3da67d8f	0.08129417
182	0xbcf2b1c0	-0.029625773
183	0x3e1ac867	0.1511551
184	0x3e12212c	0.14270467
185	0x3d8de7fa	0.06929012
186	0xbd6a8979	-0.05726001
187	0x3b8c7bee	0.0042872345
188	0xbf07c70b	-0.5303809
189	0xbe8388ab	-0.25690207
190	0xbcba7004	-0.022758491
191	0x3e2b0a47	0.16703139
192	0xbd3830c1	-0.04496837
193	0x3dd42f73	0.10360613
194	0xbe1550a3	-0.14581542
195	0x3f7a349a	0.97736514
196	0xbc91d263	-0.017800516
197	0x3f85b5a4	1.0446057
198	0xbe01a648	-0.12661088
199	0xbe019cfe	-0.12657544
200	0xbc7925c5	-0.015206759
201	0x3edbedfa	0.42955
202	0x3d3a1883	0.045433532
203	0x3ece389d	0.40277568
204	0x3e02cced	0.12773485
205	0x3dad6316	0.08466165
206	0x3d052e28	0.03251472
207	0xbe0c5ef1	-0.13708092
208	0x3d3f5e80	0.04672098
209	0x3da1ec2d	0.07906375
210	0x3d2b0cc5	0.041760225
211	0x3e84931a	0.2589348
212	0xbafcfb5e	-0.0019300987
213	0xbd13bc02	-0.03606797
214	0x3e15c58e	0.14626142
215	0xbe534910	-0.2063334
216	0xbdb8dec9	-0.09026868
217	0xbdb95442	-0.09049274
218	0x3d61ec07	0.055156734
219	0x3f2fa49e	0.6861056
220	0x3e9c32d7	0.30507538
221	0xbe9b1a94	-0.30293715
222	0x3e4b831b	0.19874232
223	0x3e523b33	0.20530395
224	0xbe23b728	-0.15987837
225	0xbe6f7cf8	-0.23387516
226	0xbf71e28c	-0.9448631
227	0xbd48610e	-0.048920684
228	0xbeddfb37	-0.43355724
229	0xbd0a0dda	-0.033704616
230	0xbd9cd327	-0.076574616
231	0xbd292e24	-0.04130377
232	0xbd7114a9	-0.058857594
233	0xbdbc3d92	-0.09191431
234	0x3f0a5fb0	0.5405226
235	0xbe91874a	-0.2842353
236	0x3f74f13f	0.9568061
237	0x3d556749	0.052100454
238	0xbcdb032d	-0.026734913
239	0xbe9df0d6	-0.30847806
240	0xbe17547d	-0.14778323
241	0xbe2e7c4a	-0.170396
242	0xbefe23e6	-0.49636763
243	0xbdbb6997	-0.09150999
244	0xbf206cec	-0.626662
245	0x3f238f8c	0.6389091
246	0x3c7a0db6	0.015262058
247	0xbe2f1ae4	-0.17100102
248	0xbeb2bdf8	-0.3491056
249	0xbe95e3c1	-0.29275325
250	0xbe56a2d5	-0.20960553
251	0x3cfdfe93	0.03100518
252	0xbcb2883a	-0.021793474
253	0xbddbeaf7	-0.10738175
254	0x3f012c17	0.504579
255	0xbe1b7d02	-0.15184405
