GANs/saved_models/python/ZtSampledFromBimodalBatchsize1.pth (torch, 565778 bytes, 58 tensors)

h_11.weight f4 [64, 12]
0.23375158 0.27071598 -0.01764859 0.3885978 -0.035405837 0.2292156 -0.25079805 0.2873597
0.36178097 -0.09982229 0.21786731 0.0067433272 0.21197693 0.046406824 0.07201763 0.08479565
0.08506602 0.07324152 -0.18989271 0.047460906 -0.10508094 0.026220748 -0.07220976 0.13491747
-0.11637846 -0.21574114 0.002170744 -0.01130229 0.07191789 -0.20580341 0.09743694 -0.18102664
0.19417684 0.1643279 -0.11743501 0.13712147 -0.00069512427 0.16218802 0.011676181 -0.11655754
0.04120053 -0.09812027 0.08672205 0.18423027 0.15730606 -0.06610866 0.1417571 0.04862834
0.20009187 -0.30188483 -0.36261803 -0.10149436 -0.30116823 0.30937248 0.057336286 0.027902305
0.17941923 0.046586573 0.25075993 -0.2292519 0.16743761 -0.26779097 0.23579495 -0.110484645
0.012032667 -0.09163654 0.15933397 -0.073241055 -0.1584293 -0.1640766 0.27627793 0.13108659
0.3423401 -0.20228711 -0.24539715 -0.12468401 -0.18778384 0.08623683 -0.0011442135 0.2711853
-0.1886295 -0.15597886 0.11527421 -0.07250852 0.1636 -0.031216694 0.29483294 -0.16099858
-0.123986125 0.080345 0.08668521 -0.008758992 0.15051426 0.1622559 -0.23385143 -0.08233438
0.3229726 0.0056078243 -0.14446549 -0.27998593 -0.049693756 0.06627358 -0.04293829 -0.17204867
0.021629099 -0.22283821 -0.28861725 -0.18348229 -0.2680197 -0.26224926 0.27350292 0.13482916
0.063651 -0.2025411 -0.26320627 -0.10253514 0.15304568 -0.13886262 -0.17025043 -0.21148498
-0.04976766 -0.23111331 0.026321733 -0.2197235 -0.24626735 -0.12707742 -0.15270862 -0.15195636
0.25999135 -0.06445555 0.22322871 0.05129362 -0.20380197 0.19136582 0.04441172 -0.11544781
-0.30812338 -0.15451498 -0.00956883 0.011794039 0.09605365 -0.14015113 0.17999864 -0.18676372
0.02985136 0.15506707 0.20491794 0.16258365 0.30027074 -0.17040832 0.14595021 -0.13714135
-0.035687055 -0.23198453 0.26992795 -0.0584755 0.13651027 0.1332844 0.16387488 -0.035329398
0.22792222 0.0025444918 -0.07086127 -0.2374527 0.11826622 -0.020553375 -0.08007037 0.20178458
0.09425973 -0.11261696 -0.028455187 0.04700293 0.13541938 -0.110856816 -0.19181399 -0.085035816
-0.2621075 0.09623828 0.11651888 -0.21795353 0.012925948 0.09714239 0.10071258 -0.06395398
0.11516618 0.10005334 0.06630828 -0.058182556 -0.018237537 0.08385157 -0.10142738 -0.1283312
0.27032337 0.24838036 0.08544014 -0.0033107225 0.06537812 0.006854658 0.019557513 0.09315061
-0.30890375 -0.20220345 0.2275929 0.13158782 0.0070062904 -0.36003566 -0.23493701 -0.17946516
-0.12230325 0.11742588 0.11091928 0.28580758 -0.26872656 -0.053898226 -0.07184855 0.32665074
0.08977489 0.020102743 0.049554978 -0.0661014 -0.19597383 0.18324034 -0.1479687 -0.043355085
-0.174809 0.26945153 0.15290922 0.16253948 -0.2190135 -0.35753164 -0.24525335 0.260368
0.082192264 0.22078694 0.16481772 0.009756309 0.022095738 -0.17891087 -0.2616125 -0.28970915
0.11494511 -0.24879938 -0.032095093 -0.0965311 -0.11933128 -0.19713446 -0.25428823 0.06380317
-0.016918544 0.2130394 -0.15252174 -0.26898706 -0.12968747 -0.13112295 -0.10072471 -0.2663186
00000000: 935c 6f3e 499b 8a3e c793 90bc 4af6 c63e
00000010: b605 11bd 7fb7 6a3e 9a68 80be d020 933e
00000020: 5b3b b93e a16f ccbd 9c18 5f3e 21f7 dc3b
00000030: 7b10 593e 1515 3e3d fb7d 933d 57a9 ad3d
00000040: 1837 ae3d a6ff 953d 3c73 42be 5e66 423d
00000050: ad34 d7bd e5cc d63c b6e2 93bd ce27 0a3e
00000060: d457 eebd 3feb 5cbe 0a43 0e3b 3d2d 39bc
00000070: b049 933d 21be 52be 058d c73d 0c5f 39be
00000080: 4bd6 463e 9345 283e c481 f0bd 9269 0c3e
00000090: 0039 36ba 9e14 263e 744d 3f3c b8b5 eebd
000000a0: e3c1 283d 48f3 c8bd 559b b13d dca6 3c3e
000000b0: d714 213e fa63 87bd c628 113e 832e 473d
000000c0: e2e4 4c3e a690 9abe 12a9 b9be 46dc cfbd
000000d0: b932 9abe 1266 9e3e 74d9 6a3d 6093 e43c
000000e0: adb9 373e 90d1 3e3d 9b63 803e 03c1 6abe
000000f0: c474 2b3e e61b 89be 3b74 713e c645 e2bd
00000100: aa24 453c f0ab bbbd 7228 233e 68ff 95bd
00000110: 4a3b 22be b203 28be 4d74 8d3e 903b 063e
00000120: 3447 af3e 5a24 4fbe 6449 7bbe 555a ffbd
00000130: 684a 40be ef9c b03d 6ff9 95ba cdd8 8a3e
00000140: 1728 41be ecb8 1fbe e314 ec3d 597f 94bd
00000150: c286 273e 27ba ffbc 58f4 963e d0dc 24be
00000160: 70ec fdbd eb8b a43d 0488 b13d e081 0fbc
00000170: 6920 1a3e 6926 263e c076 6fbe ed9e a8bd
00000180: aa5c a53e d7c1 b73b c3ee 13be 515a 8fbe
00000190: ae8b 4bbd 71ba 873d 0fe0 2fbd 872d 30be
000001a0: 822f b13c b32f 64be a4c5 93be c8e2 3bbe
000001b0: e139 89be 8945 86be 9308 8c3e a810 0a3e
000001c0: 755b 823d ef66 4fbe f9c2 86be f2fd d1bd
000001d0: 02b8 1c3e 0132 0ebe 2156 2ebe 858f 58be
000001e0: 2dd9 4bbd f8a8 6cbe ada0 d73c 32ff 60be
000001f0: 822d 7cbe 9520 02be a65f 1cbe 739a 1bbe
00000200: 961d 853e 4501 84bd 1196 643e 4219 523d
00000210: 77b1 50be 67f5 433e 10e9 353d e76f ecbd
00000220: 59c2 9dbe 2d39 1ebe 95c6 1cbc c93b 413c
00000230: c7b7 c43d c783 0fbe 9051 383e fd3e 3fbe
00000240: d78a f43c e7c9 1e3e 02d6 513e 547c 263e
00000250: 16bd 993e 857f 2ebe f973 153e c86e 0cbe
00000260: 972c 12bd 5a8d 6dbe ff33 8a3e 0284 6fbd
00000270: 59c9 0b3e b57b 083e d1ce 273e 8fb5 10bd
00000280: 7164 693e 7dc1 263b b71f 91bd cd26 73be
00000290: 8f35 f23d 8d5f a8bc effb a3bd 9ea0 4e3e
000002a0: 3f0b c13d b9a3 e6bd da1a e9bc 2586 403d
000002b0: 61ab 0a3e e608 e3bd e36a 44be 4227 aebd
000002c0: f432 86be 9318 c53d 73a1 ee3d 362f 5fbe
000002d0: 5bc7 533c 97f2 c63d 6642 ce3d 4efa 82bd
000002e0: 3fdc eb3d c4e8 cc3d a3cc 873d d550 6ebd
000002f0: e366 95bc 5fba ab3d 29b9 cfbd 4169 03be
00000300: d367 8a3e 6c57 7e3e 3dfb ae3d b5f8 58bb
00000310: f7e4 853d 0a9d e03b 1437 a03c bfc5 be3d
00000320: a228 9ebe 6c0e 4fbe 1d0e 693e f5be 063e
00000330: 0695 e53b 9856 b8be 5493 70be b7c5 37be
00000340: 207a fabd fb7c f03d a629 e33d 5f55 923e
00000350: 8796 89be 63c4 5cbd 5525 93bd c43e a73e
00000360: e6db b73d 82ae a43c 29fa 4a3d 2c60 87bd
00000370: 5dad 48be 5ba3 3b3e 1b85 17be 1a95 31bd
00000380: 2101 33be 8df5 893e 3c94 1c3e c070 263e
00000390: 1345 60be 630e b7be b223 7bbe f44e 853e
000003a0: 6b54 a83d f915 623e fac5 283e edd8 1f3c
000003b0: 1f02 b53c 6934 37be 13f2 85be c254 94be
000003c0: 5868 eb3d 44c5 7ebe 2576 03bd 19b2 c5bd
000003d0: f563 f4bd 9edd 49be 1132 82be 3dab 823d
000003e0: c298 8abc 0027 5a3e a92e 1cbe acb8 89be
000003f0: cbcc 04be 1845 06be c248 cebd e95a 88be

h_11.bias f4 [64]
0.18947355 0.5431504 0.4232383 0.48245886 0.22979231 0.3639807 0.1637809 0.26518625
-0.0055274833 0.25718766 0.21411182 0.15082204 0.3879063 -0.083070815 0.2084147 0.4379982
0.06811587 -0.031360317 0.5814235 0.35636896 0.011584643 0.66875714 -0.16862954 0.4163585
0.45534983 -0.24615699 0.43870658 0.04721349 -0.07607897 0.3582159 -0.22465721 0.5753824
0.037054624 0.35649246 -0.03309016 0.51697373 0.07604982 -0.08473009 0.38614672 0.43619847
0.687065 0.20202133 -0.08821731 0.37006116 0.3086921 0.6043201 0.5785775 0.16749457
0.37619868 0.42760476 0.16263197 0.48372066 0.6583703 0.659633 0.2519085 0.14418626
0.23510419 0.15608925 0.110654294 0.14543453 0.35113356 0.1134687 0.5224241 0.23067842
00000000: 5b05 423e e80b 0b3f b1b2 d83e d904 f73e
00000010: ad4e 6b3e ae5b ba3e 2eb6 273e 7ec6 873e
00000020: e41f b5bb 1aae 833e 2140 5b3e 1871 1a3e
00000030: a89b c63e 0821 aabd aa6a 553e 4d41 e03e
00000040: 5580 8b3d ad73 00bd 2cd8 143f fe75 b63e
00000050: 84cd 3d3c ab33 2b3f 39ad 2cbe f12c d53e
00000060: 9d23 e93e 9410 7cbe 269e e03e ef62 413d
00000070: 4bcf 9bbd 1368 b73e 8a0c 66be 434c 133f
00000080: 97c6 173d 2e86 b63e 8c89 07bd 6458 043f
00000090: 02c0 9b3d f886 adbd 06b5 c53e 6855 df3e
000000a0: 7ee3 2f3f aede 4e3e 47ab b4bd a878 bd3e
000000b0: e40c 9e3e b9b4 1a3f a81d 143f b283 2b3e
000000c0: 1d9d c03e 03ef da3e ff88 263e 3caa f73e
000000d0: f58a 283f b5dd 283f 27fa 803e 90a5 133e
000000e0: 27bf 703e dcd5 1f3e b89e e23d caec 143e
000000f0: c7c7 b33e 4762 e83d 96bd 053f f736 6c3e

h_12.weight f4 [64, 6]
-0.50476927 -0.28137094 -0.53756154 0.3218218 -0.21127048 0.049662553 0.08931514 -0.22264801
0.119000584 -0.39985636 -0.2933383 -0.37115654 -0.2786326 -0.37309787 -0.06707449 0.10717773
0.4061944 0.5143448 -0.23295946 -0.52284336 -0.75550485 0.5209944 0.09133644 0.52749
0.2580124 0.14259781 0.36818776 0.40262195 0.10131821 -0.28259882 0.07324985 -0.5233733
-0.37141284 0.6833976 0.6409161 0.43053424 -0.3858267 -0.76710147 -0.3928099 0.8496832
0.4694744 0.4040753 -0.19238734 -0.2813245 0.2840335 0.2658766 0.4213086 0.097308226
-0.083783776 -0.14384006 -0.25898707 0.54944754 0.53716874 0.66285855 0.36168468 -0.15586644
-0.24770015 0.23605143 0.17251225 0.015887126 -0.14536062 -0.0955747 0.2818491 0.30214855
-0.06390937 -0.12546788 -0.24050966 -0.323258 0.40719485 0.49524546 0.56873274 0.13653754
-0.12373668 -0.039964102 -0.76636565 0.27382845 0.17073897 0.0053930692 -0.46409708 0.047094535
0.049317952 0.36883813 0.66094124 0.05162287 -0.38265556 -0.13264754 -0.46554002 0.1464199
-0.04763133 0.39957145 -0.48018247 -0.24058472 0.3529946 0.112169676 0.09435762 0.45153975
-0.15170646 -0.036672127 0.3795845 -0.16575845 -0.29048398 -0.22686097 -0.35302514 -0.44141832
-0.5644051 0.47267917 0.38630998 0.14033177 -0.67334133 -0.42152414 -0.59990025 0.100948974
-0.020484196 0.441759 -0.40585747 -0.3208721 -0.5702487 0.13390796 -0.17162701 -0.11640668
0.32000163 0.21676525 0.23408599 -0.38763443 -0.29275477 -0.15411824 0.34021986 0.0447299
-0.30235332 -0.00045317554 -0.3200546 -0.09245883 -0.11312477 0.35283595 0.12557968 -0.07033547
0.06983359 -0.116985016 -0.07121767 -0.108146235 -0.09195509 0.040493023 0.6553833 0.1826258
-0.38528636 -0.07133698 0.0635041 0.72723794 0.3752956 0.07514711 0.039221566 0.14206152
-0.57322454 0.090273134 -0.25391135 0.17441335 0.037804443 -0.23033243 -0.18142642 0.2557924
0.116760135 -0.27904546 0.32652768 -0.20560376 -0.04497605 0.03863508 -0.024407953 -0.383907
-0.006330459 -0.32773268 -0.51646936 0.20135632 -0.044093993 -0.03665884 -0.373774 -0.36361524
-0.5245241 0.048290927 0.3798343 -0.061492153 -0.3502004 -0.195137 0.05964476 0.5367796
-0.15202463 0.26084796 0.22936249 0.22400287 -0.3829328 -0.1531095 -0.34823608 -0.25566036
0.22738731 -0.06095925 0.17338769 -0.23964433 0.06203737 -0.24693222 -0.024102224 -0.44466087
-0.49573708 -0.15289193 0.27882245 0.61814994 -0.11427524 -0.48387185 -0.04301076 0.25570092
-0.16960031 0.47659302 0.054555245 0.09334019 -0.054151174 0.010569574 0.0040419893 0.1475624
0.09156928 -0.19675325 0.39636737 -0.060095947 -0.2500174 -0.1909429 0.4018881 1.9661464e-05
-0.055417344 -0.16989733 -0.107020415 -0.34383836 -0.43338224 0.013425642 0.15827587 0.6495067
-0.06985903 0.43020087 -0.46419814 -0.011588341 0.10936597 0.6404939 0.58773506 0.485009
-0.09951778 0.062792204 -0.34086516 0.23778658 -0.25534976 0.04146805 -0.49593997 -0.20528433
-0.3001263 0.09752843 -0.3518334 -0.29135707 0.0256628 0.26402396 0.3708877 0.23915596
00000000: 8f38 01bf da0f 90be a29d 09bf d4c5 a43e
00000010: 4a57 58be f66a 4b3d dbea b63d d7fd 63be
00000020: 94b6 f33d f9b9 ccbe 7030 96be 3b08 bebe
00000030: efa8 8ebe af06 bfbe 5a5e 89bd ff7f db3d
00000040: b6f8 cf3e 1aac 033f ed8c 6ebe 10d9 05bf
00000050: c468 41bf e45f 053f 990e bb3d 9609 073f
00000060: 341a 843e 2905 123e 1b83 bc3e 7724 ce3e
00000070: ec7f cf3d cbb0 90be 0404 963d cbfb 05bf
00000080: d329 bebe 25f3 2e3f 1413 243f fc6e dc3e
00000090: 148b c5be c360 44bf 611e c9be d784 593f
000000a0: f35e f03e f5e2 ce3e 3001 45be c409 90be
000000b0: d76c 913e fa20 883e c3b5 d73e 8949 c73d
000000c0: d496 abbd cf4a 13be f499 84be 98a8 0c3f
000000d0: e483 093f 19b1 293f bc2e b93e 749b 1fbe
000000e0: 1ca5 7dbe 77b7 713e 0da7 303e b825 823c
000000f0: 6ad9 14be abbc c3bd 864e 903e 37b3 9a3e
00000100: eae2 82bd a77a 00be 2a48 76be 1382 a5be
00000110: d87b d03e d090 fd3e 7898 113f 7fd0 0b3e
00000120: a869 fdbd 66b1 23bd 8a30 44bf 3e33 8c3e
00000130: 32d6 2e3e 58b8 b03b 229e edbe 33e6 403d
00000140: 9f01 4a3d 5ad8 bc3e 7233 293f 8172 533d
00000150: 6eeb c3be c2d4 07be 435b eebe 19ef 153e
00000160: 1219 43bd a194 cc3e 7ada f5be d75b 76be
00000170: b5bb b43e 37b9 e53d 913e c13d 3830 e73e
00000180: f058 1bbe 8335 16bd e658 c23e 95bc 29be
00000190: 51ba 94be 3e4e 68be b6bf b4be 9501 e2be
000001a0: da7c 10bf 0103 f23e 6cca c53e 22b3 0f3e
000001b0: 1960 2cbf 03d2 d7be 1093 19bf 56be ce3d
000001c0: 79ce a7bc 3c2e e23e 8dcc cfbe 5949 a4be
000001d0: d2fb 11bf 2b1f 093e febe 2fbe a066 eebd
000001e0: 41d7 a33e b6f7 5d3e 3db4 6f3e 0578 c6be
000001f0: f4e3 95be 2cd1 1dbe 4c31 ae3e b336 373d
00000200: 0ece 9abe 3198 edb9 32de a3be 0e5b bdbd
00000210: f6ad e7bd eaa6 b43e f697 003e 0b0c 90bd
00000220: ea04 8f3d d795 efbd 92da 91bd c67b ddbd
00000230: f352 bcbd 03dc 253d 33c7 273f 4202 3b3e
00000240: 4144 c5be 1f19 92bd 700e 823d 442c 3a3f
00000250: bf26 c03e bae6 993d cba6 203d 9378 113e
00000260: d8be 12bf 1fe1 b83d ab00 82be 6a99 323e
00000270: d5d8 1a3d 44dc 6bbe d9c7 39be 39f7 823e
00000280: f01f ef3d 0cdf 8ebe a32e a73e cb89 52be
00000290: ce38 38bd d13f 1e3d 30f3 c7bc 758f c4be
000002a0: bd6f cfbb 94cc a7be 5637 04bf 5a30 4e3e
000002b0: e79b 34bd 9427 16bd 4e5f bfbe c72b babe
000002c0: 3647 06bf b5cc 453d a479 c23e 32df 7bbd
000002d0: 784d b3be fed1 47be 104e 743d 636a 093f
000002e0: 58ac 1bbe dd8d 853e 00de 6a3e 0261 653e
000002f0: c50f c4be bdc8 1cbe 004c b2be eae5 82be
00000300: 38d8 683e 68b0 79bd 8b8c 313e 5365 75be
00000310: e61a 7e3d cddb 7cbe 0772 c5bc 97aa e3be
00000320: 40d1 fdbe b48f 1cbe d1c1 8e3e 133f 1e3f
00000330: 2309 eabd 0dbe f7be 0d2c 30bd 3beb 823e
00000340: b4ab 2dbe 0004 f43e 5275 5f3d 2429 bf3d
00000350: 9fcd 5dbd 022c 2d3c aa72 843b 991a 173e
00000360: ad88 bb3d af79 49be aaf0 ca3e 2b27 76bd
00000370: 4802 80be 8986 43be 47c4 cd3e acee a437
00000380: 4cfd 62bd 91f9 2dbe 852d dbbd 950b b0be
00000390: 47e4 ddbe 39f7 5b3c 1213 223e 1246 263f
000003a0: 4012 8fbd 4a43 dc3e 61ab edbe 06dd 3dbc
000003b0: 44fb df3d 69f7 233f ce75 163f 1a53 f83e
000003c0: facf cbbd 3399 803d e185 aebe 537e 733e
000003d0: 34bd 82be 67da 293d d8eb fdbe 0e36 52be
000003e0: 28aa 99be fcbc c73d 8223 b4be c12c 95be
000003f0: cb3a d23c 262e 873e fee4 bd3e 4de5 743e

h_12.bias f4 [64]
0.37613198 0.0032375145 0.42555112 0.22346291 -0.34116718 0.42031536 0.49280968 -0.14561899
0.50946563 -0.25702447 0.47310993 0.5647131 0.28699195 -0.047465466 0.53533095 0.34139973
0.11262301 0.33903497 0.63567024 -0.17361064 -0.09183344 0.10836169 0.045331296 0.6316999
0.031043682 0.11944926 0.27736798 -0.10829978 0.4075592 0.23776822 -0.22113284 -0.041547958
-0.18516384 0.2842971 0.17647001 -0.60487646 -0.07439319 -0.03910174 0.07736196 0.66635215
-0.12688248 0.31152567 0.10205142 0.070835255 0.44853067 0.5727479 -0.15814352 0.064292796
0.6727117 0.5988231 -0.05199705 0.5370719 0.07356266 -0.22843857 0.3925662 0.18993807
0.062240902 0.49772242 -0.25194284 0.45393825 0.5380738 0.58179307 0.4112978 0.42313915
00000000: 5f94 c03e 7b2c 543b d6e1 d93e 76d3 643e
00000010: 77ad aebe 9333 d73e 8d51 fc3e 251d 15be
00000020: 576c 023f b698 83be 773b f23e 0a91 103f
00000030: 9cf0 923e 266b 42bd 730b 093f f2cb ae3e
00000040: e5a6 e63d fe95 ad3e 49bb 223f fdc6 31be
00000050: 2c13 bcbd bcec dd3d 4fad 393d 16b7 213f
00000060: 524f fe3c d0a1 f43d 2d03 8e3e 46cc ddbd
00000070: 99ab d03e 8379 733e a670 62be 312e 2abd
00000080: 979b 3dbe 648f 913e 8eb4 343e 2fd9 1abf
00000090: 755b 98bd 2529 20bd f36f 9e3d 0e96 2a3f
000000a0: 7bed 01be 4b80 9f3e 5600 d13d 1312 913d
000000b0: d0a5 e53e 9b9f 123f 60f0 21be f1ab 833d
000000c0: d536 2c3f 784c 193f dcfa 54bd 8b7d 093f
000000d0: 05a8 963d cdeb 69be 70fe c83e 207f 423e
000000e0: 51f0 7e3d 79d5 fe3e a7fe 80be 986a e83e
000000f0: 34bf 093f 64f0 143f a095 d23e b2a5 d83e

h_21.weight f4 [64, 64]
-0.13314609 -0.003299032 -0.043694053 -0.024105117 -0.23846993 -0.0034035598 -0.02050013 -0.08458551
-0.030995037 0.03711356 0.06131672 0.06913874 0.12567605 -0.052714124 -0.030226199 0.10062376
-0.113081686 -0.15509282 -0.0041103857 -0.023899108 -0.06755698 -0.02694647 -0.06541195 0.09211891
-0.04305151 -0.04132115 0.09078877 -0.2535772 -0.10110983 -0.005321765 -0.09936728 0.06345869
-0.06395071 -0.0123707345 0.02360782 -0.14071824 -0.055365007 -0.10826829 -0.055617932 0.062520206
-0.13477395 -0.06513187 -0.07525032 0.00780951 -0.06310204 -0.12783517 0.029026885 -0.0050963154
-0.0645271 0.058395438 -0.17829154 0.092217445 0.022069925 0.06135932 -0.08208803 0.010104954
0.0021809512 0.018686572 0.087994576 -0.055499237 -0.035583686 -0.0068814782 -0.0379588 -0.032728314
0.019894697 -0.01532206 0.0054556085 0.083974674 -0.05777744 -0.03960988 0.05747616 0.013840704
0.07489573 0.025212212 0.13102612 0.046830963 -0.014375066 0.17045923 0.07983825 0.04215476
-0.0042577055 0.084512465 -0.025991585 0.07479447 0.08016681 -0.028957138 0.043604065 -0.030985354
0.17308836 0.17976926 0.07299332 0.1231965 0.05242766 -0.10045491 0.05469057 0.112888835
0.21087062 0.032430716 0.077163436 0.13400269 0.13098152 -0.031082477 0.14780529 -0.022393607
0.16865276 0.054349754 0.00034264725 0.052602835 0.021750357 -0.05463662 0.010039507 0.05162107
0.14584512 0.02853391 0.08837756 0.058234278 0.066314064 0.07523227 -0.08089534 -0.043136224
0.0069861272 -0.052076433 0.053131495 -0.0039380197 0.011454358 0.015935007 0.04449225 0.10008123
-0.049647212 0.06309903 0.032121122 0.08797727 0.061523188 0.047573674 0.056581363 0.043494064
0.004645025 0.06432144 0.0716799 0.087022446 0.10713323 0.08205944 0.079500735 -0.059058256
0.13419737 -0.0070534013 0.073550574 -0.015588693 0.018918319 0.017363472 0.10944841 0.110684715
0.106105074 0.10334986 -0.056086306 0.08176724 0.1348203 0.0648232 0.020316275 0.10877276
-0.07791717 0.044538666 0.012684403 -0.036780905 -0.1043653 0.019272286 0.06436286 0.090389736
-0.062679045 0.016335921 0.03282865 -0.044984326 0.1169556 0.13861614 0.007456361 -0.017728224
0.043138262 0.08213298 0.097866245 -0.053555056 -0.22291915 0.14695378 0.07306597 -0.022919597
-0.045804895 -0.04739082 0.11667741 0.015865961 0.13634835 0.14618401 0.082090504 0.08739532
0.015099281 0.1888415 -0.1379649 0.020177996 -0.017344782 -0.074329376 0.002367666 0.010878072
-0.01603863 0.07620725 -0.09373102 -0.0857527 -0.054101333 -0.066773154 0.06979671 0.13326167
-0.07485973 0.049671214 -0.0017778369 -0.043882005 -0.00942982 -0.13534933 -0.14364879 -0.14475854
-0.12486299 0.039596587 0.08207092 -0.005221916 0.06819086 0.03411564 0.0020613028 -0.084613696
0.049881022 -0.09767683 -0.025166413 0.07783546 0.07833538 0.046317082 -0.03449442 0.14466365
0.09817219 0.12057142 -0.017131643 0.105249 0.09341308 0.07653722 0.11617013 -0.034390137
0.10004232 0.0780007 0.055267084 0.15258999 0.092647016 -0.11185122 -0.14036943 0.009500008
0.0734974 -0.0015314515 0.111030586 -0.02173154 -0.04565917 -0.030961085 -0.02528971 -0.026423162
00000000: 7357 08be 9334 58bb 89f8 32bd 1878 c5bc
00000010: 7631 74be 420e 5fbb e3ef a7bc 2b3b adbd
00000020: 4ee9 fdbc 6304 183d 3e27 7b3d 9d98 8d3d
00000030: 39b1 003e c4ea 57bd ef9c f7bc d413 ce3d
00000040: 5f97 e7bd a7d0 1ebe 6ab0 86bb 10c8 c3bc
00000050: 505b 8abd d8be dcbc b3f6 85bd d7a8 bc3d
00000060: c856 30bd 5e40 29bd 76ef b93d dfd4 81be
00000070: ac12 cfbd 3362 aebb 1381 cbbd a1f6 813d
00000080: 97f8 82bd 9fae 4abc 3065 c13c 7118 10be
00000090: 6bc6 62bd c4bb ddbd a1cf 63bd 980a 803d
000000a0: 2f02 0abe dc63 85bd d71c 9abd ebe6 ff3b
000000b0: a43b 81bd 39e7 02be cac9 ed3c fefe a6bb
000000c0: c926 84bd 0e30 6f3d 0f92 36be 80dc bc3d
000000d0: fdcb b43c e953 7b3d c51d a8bd 408f 253c
000000e0: 4aee 0e3b 9514 993c 8036 b43d 2b53 63bd
000000f0: 33c0 11bd 067e e1bb b07a 1bbd 200e 06bd
00000100: 34fa a23c 6109 7bbc f6c4 b23b eafa ab3d
00000110: 09a8 6cbd f83d 22bd 1f6c 6b3d 1fc4 623c
00000120: ef62 993d d789 ce3c b62b 063e d3d1 3f3d
00000130: 6685 6bbc dd8c 2e3e 3d82 a33d 78aa 2c3d
00000140: 3984 8bbb df14 ad3d 4eec d4bc d82d 993d
00000150: 7f2e a43d 8537 edbc 2d9a 323d ffd4 fdbc
00000160: 133e 313e 6f15 383e 867d 953d 724e fc3d
00000170: 63be 563d 4ebb cdbd 3803 603d 4332 e73d
00000180: 78ee 573e 12d6 043d dd07 9e3d 0038 093e
00000190: 0520 063e aea0 febc 455a 173e cc72 b7bc
000001a0: 4fb3 2c3e d99d 5e3d 56a5 b339 1276 573d
000001b0: ce2d b23c a6ca 5fbd bf7c 243c 9d70 533d
000001c0: 6c58 153e f2bf e93c 4bff b43d 1187 6e3d
000001d0: abcf 873d 6013 9a3d 75ac a5bd 9caf 30bd
000001e0: e2eb e43b 194e 55bd 69a0 593d 810a 81bb
000001f0: 0fab 3b3c 228a 823c 813d 363d 63f7 cc3d
00000200: e05a 4bbd 103a 813d 7091 033d 6d2d b43d
00000210: bdff 7b3d 9ddc 423d dcc1 673d d526 323d
00000220: 4b35 983b f6ba 833d e9cc 923d d338 b23d
00000230: ab68 db3d c80e a83d 48d1 a23d 12e7 71bd
00000240: 096b 093e 3820 e7bb afa1 963d b867 7fbc
00000250: 97fa 9a3c d73d 8e3c 7d26 e03d abae e23d
00000260: 9e4d d93d 17a9 d33d c1ba 65bd 9575 a73d
00000270: 550e 0a3e 07c2 843d 516e a63c 41c4 de3d
00000280: 0a93 9fbd 2d6e 363d 3ed2 4f3c 93a7 16bd
00000290: 79bd d5bd eae0 9d3c add0 833d 411e b93d
000002a0: df5d 80bd e9d2 853c 5677 063d 7c41 38bd
000002b0: 6b86 ef3d 64f1 0d3e 7d54 f43b c83a 91bc
000002c0: bfb1 303d 5635 a83d 196e c83d 8c5c 5bbd
000002d0: eb44 64be 0d7b 163e 9ca3 953d e1c1 bbbc
000002e0: ea9d 3bbd e01c 42bd 91f4 ee3d 55f9 813c
000002f0: e79e 0b3e 43b1 153e 111f a83d 51fc b23d
00000300: fa62 773c ab5f 413e ac46 0dbe 534c a53c
00000310: a516 8ebc 003a 98bd d82a 1b3b f139 323c
00000320: 7263 83bc 8c12 9c3d 0df6 bfbd 1d9f afbd
00000330: 5c99 5dbd 5dc0 88bd 94f1 8e3d bf75 083e
00000340: 0f50 99bd 0b74 4b3d 4f06 e9ba 9ebd 33bd
00000350: 887f 1abc 0499 0abe ab18 13be 953b 14be
00000360: 2bb8 ffbd 0830 223d cc14 a83d 9b1c abbb
00000370: a6a7 8b3d d7bc 0b3d ec16 073b f249 adbd
00000380: 0b50 4c3d ca0a c8bd cb29 cebc 3368 9f3d
00000390: 4d6e a03d fbb6 3d3d 054a 0dbd b522 143e
000003a0: 800e c93d 26ee f63d a957 8cbc ca8c d73d
000003b0: 5b4f bf3d 8cbf 9c3d 9bea ed3d acdc 0cbd
000003c0: fde2 cc3d d5be 9f3d bd5f 623d 8d40 1c3e
000003d0: b8bd bd3d 4112 e5bd 01bd 0fbe eca5 1b3c
000003e0: ce85 963d fcba c8ba 0164 e33d 5806 b2bc
000003f0: 1c05 3bbd 1aa2 fdbc 5e2c cfbc 6375 d8bc

h_21.bias f4 [64]
-0.03904288 0.09852969 0.055351432 0.113275476 0.17575246 0.11273045 0.20046204 0.032090142
0.053837825 0.15464841 0.23340139 0.082038336 0.04636049 0.12426688 0.2950904 0.124565795
-0.07525879 0.07613128 0.037188206 0.07639506 0.039540567 0.26590955 0.28862724 0.0030771813
-0.01826838 0.2319079 0.40603417 0.06281136 0.067996636 -0.0048248414 0.12321198 0.07441375
0.18254404 0.17362896 0.2840868 0.14839828 0.15657865 0.3067051 0.12899701 0.021182269
0.16985229 -0.036120787 -0.0731274 0.24803868 0.279606 0.061346073 0.17309716 0.0014006011
0.034036037 -0.05001008 -0.0118386 -0.025380852 0.10787684 0.10806537 0.092620134 0.14955436
0.054023843 -0.017647624 0.18887383 -0.110888585 0.21361017 0.15044174 -0.052626986 -0.003193447
00000000: 6deb 1fbd efc9 c93d 2fb8 623d f9fc e73d
00000010: 74f8 333e 39df e63d ec45 4d3e f470 033d
00000020: 0d85 5c3d 275c 1e3e c600 6f3e b703 a83d
00000030: 7fe4 3d3d a27f fe3d 1716 973e 5a1c ff3d
00000040: 4821 9abd b7ea 9b3d a952 183d 0375 9c3d
00000050: 4af5 213d 4c25 883e f3c6 933e 89aa 493b
00000060: 92a7 95bc 4479 6d3e b6e3 cf3e 3ea3 803d
00000070: d241 8b3d b419 9ebb 9056 fc3d 3c66 983d
00000080: d3ec 3a3e cacb 313e d373 913e b8f5 173e
00000090: 2756 203e 7308 9d3e cb17 043e 7086 ad3c
000000a0: c2ed 2d3e 64f3 13bd d1c3 95bd dafd 7d3e
000000b0: 8528 8f3e 0546 7b3d 6240 313e 6094 b73a
000000c0: 5f69 0b3d 5fd7 4cbd b0f6 41bc 81eb cfbc
000000d0: 88ee dc3d 6051 dd3d a0af bd3d c724 193e
000000e0: 1b48 5d3d c091 90bc 2468 413e 8e19 e3bd
000000f0: a0bc 5a3e 660d 1a3e 658f 57bd 2649 51bb

h_22.weight f4 [64, 64]
-0.014120771 -0.019528447 0.19468516 0.06949877 0.030411158 0.2531464 0.105849095 0.085473366
0.32796595 0.18708254 0.11390574 0.14460474 0.13667054 0.17058843 0.08740521 0.280302
-0.09268382 0.11826813 0.24746117 -0.060069695 -0.038557798 -0.035897404 -0.05007674 0.51879215
0.1374345 -0.1754647 -0.0053343694 -0.0013149416 0.045666877 -0.002775249 -0.1498426 0.0960625
0.06998585 0.27412212 0.21223007 -0.24502105 -0.007825643 0.047787175 -0.044541176 0.26987803
-0.17214176 -0.06628132 0.047725026 0.262444 -0.04086634 0.14938189 -0.13567111 0.1311657
0.13008057 0.21908617 0.09474397 0.18508898 -0.010846615 -0.059932336 0.27984437 -0.18030621
0.15640312 0.38875437 0.110947095 0.043993507 0.109604314 0.2906106 0.20897226 0.2917719
0.0998948 -0.043348473 0.05816269 0.09675707 0.08509529 -0.01280935 0.026240494 0.06764444
0.0033331933 0.024115203 0.10995867 0.053874407 -0.070213936 0.027830444 0.27153417 0.20744014
0.051224675 0.001838774 0.001281673 0.055733304 0.003994748 0.102407895 0.024638362 -0.030715792
-0.060016163 -0.058248263 -0.057825807 -0.052394677 0.07281894 0.13345894 0.23185314 0.04573651
-0.08637148 0.24915373 0.27759847 0.26429155 0.004309714 0.11314972 0.07763064 0.13002451
0.15606335 0.24859582 0.04130664 0.13557738 0.20919089 0.0032517505 0.30893654 0.034263868
0.0011866674 0.18756814 0.124171585 -0.007108684 -0.0101001905 0.0017855725 0.011761053 -0.03271033
0.1791345 -0.014583652 0.14234267 -0.027469957 -0.010149428 0.16345026 -0.03372862 0.18656537
0.027893858 -0.04660648 0.087914616 0.108550556 0.14128916 0.10709157 0.014626498 0.18946421
0.0042620576 -0.13419196 0.0014167712 -0.0916885 -0.1402678 0.102762245 -0.15503043 0.06670956
0.07412328 -0.0744436 -0.045258716 0.06547559 0.0927366 -0.058579326 0.110994436 -0.38415655
0.10576596 -0.15541244 -0.12046175 -0.04098133 -0.04207836 -0.005563862 0.28211102 -0.04820384
0.10108736 -0.072753556 0.092967466 0.54882425 0.021901622 0.06691384 0.21340725 -0.08710908
0.2347801 0.13256243 -0.07625087 -0.027569704 0.1507069 -0.021081854 -0.11506131 0.06735482
-0.1624516 0.046475716 0.15029551 -0.05419075 -0.10347016 0.114907704 0.13405403 -0.22114474
0.04114056 -0.26065385 0.049165726 0.11113299 -0.04776305 -0.027974956 0.0030936308 0.20213287
0.19805782 -0.02904246 0.040218923 0.24430548 -0.056816384 0.2365406 0.12485617 0.1518502
0.04403882 0.13027038 0.09555196 0.016669897 0.12396976 0.2062265 0.21743718 0.21357146
-0.038563017 0.16203037 0.03960688 0.2158063 0.022132024 0.114275716 -0.017329352 0.2591978
0.19724186 0.19984028 0.10769691 -0.09820452 0.043036297 0.023426145 0.1585967 -0.0937229
-0.040832385 0.19965349 0.26259232 -0.043272108 0.0865439 -0.009472042 0.09022537 0.116661206
0.18697703 0.13624658 -0.0008666858 0.10057515 0.20379966 0.056576036 0.029735297 0.19136077
0.13191366 0.031267542 0.039675094 0.104787655 0.031148594 0.1894026 0.13972732 0.17952645
0.20626158 0.1552885 -0.00012467011 0.07806873 0.17508364 0.031631906 0.08388014 0.25235763
00000000: ce5a 67bc 1ffa 9fbc 8c5b 473e 5f55 8e3d
00000010: d220 f93c 689c 813e 69c7 d83d a90c af3d
00000020: 27eb a73e 9192 3f3e 6a47 e93d 4413 143e
00000030: 5df3 0b3e bcae 2e3e 8101 b33d be83 8f3e
00000040: 04d1 bdbd 9036 f23d 7666 7d3e a40b 76bd
00000050: c8ee 1dbd 2809 13bd 451d 4dbd 90cf 043f
00000060: a1bb 0c3e 05ad 33be efcb aebb 1e5a acba
00000070: 310d 3b3d f4e0 35bb 5770 19be 6abc c43d
00000080: be54 8f3d bc59 8c3e d752 593e cce6 7abe
00000090: 2037 00bc 7cbc 433d cf70 36bd 742d 8a3e
000000a0: ee45 30be 80be 87bd 517b 433d 0f5f 863e
000000b0: 7763 27bd 91f7 183e 5eed 0abe 4d50 063e
000000c0: d733 053e 2058 603e 2009 c23d f787 3d3e
000000d0: 00b6 31bc 9c7b 75bd c347 8f3e 31a2 38be
000000e0: 2428 203e d00a c73e 3b38 e33d 8932 343d
000000f0: 3a78 e03d eaca 943e d3fc 553e 2063 953e
00000100: a595 cc3d 2b8e 31bd 003c 6e3d 9228 c63d
00000110: 7046 ae3d 4fde 51bc 4ef6 d63c 2b89 8a3d
00000120: b471 5a3b 3f8d c53c 0332 e13d 69ab 5c3d
00000130: 53cc 8fbd acfc e33c 8706 8b3e 306b 543e
00000140: f7d0 513d 0403 f13a cffd a73a 9b48 643d
00000150: 60e6 823b 3bbb d13d 64d6 c93c af9f fbbc
00000160: 82d3 75bd bb95 6ebd c1da 6cbd cd9b 56bd
00000170: 1922 953d 76a9 083e e96a 6d3e 3556 3b3d
00000180: 88e3 b0bd 2822 7f3e 6321 8e3e 3951 873e
00000190: 8038 8d3b 0abb e73d d0fc 9e3d 2525 053e
000001a0: 12cf 1f3e e78f 7e3e 2731 293d ccd4 0a3e
000001b0: 2336 563e 521b 553b ee2c 9e3e 4558 0c3d
000001c0: f389 9b3a dd11 403e ac4d fe3d f7ef e8bb
000001d0: 457b 25bc df09 ea3a 6fb1 403c 44fb 05bd
000001e0: 096f 373e 45f0 6ebc 47c2 113e ad08 e1bc
000001f0: c949 26bc 815f 273e 0527 0abd fe0a 3f3e
00000200: a981 e43c 70e6 3ebd 940c b43d c14f de3d
00000210: 1bae 103e d352 db3d fba3 6f3c e802 423e
00000220: bba8 8b3b 9e69 09be f4b2 b93a 2ec7 bbbd
00000230: 5da2 0fbe 0375 d23d 4cc0 1ebe 069f 883d
00000240: f2cd 973d e375 98bd 3461 39bd 1118 863d
00000250: b0ec bd3d e0f0 6fbd 0d51 e33d 2bb0 c4be
00000260: d39b d83d 7024 1fbe a6b4 f6bd 0adc 27bd
00000270: 5c5a 2cbd 0f51 b6bb db70 903e 6471 45bd
00000280: e406 cf3d d1ff 94bd ba65 be3d bf7f 0c3f
00000290: 086b b33c 200a 893d 6e87 5a3e 3f66 b2bd
000002a0: 326a 703e 72be 073e 6b29 9cbd dcd9 e1bc
000002b0: e952 1a3e dab3 acbc 44a5 ebbd 53f1 893d
000002c0: b659 26be 525d 3e3d 11e7 193e 1ff7 5dbd
000002d0: 2ae8 d3bd bb54 eb3d 7645 093e c473 62be
000002e0: 0183 283d 6c74 85be 0062 493d b199 e33d
000002f0: 30a3 43bd bc2b e5bc 83be 4a3b ebfb 4e3e
00000300: abcf 4a3e 74ea edbc 99bc 243d 372b 7a3e
00000310: 4cb8 68bd b337 723e 97b4 ff3d 9e7e 1b3e
00000320: 0d62 343d 9965 053e bfb0 c33d 4f8f 883c
00000330: dce3 fd3d 0a2d 533e daa7 5e3e 7ab2 5a3e
00000340: 41f4 1dbd 4aeb 253e d33a 223d 54fc 5c3e
00000350: 384e b53c 6309 ea3d 49f6 8dbc 93b5 843e
00000360: c5f9 493e eea2 4c3e 3390 dc3d 741f c9bd
00000370: d446 303d 30e8 bf3c 2c67 223e cbf1 bfbd
00000380: dc3f 27bd f771 4c3e 8072 863e 183e 31bd
00000390: ee3d b13d a030 1bbc 14c8 b83d 12ec ee3d
000003a0: e876 3f3e 3984 0b3e 4d32 63ba 58fa cd3d
000003b0: dcb0 503e 46bc 673d 7097 f33c 14f4 433e
000003c0: 6014 073e 6512 003d 5a82 223d e99a d63d
000003d0: 562b ff3c c1f2 413e ae14 0f3e c8d5 373e
000003e0: 3c36 533e f303 1f3e e1b9 02b9 80e2 9f3d
000003f0: 2049 333e 7590 013d 5ac9 ab3d 0535 813e

h_22.bias f4 [64]
0.28838342 0.15703209 -0.123539515 0.21939936 0.20361201 0.035254292 -0.10052025 -0.06635825
-0.1007168 0.08642722 0.032633573 0.12924209 -0.042511493 0.050509293 0.10429763 0.12055396
-0.05167422 0.23321678 0.31036025 0.05873861 0.42825744 -0.10748052 0.25727546 0.08415611
-0.03750844 -0.045935888 0.18070048 0.026931122 0.14532919 0.18809296 0.07125321 0.1123296
0.14870477 0.1894008 0.17403981 -0.008717427 -0.06708495 -0.08990805 0.06442042 0.21559909
-0.07757535 0.06920493 0.04418699 -0.025604 -0.04293603 -0.04200648 -0.11232078 0.16228327
0.108363934 -0.059545692 0.03091443 0.04797673 -0.046008106 -0.05589367 -0.11957078 0.15022914
-0.11006966 -0.08869082 0.025938287 0.11751498 0.017468184 0.08789824 0.009026393 0.14280875
00000000: fea6 933e 05cd 203e 4902 fdbd 3aaa 603e
00000010: ab7f 503e ce66 103d 90dd cdbd d6e6 87bd
00000020: 9c44 cebd c100 b13d c8aa 053d 0a58 043e
00000030: 8820 2ebd d5e2 4e3d ff99 d53d ffe4 f63d
00000040: 59a8 53bd 61d0 6e3e 8ae7 9e3e e697 703d
00000050: 8f44 db3e bf1e dcbd 9cb9 833e 0a5a ac3d
00000060: 73a2 19bd 4527 3cbd 8c09 393e a89e dc3c
00000070: 2dd1 143e 719b 403e 34ed 913d 100d e63d
00000080: 1046 183e 49f2 413e 7e37 323e 8ad3 0ebc
00000090: d663 89bd b621 b8bd daee 833d 02c6 5c3e
000000a0: d3df 9ebd 50bb 8d3d 6bfd 343d 7bbf d1bc
000000b0: b1dd 2fbd fd0e 2cbd 7008 e6bd 962d 263e
000000c0: e9ed dd3d 2fe6 73bd 4240 fd3c 3f83 443d
000000d0: ff72 3cbd c3f0 64bd 86e1 f4bd abd5 193e
000000e0: 346c e1bd 88a3 b5bd 887c d43c b2ab f03d
000000f0: 7019 8f3c fe03 b43d 70e3 133c 753c 123e

h_32.weight f4 [128, 128]
0.029187901 -0.0014316859 -0.06377169 -0.052740593 -0.03581126 0.04836519 0.023778489 0.10150749
-0.07640179 -0.028411664 -0.029092204 -0.06025885 0.08954464 -0.080661625 0.02614908 0.06847867
-0.016567582 -0.054608636 -0.033896055 0.010662586 -0.10029998 0.04715407 0.01744248 0.018844027
0.025787655 -0.017657375 -0.08815718 0.06138018 0.08587114 -0.07333441 -0.019404342 0.01650655
0.02353846 0.023178099 0.05546142 0.02824965 -0.049819205 -0.047052022 -0.1437448 -0.07064142
0.07060644 0.062747434 0.11467292 0.033692293 0.008243511 0.108897716 0.017873261 -0.07413211
0.001631211 -0.082737274 0.08665833 0.02783828 0.061621226 -0.010453646 0.069479555 0.14176035
-0.03175722 -0.07043647 0.07019901 -0.039722297 0.0818003 0.056227177 -0.035986245 -0.04656813
-0.002538916 -0.0023526603 0.072485045 -0.031807806 -0.07338304 0.0861038 0.066159524 -0.08109343
0.01855693 -0.009987506 0.06368064 0.063359484 -0.14040972 -0.015540759 -0.062393684 0.12642851
0.036542874 0.10728357 -0.02148611 -0.032376863 -0.019109465 -0.0730158 -0.065162465 -0.07250465
0.13233824 0.056807756 0.06812961 0.026641803 0.11008222 0.06708914 -0.03221688 0.1342155
0.09095255 0.077941224 0.101995274 -0.16482514 -0.05269007 0.049034238 0.034073602 -0.0022093845
-0.010471747 -0.016047526 0.04318859 0.07612046 0.117018245 0.06873073 -0.00159796 0.007951962
0.007935303 0.102617525 -0.16895331 0.17824534 0.011855193 0.015967393 -0.054343455 0.02272123
0.0043543554 -0.031900965 0.06128661 0.07464786 0.030964857 -0.07733473 0.036414877 0.0667112
0.015889822 0.112255074 0.035425045 -0.08838024 -0.06401578 -0.03552763 -0.041414823 -0.08544692
-0.0047596074 -0.013753518 0.10216466 -0.12988381 -0.020749953 0.05338988 0.096291795 -0.122939914
-0.017023873 -0.012134379 0.014574663 -0.052745625 0.025451673 0.046325147 0.007024246 0.018340835
0.053501498 -0.023720374 -0.017585497 0.07772349 0.08609171 -0.033998728 0.07901292 -0.008050135
0.0008653288 0.0010322643 -0.06771291 0.08039804 -0.085950896 0.12343745 -0.08468641 0.08902218
-0.06477619 0.016013566 -0.035033874 0.046666015 0.05556446 -0.050227426 -0.04104916 0.041812092
-0.016566508 0.0021695583 0.06848454 -0.0015986185 0.101183236 0.012309327 -0.09988189 0.13845906
-0.08649597 -0.07912875 0.052772373 -0.03616771 -0.082390495 0.011014124 -0.015958512 0.026670843
0.11101088 -0.08482081 -0.0034648997 0.0038819315 0.09551758 -0.027676763 -0.05761934 -0.031275153
0.008492769 0.054531973 0.06509218 0.16687375 -0.13249753 0.13373314 0.08391455 -0.028948778
-0.06485079 0.037223913 0.05744493 -0.059357386 -0.022949321 0.06579008 0.061090652 0.15413652
0.019744515 -0.1921536 0.17805344 0.018643247 0.027733143 0.019524023 0.061320238 -0.010298778
0.059684206 -0.0110975765 -0.10890877 -0.0497282 0.009672691 -0.035007976 0.020288244 0.07938761
0.07251222 0.0039379885 0.07180777 -0.01446037 0.0021109323 -0.010496743 0.08210234 0.08108474
0.12761347 0.05497987 0.17863464 -0.12943837 0.10355141 -0.1346196 0.0014298905 0.14724073
0.108699165 -0.01896638 0.13488059 0.07227939 -0.09721247 -0.0003490027 -0.0695608 0.016328402
00000000: 771b ef3c 68a7 bbba bb9a 82bd 8506 58bd
00000010: d4ae 12bd 941a 463d 1bcb c23c 29e3 cf3d
00000020: 8b78 9cbd 94bf e8bc c652 eebc fcd1 76bd
00000030: 2e63 b73d ec31 a5bd 9836 d63c 8c3e 8c3d
00000040: bdb8 87bc 4ead 5fbd 97d6 0abd 21b2 2e3c
00000050: 136a cdbd a024 413d 88e3 8e3c ca5e 9a3c
00000060: a240 d33c 33a6 90bc c08b b4bd c969 7b3d
00000070: 35dd af3d 5a30 96bd dbf5 9ebc bf38 873c
00000080: bad3 c03c ffdf bd3c 842b 633d cf6b e73c
00000090: 390f 4cbd 9fb9 40bd d631 13be 73ac 90bd
000000a0: 1c9a 903d ba81 803d a3d9 ea3d ee00 0a3d
000000b0: cb0f 073c c405 df3d f26a 923c 93d2 97bd
000000c0: 5cce d53a 2972 a9bd ec79 b13d 1b0d e43c
000000d0: 8a66 7c3d c545 2bbc 4c4b 8e3d a029 113e
000000e0: dc13 02bd ff40 90bd 80c4 8f3d d9b3 22bd
000000f0: ea86 a73d 784e 663d 5066 13bd 39be 3ebd
00000100: f163 26bb 172f 1abb 0a73 943d e748 02bd
00000110: d949 96bd 3057 b03d a57e 873d 5014 a6bd
00000120: b404 983c a3a2 23bc ff6a 823d 9ec2 813d
00000130: 91c7 0fbe ab9e 7ebc 8590 7fbd 7a76 013e
00000140: fbad 153d 7db7 db3d a303 b0bc 9a9d 04bd
00000150: 748b 9cbc 4f89 95bd e673 85bd 517d 94bd
00000160: ad83 073e 40af 683d 8987 8b3d e93f da3c
00000170: c972 e13d 0866 893d d9f5 03bd ca6f 093e
00000180: 5545 ba3d a69f 9f3d e6e2 d03d ecc7 28be
00000190: 8bd1 57bd 20d8 483d c390 0b3d 52cb 10bb
000001a0: b191 2bbc 1a76 83bc 85e6 303d 0be5 9b3d
000001b0: 43a7 ef3d b2c2 8c3d a472 d1ba f248 023c
000001c0: 1303 023c 2329 d23d 1902 2dbe f285 363e
000001d0: 493c 423c 0dce 823c 3e97 5ebd df21 ba3c
000001e0: fbae 8e3b 96aa 02bd ab07 7b3d fae0 983d
000001f0: 03aa fd3c ac61 9ebd c427 153d e29f 883d
00000200: 5f2b 823c fde5 e53d da19 113d b300 b5bd
00000210: b51a 83bd 6c85 11bd 97a2 29bd cbfe aebd
00000220: 7bf6 9bbb 7056 61bc b53b d13d 4300 05be
00000230: cefb a9bc 59af 5a3d a234 c53d ecc7 fbbd
00000240: a675 8bbc 46cf 46bc 91ca 6e3c cc0b 58bd
00000250: 0780 d03c 70bf 3d3d a52b e63b 853f 963c
00000260: 6324 5b3d 3b51 c2bc 760f 90bc 7e2d 9f3d
00000270: da50 b03d 4042 0bbd 87d1 a13d b7e4 03bc
00000280: 3cd7 623a 0b4d 873a 11ad 8abd baa7 a43d
00000290: 0607 b0bd c6cc fc3d 1270 adbd 4351 b63d
000002a0: 61a9 84bd e22e 833c ae7f 0fbd dd24 3f3d
000002b0: 8f97 633d 46bb 4dbd 2a23 28bd 2843 2b3d
000002c0: 7cb6 87bc 262f 0e3b 9f41 8c3d bc88 d1ba
000002d0: 2839 cf3d 0fad 493c e08e ccbd 36c8 0d3e
000002e0: cd24 b1bd 410e a2bd d827 583d 9824 14bd
000002f0: 59bc a8bd 9674 343c 6dbb 82bc d07c da3c
00000300: ac59 e33d 88b6 adbd 5f13 63bb 0168 7e3b
00000310: b99e c33d 61ba e2bc 4202 6cbd 601a 00bd
00000320: 4125 0b3c eb5c 5f3d 0d4f 853d f4e0 2a3e
00000330: 6fad 07be 57f1 083e 64db ab3d fd25 edbc
00000340: 7ed0 84bd 1a78 183d 604b 6b3d bb20 73bd
00000350: 3700 bcbc f3bc 863d 313a 7a3d f7d5 1d3e
00000360: 40bf a13c eac3 44be a453 363e b9b9 983c
00000370: 9e30 e33c d8f0 9f3c ee2a 7b3d 35bc 28bc
00000380: 6d77 743d 9cd2 35bc 900b dfbd ccaf 4bbd
00000390: 357a 1e3c 8664 0fbd 8833 a63c f995 a23d
000003a0: 4981 943d 3e0a 813b f40f 933d 30eb 6cbc
000003b0: 9157 0a3b 88fa 2bbc 4625 a83d c20f a63d
000003c0: 1bad 023e 9232 613d 00ec 363e 7e8b 04be
000003d0: c312 d43d b8d9 09be 2a6b bb3a 46c6 163e
000003e0: ab9d de3d 625f 9bbc 231e 0a3e 3807 943d
000003f0: 5517 c7bd 59fa b6b9 e575 8ebd 24c3 853c

h_32.bias f4 [128]
-0.01342617 0.052103482 -0.048565753 0.10913716 -0.06587287 -0.0340338 0.035851296 0.049281247
-0.03477601 0.011720896 -0.06871733 0.024911983 0.020909434 0.08816148 0.0028639727 -0.01600834
-0.0518741 0.025490334 -0.084081545 -0.07534045 0.017596051 0.17602077 -0.026152859 0.081660315
0.08808692 -0.028044036 0.065374285 0.025954237 -0.089611344 0.059579942 -0.010868287 -0.017274598
-0.032582127 0.040235553 -0.024639823 0.13283385 0.11650862 -0.032497484 -0.06186563 0.16934486
-0.036734805 -0.050415013 0.066997886 0.03795068 -0.014673689 0.002259348 0.09818976 0.048366327
0.021430284 0.14640291 0.035347134 0.008680136 -0.10610722 -0.08736703 -0.07990172 0.02353152
-0.07363656 0.043209936 0.11290979 0.05523439 -0.08093942 0.08739633 0.12711053 0.162642
0.059669774 0.2419416 0.034400664 0.08835674 -0.045073073 -0.02222027 0.03170287 -0.008316222
0.021146167 0.024669426 -0.04961704 -0.06760385 -0.07720416 -0.0007200536 -0.05825524 0.06867783
-0.0037426434 -0.005751408 -0.019705199 0.17040311 0.22058977 0.052665092 -0.034640532 0.075930156
-0.011420523 -0.03669698 0.03552067 0.10042797 -0.035395373 0.0716033 0.14537382 -0.021999724
-0.017873218 -0.08313103 -0.012190602 0.15908073 -0.08592912 0.15878135 0.15471372 -0.0694289
-0.022198925 0.018973328 -0.09622727 0.13583829 0.012843698 0.009996034 -0.008690722 0.13360813
-0.026436731 0.13073017 0.026223505 -0.012336416 0.010516197 0.06610802 -0.15681656 0.059150916
0.021418909 -0.10492102 -0.11803768 0.052053817 0.06374224 -0.08825713 -0.05146509 -0.022472562
00000000: 70f9 5bbc 766a 553d e2ec 46bd 4e83 df3d
00000010: 5be8 86bd 0767 0bbd cfd8 123d 22db 493d
00000020: 4a71 0ebd 0009 403c acbb 8cbd 3714 cc3c
00000030: 434a ab3c 028e b43d 7db1 3b3b ec23 83bc
00000040: f079 54bd 1bd1 d03c f232 acbd 184c 9abd
00000050: 9825 903c ca3e 343e 853e d6bc 863d a73d
00000060: ea66 b43d 9bbc e5bc f4e2 853d fb9d d43c
00000070: 2786 b7bd 190a 743d e610 32bc 7583 8dbc
00000080: d674 05bd 09ce 243d 74d9 c9bc 9905 083e
00000090: 129c ee3d 151c 05bd d166 7dbd bd68 2d3e
000000a0: 3c77 16bd f97f 4ebd 3036 893d 2c72 1b3d
000000b0: ea69 70bc 9211 143b b717 c93d c51b 463d
000000c0: 908e af3c a5ea 153e 28c8 103d 2137 0e3c
000000d0: be4e d9bd 7ced b2bd 83a3 a3bd 2dc5 c03c
000000e0: c4ce 96bd e7fc 303d 3f3d e73d 753d 623d
000000f0: 91c3 a5bd d9fc b23d 4329 023e a08b 263e
00000100: 4b68 743d 8abf 773e b6e7 0c3d 61f4 b43d
00000110: 8b9e 38bd 4907 b6bc deda 013d c340 08bc
00000120: ba3a ad3c 8917 ca3c 3d3b 4bbd e373 8abd
00000130: 371d 9ebd fbc1 3cba 0c9d 6ebd f6a6 8c3d
00000140: 2347 75bb 4f76 bcbb cc6c a1bc 277e 2e3e
00000150: 49e2 613e 5ab7 573d 3be3 0dbd 4581 9b3d
00000160: 251d 3bbc 934f 16bd 1f7e 113d 2ead cd3d
00000170: bdfa 10bd c0a4 923d e0dc 143e c438 b4bc
00000180: db6a 92bc 9a40 aabd 17bb 47bc 0fe6 223e
00000190: 9bfb afbd 9497 223e 466d 1e3e bd30 8ebd
000001a0: 85da b5bc f46d 9b3c ce12 c5bd 3119 0b3e
000001b0: 606e 523c 68c6 233c 8863 0ebc 92d0 083e
000001c0: d891 d8bc 21de 053e add2 d63c ae1e 4abc
000001d0: 214c 2c3c a463 873d 8594 20be 3b48 723d
000001e0: b576 af3c d5e0 d6bd bdbd f1bd 6236 553d
000001f0: 4b8b 823d 27c0 b4bd 0fcd 52bd 6118 b8bc

output.weight f4 [12, 128]
-0.04720212 0.09853529 -0.03289163 -0.22848745 -0.2339915 0.16994281 0.016128937 0.05381565
0.07375986 0.12341929 0.07669571 -0.014329381 0.07665774 -0.10841642 -0.096653886 -0.03432211
0.14566824 0.053325206 0.19046101 0.054041285 -0.060815014 0.013374306 -0.0061575505 0.029232629
-0.18696941 0.07269662 0.20538373 0.044043493 -0.042479966 0.08520741 0.1129831 0.21963564
-0.11899275 0.18366216 -0.020005768 0.06791493 -0.02194706 0.046263512 -0.07039369 0.026318941
-0.059696257 -0.070357054 -0.0397369 -0.092708364 0.09347225 0.14727193 0.07727892 0.008497356
0.07188078 0.102063 0.078394584 -0.078972414 0.08143722 0.09024165 0.09685294 -0.3496524
-0.11778418 0.05975557 -0.36125457 0.12788408 0.05113141 -0.0061986563 -0.25530297 -0.08992935
-0.085394695 0.082522914 0.005850929 -0.014290983 -0.0354469 0.047471005 -0.11279846 0.057150397
-0.029963523 0.035679743 -0.050506886 -0.020631628 -0.06610602 0.23412982 0.20136593 -0.072039336
-0.046651755 0.049724903 0.11840495 -0.13938141 -0.0207459 -0.09815376 -0.06668143 -0.20846388
-0.030185394 0.15870778 -0.059772074 0.124458194 -0.06290423 -0.085767254 -0.066928186 0.15259176
-0.04498785 0.04900142 0.03912926 0.10337282 -0.11733586 -0.042132642 0.14401382 0.010308001
-0.09890911 0.06619918 0.043499097 -0.08456092 -0.076927856 0.060569905 0.12804133 -0.092199095
-0.10547093 0.03056449 0.04051832 0.08969603 0.09675626 -0.0051317443 0.054784644 -0.10422539
-0.008177931 -0.01136413 0.12113596 0.035918117 0.01002771 -0.042989317 0.042759597 0.049423385
0.15591402 0.08110487 -0.06935343 0.026180308 -0.14677374 -0.16822976 -0.041304495 -0.04368085
0.061431915 0.06332438 0.12778015 0.13127954 0.13486871 0.15049706 -0.0052864486 0.14972289
-0.04219702 0.045315824 0.07177416 -0.028253049 -0.07510669 -0.009433519 0.16913812 0.037658222
-0.092257425 0.1310355 -0.03520177 -0.07451668 -0.016067533 0.09594368 0.046694838 -0.071119785
-0.13276714 -0.057554472 -0.08520931 -0.092585 0.080498636 -0.066306785 -0.084562294 -0.07990824
0.084013574 0.13611436 -0.06868117 -0.07984894 0.14163612 0.02050357 -0.00036036773 -0.016329253
0.16265117 -0.13729683 -0.11653509 0.07744947 0.118132755 0.029914929 0.010083506 0.1561672
-0.15325357 -0.05008144 -0.06254554 0.031216754 -0.038620967 -0.10381133 0.08833881 0.16269815
-0.08197279 -0.120991714 0.044264797 -0.09911108 0.05565686 -0.060913876 0.17478228 -0.04731776
0.2504715 0.031530436 0.065900944 0.07387615 -0.05146582 0.06355731 -0.21612121 -0.13230856
0.039913986 -0.05100067 0.10585098 -0.06182561 -0.09161203 0.15765475 -0.008566784 -0.056373548
0.020827306 0.17596921 -0.066813886 -0.0074372026 0.02026535 -0.014205332 -0.035586398 0.05779506
0.14029703 0.019797338 -0.002852964 0.13316151 -0.04172745 -0.11745959 -0.10279696 -0.29763067
0.023371363 0.06556814 -0.075094 -0.05762295 -0.06508678 0.03870927 0.23486756 -0.058644187
0.20664622 0.028632475 -0.033656728 0.089778505 -0.07407819 -0.040649205 0.06730965 0.102504075
0.1469698 0.17243147 0.15800984 0.017436003 0.1375643 -0.025147295 0.07219779 0.19013806
00000000: 0357 41bd dfcc c93d 60b9 06bd 9df8 69be
00000010: 789b 6fbe 7d05 2e3e d520 843c cd6d 5c3d
00000020: 690f 973d 41c3 fc3d a412 9d3d c8c5 6abc
00000030: bcfe 9c3d 6e09 debd 79f2 c5bd 5795 0cbd
00000040: 0e2a 153e 886b 5a3d 3608 433e 655a 5d3d
00000050: 2a19 79bd e81f 5b3c 47c5 c9bb 4479 ef3c
00000060: e974 3fbe f7e1 943d 1d50 523e f366 343d
00000070: 79ff 2dbd 3981 ae3d af63 e73d 2ae8 603e
00000080: 79b2 f3bd ef11 3c3e 23e3 a3bc fc16 8b3d
00000090: 52ca b3bc cf7e 3d3d 912a 90bd d29a d73c
000000a0: 1084 74bd 5c17 90bd 29c3 22bd e2dd bdbd
000000b0: 616e bf3d 74ce 163e 6944 9e3d 7f38 0b3c
000000c0: 3b36 933d 6806 d13d 578d a03d 4abc a1bd
000000d0: 8fc8 a63d 9dd0 b83d d65a c63d a405 b3be
000000e0: d538 f1bd 42c2 743d 5cf6 b8be 0bf4 023e
000000f0: 2b6f 513d 191e cbbb 12b7 82be e12c b8bd
00000100: 6ae3 aebd c601 a93d 26b9 bf3b ba24 6abc
00000110: c530 11bd f570 423d e102 e7bd 8916 6a3d
00000120: 1076 f5bc ec24 123d 4fe0 4ebd a903 a9bc
00000130: 9862 87bd babf 6f3e df32 4e3e 5c89 93bd
00000140: e915 3fbd 57ac 4b3d 4b7e f23d 00ba 0ebe
00000150: 4ef3 a9bc d704 c9bd 4690 88bd 8e77 55be
00000160: 5c47 f7bc 4b84 223e 90d3 74bd f0e3 fe3d
00000170: efd3 80bd bea6 afbd a511 89bd 0441 1c3e
00000180: 2e45 38bd b7b5 483d 0146 203d 21b5 d33d
00000190: c94d f0bd 4793 2cbd 5c78 133e e4e2 283c
000001a0: dc90 cabd 7093 873d 1c2c 323d 472e adbd
000001b0: 5a8c 9dbd 2618 783d 441d 033e e1d2 bcbd
000001c0: 2501 d8bd 6262 fa3c 8af6 253d 8db2 b73d
000001d0: 2528 c63d 3128 a8bb dd65 603d 1f74 d5bd
000001e0: bbfc 05bc 9e30 3abc 2116 f83d e01e 133d
000001f0: 444b 243c 9115 30bd b024 2f3d 2d70 4a3d
00000200: eda7 1f3e 4f1a a63d 2c09 8ebd 1678 d63c
00000210: db4b 16be 6c44 2cbe e72e 29bd b1ea 32bd
00000220: 08a0 7b3d 36b0 813d cdd8 023e 256e 063e
00000230: 061b 0a3e e71b 1a3e f239 adbb f550 193e
00000240: c8d6 2cbd 169d 393d 55fe 923d f072 e7bc
00000250: 89d1 99bd 0c8f 1abc 8b32 2d3e 823f 1a3d
00000260: 76f1 bcbd 2c2e 063e bb2f 10bd 339c 98bd
00000270: 0fa0 83bc 1f7e c43d 1643 3f3d 40a7 91bd
00000280: 1cf4 07be 3dbe 6bbd 3882 aebd 349d bdbd
00000290: 78dc a43d dacb 87bd ff2e adbd eea6 a3bd
000002a0: 4f0f ac3d 9061 0b3e b7a8 8cbd d787 a3bd
000002b0: 0f09 113e 1af7 a73c bdef bcb9 edc4 85bc
000002c0: 078e 263e 8a97 0cbe f3a9 eebd d49d 9e3d
000002d0: 96ef f13d 2710 f53c 4a35 253c 4bea 1f3e
000002e0: 81ee 1cbe 3222 4dbd e017 80bd 47ba ff3c
000002f0: 0531 1ebd 099b d4bd faea b43d 589a 263e
00000300: 5ae1 a7bd 81ca f7bd 014f 353d c0fa cabd
00000310: 73f8 633d d480 79bd 20fa 323e 44d0 41bd
00000320: cd3d 803e 0f26 013d 13f7 863d 614c 973d
00000330: d3cd 52bd 562a 823d e14e 5dbe e57b 07be
00000340: d97c 233d 14e6 50bd 66c8 d83d da3c 7dbd
00000350: 179f bbbd 3f70 213e b25b 0cbc f3e7 66bd
00000360: 079e aa3c 4631 343e b8d5 88bd c7b3 f3bb
00000370: 8503 a63c 7bbd 68bc 0bc3 11bd 83ba 6c3d
00000380: 06aa 0f3e 072e a23c cbf8 3abb 7e5b 083e
00000390: 67ea 2abd a78e f0bd 3687 d2bd 0c63 98be
000003a0: 4d75 bf3c 9748 863d e2ca 99bd 0b06 6cbd
000003b0: 384c 85bd 9d8d 1e3d 1f81 703e e334 70bd
000003c0: 119b 533e a78e ea3c a3db 09bd cbdd b73d
000003d0: 4eb6 97bd c87f 26bd a4d9 893d a8ed d13d
000003e0: 407f 163e e091 303e 55cd 213e f3d5 8e3c
000003f0: a8dd 0c3e b301 cebc 6fdc 933d 8db3 423e

output.bias f4 [12]
-0.032976925 -0.112781756 -0.0146012055 -0.0027955433 0.075601816 0.06763507 0.033382032 0.036036294
0.05895582 -0.005292067 0.11632176 0.11018352
00000000: d012 07bd 1ffa e6bd e539 6fbc 6f35 37bb
00000010: 20d5 9a3d 4184 8a3d 99bb 083d cb9a 133d
00000020: a87b 713d 1369 adbb 1a3a ee3d e6a7 e13d
