GANs/saved_models/python/ZtSampledFromBimodalBatchsize1.pth (torch, 565778 bytes, 58 tensors)

h_11.weight f4 [64, 12]
00000000: 6263 753e 6b47 893e b055 1dbc 0762 c53e
00000010: 0881 17bd 4263 703e fb8e 7fbe e776 923e
00000020: 0ea0 b33e 430a e5bd b41c 6c3e 2a43 803c
00000030: e0bd 523e 8f71 223d 3199 923d 3a79 c43d
00000040: d3dd a53d 1c0c 9a3d e24a 3fbe 1d58 233d
00000050: 43fc d1bd ee11 9f3c be6c 71bd 830f 003e
00000060: 047b b2bd a349 4ebe a6b9 473c 41bb ed3b
00000070: 678e 943d 753b 4cbe dece c23d 5da1 4fbe
00000080: e3b3 363e 8639 253e 9dd0 dcbd 4c37 173e
00000090: b077 913b 3665 2b3e 25cd b43c c9ca bfbd
000000a0: d87b 123d 1729 bfbd 605c 863d 4b53 363e
000000b0: 01bc 153e e0da 90bd f9e3 183e d23d 3f3d
000000c0: 93b7 4f3e 3e3d 95be c6bd b9be ebb2 bfbd
000000d0: f147 9dbe 3efe 9c3e cd08 343d 8e24 903c
000000e0: 40fd 343e bfd9 503d bfa8 773e ef45 68be
000000f0: 4b1d 3a3e b495 7abe 3c02 7f3e 8709 afbd
00000100: 6a02 263c e604 93bd 3e6a 203e 6203 b0bd
00000110: 3086 2ebe e5c4 33be 5073 963e 53c9 063e
00000120: 1d32 b13e 8341 49be ce66 77be f26e fcbd
00000130: aa59 43be 67c6 943d c980 37bc 7c50 8d3e
00000140: 37a4 53be 9874 24be 8eb1 e23d 60c8 8fbd
00000150: e1fa 453e a8ff f3bc 5b80 9d3e 6305 20be
00000160: 7a73 e8bd b0ed 553d 8c00 af3d 72ba b8bc
00000170: f082 003e bb66 153e c816 5cbe fea9 bcbd
00000180: 2567 a83e 8a0e 8d3c ab80 07be 227f 8cbe
00000190: 7281 2fbd 8a85 b13d ed56 50bd b450 35be
000001a0: a6a8 913c f0f2 72be f90b 96be 9b5f 2fbe
000001b0: 26cd 85be 2576 8dbe 1f8d 8f3e 72c6 173e
000001c0: 4fa7 813d b906 52be e63c 8ebe 84fc ebbd
000001d0: 15d8 173e 2f43 19be 1fc7 2dbe 2b3c 63be
000001e0: ddf3 febc 44c9 67be 4f3d 2a3d ca44 6dbe
000001f0: 5259 73be 362c 13be 1f34 1cbe a743 1cbe
00000200: af95 813e 8d2d 9fbd 52af 7a3e 708f 6a3d
00000210: a307 40be 58f8 493e cd2d 393d 60eb f8bd
00000220: b76d 9dbe f18e 16be 22f3 05bc c31d 313c
00000230: c524 9a3d 0907 24be 961d 4b3e 1150 41be
00000240: 5d20 253d c008 193e 523f 593e f63b 383e
00000250: 61ec 983e f573 34be b623 0b3e 798b 12be
00000260: a82a 3dbd afe7 69be 2fd7 893e c12c 8dbd
00000270: 8511 0d3e 4187 0f3e e944 333e 7c0e 13bd
00000280: 29e8 753e d0e6 a03c 36d9 89bd 4d73 6cbe
00000290: 84e3 e13d 5b8c 31bd 833e b2bd 4b4a 593e
000002a0: 81b7 cf3d 9458 d7bd 8625 01bc 655d 4d3d
000002b0: 002c 1a3e e466 d5bd 99bc 44be b221 9cbd
000002c0: ec79 8cbe e241 c23d 25d9 ee3d 3176 5dbe
000002d0: 3f5f 823c 0c71 ca3d f35d c93d acd5 08bd
000002e0: 8bea e13d 56c6 e13d ed1d 5a3d bdf3 88bd
000002f0: 369e dfbc 82b9 8f3d 9284 bcbd e1e4 f8bd
00000300: 3d0a 8e3e 8017 7d3e 389e c03d 2465 4abc
00000310: 4f2f 503d 61b9 b4bc 47f4 c83c 037f b63d
00000320: 56fe a2be 6af1 4cbe d6f8 673e bc4a f23d
00000330: 7d86 b83c 516e b0be 318a 72be 0f41 1abe
00000340: 61a6 09be 3f53 0a3e 3819 c93d 483b 913e
00000350: aad1 92be 9aae 9dbd ddd0 72bd d8f6 ac3e
00000360: ccee bc3d 2c1b f93c 1953 4d3d 9068 29bd
00000370: a301 43be cf08 443e 2167 1dbe b0f3 54bd
00000380: 9774 2ebe 5570 833e e374 1e3e 92f1 203e
00000390: 18df 5cbe 5f3a bcbe 1c99 73be a289 8d3e
000003a0: bb6c b73d 7ac9 6b3e c552 253e be34 1e3c
000003b0: f148 0b3c f24e 49be 857f 80be 451a 9abe
000003c0: ac3e ff3d bf05 7dbe 8663 a2bc b1ae bbbd
000003d0: 8016 ecbd 04af 53be a660 85be 5351 743d
000003e0: e5e5 d2bc 173b 603e d911 26be 8114 90be
000003f0: 1057 e5bd 50b6 05be af9d d4bd d278 7bbe
0.23963693 0.268123 -0.009602949 0.3855135 -0.03698829 0.23475364 -0.24956886 0.2860634
0.3508305 -0.11183598 0.23057824 0.015657026 0.20580244 0.03965908 0.07158125 0.09593435
0.0809895 0.07521841 -0.1868091 0.039878953 -0.10253193 0.01941773 -0.058941595 0.12505917
-0.087148696 -0.20145278 0.012190258 0.0072549884 0.072537236 -0.19944556 0.09512113 -0.20276399
0.17842059 0.16135225 -0.10781977 0.14767188 0.0044393167 0.16737828 0.022070477 -0.0936485
0.035762638 -0.09334009 0.06560588 0.17805211 0.14622499 -0.07072997 0.14930715 0.046689816
0.20284872 -0.29148287 -0.36277598 -0.09360298 -0.3071895 0.3066272 0.043953706 0.017595556
0.17674732 0.05098891 0.24185465 -0.22682928 0.18175237 -0.2447117 0.24903196 -0.08546739
0.0101324115 -0.07178669 0.15665528 -0.08594395 -0.17043376 -0.17555578 0.2938485 0.13162737
0.34608546 -0.19653897 -0.2416031 -0.12325849 -0.19077173 0.07264405 -0.011200138 0.27600467
-0.20668112 -0.16060102 0.11069022 -0.070206404 0.19333984 -0.029784992 0.3076199 -0.15627055
-0.113501504 0.05222863 0.08545026 -0.022549842 0.12549949 0.1458997 -0.21493065 -0.09212111
0.32891193 0.017218847 -0.13232677 -0.27440745 -0.042848058 0.08668049 -0.05086415 -0.17706567
0.017780613 -0.23725486 -0.2930601 -0.17126314 -0.26133078 -0.276292 0.28037354 0.14821795
0.0633074 -0.20510377 -0.27780837 -0.11522773 0.14828523 -0.14967035 -0.1697049 -0.22190921
-0.031122142 -0.2263537 0.041562375 -0.23170772 -0.23764542 -0.14372334 -0.15254258 -0.15260182
0.25309512 -0.0777236 0.24480942 0.0572657 -0.18752913 0.19723642 0.045209695 -0.12154269
-0.30747768 -0.14702965 -0.008175643 0.010810318 0.075265445 -0.16018309 0.19835505 -0.18878199
0.040314067 0.14944744 0.21215561 0.17991623 0.29867843 -0.17622359 0.13587841 -0.14311017
-0.04618326 -0.22842287 0.26921985 -0.06893302 0.13776214 0.14016439 0.17506756 -0.035902485
0.24014343 0.01964131 -0.06730883 -0.23090859 0.11029723 -0.043346744 -0.087033294 0.21219747
0.101424225 -0.10514942 -0.007882481 0.050137896 0.15055847 -0.104200155 -0.1921257 -0.07623614
-0.2743677 0.094852224 0.11662511 -0.21627118 0.015914558 0.09884843 0.098323725 -0.0334069
0.11031064 0.11024158 0.053251196 -0.066871144 -0.02729712 0.07017805 -0.09204973 -0.1215303
0.27742186 0.24715996 0.09405178 -0.012353215 0.050826367 -0.022061052 0.024530543 0.08910944
-0.31834668 -0.20013967 0.22653517 0.11830661 0.022525067 -0.34459165 -0.23685528 -0.1506388
-0.13442375 0.13508318 0.09819263 0.2836554 -0.28675586 -0.07699318 -0.05928122 0.33782077
0.092252344 0.030408464 0.050128076 -0.041359484 -0.19043593 0.19143985 -0.15371372 -0.05199021
-0.17036663 0.2567164 0.15474276 0.15717152 -0.21569479 -0.36763284 -0.23788875 0.27644068
0.089562856 0.23026076 0.16144855 0.009656129 0.008501277 -0.19659021 -0.2509729 -0.30098167
0.124631256 -0.24709223 -0.019822847 -0.09164179 -0.11527729 -0.20672232 -0.260503 0.05964787
-0.025744388 0.21897541 -0.16217746 -0.28140643 -0.111982465 -0.13057828 -0.10381638 -0.24557808

h_11.bias f4 [64]
00000000: 5c23 613e 42d7 163f db50 ec3e 90b3 0a3f
00000010: a005 843e bc4e d83e f6df 573e 89e0 9b3e
00000020: b3ee b63b ec53 993e 9122 833e c6fd 3a3e
00000030: 6b4f e73e 1a49 88bd 61b8 8a3e bfc5 f33e
00000040: 3d47 ac3d af14 a7ba 01c3 243f 5976 cf3e
00000050: 382c 1f3d 3dc0 333f 7230 16be f316 ee3e
00000060: 5da6 003f c67e 79be 0275 fc3e 0328 ec3c
00000070: 18ea 3fbd f700 cf3e 784a 4bbe bab2 213f
00000080: 8815 b33d b810 d03e e1a2 e7bc dcfb 123f
00000090: 987a 993d 1882 1fbd 5cda e03e 3722 f73e
000000a0: bace 3f3f 4bf8 633e dd43 5dbd c0e7 db3e
000000b0: 97ab b43e cb33 253f dea4 1f3f eb0c 453e
000000c0: 1e66 d93e 9304 f63e 6040 633e 1a47 073f
000000d0: 209b 343f 388e 373f 390c 963e 9469 4f3e
000000e0: a25d 903e 835a 363e 2782 153e 1385 2d3e
000000f0: 8fd9 cc3e 0d0e 213e 0a9a 123f b473 8e3e
0.21986145 0.5892221 0.46155438 0.5418024 0.25785542 0.4224757 0.21081528 0.30444744
0.0055826544 0.2994684 0.2561231 0.1826087 0.4517778 -0.06654568 0.27093795 0.47611806
0.08412025 -0.0012747253 0.6436005 0.4051998 0.03886053 0.7021521 -0.14666918 0.46501884
0.5025385 -0.24364766 0.4930802 0.028827673 -0.04685411 0.40430424 -0.19852626 0.6316334
0.08744341 0.40637755 -0.028275909 0.57415557 0.07494086 -0.038942426 0.43916595 0.4826829
0.74924815 0.22262685 -0.054019798 0.4295025 0.35287163 0.64532155 0.6236094 0.19243209
0.42460722 0.48050365 0.22192526 0.5284287 0.705492 0.71701384 0.293062 0.20255119
0.28196436 0.17807965 0.1460043 0.16945295 0.40009734 0.15728016 0.57266295 0.2782265

h_12.weight f4 [64, 6]
00000000: 50b1 07bf 9f3e a1be da4c 10bf 4304 b33e
00000010: 77db 3abe 2554 a73d 2b2d b73d afdc 63be
00000020: e4f8 f33d 8dca ccbe 0441 96be cf18 bebe
00000030: 4c42 92be c782 d0be 7207 a3bd 213d dc3d
00000040: 05ac d63e 2492 093f 62ea 81be 4771 10bf
00000050: 1f3d 4dbf ee03 073f e80d c43d 7a43 183f
00000060: cb73 833e 4dbc 103e a7dc bb3e abcd ce3e
00000070: 1520 d23d c808 90be d661 fb3c 95db 04bf
00000080: 2f33 bfbe 1a02 303f a89c 2e3f 046d d43e
00000090: 83a8 dbbe d285 49bf 9442 d7be 5590 663f
000000a0: c4fa 063f 74ed ce3e 7278 53be 5134 93be
000000b0: d3be 8e3e 6375 883e b1ff e53e cd7b df3d
000000c0: 75c7 e4bd 738f 3dbe beb4 92be 5ffd 123f
000000d0: e3af 0a3f b907 363f 0a4f bf3e 5d95 19be
000000e0: 3ae9 75be 9d75 623e 5e37 243e 1aa5 f6bb
000000f0: c77a 25be 97e3 d2bd 55c7 873e c8f7 993e
00000100: b241 52bd 5c60 e8bd 2ef3 87be b072 a9be
00000110: bd2d cc3e bec5 fd3e 0790 183f b0c1 093e
00000120: 48fd 25be d8b2 78bd 8de5 4dbf e21d af3e
00000130: e10a 5c3e 15ab ff3c 48c3 03bf a0d2 7c3d
00000140: e774 4a3d 5ee2 c93e 864f 353f 57e0 383b
00000150: 1535 c2be bcdd 3cbe af0c 01bf dba2 303e
00000160: ddb9 50bd ead9 f23e 003f fbbe f1e7 90be
00000170: 32c7 a43e 882f d23d 9da6 d53d 695b ff3e
00000180: 5c48 1bbe 31f3 15bd 3061 c23e 29cd 29be
00000190: 9bc2 94be d25e 68be 260a d3be 841e f9be
000001a0: 5818 21bf 84b1 093f e67d e53e d954 213e
000001b0: 8c29 36bf 4b0b f1be 1ce4 23bf 81fd 1c3e
000001c0: 2f01 bf3b 942b 023f 30a2 d8be 8d88 a9be
000001d0: db88 15bf 00ec 233e f6a3 22be 36a7 b6bd
000001e0: 41d7 a33e b6f7 5d3e 3db4 6f3e 0578 c6be
000001f0: f4e3 95be 2cd1 1dbe b1e9 ae3e 57f4 3c3d
00000200: 3016 9abe 0c8b f3ba f695 a4be 4f3f c0bd
00000210: 9af7 e6bd 15e5 b43e 24f3 003e 67c2 90bd
00000220: 8e4e 8e3d 334c f0bd e5b8 bdbd 0aa0 03be
00000230: 5b02 cebd 732f 263d dc52 2b3f 84be 393e
00000240: f4bc d4be f1d6 8ebd e9e4 663d 4769 433f
00000250: ca7b da3e 2425 353d 8230 4b3d 57e8 233e
00000260: 8ef4 0abf b552 9a3d 1c95 80be 83dc 053e
00000270: 7fd4 c93c 7808 85be cd49 58be 7813 903e
00000280: 8b70 f73d 7374 86be 5926 a73e 5f9a 52be
00000290: 207b 38bd 2282 1e3d 8e6e c7bc 2b87 c4be
000002a0: 4e64 b1bc 71a6 b2be 9c08 0dbf bab0 593e
000002b0: f84f cabc 0605 e63b 7b13 cdbe e9ae c9be
000002c0: 8af7 0bbf 97e2 953d 2ba3 dd3e b747 64bd
000002d0: 45a6 afbe 5647 4ebe 15bf 503d 12a3 073f
000002e0: a14a 04be ea01 803e 6ccd 6a3e 6e50 653e
000002f0: 0f18 c4be 28b8 1cbe b643 b2be a0dd 82be
00000300: 38d8 683e 68b0 79bd 8b8c 313e 5365 75be
00000310: e61a 7e3d cddb 7cbe f6fa 0cbd 2bd3 fdbe
00000320: 8806 08bf fe24 01be 85aa 9a3e 15ac 2b3f
00000330: f686 e7bd ab48 02bf f20c a1bd fcff 6e3e
00000340: 0860 35be 38e8 063f 442c 5f3d fdf8 be3d
00000350: cc2e 5ebd 5377 2e3c 0e0f 873b fd2f 173e
00000360: ad88 bb3d af79 49be aaf0 ca3e 2b27 76bd
00000370: 4802 80be 8986 43be 47c4 cd3e acee a437
00000380: 4cfd 62bd 91f9 2dbe 852d dbbd 950b b0be
00000390: aa80 debe 24ed d13a 2409 053e e58a 313f
000003a0: 7afa 81bd 4456 ed3e 898a fabe 7bf9 3fbd
000003b0: d896 a23d 205a 2a3f 8111 1d3f 4515 003f
000003c0: f355 3cbd 6b22 ce3d ffab 95be 2dc8 323e
000003d0: f380 9cbe 4faa b9bb c214 01bf 5efd 70be
000003e0: cd4d a1be 08b9 093e 9454 a0be d41d 8ebe
000003f0: e4ac d03c 4815 873e 20cc bd3e 0917 753e
-0.5300493 -0.3149309 -0.56367266 0.3496419 -0.18247782 0.08170346 0.08944162 -0.22252153
0.119127065 -0.39998284 -0.29346478 -0.37128302 -0.28566206 -0.40724775 -0.079604045 0.10753847
0.41928115 0.5373862 -0.25374132 -0.5642285 -0.8017139 0.5274037 0.09572965 0.5947796
0.2567428 0.14134331 0.36691782 0.40391287 0.102600254 -0.281317 0.0306863 -0.51897556
-0.37343737 0.68753207 0.6820779 0.41489422 -0.42902002 -0.7871982 -0.42042983 0.90063983
0.5272639 0.40415537 -0.20651415 -0.28750852 0.27879962 0.2665206 0.4492164 0.10912285
-0.11170856 -0.18511753 -0.2865352 0.57417864 0.5417463 0.71105534 0.3736499 -0.14998384
-0.2401475 0.22115178 0.16036746 -0.007527006 -0.16160117 -0.102973156 0.26519266 0.30071855
-0.051332183 -0.11346504 -0.2655272 -0.33095312 0.39878646 0.49564928 0.5959477 0.13452792
-0.162099 -0.060717434 -0.8042839 0.34202486 0.21488525 0.031209508 -0.5146985 0.061724305
0.049427893 0.39430517 0.7082447 0.002820989 -0.37931123 -0.1844396 -0.5040998 0.17249624
-0.050958503 0.4743188 -0.49071503 -0.28301957 0.32183224 0.10262972 0.104321696 0.49874428
-0.15164322 -0.03660888 0.37964773 -0.16582169 -0.29054722 -0.22692421 -0.4121868 -0.48656094
-0.6292777 0.5378649 0.44822615 0.15755023 -0.71157146 -0.47078928 -0.6401994 0.15331079
0.0058289985 0.50847745 -0.4231124 -0.33111992 -0.5841195 0.16007996 -0.15882859 -0.08918612
0.32000163 0.21676525 0.23408599 -0.38763443 -0.29275477 -0.15411824 0.34162667 0.046131458
-0.30095053 -0.0018580868 -0.3214566 -0.09387075 -0.11277695 0.35331026 0.12592751 -0.07068329
0.06948577 -0.11733284 -0.092637815 -0.12854019 -0.10059043 0.040572595 0.6692331 0.18139082
-0.4155041 -0.069745906 0.05637065 0.76332515 0.4267257 0.044224873 0.049606808 0.160066
-0.5427941 0.07535306 -0.2511376 0.130724 0.024637459 -0.25983024 -0.21121903 0.28139853
0.12082013 -0.2626072 0.32646444 -0.205667 -0.045039296 0.038698323 -0.024344709 -0.38384375
-0.021654274 -0.3489261 -0.5509126 0.21258822 -0.024696335 0.007019642 -0.40053925 -0.39391258
-0.5467459 0.07318609 0.4328855 -0.055732455 -0.3430654 -0.201444 0.05096348 0.529832
-0.12919094 0.2500146 0.22929925 0.22393963 -0.38299605 -0.15304625 -0.34817284 -0.2555971
0.22738731 -0.06095925 0.17338769 -0.23964433 0.06203737 -0.24693222 -0.034419023 -0.4957517
-0.53134966 -0.12611768 0.3020822 0.6705945 -0.11305039 -0.5089213 -0.07863797 0.23339838
-0.17712414 0.5269809 0.054485574 0.093248345 -0.054243848 0.010648566 0.0041216677 0.147644
0.09156928 -0.19675325 0.39636737 -0.060095947 -0.2500174 -0.1909429 0.4018881 1.9661464e-05
-0.055417344 -0.16989733 -0.107020415 -0.34383836 -0.43457538 0.0016016108 0.12991768 0.6935256
-0.06346603 0.46354878 -0.4893382 -0.046868782 0.079389274 0.6654377 0.61354834 0.50032455
-0.045980405 0.100651585 -0.29232785 0.17459174 -0.3056713 -0.0056660543 -0.504223 -0.23534152
-0.3150467 0.1344949 -0.31314528 -0.27757132 0.025473066 0.26383424 0.37069798 0.23934568

h_12.bias f4 [64]
00000000: fd41 cd3e 5ee2 4b3b fd5a e73e 763a 813e
00000010: 8a04 aebe 56b7 dc3e 9490 053f 3094 f8bd
00000020: a927 0b3f 1345 88be ef5d f53e 76b7 153f
00000030: 66b1 9d3e 2841 1bbd 91f6 0f3f 7095 c03e
00000040: bd85 e63d 650d c13e 1200 2e3f 0653 29be
00000050: 2c13 bcbd df0d db3d 8c40 383d 7d6b 263f
00000060: 468d 433d 3d29 e83d 4a46 953e 1eab ddbd
00000070: 533c d93e 6787 883e 7614 61be ddeb 29bd
00000080: 979b 3dbe 2f75 a73e a4ab 443e d3d3 1abf
00000090: 755b 98bd 2529 20bd 0b8b b03d d29f 333f
000000a0: b44d 34be 077f af3e ce63 d13d f173 f83d
000000b0: cfb7 fb3e 1222 1a3f c55a 07be 5a38 c63d
000000c0: fcc4 343f 40ea 1c3f f4c1 dcbc 4075 143f
000000d0: bb8b bb3d 9e92 62be 8e1b d13e 1c55 313e
000000e0: 5e8d de3d 8ddf 013f 7d09 6bbe 803e f23e
000000f0: 0c45 103f 8aad 1c3f fdc5 ec3e ce02 e03e
0.40089408 0.0031110267 0.45186606 0.25239915 -0.33987838 0.43108624 0.52173734 -0.121376395
0.5435739 -0.266152 0.47923228 0.58483064 0.30799407 -0.037903935 0.56235605 0.37614012
0.11255977 0.37705532 0.6796886 -0.16535577 -0.09183344 0.10696005 0.04498343 0.65007764
0.04774215 0.113359906 0.2915519 -0.10823654 0.42428836 0.26665804 -0.21980461 -0.041484702
-0.18516384 0.3270659 0.192061 -0.6047947 -0.07439319 -0.03910174 0.0862027 0.7016574
-0.17607766 0.34276602 0.10224114 0.12131489 0.49163672 0.6020824 -0.1321822 0.09678717
0.70613074 0.6129494 -0.026947953 0.5799141 0.09157511 -0.22126243 0.40841335 0.17317623
0.108668074 0.50731736 -0.22952838 0.4731331 0.5635536 0.612023 0.46244803 0.4375214

h_21.weight f4 [64, 64]
00000000: ad88 0abe 7976 82bb 38bc 34bd 3157 cbbc
00000010: 6dbd 73be 1a84 67bb 1370 aebc d4c4 b1bd
00000020: a373 07bd 0a57 143d 29a5 7b3d 62ec 883d
00000030: e1bf 003e 0fd9 57bd cedd ecbc d206 cd3d
00000040: aec7 e9bd 476a 1fbe 6670 b4bb 0cee cabc
00000050: 9d6d 8bbd 00ff cebc ef9f 85bd e98f b83d
00000060: 06c3 37bd f51f 30bd 5ea2 b63d db0a 82be
00000070: e115 d0bd c300 f9bb 9a25 cdbd 0a7d 7f3d
00000080: b700 82bd e9be 53bc 09be b73c 23a9 0ebe
00000090: 0be3 6abd 749d e0bd ae00 66bd 5337 7c3d
000000a0: 7f4c 0bbe 0a06 84bd 1bcf 9cbd 6e42 d13b
000000b0: 5fe2 82bd 50aa 03be db22 f03c b2bf acbb
000000c0: aa6c 87bd 57f8 6a3d 2b82 38be a722 ba3d
000000d0: 4834 b03c 83de 773d c0aa aabd 7e1f 0a3c
000000e0: 6e8a d23a 3ce3 7b3c 2fdb b43d bc4c 67bd
000000f0: a2b2 17bd a9e8 04bc 0d68 1dbd 4f35 fcbc
00000100: ba2a 263d 6975 1bba b723 243c 8b24 ca3d
00000110: 8289 34bd f7e3 a7bc ea32 8f3d b8d8 893c
00000120: b1d4 9c3d 3851 183d 3972 0d3e b0ee 573d
00000130: 08d6 0d3c 8536 3e3e d3df af3d be34 5a3d
00000140: 2b47 8e3c 2185 c83d e65b 7abc c83f bd3d
00000150: 83b3 9b3d 5093 93bc 2f2d 283d d5e3 b4bc
00000160: df78 343e 607e 453e d531 c63d 7ed4 073e
00000170: 5a19 883d b28d a7bd 69b9 8c3d 8a82 053e
00000180: d30c 583e c324 3b3d 8b82 b83d 30fb 143e
00000190: 07ea 0e3e d442 c3bc 29bc 1e3e ac92 6139
000001a0: bed8 2e3e 5ef4 9c3d 8200 6e3b 7a33 9c3d
000001b0: 1169 083d bc4a 19bd ec7e 893c 72ec 4c3d
000001c0: 5049 173e 1fec 403d bdd0 b33d 0dce 7b3d
000001d0: 83ad 923d 8c4e b03d c9f2 67bd c230 d5bc
000001e0: 56f9 713c e88b 61bd 7d02 913d ccb1 113c
000001f0: a2b3 053d a1ad d83c e528 7a3d 7ebb e33d
00000200: c87a 80bd 25b6 823d 20ad 453d c7fa b93d
00000210: 7114 813d 7f0a 2f3d 5d16 5c3d 3178 3f3d
00000220: e652 2c3c 294a 983d 14cd a13d e10e b73d
00000230: 248d ca3d 6b9e 8f3d 05c1 ad3d b8ae 64bd
00000240: e30f e93d c839 82bc a766 9a3d ade5 4dbc
00000250: 9d20 133d a84d fd3c 9e84 dd3d ade8 e33d
00000260: 15a5 e73d 6ad8 b43d 99bd 8cbd c536 ae3d
00000270: 255b f73d d242 653d 7eed 5a3b 0b53 dd3d
00000280: 8b94 94bd 3778 353d cfdb 373c 34bb f4bc
00000290: 29f2 e8bd cca3 8f3c 9ff2 833d bc03 a13d
000002a0: a668 46bd 4887 4a3a f56e 1a3d e9bc 49bd
000002b0: 7fe1 e63d 50a8 133e cfe9 873c f6f8 c8bb
000002c0: d876 573d 1385 923d f4f9 e23d 7691 48bd
000002d0: 1b93 56be 09e2 1d3e a9d0 8a3d cfd4 e5bc
000002e0: 1a1a 3dbd 46d1 3dbd d83f d33d 940a 883c
000002f0: 83be f33d 329f 0b3e f97f a63d 1a10 9b3d
00000300: 0a54 753c 2cef 493e 5f0b e4bd 3532 273d
00000310: 6fe3 edbb beee 91bd 3b78 813b 0ff0 ae3c
00000320: 4771 53bc a0d9 b83d 0e5e 9bbd 8e5f 9fbd
00000330: ed43 4fbd f8ed 86bd 6024 933d 1423 183e
00000340: f5af b6bd ddef 673d 11e1 0c3c 8e73 eabc
00000350: 7977 5b39 469a d7bd 6125 0ebe e306 06be
00000360: 4ff8 ebbd aed8 053d 9359 bc3d 9e82 e63b
00000370: 867c 863d 52d7 2c3d fa76 5dbb 3327 77bd
00000380: 43bc 813d d571 a7bd 7136 80bc ff0e bf3d
00000390: 6aab a23d e52c 313d ca3c 9bbc ef29 173e
000003a0: 1808 f83d 2c1c ec3d 58ce 63bc d7cf e23d
000003b0: ecfb d43d 2d7a d03d dc59 0d3e 736f a5bc
000003c0: a4f0 f43d 877f a73d dc62 9c3d 3d68 2b3e
000003d0: bed6 ec3d 6293 b9bd 3732 0bbe 5878 d03c
000003e0: 8cdd 9d3d 26eb 153c 106a e43d d7ab 51bc
000003f0: 9cc2 48bd 77c0 b1bc 01a6 21bc cf9e f4bc
-0.135287 -0.003981408 -0.044124812 -0.02482185 -0.23802729 -0.0035326541 -0.021293676 -0.0868012
-0.033069264 0.03621582 0.061436806 0.066857114 0.12573196 -0.052697238 -0.028914358 0.100110665
-0.11415039 -0.15567885 -0.005506563 -0.024771713 -0.068080164 -0.025268078 -0.065246455 0.09011824
-0.044863723 -0.042999227 0.08917688 -0.25398907 -0.10160423 -0.0075989678 -0.100169376 0.062375106
-0.063477926 -0.0129239345 0.022429483 -0.13931708 -0.05734543 -0.10967532 -0.056152992 0.0615762
-0.136034 -0.06446464 -0.0765669 0.006386093 -0.06390833 -0.12857938 0.029313495 -0.0052718753
-0.06612523 0.05736574 -0.18018405 0.09088641 0.021509305 0.060514938 -0.08333349 0.00843036
0.0016062984 0.015374001 0.088308685 -0.056469664 -0.037035592 -0.008112111 -0.03842931 -0.030787138
0.04056809 -0.0005930276 0.010018281 0.09870251 -0.04407645 -0.020494444 0.06992133 0.016826972
0.07657755 0.03718683 0.13813104 0.052717865 0.008656986 0.18575485 0.08587613 0.053272955
0.01736792 0.09791017 -0.015280699 0.09240681 0.076025985 -0.01801458 0.041058715 -0.022081295
0.17624234 0.1928649 0.096774735 0.13264653 0.066454604 -0.08181323 0.06871302 0.13038078
0.21098642 0.045689356 0.09009274 0.14548945 0.13956462 -0.023835577 0.15501465 0.00021512312
0.17074868 0.07663797 0.003631622 0.07627006 0.033303324 -0.037424788 0.016784154 0.05003018
0.1477406 0.047100183 0.08780048 0.061475802 0.07162001 0.086087316 -0.056628022 -0.026024226
0.014768919 -0.055065066 0.07080553 0.008892488 0.032642014 0.02644998 0.061074156 0.11119746
-0.06273419 0.063823976 0.048260808 0.09081035 0.06302727 0.04273462 0.053732265 0.046745483
0.010517811 0.0743602 0.07900444 0.08938385 0.09890202 0.07012638 0.08484081 -0.055830687
0.11379983 -0.015896693 0.07539111 -0.012566966 0.035919774 0.030920818 0.1081631 0.11128364
0.11310784 0.0883034 -0.068721004 0.0850654 0.12077931 0.055971928 0.0033405717 0.10806855
-0.07254895 0.0443041 0.01122184 -0.029874422 -0.113743134 0.01753416 0.06442761 0.078620404
-0.048439644 0.0007725847 0.037703473 -0.049252424 0.11273479 0.14419675 0.01659098 -0.006133194
0.052603573 0.07154288 0.11082831 -0.048966847 -0.20954554 0.15418257 0.0677808 -0.028055577
-0.04616747 -0.046342157 0.103149116 0.016606607 0.119015716 0.13634947 0.081298776 0.075714305
0.01497365 0.19720143 -0.11134981 0.040819366 -0.007259778 -0.071256146 0.0039511 0.021354703
-0.012905425 0.09025884 -0.07586299 -0.077818975 -0.05060189 -0.06588358 0.07184672 0.14857131
-0.0892028 0.056625236 0.008598582 -0.028619554 0.00020929975 -0.10527472 -0.13881446 -0.13088565
-0.115219705 0.032677345 0.091967724 0.0070346138 0.0656672 0.042197533 -0.003379284 -0.060340118
0.06334736 -0.081760086 -0.01565096 0.09329032 0.07942851 0.043255705 -0.018949885 0.1476209
0.12110919 0.11528811 -0.013904177 0.110747986 0.10399613 0.10179553 0.1380381 -0.020194745
0.11959961 0.08178621 0.076360434 0.16738982 0.11564396 -0.09061314 -0.13593374 0.02544801
0.07708272 0.009150302 0.11153042 -0.0127973175 -0.04901372 -0.02169822 -0.009866239 -0.029860882

h_21.bias f4 [64]
00000000: 9f16 26bd b092 eb3d 1c73 793d c9ef 063e
00000010: c37a 353e ba94 e63d 7db9 553e e116 483d
00000020: 2ec6 793d 57d4 363e 8c1d 683e 4db5 a23d
00000030: 05a6 3c3d f14e 1b3e 9cc4 983e 1a56 043e
00000040: 4862 98bd 9990 a83d b288 1c3d 07af 8e3d
00000050: 0cbf 233d 6df8 843e f13b 983e e023 39bb
00000060: b952 93bc abe0 853e 1ad5 ce3e f7d3 b43d
00000070: 1b07 a63d df89 843c 4915 023e c782 8b3d
00000080: 5094 543e d9d6 353e 5c97 933e 2a98 113e
00000090: 00d6 243e 7861 a73e 33e6 033e 2e7d ac3c
000000a0: 3041 2e3e fcd6 4dbd 284a 44bd 0607 803e
000000b0: c699 923e e789 963d ea17 253e 1b92 123c
000000c0: 9ebc 643d 88f8 4cbd 2d23 533b 954c e0bc
000000d0: a9f0 123e 81ba d83d cf70 bd3d e54d 1c3e
000000e0: e20f 783d b335 2abd dd71 4b3e 6169 eebd
000000f0: 3007 623e 21c9 2b3e f129 88bd 2c6b 833c
-0.040548917 0.11502588 0.060900792 0.13177408 0.17722611 0.11258836 0.2087154 0.048849944
0.060980015 0.17854439 0.22667521 0.07944737 0.046056766 0.15166833 0.298375 0.1292347
-0.07440621 0.08230705 0.0382163 0.069669776 0.03997712 0.25970784 0.29733232 -0.0028250143
-0.017983781 0.2614797 0.4039696 0.088294916 0.08106824 0.016179023 0.12703432 0.06812053
0.20759702 0.17757739 0.28826416 0.14218202 0.1609726 0.3269155 0.12880783 0.021055784
0.17017055 -0.050253853 -0.047922283 0.25005358 0.28632945 0.073505215 0.16122404 0.008945967
0.055843942 -0.050041705 0.0032217011 -0.027380267 0.14349617 0.10582448 0.09250032 0.1526409
0.060562022 -0.041555118 0.19867654 -0.11641193 0.22073054 0.16775943 -0.06648625 0.016042314

h_22.weight f4 [64, 64]
00000000: f96e ca3b c2f1 9ebc 43b0 533e a5aa a53d
00000010: 2b46 003d 2151 833e f564 ed3d 1865 c03d
00000020: d9a1 ab3e d413 da3d 6216 033e 45da 1b3e
00000030: d821 143e 55dd 3a3e d4b0 d53d 932c 9a3e
00000040: 8c6d bdbd a9f0 033e b64f 883e 0a50 06bd
00000050: c8ee 1dbd 1299 16bd 02dd 4bbd c019 063f
00000060: 9c20 173e 2da5 23be 18d7 48bc 525b acba
00000070: 2572 5e3d 7866 333c d1a4 03be ec21 c53d
00000080: be54 8f3d 524b 913e 8219 6a3e f57c 79be
00000090: 2037 00bc 7cbc 433d 20ba d2bc b9d9 8f3e
000000a0: 21db 1abe 6e09 dcbc a9bd 433d b865 8a3e
000000b0: 86c2 c8bc 9c80 273e 47be e8bd 1e70 103e
000000c0: 4988 123e 3d34 6d3e 488a e43d 06e1 4c3e
000000d0: c3e1 2fb8 4144 0fbd 151c 913e 537f 3cbe
000000e0: aa12 343e 4504 c63e a806 f63d 7112 603d
000000f0: 6132 f53d e1df 9b3e f00e 613e 2ba0 993e
00000100: 500b c33d 6ac7 30bd 4463 7c3d 8e52 cd3d
00000110: 7df8 a93d 1db2 3dbc 2c87 c33c dc6c 693d
00000120: 17d2 b43b 59de be3c 0a56 bd3d 7e1a 423d
00000130: 4afb 9bbd f1f2 5e3b e3a6 8c3e 2be5 553e
00000140: 474c 513d dbd3 79bb bd3f 183b 63aa 393d
00000150: 60e6 823b 56ba cd3d 72f3 c53c 6818 0bbd
00000160: 2d72 a0bd ef40 b8bc a2c6 9fbd 7b59 56bd
00000170: ca6c 9e3d 4f93 ff3d 2d34 693e 0fb6 373d
00000180: 88e3 b0bd df6d 863e 47dc 953e 5a85 883e
00000190: 8038 8d3b 0abb e73d 4ac4 973d fbaa fe3d
000001a0: ed7d 0e3e c3db 6d3e cbee 283d d8dd 053e
000001b0: 257b 533e 0a4a c0bb 52a6 a83e 5e1a e63c
000001c0: dfa6 ebbb f72c 4d3e 8ea1 073e 3156 7fbc
000001d0: e416 dfbb d3bb 53bc a7f1 513c 5618 79bc
000001e0: 3760 333e 0c18 8fbc 397e 043e d74a c1bc
000001f0: 9897 793b fb6b 2d3e 98fa 0abd 4123 4b3e
00000200: 258d c73c cd06 3fbd 089d b23d 0ba9 d83d
00000210: 030c 103e a7d4 d13d 1f26 243c 83ec 3b3e
00000220: a98e 783b 0c68 2bbe e5c4 39bc af0d c5bd
00000230: 7736 13be a086 ca3d 5b3f 1ebe 1aff 893d
00000240: 19ef 973d 1829 a2bd 9bbf 3abd e84d 743d
00000250: b0ec bd3d dbd8 70bd d2a3 e33d 741c c6be
00000260: e2e6 cc3d 6ad9 0dbe 118b 11be ba99 27bd
00000270: eab1 45bd 206c 2ebc 7611 8f3e 6471 45bd
00000280: e406 cf3d 0e3f 92bd 9f5e bd3d 88d5 0c3f
00000290: 086b b33c 200a 893d 0eac 5b3e 73a6 b4bd
000002a0: cac2 753e f5c3 003e ba6b 9cbd 065d f3bc
000002b0: 49ac 1a3e d8c5 a7bc 6ad4 cebd bb92 843d
000002c0: 8978 2cbe cfa0 553d ec68 193e 9bb8 75bd
000002d0: b2ad d4bd fee4 ee3d dfb0 063e 8761 77be
000002e0: adf0 1e3d b930 87be 76c7 4b3d e90b df3d
000002f0: a3b6 4ebd 4142 e3bc cf7e a73a e75b 4c3e
00000300: 97e2 583e 96f3 eebc 5b67 4b3d a085 813e
00000310: 054d 6fbd e2d6 7d3e 558f 0c3e 468a 2d3e
00000320: 8108 593d ad00 1a3e dbab df3d 524b 023d
00000330: 170c 133e 0f2b 703e d392 673e 524e 613e
00000340: 40f4 1dbd 3508 373e 8cc1 4f3d 8b67 723e
00000350: 384e b53c 6c7a ed3d a31c 8bbc 07df 8d3e
00000360: 74fa 5d3e 1e64 433e d95c 0f3e 7a1f c9bd
00000370: 3a8d 653d 0a51 3e3d a281 243e 63a6 bebd
00000380: dc3f 27bd 96dc 513e fa0d 853e 9b64 31bd
00000390: ee3d b13d a030 1bbc 5b4b c03d ba08 053e
000003a0: f40a 533e 5331 253e 1fc6 73ba fbcf ef3d
000003b0: bad2 583e 461e 963d 489d e73c 2be5 533e
000003c0: 2675 1e3e 5592 c43c 9e89 2c3d b571 ff3d
000003d0: 5657 3e3d 0202 503e 4785 193e 3274 203e
000003e0: b576 623e 5e22 2e3e 17db 4d3d e79d a93d
000003f0: 9e4a 3d3e 4efe 1f3d 5403 c53d 57fd 803e
0.0061777798 -0.019402388 0.20672707 0.080891885 0.031316917 0.25647834 0.11591522 0.09394282
0.33521917 0.10648313 0.12801507 0.15219982 0.14466035 0.18248494 0.10434118 0.30112132
-0.0924941 0.12884773 0.26623315 -0.032791175 -0.038557798 -0.036767073 -0.049771316 0.5238304
0.14758533 -0.15980978 -0.012258314 -0.0013149774 0.054308075 0.010949723 -0.12855841 0.09625611
0.06998585 0.28377777 0.22861293 -0.24364074 -0.007825643 0.047787175 -0.025723517 0.28095797
-0.15122654 -0.026859965 0.047788296 0.2703073 -0.024506819 0.16357654 -0.113644175 0.1410527
0.14309801 0.23164459 0.111591876 0.20007715 -4.193351e-05 -0.0349772 0.28341737 -0.18407945
0.17585245 0.38675132 0.12012988 0.054705087 0.119725 0.30444244 0.21978354 0.3000501
0.09523642 -0.043158926 0.061618105 0.10025512 0.082993485 -0.01157811 0.023868166 0.056988582
0.0055182087 0.023299383 0.09244926 0.047388546 -0.07616289 0.0034019316 0.27471074 0.20888202
0.051098134 -0.003812066 0.002323135 0.04532851 0.003994748 0.100453064 0.024163935 -0.033958822
-0.07834277 -0.0224919 -0.07801558 -0.05233143 0.077355936 0.12479269 0.2277381 0.04485136
-0.08637148 0.262557 0.2926962 0.2666424 0.004309714 0.11314972 0.07410486 0.12434956
0.13915224 0.23228364 0.041243356 0.13072908 0.20652445 -0.005868201 0.32939392 0.028088745
-0.0071915234 0.20036684 0.13245222 -0.0155845145 -0.0068081487 -0.012923199 0.012813962 -0.015203556
0.17517172 -0.017467521 0.12938775 -0.023595257 0.0038084742 0.16935723 -0.03393039 0.19837667
0.024359295 -0.046637345 0.087213576 0.105791174 0.14067082 0.10245638 0.010018854 0.18351941
0.003792683 -0.1673891 -0.011338447 -0.096217506 -0.14376245 0.09888959 -0.15453856 0.0673811
0.07418651 -0.07917994 -0.045592885 0.05964461 0.0927366 -0.05880056 0.111152306 -0.38693583
0.10004975 -0.13852468 -0.14213206 -0.04091809 -0.048265375 -0.010645896 0.2794301 -0.04820384
0.10108736 -0.07140933 0.09246563 0.5501332 0.021901622 0.06691384 0.21452352 -0.0882081
0.24000087 0.12574752 -0.07637735 -0.029707443 0.15104784 -0.020480081 -0.100991085 0.06473299
-0.16842856 0.052155312 0.14981431 -0.059990507 -0.10384692 0.116647705 0.13153408 -0.24158297
0.038803745 -0.2640436 0.049750768 0.108909436 -0.050467145 -0.027741553 0.0012778881 0.19956933
0.21180187 -0.029168885 0.049659114 0.2529726 -0.05842306 0.24789003 0.13726552 0.16947278
0.052986626 0.1503932 0.10921451 0.031810112 0.1436008 0.23453926 0.22614603 0.22002533
-0.038563013 0.17874224 0.05072169 0.23672311 0.022132024 0.11595616 -0.016981428 0.2770922
0.21677572 0.1908116 0.14000262 -0.09820457 0.056042887 0.046464004 0.16065076 -0.093090795
-0.040832385 0.20494303 0.25987226 -0.043308835 0.0865439 -0.009472042 0.09389373 0.1299161
0.20609647 0.16132097 -0.00092992367 0.11709591 0.21174136 0.07329993 0.02827324 0.2069289
0.15474376 0.023995558 0.04212343 0.1247286 0.04647001 0.20313266 0.14992248 0.15669325
0.22115596 0.17005298 0.05025777 0.082820706 0.18485495 0.039060883 0.096197754 0.25193283

h_22.bias f4 [64]
00000000: c245 983e e059 283e 8323 00be 6855 6c3e
00000010: 2d77 4e3e bac9 493d ea23 c7bd d6e6 87bd
00000020: 9c44 cebd 9b6d a33d c8aa 053d 0e57 e93d
00000030: 8820 2ebd 0acc 5a3d 091e a13d 3377 053e
00000040: 3797 65bd 427b 713e 75fe a53e 210f 673d
00000050: d369 dd3e bf1e dcbd bf37 853e 860a c93d
00000060: 68a0 16bd 4527 3cbd d98d 3f3e a89e dc3c
00000070: 06a1 203e 8847 393e 69d1 a23d 1eb6 063e
00000080: 5518 193e 2367 453e 70bf 3c3e 4aee 4fbc
00000090: d663 89bd f354 adbd daee 833d bae2 653e
000000a0: d3df 9ebd 50bb 8d3d ecf2 663d c0a7 68bc
000000b0: 2ce1 28bd 9c4f 4ebd 8899 edbd 2c72 293e
000000c0: 92ce ed3d a924 82bd ba8e 2d3d c4b3 563d
000000d0: ff72 3cbd 8779 95bd 86e1 f4bd 70fe 203e
000000e0: 56f9 c0bd 88a3 b5bd 3913 033d f44e fa3d
000000f0: 9d71 d73c c5f1 c13d 70e3 133c 9c95 1c3e
0.2974072 0.16440535 -0.12513547 0.23079455 0.2016265 0.049264647 -0.09723647 -0.06635825
-0.1007168 0.0797989 0.032633573 0.113935575 -0.042511493 0.053417243 0.07867057 0.13033752
-0.056052413 0.23582175 0.32420698 0.056410912 0.432448 -0.10748052 0.26019093 0.0981646
-0.03677407 -0.045935888 0.18706454 0.026931122 0.15686426 0.18093693 0.07950098 0.1315541
0.14950688 0.19277625 0.18432403 -0.01269109 -0.06708495 -0.084634684 0.06442042 0.2244977
-0.07757535 0.06920493 0.056384012 -0.014200151 -0.041230366 -0.05036889 -0.116015494 0.1654746
0.11611666 -0.063546486 0.042372443 0.05241753 -0.046008106 -0.0729857 -0.11957078 0.1572206
-0.09422557 -0.08869082 0.032000754 0.1222209 0.026299292 0.09469942 0.009026393 0.15291446

h_32.weight f4 [128, 128]
00000000: 0897 0c3d d07c 57bb 6ac6 8bbd 00b7 39bd
00000010: f560 09bd 3079 433d 8c25 e43c 6553 ec3d
00000020: 71cf 9ebd 7922 60bc 0e85 f2bc 5883 80bd
00000030: befc b53d 8608 a2bd 7a40 de3c 64a1 9e3d
00000040: 8cf0 83bc db25 60bd d955 0fbd 97a9 783c
00000050: f0b3 d0bd 04d5 463d 4b95 a53c 2344 e43c
00000060: 138c d43c fcbe 93bc 4a49 b2bd fd81 7b3d
00000070: e0e2 b03d 2d70 9bbd 584f 8dbc bc1b 823c
00000080: bb05 ba3c 212c c33c d304 793d 95fd e23c
00000090: abf9 3ebd f9a1 3abd 4b86 13be 628b 90bd
000000a0: 3970 933d 3373 8d3d 4679 ec3d 0c68 0c3d
000000b0: 4897 1f3c ba77 e63d 9a2c ad3c ebff 94bd
000000c0: bc8a e63b 9561 a9bd 8ae8 b03d dcbd 023d
000000d0: ce20 793d ed9c 01bc 0b17 923d 5ba5 173e
000000e0: de6e 07bd 381a b0bd dc59 973d b54d 71bd
000000f0: 2c3c b53d ab80 6b3d adb7 0bbd 7e62 46bd
00000100: 6dd3 b0ba 2abf cfbb bc08 513d bf8c 00bd
00000110: 91ca 8bbd 3da5 af3d a5a7 883d 5014 a6bd
00000120: b404 983c fadd 31bc ff6a 823d 6ae0 7f3d
00000130: 91c7 0fbe 7359 4cbc 3ba7 3cbd f73d 013e
00000140: 158f 183d f037 e23d 89b0 abbc 1a8d fabc
00000150: c5b8 9bbc 4f89 95bd 06e8 84bd ead4 9bbd
00000160: b0a8 093e 40af 683d 5633 963d e93f da3c
00000170: 9eca e13d 7d58 8a3d 81f1 02bd c9f6 093e
00000180: a951 c93d 9a85 9a3d 7ccd d03d 297c 3fbe
00000190: 8bd1 57bd 9c46 523d c390 0b3d 05f3 85ba
000001a0: b191 2bbc 1a76 83bc 24a1 383d b343 6c3d
000001b0: ab9e fa3d 5a9a 8c3d 781a 58b8 3686 273c
000001c0: 79f8 1a3c a1a3 dd3d 4a63 2cbe 187e 413e
000001d0: 493c 423c be13 b23d 3e97 5ebd 12ca c43c
000001e0: fe10 1bbc 96aa 02bd 53ab 853d 2fa1 9f3d
000001f0: d3a0 0c3d bba9 9bbd c427 153d ef09 8b3d
00000200: 6623 d03c fda7 cd3d 8d66 ff3c 0671 d1bd
00000210: a339 9abd 4d20 14bd 21cc 59bd 83f9 b8bd
00000220: bf5c 25bc 33fe 84bc c344 b83d 627f 07be
00000230: fbe7 aebc e7e1 2d3d 7b78 ae3d 8b9b 07be
00000240: 9295 8bbc fa6d cabc e54f 673c 31d6 88bd
00000250: e4d6 5d3c a5f0 133d 6a7c 8fbb 86b5 b03c
00000260: ee87 5b3d 14d0 0bbd 8013 e8bc 9743 8d3d
00000270: e497 983d 81c0 52bd 164a 903d 96c0 6bbc
00000280: 9a8c 22bc 62b7 8abb 8de8 9fbd bd94 8f3d
00000290: aa3a ccbd f001 e83d 5070 adbd 1a30 b63d
000002a0: 5451 99bd 71bf 063c ef88 3abd 7a7a 113d
000002b0: 5813 353d b93e 79bd 7c8c 56bd 5bfa f43c
000002c0: 172e efbc 9f1c 0c3b 4a03 713d 0e16 70bc
000002d0: 0fa0 b83d 510d 4b3b eb55 c8bd f2a7 053e
000002e0: d9c3 c8bd 0d44 b3bd 2b7c 333d 4c59 50bd
000002f0: f65a c4bd 6f8c a7ba 93af 86bc 9439 7c3c
00000300: d27f d63d a785 c5bd 94e4 cdbc fe97 c0ba
00000310: df95 be3d f80b 0ebd 9cc8 79bd 601a 00bd
00000320: 4125 0b3c 339c 423d 0d4f 853d be3a 233e
00000330: 6fad 07be 012e 043e 414e aa3d 1085 12bd
00000340: fdff 8ebd c6a4 0a3d 4528 543d ab78 82bd
00000350: da5a f0bc f3bc 863d ac76 613d c9bd 133e
00000360: 234b 923c eac3 44be 6018 333e b9b9 983c
00000370: 3401 b53c 1248 573c d56f 5e3d a683 81bc
00000380: 803a 713d 91ca a7bc 5162 ecbd f46d 8bbd
00000390: 357a 1e3c dbf3 1abd 8833 a63c 16ad 953d
000003a0: 4981 943d 3e0a 813b 709c 8c3d 7776 4dbd
000003b0: ae5c f43a fb3c 93bc e7cb 9a3d 5168 9e3d
000003c0: 5b64 fa3d cd74 273d 29d0 313e fbaa 02be
000003d0: c312 d43d 1d71 bdbd 2a6b bb3a 40ca 0e3e
000003e0: aeb7 ba3d 625f 9bbc fa54 083e 50bb 8c3d
000003f0: c781 d1bd 08ae 11bc e575 8ebd 04f8 363c
0.034323722 -0.003288079 -0.06824954 -0.045340538 -0.03353973 0.047722995 0.027849935 0.11539344
-0.0775441 -0.013680094 -0.029604461 -0.06275052 0.08886097 -0.07911782 0.027130354 0.077456266
-0.016105913 -0.0547236 -0.03499398 0.015177152 -0.1019057 0.04854299 0.02021279 0.027864521
0.025945699 -0.018035404 -0.08705385 0.061403263 0.08637023 -0.07589755 -0.017249748 0.015882365
0.02270781 0.023824753 0.060795616 0.027708808 -0.04662482 -0.045564625 -0.14406697 -0.07057835
0.07199139 0.06906738 0.115465686 0.034278914 0.009740658 0.11253305 0.021139432 -0.07275375
0.0070355814 -0.082705654 0.08638103 0.031919345 0.0608223 -0.007910949 0.07133301 0.14809172
-0.033064716 -0.08598751 0.07390186 -0.058911998 0.088493675 0.057495754 -0.034110714 -0.048433773
-0.0013490744 -0.006339927 0.05103372 -0.031384226 -0.06825746 0.085764386 0.06672601 -0.08109343
0.01855693 -0.010856146 0.06368064 0.062469877 -0.14040972 -0.012472498 -0.04605792 0.12621294
0.03724583 0.110458255 -0.020958202 -0.03058486 -0.019009003 -0.0730158 -0.064895675 -0.076089695
0.13443255 0.056807756 0.0733401 0.026641803 0.11024974 0.06755159 -0.031968597 0.13473047
0.098300286 0.07545014 0.10195443 -0.18699707 -0.05269007 0.05133687 0.034073602 -0.001021952
-0.010471747 -0.016047526 0.04507555 0.05768175 0.12237295 0.06865378 -5.1523064e-05 0.0102248695
0.009458655 0.10822225 -0.16834751 0.18895757 0.011855193 0.08695172 -0.054343455 0.024022136
-0.0094645005 -0.031900965 0.06526818 0.07794415 0.03433306 -0.07600733 0.036414877 0.06789004
0.025407504 0.10041807 0.03117683 -0.10226636 -0.075305246 -0.036163617 -0.053173188 -0.090319656
-0.010092913 -0.016234493 0.0899749 -0.13232186 -0.021350851 0.042451765 0.085190736 -0.13242929
-0.017039094 -0.024710644 0.014118169 -0.06681479 0.013540003 0.03611817 -0.004378845 0.021570932
0.05359643 -0.034133986 -0.02832961 0.06897657 0.07450846 -0.051453117 0.07045381 -0.014389178
-0.009921217 -0.0042332867 -0.078080274 0.070107915 -0.09972127 0.113284945 -0.084686875 0.088958934
-0.07486215 0.008224354 -0.045540746 0.035517193 0.0442079 -0.060850833 -0.05238007 0.029904535
-0.029196782 0.0021379364 0.058841027 -0.014653696 0.09014904 0.003098328 -0.097820126 0.13052347
-0.0980298 -0.08753214 0.043819588 -0.05086641 -0.09587662 -0.0012782941 -0.016441142 0.015394587
0.104735985 -0.09644633 -0.025133409 -0.0014693735 0.093059294 -0.034679383 -0.06098233 -0.031275153
0.008492769 0.047512244 0.06509218 0.15940377 -0.13249753 0.12908174 0.08315707 -0.03577143
-0.0698242 0.033848546 0.051796217 -0.06370672 -0.029340196 0.06579008 0.055044815 0.14427866
0.017858094 -0.1921536 0.17489767 0.018643247 0.0220953 0.0131397415 0.05430587 -0.015809845
0.05889368 -0.020482333 -0.1154219 -0.06808081 0.009672691 -0.037830215 0.020288244 0.07308404
0.07251222 0.0039379885 0.068657756 -0.050161805 0.0018643343 -0.017973414 0.075584225 0.077347405
0.122261725 0.040882874 0.17364563 -0.12760536 0.10355141 -0.0925009 0.0014298905 0.1394434
0.09117065 -0.01896638 0.13313666 0.068716645 -0.10229831 -0.00889159 -0.0695608 0.01116753

h_32.bias f4 [128]
00000000: c7d9 95bb f18f 2d3d e2ec 46bd 4635 e43d
00000010: 43ef a3bd 1531 05bd cfd8 123d 22db 493d
00000020: 4a71 0ebd 0009 403c 3c62 5bbd 1ef9 c43c
00000030: ceb1 a33c 19ef bf3d 7db1 3b3b ec23 83bc
00000040: f079 54bd 1bd1 d03c f232 acbd 184c 9abd
00000050: 9825 903c 2b4f 343e f91a 9bbc 6da3 a33d
00000060: 7808 b53d 9bbc e5bc f4e2 853d 984e 183d
00000070: 2786 b7bd 190a 743d e610 32bc 2506 d8bc
00000080: 854e 17bc b66b 343d 74d9 c9bc 8fb0 073e
00000090: 4136 003e 6c6f 1abd d166 7dbd c280 363e
000000a0: 3c77 16bd d511 59bd 5488 8f3d 2c72 1b3d
000000b0: ea69 70bc 4746 0f3b 9127 c03d 1875 253d
000000c0: e41a a13c 24d5 173e 4d78 403d f576 a13c
000000d0: 9a85 e2bd 7ced b2bd 83a3 a3bd a16b 9e3c
000000e0: bd9e 8bbd e7fc 303d aa1f f33d 32c7 133d
000000f0: 91c3 a5bd 6bf3 853d 4329 023e 3aaa 213e
00000100: b619 683d 9337 743e fd3c 173d 1693 aa3d
00000110: 8b9e 38bd 4907 b6bc 6d2e 013d c340 08bc
00000120: 5086 ae3c 8917 ca3c 3d3b 4bbd 20bf 2cbd
00000130: 371d 9ebd f184 113c 2210 5cbd f6a6 8c3d
00000140: b17e e2bb 4f76 bcbb cc6c a1bc 26af 263e
00000150: a448 513e 17ae 343d 6207 07bd f388 993d
00000160: 251d 3bbc 934f 16bd 1f7e 113d 5144 cd3d
00000170: 898f 22bd c0a4 923d bf91 123e b7ff b4bc
00000180: db6a 92bc 9a40 aabd 6a0b 19bc 3bc3 283e
00000190: 07eb afbd 3c99 243e af90 173e bd30 8ebd
000001a0: c473 bebc aa8d a43b ce12 c5bd 3119 0b3e
000001b0: 97d2 893c c508 493c 86e1 41bc a68b 033e
000001c0: d891 d8bc 5949 083e add2 d63c ae1e 4abc
000001d0: 64ad ee3c 61c2 823d 3b8c 20be ebfc 753d
000001e0: 2139 583c d5e0 d6bd 9abb f1bd 109b 563d
000001f0: 4b8b 823d 27c0 b4bd 6c48 52bd 0d9c ccbc
-0.00457308 0.0423736 -0.048565753 0.111429736 -0.0800462 -0.03251751 0.035851296 0.049281247
-0.03477601 0.011720896 -0.05356048 0.02404457 0.019982245 0.09371776 0.0028639727 -0.01600834
-0.0518741 0.025490334 -0.084081545 -0.07534045 0.017596051 0.17608325 -0.01893376 0.07990155
0.08839506 -0.028044036 0.065374285 0.037184328 -0.089611344 0.059579942 -0.010868287 -0.026370117
-0.009235029 0.044048034 -0.024639823 0.13250946 0.12520696 -0.037703916 -0.06186563 0.17822555
-0.036734805 -0.05299552 0.070084244 0.03795068 -0.014673689 0.0021861957 0.09382547 0.040394872
0.019666143 0.148274 0.046989728 0.019710043 -0.11060639 -0.08736703 -0.07990172 0.01933843
-0.06817386 0.043209936 0.11871274 0.03607864 -0.08093942 0.06540569 0.12711053 0.15787593
0.056665145 0.23849325 0.036923397 0.08328836 -0.045073073 -0.02222027 0.031538416 -0.008316222
0.02130428 0.024669426 -0.04961704 -0.04217446 -0.07720416 0.008881793 -0.053726323 0.06867783
-0.0069120754 -0.005751408 -0.019705199 0.16277751 0.20437866 0.044111338 -0.032966025 0.07496824
-0.011420523 -0.03669698 0.03552067 0.10022796 -0.039687667 0.0716033 0.1431341 -0.02209459
-0.017873218 -0.08313103 -0.0093411 0.16480725 -0.0858975 0.1607408 0.14801286 -0.0694289
-0.02324856 0.0050217705 -0.09622727 0.13583829 0.01682405 0.012270157 -0.011833554 0.1284624
-0.026436731 0.1330923 0.026223505 -0.012336416 0.029135413 0.06384731 -0.15678494 0.060055654
0.013197214 -0.10492102 -0.1180336 0.052393973 0.06374224 -0.08825713 -0.051338598 -0.024976755

output.weight f4 [12, 128]
00000000: abbb 3fbd a2cb ca3d 60b9 06bd 644b 93be
00000010: aea5 72be eae7 353e d520 843c cd6d 5c3d
00000020: 690f 973d 41c3 fc3d a537 9e3d 1353 8bba
00000030: 6bfb 9f3d 8685 dfbd 79f2 c5bd 5795 0cbd
00000040: 0e2a 153e 886b 5a3d 3608 433e 655a 5d3d
00000050: 2a19 79bd d87a 583c 04f7 bcbb ae62 033d
00000060: 4ef3 3fbe f7e1 943d 1d50 523e 9332 343d
00000070: 79ff 2dbd 3981 ae3d af63 e73d 2598 683e
00000080: 006f f5bd 6019 3f3e 23e3 a3bc 73bc 8b3d
00000090: 41fd bbbc 7793 433d 912a 90bd 3a27 d83c
000000a0: 1084 74bd b8ad 95bd c1aa 28bd e2dd bdbd
000000b0: 616e bf3d fdbb 023e f62a 9f3d c044 0b3c
000000c0: 2e35 8c3d fb50 cd3d 1b01 a33d ba3c a0bd
000000d0: bfd2 a73d 9dd0 b83d d65a c63d b5e7 c0be
000000e0: 3251 f1bd 42c2 743d 7e24 babe bc3e 033e
000000f0: 2b6f 513d 0fe2 c5bb 12b7 82be 89ca b9bd
00000100: 7319 aebd 25e3 a93d ec32 8b3b 485f 6fbc
00000110: 74ee 10bd f570 423d 0be2 e7bd 8916 6a3d
00000120: 0894 f1bc ec24 123d 4fe0 4ebd 254e 8ebc
00000130: 9862 87bd 4229 723e a699 603e 5c89 93bd
00000140: 2b1b 28bd 57ac 4b3d 4b7e f23d b5e0 0fbe
00000150: 6d79 abbc d052 bbbd 6912 57bd 52f0 59be
00000160: 5c47 f7bc 4b84 223e 90d3 74bd 1c32 ff3d
00000170: 5e49 80bd bea6 afbd 04ad 89bd 2628 1c3e
00000180: 2e45 38bd b7b5 483d baf3 223d 82a5 d43d
00000190: 353d f0bd 0259 30bd 3fd5 133e e4e2 283c
000001a0: dfa0 cbbd a6f4 753d 1c2c 323d 472e adbd
000001b0: 1222 9fbd b24c 783d 6eb6 033e eaca bdbd
000001c0: 2501 d8bd 85c1 fb3c 8af6 253d 8db2 b73d
000001d0: fdbd c73d e71f a9bb 58c9 603d 1be9 d6bd
000001e0: 405f 0cbc 9e30 3abc c850 003e a6d6 be3c
000001f0: 444b 243c 9115 30bd 53a9 2f3d 3940 4a3d
00000200: 55f4 213e 420d ac3d 2c09 8ebd 642d 873c
00000210: 206e 1abe e9cf 34be e72e 29bd b1ea 32bd
00000220: 08a0 7b3d 36b0 813d d518 023e 61a3 003e
00000230: 6a0c 1c3e 696f 1a3e f239 adbb f550 193e
00000240: c8d6 2cbd 169d 393d 55fe 923d f072 e7bc
00000250: 89d1 99bd 9876 22bc 2219 2f3e d68a 473d
00000260: 855b bcbd 2c2e 063e bb2f 10bd 0a45 9ebd
00000270: 0fa0 83bc 1f7e c43d 1643 3f3d 0aae 91bd
00000280: 4e92 09be 2abf 72bd 3882 aebd 03f8 bebd
00000290: 3ff8 a43d 9fa4 8abd ff2e adbd b2ee a4bd
000002a0: 4f0f ac3d 3c62 103e af5d 92bd d787 a3bd
000002b0: 0f09 113e 507e f93c dca8 3939 317c 8ebc
000002c0: acba 263e 4a47 17be a5a1 efbd ecdb 9d3d
000002d0: 4864 f43d 2710 f53c 4a35 253c 601f 1b3e
000002e0: 5b88 1ebe 3222 4dbd 0754 77bd cbbe fd3c
000002f0: 0531 1ebd 8f88 d5bd faea b43d 531f 273e
00000300: eb51 a6bd 4cd3 f8bd adfd 393d 840b cdbd
00000310: c43a 643d d480 79bd 3fa6 333e 44d0 41bd
00000320: 6182 803e 0f26 013d 13f7 863d 45b4 983d
00000330: d3cd 52bd 6eca 7d3d 2fa6 77be e57b 07be
00000340: 841b 503d 14e6 50bd 66c8 d83d 6684 7dbd
00000350: e99a bcbd 9f33 183e d9d5 cab9 7d07 0abd
00000360: 079e aa3c 4631 343e b8d5 88bd 3f1b 29bc
00000370: 451c a83c 7bbd 68bc c8e5 11bd 5a99 6c3d
00000380: 06aa 0f3e 072e a23c 03e5 81bb 990e 093e
00000390: 900b 2bbd 9928 f5bd d69f d3bd 0c63 98be
000003a0: 0e50 c23c 3d68 873d e2ca 99bd 0b06 6cbd
000003b0: 95b2 86bd d254 1e3d a2cf 713e 9697 70bd
000003c0: 119b 533e e972 ec3c a3db 09bd cbdd b73d
000003d0: 0a86 97bd 1ab5 25bd 38ea 893d 4fac d33d
000003e0: 976c 173e e091 303e 1e69 273e a243 8dbb
000003f0: a8dd 0c3e b301 cebc 1f9a 933d dba8 4c3e
-0.046809833 0.09902121 -0.03289163 -0.28768456 -0.23696014 0.1776425 0.016128937 0.05381565
0.07375986 0.12341929 0.07725457 -0.0010629616 0.07811626 -0.109141394 -0.096653886 -0.03432211
0.14566824 0.053325206 0.19046101 0.054041285 -0.060815014 0.013212882 -0.0057667512 0.03207653
-0.18745157 0.07269662 0.20538373 0.043993544 -0.042479966 0.08520741 0.1129831 0.22714289
-0.11984062 0.18662024 -0.020005768 0.06823053 -0.02294791 0.047748055 -0.07039369 0.026385892
-0.059696257 -0.07308525 -0.04117847 -0.092708364 0.09347225 0.12767024 0.07771866 0.008500278
0.06846081 0.100252114 0.07959195 -0.07824083 0.081944935 0.09024165 0.09685294 -0.37676778
-0.11783065 0.05975557 -0.36355966 0.128169 0.05113141 -0.006038911 -0.25530297 -0.09071834
-0.08500948 0.082952775 0.0042480137 -0.014610119 -0.035383657 0.047471005 -0.11322411 0.057150397
-0.029489532 0.035679743 -0.050506886 -0.017371247 -0.06610602 0.23648551 0.21933612 -0.072039336
-0.041041534 0.049724903 0.11840495 -0.14050563 -0.020931924 -0.091466546 -0.05250779 -0.21283081
-0.030185394 0.15870778 -0.059772074 0.124607295 -0.06263994 -0.085767254 -0.06722453 0.1524969
-0.04498785 0.04900142 0.039783217 0.103831306 -0.11730424 -0.043053634 0.14436816 0.010308001
-0.09942793 0.060047768 0.043499097 -0.08456092 -0.0777017 0.060620017 0.1286256 -0.092672184
-0.10547093 0.030731926 0.04051832 0.08969603 0.09753034 -0.0051612738 0.054879516 -0.1049368
-0.008567631 -0.01136413 0.12530816 0.023295712 0.01002771 -0.042989317 0.04288609 0.049377654
0.15815862 0.08400966 -0.06935343 0.016501136 -0.15081072 -0.17657436 -0.041304495 -0.04368085
0.061431915 0.06332438 0.12704785 0.12562324 0.1523911 0.15081562 -0.0052864486 0.14972289
-0.04219702 0.045315824 0.07177416 -0.028253049 -0.07510669 -0.00991597 0.17099431 0.04871639
-0.091971435 0.1310355 -0.03520177 -0.07728012 -0.016067533 0.09594368 0.046694838 -0.071132734
-0.13434717 -0.05926434 -0.08520931 -0.09324648 0.08055162 -0.0676968 -0.084562294 -0.0805334
0.084013574 0.14099973 -0.07146775 -0.07984894 0.14163612 0.030455738 0.0001770588 -0.017393203
0.16282147 -0.14773288 -0.11700753 0.077079624 0.1193319 0.029914929 0.010083506 0.15148687
-0.15481703 -0.05008144 -0.06038287 0.030974766 -0.038620967 -0.10426437 0.08833881 0.16320543
-0.08121093 -0.12149677 0.04540794 -0.10011962 0.055720106 -0.060913876 0.17543887 -0.04731776
0.2509947 0.031530436 0.065900944 0.07456259 -0.05146582 0.06196063 -0.24184488 -0.13230856
0.05080749 -0.05100067 0.10585098 -0.061893843 -0.09209234 0.14863442 -0.0003868777 -0.033698548
0.020827306 0.17596921 -0.066813886 -0.010321437 0.020521292 -0.014205332 -0.035619527 0.057763435
0.14029703 0.019797338 -0.003964068 0.13384475 -0.041759074 -0.11970634 -0.10333221 -0.29763067
0.023719814 0.06611679 -0.075094 -0.05762295 -0.065770306 0.03865511 0.23614362 -0.058738314
0.20664622 0.028863387 -0.033656728 0.089778505 -0.07398613 -0.040455915 0.06734127 0.103356
0.14787517 0.17243147 0.16348693 -0.004311041 0.1375643 -0.025147295 0.07207131 0.19986288

output.bias f4 [12]
00000000: 96fc 05bd f034 dfbd b87e 16bc 7bef d83b
00000010: d03d a23d 034e b03d cae1 a23c 5ef5 2a3d
00000020: 0139 513d 0580 9ebc 67f7 ee3d 1fbe c13d
-0.032711588 -0.10898769 -0.009185486 0.006620345 0.07921946 0.086086296 0.019883055 0.041737907
0.051079754 -0.019348154 0.11668282 0.09460091
