GANs/saved_models/python/ZtSampledFromBimodalAllTanh.pth (torch, 565550 bytes, 58 tensors)

h_11.weight f4 [64, 12]
0.08580744 0.2718021 0.13303423 0.1988921 0.12628283 -0.0686558 -0.13898279 0.2021476
0.11279317 -0.15128003 0.18083607 0.11434572 0.023145039 -0.047381703 0.037321955 0.020511834
0.05548331 -0.0009199743 -0.03722324 0.031328887 -0.062704 0.015922626 0.00027254093 0.0837294
0.038122073 -0.23308402 -0.16394998 -0.14311191 0.018016806 -0.28036857 0.29838052 -0.2306031
0.15980342 0.023781357 0.011322817 0.255873 -0.0127827255 0.12321382 0.10142712 -0.016318055
-0.0013969634 -0.021059478 0.008727675 0.10540998 0.14715214 -0.10022486 0.047583014 0.08088445
0.15024155 0.031249916 -0.22887318 -0.14524128 -0.13177012 0.15600806 0.10126275 -0.06364186
-0.0072173034 -0.13756502 0.38235167 -0.15734524 -0.031763986 -0.39009356 0.08813188 -0.1327117
-0.047241807 -0.20559488 0.20859088 -0.16972245 -0.1768416 -0.07088285 0.21266012 -0.058244247
0.27102256 -0.33262363 -0.29631868 -0.23247215 -0.22980285 0.09419782 0.14769796 0.07893101
-0.20088774 -0.16615175 0.25136164 -0.002201313 -0.0076786014 -0.008126024 0.26111463 -0.14618056
-0.06971727 -0.005102466 0.04891437 -0.04202708 0.0060968692 0.114961885 -0.17223834 -0.110396154
0.169118 -0.10757625 0.09269389 -0.1045974 0.0046772156 0.017114153 0.009220398 -0.065837815
0.05826712 -0.17109233 -0.07001944 -0.19276278 -0.24881297 -0.22822832 0.25348786 -0.036541443
0.07038137 -0.37739325 -0.08273046 -0.058818325 0.042892784 -0.11945503 -0.09642378 -0.2648644
0.09526646 -0.16550173 0.09866443 -0.061447352 -0.20369513 -0.1850843 -0.09697661 -0.28086483
0.21704783 0.050529 0.20174378 0.10952261 -0.42962983 0.057229344 -0.2709364 -0.10579766
-0.15274514 -0.15722522 0.18258126 -0.19240795 -0.13069095 -0.2143266 0.3496812 -0.16344579
-0.16142401 -0.008591022 -0.008602249 0.22166745 0.07978281 -0.11735663 0.101601 -0.35475758
-0.07328021 -0.08303269 0.20780724 0.015918626 0.16749401 0.036058452 0.081588864 -0.08067076
0.14455692 0.056617066 0.1423103 -0.1416606 0.01909587 -0.09424334 -0.07893924 0.24481317
0.097587205 -0.17325214 -0.17203797 0.054941505 -0.07095329 -0.22766012 -0.18770546 -0.15616322
-0.28648478 0.08202528 0.2684529 -0.2634396 -0.007952516 0.12748256 -0.10274157 -0.1471304
0.041586395 0.1276948 0.21317144 -0.16015819 -0.13065481 -0.10380335 -0.06588153 -0.011596225
0.3343154 0.1936271 -0.11475881 0.02220975 -0.042768 0.034209237 -0.038725637 -0.06626908
-0.3276985 0.06008166 0.20257041 0.23953868 -0.1630517 -0.14187002 -0.15600522 -0.235062
-0.016505407 0.18332174 0.26449528 0.014898756 -0.05065023 -0.15045181 -0.11250951 0.2116058
-0.04088424 -0.0036321296 -0.059753805 0.039146435 -0.18289725 0.15897615 -0.17372356 -0.17848183
-0.25152388 0.21170111 0.15859878 0.13143267 -0.27023157 -0.24706459 -0.22252756 0.11920306
0.21103342 0.29543936 0.2514887 0.11958289 0.13928391 -0.22045043 -0.18102475 -0.12254832
0.015350222 -0.13806063 0.010418356 -0.04001073 -0.012509326 -0.3608645 -0.14248036 0.13391733
0.06732072 0.23857956 -0.21723431 -0.22932215 -0.118696034 -0.16933283 0.12717068 -0.061296333
00000000: d0bb af3d a529 8b3e 203a 083e 5faa 4b3e
00000010: 4950 013e 699b 8cbd 8151 0ebe c8ff 4e3e
00000020: 1b00 e73d 27e9 1abe 172d 393e 172e ea3d
00000030: aa9a bd3c 5113 42bd e8de 183d 6f08 a83c
00000040: 7842 633d 6e2a 71ba 6577 18bd b852 003d
00000050: f46a 80bd 2b70 823c d3e3 8e39 527a ab3d
00000060: e425 1c3d 94ad 6ebe 81e2 27be ee8b 12be
00000070: fb97 933c 788c 8fbe 55c5 983e 3823 6cbe
00000080: 82a3 233e 1fd1 c23c 5683 393c c901 833e
00000090: a36e 51bc 8757 fc3d 06b9 cf3d 71ad 85bc
000000a0: 501a b7ba ed84 acbc 86fe 0e3c 30e1 d73d
000000b0: 0daf 163e b142 cdbd 68e6 423d bfa6 a53d
000000c0: ecd8 193e d3ff ff3c bb5d 6abe 21ba 14be
000000d0: bfee 06be 94c0 1f3e d862 cf3d aa56 82bd
000000e0: 217f ecbb d8dd 0cbe 99c3 c33e 1c1f 21be
000000f0: f41a 02bd 58ba c7be 7d7e b43d 93e5 07be
00000100: a080 41bd 7787 52be d998 553e b9cb 2dbe
00000110: f715 35be 072b 91bd 93c3 593e 8591 6ebd
00000120: 78c3 8a3e a54d aabe 15b7 97be 2e0d 6ebe
00000130: 7051 6bbe c9ea c03d 223e 173e 95a6 a13d
00000140: 84b5 4dbe af23 2abe 79b2 803e e743 10bb
00000150: c79c fbbb 0423 05bc d1b0 853e 5bb0 15be
00000160: eec7 8ebd 9632 a7bb 6f5a 483d 9624 2cbd
00000170: 3fc8 c73b 2371 eb3d 3f5f 30be 6117 e2bd
00000180: 452d 2d3e f050 dcbd 4bd6 bd3d 2937 d6bd
00000190: 5443 993b fb32 8c3c 2711 173c fad5 86bd
000001a0: 81a9 6e3d d432 2fbe 5a66 8fbd 9b63 45be
000001b0: d4c8 7ebe afb4 69be 29c9 813e 7bac 15bd
000001c0: 1c24 903d b039 c1be 966e a9bd 7ceb 70bd
000001d0: 58b0 2f3d d7a4 f4bd d579 c5bd 4e9c 87be
000001e0: 101b c33d 4979 29be 9410 ca3d 38b0 7bbd
000001f0: 7595 50be bd86 3dbe ac9b c6bd 84cd 8fbe
00000200: c941 5e3e 7ff7 4e3d ec95 4e3e 644d e03d
00000210: 71f8 dbbe 5169 6a3d 2db8 8abe 72ac d8bd
00000220: 3969 1cbe a6ff 20be 95f6 3a3e 9706 45be
00000230: d9d3 05be 6f78 5bbe 6a09 b33e 555e 27be
00000240: 564c 25be 5cc1 0cbc 73f0 0cbc cbfc 623e
00000250: 2b65 a33d ac58 f0bd 2f14 d03d c9a2 b5be
00000260: ef13 96bd 0b0d aabd 6ccb 543e c767 823c
00000270: 8d83 2b3e 07b2 133d 1018 a73d b636 a5bd
00000280: bb06 143e 4ce7 673d cbb9 113e 7a0f 11be
00000290: f16e 9c3c a702 c1bd e5aa a1bd 4eb0 7a3e
000002a0: cddb c73d 0269 31be b92a 30be 580a 613d
000002b0: f54f 91bd bc1f 69be dc35 40be 40e9 1fbe
000002c0: 22ae 92be dffc a73d a972 893e 8ee1 86be
000002d0: 454b 02bc ca8a 023e 2c6a d2bd 5aa9 16be
000002e0: 7f56 2a3d 6dc2 023e 9d49 5a3e 8200 24be
000002f0: 60ca 05be da96 d4bd e5ec 86bd 18fe 3dbc
00000300: 632b ab3e 2f46 463e ab06 ebbd 39f1 b53c
00000310: 802d 2fbd fc1e 0c3d c69e 1ebd 15b8 87bd
00000320: 19c8 a7be 3018 763d 9e6e 4f3e a149 753e
00000330: 06f7 26be 6046 11be d5bf 1fbe 18b4 70be
00000340: 5936 87bc b2b8 3b3e ed6b 873e e919 743c
00000350: 9e76 4fbd 0a10 1abe 636b e6bd 31af 583e
00000360: 3c76 27bd 0609 6ebb 68c0 74bd 0358 203d
00000370: 6b49 3bbe a5ca 223e 97e4 31be f1c3 36be
00000380: bdc7 80be 2dc8 583e b867 223e 4996 063e
00000390: cb5b 8abe 80fe 7cbe 44de 63be bc20 f43d
000003a0: 2519 583e d443 973e 20c3 803e e0e7 f43d
000003b0: 71a0 0e3e c2bd 61be 8d5e 39be 9dfa fabd
000003c0: 7f7f 7b3c c45f 0dbe c1b1 2a3c 4be2 23bd
000003d0: ebf3 4cbc 3bc3 b8be 5fe6 11be a021 093e
000003e0: 72df 893d 334e 743e ac72 5ebe 6dd3 6abe
000003f0: e816 f3bd 9665 2dbe 0839 023e dd11 7bbd

h_11.bias f4 [64]
-0.52332795 0.7954817 0.27711153 0.61101806 -0.338177 -0.19152898 -0.1400627 -0.6484239
-0.9173823 0.011176096 -0.08617037 -0.13108629 0.19812888 -0.5893994 0.16811839 0.20900376
-0.24525346 -0.5406959 0.42502275 -0.109477036 -0.25449246 0.6872531 -0.47937152 0.17597307
0.32743087 -0.5632403 0.49700522 -0.6181041 -0.30259824 0.13596132 -0.47753006 0.50366086
-0.42040122 0.26078585 -0.7241379 0.06318799 0.31036794 -0.4730088 -0.10974358 0.5159957
0.21256581 -0.46617416 -0.80558556 0.1978249 0.4116218 0.49984682 0.07159623 -0.21413644
0.22425811 0.4140583 -0.08236172 0.62049216 -0.20675942 0.62028056 -0.042349096 -0.064494856
-0.07442652 0.3645976 0.32969424 -0.2730183 0.45392835 0.19502439 0.32886872 -0.3281799
00000000: d2f8 05bf b0a4 4b3f 90e1 8d3e ae6b 1c3f
00000010: 8925 adbe 2c20 44be 996c 0fbe 1cff 25bf
00000020: 91d9 6abf f21b 373c 177a b0bd 7c3b 06be
00000030: 4ce2 4a3e e1e2 16bf 3a27 2c3e 1505 563e
00000040: b923 7bbe 0c6b 0abf 959c d93e 7f35 e0bd
00000050: d64c 82be d2ef 2f3f 2f70 f5be 4932 343e
00000060: 05a5 a73e 8430 10bf 7877 fe3e 123c 1ebf
00000070: 28ee 9abe 7239 0b3e d27e f4be ebef 003f
00000080: d43e d7be b985 853e 1a61 39bf b468 813d
00000090: 8ce8 9e3e 362e f2be 3ec1 e0bd 4b18 043f
000000a0: daaa 593e 61ae eebe db3a 4ebf 9c92 4a3e
000000b0: 18c0 d23e eceb ff3e 0ba1 923d 9546 5bbe
000000c0: eba3 653e 73ff d33e 43ad a8bd 93d8 1e3f
000000d0: beb8 53be b5ca 1e3f 3f76 2dbd e115 84bd
000000e0: ee6c 98bd 89ac ba3e afcd a83e 0ec9 8bbe
000000f0: 4c69 e83e 79b4 473e 7b61 a83e 3207 a8be

h_12.weight f4 [64, 6]
-0.31249225 -0.14269575 -0.3588503 0.10343219 -0.4475931 -0.040019594 0.12477361 -0.25349793
0.21370457 -0.70647234 -0.3976088 -0.46007442 -0.19661178 -0.2507368 -0.12234808 -0.16370903
0.21985342 0.39401373 0.1238821 -0.19751684 -0.39124176 0.11288153 -0.21609475 0.40957394
0.28548405 0.087520875 0.44111493 0.5075111 0.13079204 -0.42977515 0.4999943 -0.16619219
-0.13681863 0.53278697 0.38959438 0.02766855 0.15559803 -0.2183879 0.07606 0.34254313
-0.0015911652 -0.064956106 -0.10627624 -0.27324462 0.19105285 0.1435659 0.3008769 -0.1421828
0.36420354 0.37527603 0.23681612 0.3468939 0.21076418 0.3462206 0.37955537 -0.14819407
-0.34545973 0.19153589 0.03218822 -0.17420837 -0.040304456 0.015212131 0.38158467 0.14920174
-0.21291512 -0.28622743 0.01630573 0.037115447 0.57927495 0.46864128 0.24161583 -0.045980554
0.069215804 0.20957959 -0.44705847 -0.008585106 -0.09574352 -0.35627356 -0.29593104 0.36305028
0.3195151 0.3158927 0.41161343 -0.21175775 -0.029275633 0.28821144 0.007088685 -0.09107543
-0.4318488 0.1847261 -0.2476708 -0.04305681 0.6043561 -0.2596888 -0.16768314 0.23820643
-0.33323556 -0.15822951 0.21770643 -0.097285666 -0.28150797 -0.27057174 -0.054970372 -0.14440481
-0.15229723 0.2241754 0.051022522 -0.22525002 -0.36577055 -0.11572079 -0.13093878 -0.23478737
-0.42438066 0.1589912 -0.28892398 -0.37397957 -0.3517587 0.26161408 -0.34087396 -0.28713095
1.1304374 1.02695 0.9289177 -0.8036204 -0.88018465 -0.88645816 0.4755609 0.16154005
-0.39227065 0.15911564 -0.31338975 0.11901499 -0.20627376 0.34584576 0.05466314 -0.118236676
0.2021353 -0.15145443 0.13504027 0.114432275 0.099547334 -0.05174005 0.49418125 0.010796437
-0.27983087 0.051456705 0.18411513 0.6987954 0.20999475 -0.29291025 0.18977973 0.31219524
-0.6183158 0.0056410786 -0.1602574 0.1461166 0.13202454 -0.1874262 -0.20489228 0.34957764
-0.0073863533 -0.3781971 0.5035041 -0.16004366 -0.030619731 0.21591735 -0.16371801 -0.52710134
0.17528869 -0.28797022 -0.2292166 -0.055436302 -0.34057203 -0.38434926 -0.2136351 -0.20684806
-0.108174376 0.0047237626 0.13781352 -0.45955518 -0.22983634 0.048154563 0.049893122 0.1205669
-0.385514 0.15147091 0.39841843 0.43574095 -0.3240748 -0.25632772 -0.44234046 -0.31760773
0.033697795 -0.16627571 0.094833225 -0.17462377 0.24917132 -0.1542701 0.30650187 -0.1136237
-0.00044157114 -0.6212289 0.036145072 0.57657117 0.29529756 -0.24665256 0.07260401 -0.020993369
-0.39921346 0.40252993 -0.045198318 0.17152455 -0.26974514 -0.2847858 0.07368557 0.23132904
-0.0061066723 -0.3108434 0.33956409 0.20427062 -0.16698559 -0.18844531 0.7115888 0.27642363
0.45258692 -0.3651017 -0.32923305 -0.63688684 -0.26147446 0.34023407 0.44869944 0.37176377
-0.39484692 0.21738626 -0.28615937 0.48055324 0.35446396 0.35209802 0.3162022 0.18832558
0.036137767 0.19164938 -0.17662682 0.15841427 -0.065681286 -0.104100704 -0.49805194 -0.053705156
-0.2287614 -0.025772495 -0.3680691 -0.43129465 -0.079146825 0.32137397 0.21995191 0.49216333
00000000: fcfe 9fbe d61e 12be 3abb b7be 42d4 d33d
00000010: ec2a e5be 96eb 23bd 4e89 ff3d 7bca 81be
00000020: 5fd5 5a3e 5fdb 34bf 6193 cbbe e08e ebbe
00000030: 9954 49be 9360 80be a191 fabd 57a3 27be
00000040: 4121 613e 2bbc c93e e6b5 fd3d db41 4abe
00000050: d750 c8be 6e2e e73d f147 5dbe adb3 d13e
00000060: f72a 923e 253e b33d d1d9 e13e 3fec 013f
00000070: 59ee 053e 7d0b dcbe 41ff ff3e 492e 2abe
00000080: 2f1a 0cbe ba64 083f ea78 c73e 28a9 e23c
00000090: 1755 1f3e 14a1 5fbe 58c5 9b3d d061 af3e
000000a0: a58e d0ba b507 85bd 5ba7 d9bd b8e6 8bbe
000000b0: 5ca3 433e f002 133e 890c 9a3e 5e98 11be
000000c0: e378 ba3e 2e24 c03e ed7f 723e 149c b13e
000000d0: 91d2 573e d443 b13e 1555 c23e 30c0 17be
000000e0: 19e0 b0be fc21 443e ccd7 033d ae63 32be
000000f0: 4916 25bd 4d3c 793c 115f c33e 57c8 183e
00000100: 6c06 5abe 678c 92be 9893 853c 5e06 183d
00000110: 5d4b 143f c0f1 ef3e 246a 773e 1b56 3cbd
00000120: 04c1 8d3d 089c 563e d9e4 e4be 8ba8 0cbc
00000130: 2e15 c4bd 7d69 b6be 4684 97be bae1 b93e
00000140: 7c97 a33e b0bc a13e ffbe d23e 06d7 58be
00000150: 74d3 efbc 7390 933e 3348 e83b c185 babd
00000160: 491b ddbe d728 3d3e 6a9d 7dbe 565c 30bd
00000170: 15b7 1a3f eef5 84be 21b5 2bbe 63ec 733e
00000180: da9d aabe eb06 22be 6fee 5e3e b53d c7bd
00000190: d021 90be 6188 8abe 9d28 61bd dbde 13be
000001a0: cef3 1bbe 3c8e 653e fefc 503d f1a7 66be
000001b0: 4746 bbbe 06ff ecbd d114 06be 1a6c 70be
000001c0: 6c48 d9be 97ce 223e d8ed 93be 407a bfbe
000001d0: b719 b4be 48f2 853e 0887 aebe d402 93be
000001e0: 2cb2 903f 1973 833f 8dcd 6d3f 11ba 4dbf
000001f0: c853 61bf ecee 62bf b87c f33e c16a 253e
00000200: b3d7 c8be 36ef 223e 9f74 a0be 22be f33d
00000210: 6e39 53be b212 b13e 75e6 5f3d 1226 f2bd
00000220: 8efc 4e3e df16 1bbe ff47 0a3e 785b ea3d
00000230: 79df cb3d 60ed 53bd 5305 fd3e 8ae3 303c
00000240: fe45 8fbe 44c4 523d ad88 3c3e 41e4 323f
00000250: dd08 573e 55f8 95be 9e55 423e 0ed8 9f3e
00000260: f249 1ebf ccd8 b83b 841a 24be 979f 153e
00000270: 7131 073e a7ec 3fbe 48cf 51be d7fb b23e
00000280: 3909 f2bb 0da3 c1be a5e5 003f 7ce2 23be
00000290: 3bd6 fabc 7019 5d3e b2a5 27be 1df0 06bf
000002a0: e17e 333e d570 93be c2b7 6abe 2d11 63bd
000002b0: 755f aebe 6dc9 c4be 29c3 5abe facf 53be
000002c0: 878a ddbd cbc9 9a3b fd1e 0d3e d14a ebbe
000002d0: 385a 6bbe b83d 453d bb5c 4c3d c7eb f63d
000002e0: 1762 c5be 311b 1b3e 80fd cb3e 7019 df3e
000002f0: 22ed a5be 633d 83be 737a e2be 7b9d a2be
00000300: b306 0a3d 2e44 2abe ec37 c23d 93d0 32be
00000310: c426 7f3e fbf8 1dbe d0ed 9c3e 8bb3 e8bd
00000320: ad82 e7b9 db08 1fbf db0c 143d 2b9a 133f
00000330: 3e31 973e 7d92 7cbe 69b1 943d 49fa abbc
00000340: b565 ccbe 6718 ce3e df21 39bd 22a4 2f3e
00000350: 091c 8abe 72cf 91be 76e8 963d 85e1 6c3e
00000360: 7b1a c8bb de26 9fbe 58db ad3e 512c 513e
00000370: 45fe 2abe cff7 40be af2a 363f 6687 8d3e
00000380: 79b9 e73e 9cee babe 3c91 a8be 040b 23bf
00000390: fbdf 85be 2933 ae3e efbb e53e d257 be3e
000003a0: 6029 cabe 819a 5e3e 7b83 92be 130b f63e
000003b0: 4d7c b53e 3146 b43e 41e5 a13e 6cd8 403e
000003c0: 3205 143d bc3f 443e a9dd 34be 5a37 223e
000003d0: e983 86bd c032 d5bd aa00 ffbe f0f9 5bbd
000003e0: 6e40 6abe d720 d3bc 8e73 bcbe a7d2 dcbe
000003f0: bb17 a2bd 218b a43e 133b 613e d5fc fb3e

h_12.bias f4 [64]
0.22118199 -0.030317323 0.24062814 -0.20929854 -0.3213469 0.04458729 -0.07133655 -0.37545604
0.113953486 -0.45710674 0.46157563 0.20990478 0.12425029 -0.31203887 0.16401708 0.12005941
0.26326105 -0.03336163 0.33603925 -0.31309652 -0.9591328 0.19786946 0.2308874 0.48826075
-0.074809715 0.11158178 0.11629377 -0.2880685 0.31392387 -0.09762667 -0.5579535 -0.19690476
0.01673278 -0.0024039168 -0.14836523 -0.44954202 0.053998694 -0.27756336 -0.29956564 0.34891805
0.064183734 0.25651512 0.097707614 -0.3166297 0.06871502 0.36585647 -0.23955412 -0.47038528
0.4629214 0.51560694 -0.3199893 0.1833796 -0.29989403 -0.42727646 -0.049731456 0.11938163
-0.21922667 0.3254406 -0.289932 0.29160383 0.42178366 0.7621301 -0.026971923 0.14834973
00000000: 887d 623e 095c f8bc 3967 763e 5b52 56be
00000010: 9587 a4be 2aa1 363d e618 92bd c63b c0be
00000020: 7260 e93d e509 eabe a453 ec3e 47f1 563e
00000030: f076 fe3d 8fc3 9fbe 18f4 273e b5e1 f53d
00000040: 27ca 863e 34a6 08bd 560d ac3e 304e a0be
00000050: ba89 75bf 4b9e 4a3e bf6d 6c3e 50fd f93e
00000060: d635 99bd fd84 e43d 6e2b ee3d b77d 93be
00000070: a1ba a03e 7ef0 c7bd 0ad6 0ebf 67a1 49be
00000080: 2f13 893c 088b 1dbb 0eed 17be 5f2a e6be
00000090: bc2d 5d3d c91c 8ebe ab60 99be 63a5 b23e
000000a0: c372 833d f355 833e ee1a c83d 4a1d a2be
000000b0: 76ba 8c3d 8a51 bb3e ad4d 75be 57d6 f0be
000000c0: 0904 ed3e d1fe 033f a3d5 a3be ddc7 3b3e
000000d0: b68b 99be fbc3 dabe 36b3 4bbd 5b7e f43d
000000e0: f57c 60be 26a0 a63e f871 94be 194d 953e
000000f0: 07f4 d73e f51a 433f 39f4 dcbc fee8 173e

h_21.weight f4 [64, 64]
0.026136322 -0.22601578 0.10239985 -0.25583112 0.033105873 0.16588794 0.20964867 0.0019391311
0.2413967 -0.000316109 0.1176339 0.14010346 0.077664115 0.09990452 0.086853124 0.06374495
-0.01609527 -0.06003253 -0.09189622 0.10386341 -0.02791226 -0.015065308 0.11635775 -0.12505049
-0.1620694 0.16371953 -0.04713179 0.051891077 0.06075209 -0.110419594 0.17514499 0.16474155
0.101422735 -0.19246499 0.14322823 -0.03951819 -0.09412542 0.15570909 -0.101104334 -0.029602438
-0.038421866 0.08502168 0.21668835 -0.07480916 -0.117009334 -0.2338532 0.039942976 0.14876969
-0.15547666 -0.01420542 0.020662915 -0.15430535 0.1958135 0.05237109 -0.048311524 0.067711145
0.12105817 -0.081976235 0.005751023 0.00051306863 -0.10349666 -0.10371761 -0.09329026 0.12297014
0.01431286 -0.14323525 -0.0016061377 0.029462803 -0.07350224 0.035866812 0.031638432 -0.043507703
0.013403941 0.0593713 0.10014182 0.009746935 -0.018824592 0.013209392 0.031107308 -0.10500384
-0.06914895 0.02097003 -0.1691729 0.022086233 0.096982725 -0.05680698 -0.049015116 -0.064265154
0.116711676 0.11634256 -0.012919878 0.23660542 0.005097424 -0.21444856 0.022138773 0.1092319
0.13947637 -0.014679035 0.10053396 0.07239099 0.086176015 -0.09376739 0.19996935 -0.052930385
0.12502153 -0.07545975 -0.14516811 -0.02200272 -0.08398101 -0.14941874 -0.08565934 0.103396006
0.08375726 -0.023922505 0.13689849 0.050159805 0.029082708 0.07177586 0.00579185 -0.095257446
-0.06142719 -0.13226938 -0.10380054 0.141158 -0.05478214 -0.040244523 -0.05882747 0.09760543
-0.21986987 0.14942867 0.08812967 0.1125098 0.0075620483 0.041847125 -0.03510206 -0.117078364
-0.15237279 -0.031022007 0.0069202282 0.17832321 0.13150409 -0.0154808955 0.07885916 -0.080873445
0.14567742 -0.17470036 0.16348703 -0.08501039 -0.039696075 0.04185675 0.10052058 0.1662285
0.16454801 -0.017509785 -0.10598831 -0.030833364 0.13222606 -0.018922616 -0.1801246 0.17496793
-0.20657621 -0.013579948 -0.15777425 -0.09610975 0.03759908 0.024908321 -0.016714483 0.018092725
0.057547774 -0.20060763 -0.0480311 -0.0521734 0.12291514 0.089848824 -0.059916303 -0.07725981
0.13224697 0.17512898 0.02304365 -0.016157841 -0.19276497 0.28340855 -0.12387716 -0.01928661
-0.037788697 0.015311842 0.10607621 -0.20470017 0.15434405 0.093303874 0.026913872 0.04990423
-0.064865276 0.06766973 -0.018413601 0.09828462 -0.04050372 0.12373252 -0.056709524 -0.15644194
-0.10684345 0.10625141 0.018849658 0.03917888 0.03869145 -0.21823604 0.012511125 -0.025973577
-0.10613004 0.10241606 0.015711011 -0.0013135487 -0.14533111 0.0060709626 -0.15328345 -0.16325973
-0.0817452 0.030588172 0.25694498 0.07467855 0.12442819 -0.030610569 0.14630343 0.04545982
-0.0076057557 -0.1510403 -0.03334858 0.048359912 0.11357819 -0.0020955685 -0.014985636 -0.016168045
0.21891052 -0.067599416 -0.013397859 0.11708414 0.08853256 0.110738866 0.046528757 0.09942987
0.07094944 0.0864571 0.06622448 0.20738678 0.11884522 0.02504213 -0.009721527 0.16117865
-0.0317911 0.049867205 0.03291002 0.15971977 -0.024431873 0.078314 0.051105324 -0.004022172
00000000: d71b d63c ae70 67be 03b7 d13d 4cfc 82be
00000010: 069a 073d 87de 293e 24ae 563e 712a fe3a
00000020: b230 773e 6fbb a5b9 0bea f03d 4877 0f3e
00000030: 5d0e 9f3d be9a cc3d 0de0 b13d b68c 823d
00000040: 3ada 83bc ace4 75bd 1634 bcbd 57b6 d43d
00000050: 40a8 e4bc 7bd4 76bc f94c ee3d 3c0d 00be
00000060: 85f5 25be 18a6 273e 440d 41bd bd8b 543d
00000070: 2fd7 783d ab23 e2bd 3559 333e 02b2 283e
00000080: b9b6 cf3d 8b15 45be 6caa 123e d3dd 21bd
00000090: d4c4 c0bd 3472 1f3e ca0f cfbd d080 f2bc
000000a0: 3f60 1dbd d91f ae3d 8de3 5d3e 8b35 99bd
000000b0: 97a2 efbd 3777 6fbe 3f9b 233d 1557 183e
000000c0: 4635 1fbe dabd 68bc 4645 a93c 3902 1ebe
000000d0: 5683 483e 1183 563d 4ee2 45bd 24ac 8a3d
000000e0: 59ed f73d 28e3 a7bd 1473 bc3b 747f 063a
000000f0: 0ff6 d3bd e669 d4bd f70e bfbd c5d7 fb3d
00000100: 7c80 6a3c 43ac 12be 0a85 d2ba fa5b f13c
00000110: 5888 96bd 14e9 123d 4d97 013d 2235 32bd
00000120: 349c 5b3c 522f 733d 2817 cd3d 9cb1 1f3c
00000130: 0836 9abc 356c 583c c1d4 fe3c 410c d7bd
00000140: f79d 8dbd 57c9 ab3c a93b 2dbe 30ee b43c
00000150: e19e c63d 70ae 68bd 13c4 48bd 739d 83bd
00000160: 8806 ef3d 0245 ee3d e5ad 53bc b148 723e
00000170: 4b08 a73b 6798 5bbe 5f5c b53c f9b4 df3d
00000180: e5d2 0e3e 5680 70bc c0e4 cd3d ba41 943d
00000190: 0d7d b03d 1e09 c0bd c4c4 4c3e 88cd 58bd
000001a0: a505 003e a48a 9abd f3a6 14be 0c3f b4bc
000001b0: 3cfe abbd 3a01 19be 2a6e afbd 49c1 d33d
000001c0: ed88 ab3d 21f9 c3bc 1e2f 0c3e 5e74 4d3d
000001d0: dc3e ee3c 39ff 923d 8fc9 bd3b 5616 c3bd
000001e0: 149b 7bbd a071 07be 6195 d4bd b98b 103e
000001f0: 3d63 60bd 71d7 24bd 13f5 70bd 5be5 c73d
00000200: 9125 61be d403 193e 547d b43d 8a6b e63d
00000210: 0fcb f73b e467 2b3d 2dc7 0fbd c8c6 efbd
00000220: 9d07 1cbe dd21 febc 15c3 e23b 5c9a 363e
00000230: 02a9 063e 95a3 7dbc e980 a13d faa0 a5bd
00000240: 762c 153e a7e4 32be 2569 273e ed19 aebd
00000250: 5a98 22bd fc71 2b3d bcdd cd3d ce37 2a3e
00000260: 467f 283e ae70 8fbc 6610 d9bd 4096 fcbc
00000270: 4566 073e 9a03 9bbc 9572 38be cb2a 333e
00000280: b788 53be 6e7e 5ebc 938f 21be 30d5 c4bd
00000290: 7e01 1a3d 890c cc3c d0ec 88bc 3237 943c
000002a0: 37b7 6b3d 166c 4dbe 42bc 44bd c6b3 55bd
000002b0: efba fb3d a902 b83d cc6a 75bd 643a 9ebd
000002c0: c06b 073e 0355 333e 09c6 bc3c 735d 84bc
000002d0: 2e64 45be ed1a 913e 4fb3 fdbd f4fe 9dbc
000002e0: 52c8 1abd 85de 7a3c 7c3e d93d ec9c 51be
000002f0: 5e0c 1e3e 1a16 bf3d 7b7a dc3c 6168 4c3d
00000300: 16d8 84bd 6d96 8a3d 1fd8 96bc 7249 c93d
00000310: 3be7 25bd 7a67 fd3d 3f48 68bd 5132 20be
00000320: bdd0 dabd 579a d93d 996a 9a3c 097a 203d
00000330: ed7a 1e3d 4579 5fbe 76fb 4c3c 8ac6 d4bc
00000340: b55a d9bd 83bf d13d 61b4 803c 612b acba
00000350: aed1 14be edee c63b 56f6 1cbe 8f2d 27be
00000360: 076a a7bd 0c94 fa3c 4b8e 833e 11f1 983d
00000370: 35d4 fe3d 04c3 fabc 91d0 153e 1434 3a3d
00000380: b439 f9bb 4faa 1abe 8598 08bd 0b15 463d
00000390: af9b e83d ce55 09bb 5086 75bc d972 84bc
000003a0: 142a 603e 9071 8abd b282 5bbc cfc9 ef3d
000003b0: 8f50 b53d 0fcb e23d f094 3e3d e3a1 cb3d
000003c0: f14d 913d 6c10 b13d b3a0 873d 335d 543e
000003d0: 1f65 f33d 2725 cd3c 0a47 1fbc 040c 253e
000003e0: 6237 02bd 8e41 4c3d a8cc 063d 948d 233e
000003f0: 5a25 c8bc 1763 a03d d153 513d 6dcc 83bb

h_21.bias f4 [64]
-0.2559756 -0.03920754 0.07053582 0.08285736 0.15481421 0.16361208 0.048572168 -0.21501863
0.19077328 -0.26531392 -0.04586254 0.0054394524 0.11509959 0.083224334 0.26665926 0.19224396
-0.21016268 0.008933529 0.34602508 0.03580225 -0.22286524 0.08998216 0.14689074 -0.08743698
-0.036463648 -0.04637919 0.14080968 0.03156272 -0.21985422 -0.1959177 0.07671517 0.043393288
-0.27150983 -0.036032096 0.17077537 -0.17117481 0.12512676 0.06902968 0.107416585 -0.057599224
0.113851935 -0.27627867 -0.19785948 -0.1800097 0.24080727 -0.18946262 0.116338246 -0.17278558
-0.006058291 -0.3215804 -0.0545606 -0.19983755 -0.23160574 0.093424514 0.12738621 -0.018546825
-0.13222075 -0.24361627 0.080653794 -0.23265763 0.17644778 0.16381618 -0.119137526 -0.17913413
00000000: 3c0f 83be 1698 20bd 1675 903d 1fb1 a93d
00000010: 9e87 1e3e ed89 273e 9cf3 463d d82d 5cbe
00000020: 125a 433e 3ad7 87be 5cda 3bbd 6f3d b23b
00000030: 55b9 eb3d 8571 aa3d 9087 883e 9adb 443e
00000040: e334 57be f05d 123c 332a b13e 61a5 123d
00000050: c936 64be 9148 b83d 876a 163e 2912 b3bd
00000060: e85a 15bd 1bf8 3dbd 6a30 103e e947 013d
00000070: 7721 61be a69e 48be d81c 9d3d 29bd 313d
00000080: 5603 8bbe 6496 13bd bddf 2e3e 7348 2fbe
00000090: 3b21 003e 6f5f 8d3d 3afd db3d 2aed 6bbd
000000a0: 342b e93d 6674 8dbe ad9b 4abe 7654 38be
000000b0: 2e96 763e 7d02 42be bf42 ee3d b4ee 30be
000000c0: a184 c6bb 30a6 a4be f07a 5fbd 37a2 4cbe
000000d0: 0e2a 6dbe 5a55 bf3d 8871 023e 83ef 97bc
000000e0: e064 07be 8b76 79be d12d a53d cd3d 6ebe
000000f0: baae 343e 6ebf 273e 60fe f3bd f06e 37be

h_22.weight f4 [64, 64]
-0.11463052 -0.14400944 0.040489465 -0.21718433 0.06266004 0.05923353 -0.111137174 -0.20096621
0.18277854 0.14031494 0.29294616 -0.024160746 0.2198781 0.22445472 0.027517354 0.10919837
0.016230969 -0.043506764 0.04251731 -0.19990833 -0.09217148 -0.018771661 0.31569868 0.5748807
0.10577038 -0.04834015 -0.06385484 -0.05398032 0.06989375 -0.1980588 -0.4477436 0.02862231
0.1651464 0.21663833 -0.10337962 -0.23068732 -0.0147089055 -0.0018662382 -0.103653654 0.24364224
0.09406067 -0.07589551 0.052153487 0.09011191 -0.06164965 0.15197456 -0.11393087 -0.06565599
0.032658756 0.40176666 -0.41927657 -0.009371668 -0.22480999 -0.23692924 0.16566525 -0.05463173
-0.14207241 0.40849903 0.029611798 -0.07461822 -0.008893338 0.15578014 0.035127625 0.13121599
-0.07750206 0.07548998 -0.16379757 0.0075063733 0.26228246 -0.18439074 -0.32229736 -0.30458704
-0.17155363 0.09366275 0.10476647 -0.23739304 -0.30859813 0.10092887 0.40549088 -0.03263755
0.14051715 -0.71720254 -0.1949266 -0.7398119 0.11686461 0.25046167 -0.04724688 -0.19481677
-0.37586847 0.16630702 0.106590785 0.077729344 0.05661007 -0.048013512 0.08965077 0.18511513
-0.024108972 -0.070917435 0.71530586 0.6498397 0.09260203 0.22931963 0.17208555 -0.083141916
-0.18274057 0.03364621 0.23979531 0.06772412 0.080322705 -0.19527055 0.43055487 -0.01274594
-0.6323684 0.03235146 0.33552468 -0.309483 0.10098759 0.1652474 -0.20239462 0.07632319
0.016142178 -0.4443342 0.18484995 -0.19894159 -0.18433994 -0.059317123 -0.21317971 0.38129497
0.073271714 -0.028408794 0.1418278 0.41809013 0.07665436 0.038984578 -0.071213745 0.25473005
0.082207195 0.24181679 -0.4272628 -0.25432965 -0.22404641 -0.051730137 -0.29539356 0.07100916
-0.14626154 -0.14039825 0.03960031 -0.0036613643 0.12237845 -0.026688732 -0.25508395 -0.21386597
-0.09851749 0.06026315 -0.19816628 -0.057067055 -0.32168195 -0.29768363 0.22394995 -0.034786545
0.10403701 0.32974985 0.26104406 0.36203745 -0.13439609 0.09282137 -0.008504439 -0.15658027
-0.07668788 -0.28071484 -0.18093391 0.4871316 0.13523582 -0.059948966 0.20733759 0.04867758
-0.26791665 0.13954097 0.35855618 -0.24669616 0.23697968 0.08804501 0.3344924 -0.04285122
0.19624932 -0.22013853 0.1488693 0.16929305 -0.06526676 -0.038670816 0.052205075 0.1326494
0.2062346 -0.13348255 0.019723943 0.53233457 -0.1738201 0.42278332 0.15019496 -0.16017775
0.19801176 -0.08050846 0.18857197 -0.025772413 -0.3204743 -0.50301397 0.07518571 0.1107022
-0.4530467 0.030266142 0.04286576 0.02734289 -0.093495145 0.14883004 -0.50767004 0.17095058
-0.11807826 0.05118204 -0.17139891 -0.19846968 0.05845998 -0.5073421 -0.19630486 -0.1923886
-0.27716106 0.6438552 0.47650048 -0.20894493 -0.014034556 -0.12550198 -0.061539907 0.008829082
-0.22837143 -0.15065758 -0.17693938 0.020441117 0.18873066 -0.034438424 -0.06960382 -0.1755566
0.004856546 0.6278296 0.5828085 -0.105297536 -0.0587346 -0.3500244 0.3003676 0.036959648
0.035633933 0.23758417 -0.23242278 0.10221764 0.5533156 0.0154389 0.08339593 0.5122786
00000000: 68c3 eabd 3677 13be 48d8 253d 9265 5ebe
00000010: e853 803d dc9e 723d e39b e3bd 16ca 4dbe
00000020: 4c2a 3b3e b8ae 0f3e 0afd 953e c2ec c5bc
00000030: ba27 613e 75d7 653e 136c e13c 65a3 df3d
00000040: cff6 843c 2634 32bd a126 2e3d c5b4 4cbe
00000050: 67c4 bcbd 07c7 99bc 42a3 a13e 622b 133f
00000060: 249e d83d 5200 46bd 54c6 82bd 781a 5dbd
00000070: 7424 8f3d edcf 4abe a63e e5be 5679 ea3c
00000080: 231c 293e 70d6 5d3e b2b8 d3bd 4c39 6cbe
00000090: 9ffd 70bc 909c f4ba 5e48 d4bd 5a7d 793e
000000a0: e1a2 c03d 1b6f 9bbd e59e 553d 988c b83d
000000b0: 5884 7cbd 389f 1b3e 9754 e9bd a676 86bd
000000c0: 30c5 053d 5cb4 cd3e 6bab d6be a08b 19bc
000000d0: 9734 66be 949d 72be 27a4 293e 85c5 5fbd
000000e0: 6e7b 11be c926 d13e 7194 f23c 70d1 98bd
000000f0: 5db5 11bc d484 1f3e fce1 0f3d 7c5d 063e
00000100: 66b9 9ebd 7e9a 9a3d 8dba 27be 06f8 f53b
00000110: e349 863e edd0 3cbe 2904 a5be d5f2 9bbe
00000120: c1ab 2fbe 42d2 bf3d ce8f d63d 2917 73be
00000130: 9300 9ebe ccb3 ce3d 809c cf3e f4ae 05bd
00000140: bae3 0f3e 969a 37bf d79a 47be 5064 3dbf
00000150: b656 ef3d 833c 803e f285 41bd 0c7e 47be
00000160: d571 c0be 634c 2a3e 454c da3d 9030 9f3d
00000170: f6df 673d d1a9 44bd d39a b73d d28e 3d3e
00000180: 2e80 c5bc 293d 91bd 491e 373f e55b 263f
00000190: 22a6 bd3d c4d2 6a3e 3237 303e 4f46 aabd
000001a0: 5820 3bbe 9cd0 093d e78c 753e f2b2 8a3d
000001b0: 3b80 a43d 01f5 47be b071 dc3e 59d4 50bc
000001c0: e5e2 21bf f782 043d e4c9 ab3e 8e74 9ebe
000001d0: 95d2 ce3d 9d36 293e 8940 4fbe 554f 9c3d
000001e0: 9a3c 843c c67f e3be 4e49 3d3e 58b7 4bbe
000001f0: 9cc3 3cbe 83f6 72bd c84b 5abe 1839 c33e
00000200: 7b0f 963d 8fb9 e8bc 4f3b 113e e90f d63e
00000210: f6fc 9c3d 4bae 1f3d 83d8 91bd fa6b 823e
00000220: 3f5c a83d d29e 773e 31c2 dabe 7f37 82be
00000230: 6c6c 65be fbe2 53bd d33d 97be 406d 913d
00000240: 96c5 15be 8fc4 0fbe ef33 223d 80f3 6fbb
00000250: 8ea1 fa3d 54a2 dabc 5d9a 82be aeff 5abe
00000260: 8ac3 c9bd 7ed6 763d 1aec 4abe 25bf 69bd
00000270: 7fb3 a4be fd69 98be 2353 653e 567c 0ebd
00000280: 5b11 d53d f9d4 a83e 91a7 853e f95c b93e
00000290: 219f 09be 2119 be3d 3456 0bbc 9456 20be
000002a0: 890e 9dbd dbb9 8fbe bd46 39be 5069 f93e
000002b0: 427b 0a3e 0c8d 75bd 4e50 543e 2462 473d
000002c0: 5f2c 89be d4e3 0e3e ad94 b73e eb9d 7cbe
000002d0: cdaa 723e f150 b43d 9642 ab3e c384 2fbd
000002e0: 95f5 483e ff6b 61be 3271 183e 285b 2d3e
000002f0: 94aa 85bd 4a65 1ebd fdd4 553d 3fd5 073e
00000300: 2a2f 533e a6af 08be 1b94 a13c 1447 083f
00000310: e5fd 31be 0e77 d83e b5cc 193e a305 24be
00000320: 98c3 4a3e 9fe1 a4bd 0319 413e ab20 d3bc
00000330: 3515 a4be 86c5 00bf f7fa 993d d6b7 e23d
00000340: bdf5 e7be b3f0 f73c 0294 2f3d 32fe df3c
00000350: 627a bfbd e766 183e aaf6 01bf ab0d 2f3e
00000360: 04d3 f1bd 42a4 513d 3283 2fbe a33b 4bbe
00000370: bb73 6f3d 2ce1 01bf 2404 49be 8401 45be
00000380: 0ee8 8dbe b2d3 243f dff7 f33e a9f5 55be
00000390: 32f1 65bc 9783 00be 4511 7cbd dba7 103c
000003a0: 33da 69be fb45 1abe 992f 35be 2174 a73c
000003b0: 9c42 413e 4e0f 0dbd 738c 8ebd 1cc5 33be
000003c0: a923 9f3b 71b9 203f f032 153f 3ca6 d7bd
000003d0: b193 70bd 6636 b3be c8c9 993e 0063 173d
000003e0: e3f4 113d 4449 733e 3d00 6ebe 7b57 d13d
000003f0: 17a6 0d3f 71f3 7c3c 7ccb aa3d b124 033f

h_22.bias f4 [64]
0.14310671 -0.020299727 -0.03628972 0.20176959 0.044511292 0.08578022 -0.029275766 -0.06918399
-0.046786223 -0.11237404 -0.031426024 -0.0033436732 -0.037959266 -0.021772925 -0.013067093 0.039940603
-0.16435757 0.05692904 0.08375367 0.014534337 0.086327076 -0.047159694 0.04843102 0.059566483
0.019446922 0.03682666 0.105534695 0.14733477 -0.10066997 0.07314633 0.05845788 -0.016564615
0.13113865 0.1661807 -0.06251576 -0.04323667 -0.11496194 -0.057815347 0.063642286 0.06828522
-0.008916364 0.11995865 -0.06308632 -0.006141315 -0.031002242 -0.16349092 -0.09813377 0.12797378
-0.079693444 0.017969258 -0.047458053 -0.016240014 -0.06139437 0.016051073 -0.16481137 -0.08061252
-0.04369472 -0.1287984 -0.091603585 -0.0149434535 0.0021338472 0.011006752 -0.024248455 0.07423958
00000000: 918a 123e 9d4b a6bc 88a4 14bd b09c 4e3e
00000010: 7951 363d 8aad af3d bbd3 efbc 56b0 8dbd
00000020: e9a2 3fbd 5c24 e6bd 93b8 00bd 8721 5bbb
00000030: 2d7b 1bbd 225d b2bc 5c17 56bc c298 233d
00000040: 5a4d 28be 6d2e 693d 0b87 ab3d 6e21 6e3c
00000050: 40cc b03d 862a 41bd 9b5f 463d fcfb 733d
00000060: 274f 9f3c 8dd7 163d 9322 d83d edde 163e
00000070: 0f2c cebd becd 953d 8871 6f3d 84b2 87bc
00000080: 3649 063e 462b 2a3e 4308 80bd ef18 31bd
00000090: 2a71 ebbd c9cf 6cbd e356 823d 1fd9 8b3d
000000a0: f115 12bc e1ac f53d 6733 81bd 163d c9bb
000000b0: 6af8 fdbc 2a6a 27be 5cfa c8bd 8f0b 033e
000000c0: 5136 a3bd 4434 933c 6063 42bd c709 85bc
000000d0: aa78 7bbd 8a7d 833c 50c4 28be 2d18 a5bd
000000e0: 3cf9 32bd bae3 03be a99a bbbd 63d5 74bc
000000f0: 04d8 0b3b aa55 343c b2a4 c6bc ec0a 983d

h_32.weight f4 [128, 128]
0.035558756 0.08226891 -0.08739658 0.023724105 0.021843696 0.018985307 0.11536408 0.095990606
0.023422366 0.0017989539 0.029475756 -0.017241597 0.05503814 0.02228167 -0.040752303 0.003971344
-0.07000521 -0.034158666 -0.14272909 0.050233554 -0.06807525 -0.031309318 -0.054795824 0.0032107527
-0.01632782 -0.12953566 -0.097120054 0.044477068 0.06579388 -0.030246379 -0.022565683 -0.011153338
0.06615447 0.076516025 0.073457755 -0.025754346 0.0019941216 -0.10497962 -0.15350658 -0.09849466
0.006239681 0.08127516 0.1419335 0.09111158 0.02296389 0.076903015 -0.043992575 -0.0034162295
-0.049336385 -0.061479874 0.073389076 -0.057609502 0.04247544 -0.07592963 -0.028617062 0.15568703
-0.05633712 0.0035878879 0.007480988 -0.04197426 0.07151105 0.08698172 -0.011993483 0.0016842842
0.10358174 0.07849332 0.08882692 -0.32400298 -0.16527559 -0.05752045 0.07614883 0.08778142
-0.029798688 0.021249205 -0.06713762 0.06716356 0.0057157394 0.038210634 -0.06166639 -0.06718302
0.10025486 -0.055327762 -0.124537386 0.016448015 -0.03118904 -0.33479545 0.033965383 -0.3420288
0.09578215 -0.43766415 0.18888558 -0.11029635 -0.054080226 0.061271627 -0.10917413 -0.031711157
0.019904438 -0.22680125 -0.040223822 -0.23828697 0.024607526 0.005799559 -0.45085388 -0.09311908
-0.4163289 0.03414061 0.053508822 -0.027250454 0.18442057 0.29105473 0.0714041 -0.345639
0.15407792 0.38681513 -0.15773559 0.107664354 0.12773062 0.25784186 -0.1480965 -0.26921988
-0.07205855 0.16530849 0.25772256 -0.041965466 0.087756455 -0.118125916 0.63258994 0.05989127
-0.00072386384 0.03841022 -0.00364142 -0.04511859 -0.053367868 0.031320848 -0.012193913 -0.055260394
0.012277191 0.034347277 0.07089627 -0.018327944 -0.030643867 0.045737095 0.044183064 -0.0875604
-0.0073771398 -0.004409463 0.011263895 0.0524495 -0.029394304 0.029538704 0.01692424 -0.020064024
-0.05087116 -0.09147347 -0.027698847 0.092065126 0.10997367 -0.007394486 -0.042681124 0.09350427
-0.11175255 -0.063488826 -0.118187696 -0.031685933 -0.089261934 0.06571342 -0.040471774 0.10626118
-0.10008083 0.0052064816 0.01245438 0.033611465 -0.073927015 -0.1079272 -0.06355862 0.08936278
-0.073344454 -0.09535554 0.0376519 -0.12372426 0.091128506 0.061718926 -0.077709794 0.020764193
-0.058850933 -0.05308606 0.105176635 -0.042468827 -0.013621692 0.027739229 -0.08481171 -0.00052399276
0.1736475 -0.18931516 -0.122517146 -0.17468452 0.11835703 0.06603086 -0.22799478 -0.108392276
0.40560624 0.08535865 0.12737322 -0.36586443 0.16459127 0.12111591 -0.22908877 0.094480254
-0.099857904 -0.00030730505 0.068325356 -0.034901377 -0.044677805 0.3868034 -0.152628 0.24337055
0.21621726 0.45613724 0.10087615 0.09851985 -0.16713886 0.1110867 0.15337072 0.08659962
0.34539104 -0.132742 -0.28374985 0.062398043 -0.12281835 -0.1054548 0.119372725 -0.06913137
0.057181496 0.04635123 -0.034442224 0.2849841 0.047030754 -0.040757086 -0.18936707 0.107493505
-0.1138744 -0.118085764 0.08070105 0.071184985 0.011035642 0.022182958 0.20426598 0.15155587
-0.21806404 -0.21861856 0.065892905 0.21128519 -0.05465049 -0.05069862 -0.24045204 0.31053436
00000000: 0fa6 113d 9a7c a83d fafc b2bd 0e59 c23c
00000010: 8df1 b23c 1387 9b3c 0144 ec3d b996 c43d
00000020: 43e0 bf3c e0ca eb3a 2477 f13c 403e 8dbc
00000030: ac6f 613d 0c88 b63c e3eb 26bd 0c22 823b
00000040: e45e 8fbd f5e9 0bbd 9327 12be b3c1 4d3d
00000050: 096b 8bbd 333e 00bd 9671 60bd 7e6b 523b
00000060: ecc1 85bc ffa4 04be e1e6 c6bd 962d 363d
00000070: f1be 863d 41c7 f7bc abdb b8bc 7dbc 36bc
00000080: ff7b 873d 6fb4 9c3d 0571 963d c7fa d2bc
00000090: cfaf 023b 8eff d6bd d430 1dbe 91b7 c9bd
000000a0: 3d76 cc3b 9773 a63d 0457 113e b598 ba3d
000000b0: c51e bc3c 547f 9d3d 8f31 34bd d2e2 5fbb
000000c0: f314 4abd 52d2 7bbd 034d 963d f1f7 6bbd
000000d0: bafa 2d3d fe80 9bbd 546e eabc 6c6c 1f3e
000000e0: c0c1 66bd c522 6b3b 1323 f53b 34ed 2bbd
000000f0: 6374 923d 7923 b23d 5080 44bc 33c3 dc3a
00000100: aa22 d43d 1bc1 a03d e3ea b53d b8e3 a5be
00000110: 013e 29be 909a 6bbd ebf3 9b3d bfc6 b33d
00000120: 611c f4bc d012 ae3c 737f 89bd 0c8d 893d
00000130: 194b bb3b c182 1c3d e695 7cbd 4097 89bd
00000140: 6c52 cd3d 5d9f 62bd 750d ffbd fdbd 863c
00000150: 2880 ffbc 4f6a abbe 491f 0b3d 661e afbe
00000160: 6f29 c43d 8415 e0be 396b 413e 0ee3 e1bd
00000170: 3a83 5dbd f5f7 7a3d b096 dfbd 8fe3 01bd
00000180: a20e a33c 963e 68be bcc1 24bd 8001 74be
00000190: b995 c93c 3a0a be3b 52d6 e6be 37b5 bebd
000001a0: 1029 d5be 06d7 0b3d 112c 5b3d 583c dfbc
000001b0: bfd8 3c3e 2005 953e 503c 923d 98f7 b0be
000001c0: 9ac6 1d3e a20c c63e 7085 21be 217f dc3d
000001d0: d1cb 023e d903 843e 9ca6 17be 30d7 89be
000001e0: 6f93 93bd a146 293e 36f4 833e fbe3 2bbd
000001f0: a8b9 b33d 00ec f1bd 6af1 213f 8c50 753d
00000200: aec1 3dba 0954 1d3d e4a4 6ebb 45ce 38bd
00000210: 4498 5abd 4a4a 003d fac8 47bc b958 62bd
00000220: 4526 493c bbaf 0c3d 1032 913d 7c24 96bc
00000230: d908 fbbc d256 3b3d 4df9 343d de52 b3bd
00000240: efbb f1bb 427d 90bb 338c 383c 49d5 563d
00000250: 53cc f0bc 27fb f13c b4a4 8a3c 4f5d a4bc
00000260: 475e 50bd 7156 bbbd b1e8 e2bc a48c bc3d
00000270: e039 e13d 724d f2bb 67d2 2ebd 2b7f bf3d
00000280: 85de e4bd 6e06 82bd 640c f2bd 1cc9 01bd
00000290: f6ce b6bd c294 863d bbc5 25bd 769f d93d
000002a0: 2ef7 ccbd 229b aa3b 750d 4c3c 2dac 093d
000002b0: 0c67 97bd f008 ddbd 062b 82bd d503 b73d
000002c0: 9e35 96bd c449 c3bd e138 1a3d 2563 fdbd
000002d0: 95a1 ba3d fccc 7c3d 5026 9fbd ab19 aa3c
000002e0: ad0d 71bd c570 59bd d966 d73d cbf3 2dbd
000002f0: 842d 5fbc 613d e33c c3b1 adbd 8f5c 09ba
00000300: a6d0 313e d5db 41be 45ea fabd 80e0 32be
00000310: 2c65 f23d 303b 873d 7777 69be c5fc ddbd
00000320: 9fab cf3e 84d0 ae3d 206e 023e 9552 bbbe
00000330: 9d8a 283e 9e0b f83d 3f96 6abe dd7e c13d
00000340: 4d82 ccbd c91d a1b9 2aee 8b3d bff4 0ebd
00000350: 1300 37bd 180b c63e 844a 1cbe 2136 793e
00000360: 0f68 5d3e d28a e93e 2898 ce3d c6c4 c93d
00000370: 7326 2bbe 6c81 e33d 370d 1d3e 245b b13d
00000380: 18d7 b03e 85ed 07be a947 91be 1795 7f3d
00000390: 3088 fbbd b0f8 d7bd b079 f43d bf94 8dbd
000003a0: 2537 6a3d cada 3d3d 4a13 0dbd 70e9 913e
000003b0: 52a3 403d e7f0 26bd 71e9 41be 8e25 dc3d
000003c0: fb36 e9bd f3d6 f1bd 9846 a53d 6fc9 913d
000003d0: d6ce 343c 09b9 b53c 1a2b 513e 7631 1b3e
000003e0: 2e4c 5fbe 8bdd 5fbe dcf2 863d 255b 583e
000003f0: 31d9 5fbd 5ba9 4fbd 0f39 76be 5cfe 9e3e

h_32.bias f4 [128]
-0.10123097 -0.022731649 -0.044757906 0.003606532 -0.016332291 -0.15570223 0.07650638 0.017311828
-0.12073321 -0.06579672 -0.10328772 -0.06655207 0.119941205 0.017592186 -0.0004907739 0.039968755
-0.004862912 0.088050805 -0.046902895 -0.014138197 0.079330154 0.07192774 -0.047647864 -0.022096038
0.025335222 0.0326446 0.110707946 0.010170402 0.056288324 -0.02414378 -0.15213513 0.016049406
0.017692031 -0.047156684 -0.035253245 0.014999677 0.04781935 -0.116520084 0.04767175 0.104416214
-0.030428993 -0.15387253 -0.0689868 -0.057586387 -0.15465559 -0.07468084 0.004706022 0.029234849
0.046205346 -0.029601574 -0.12781942 0.103287406 -0.07241338 -0.1223932 -0.1102128 0.07699151
0.001498004 0.0022467233 0.17442238 -0.04471769 -0.16061743 -0.01802987 0.04434371 -0.036378063
0.07621332 0.13510945 0.04612262 0.038700867 -0.13571873 -0.07932554 -0.014203801 -0.041760802
0.041229956 0.0479669 -0.06968459 0.041035894 -0.008524209 -0.061111562 -0.071601786 0.17418224
0.04491888 0.028142542 -0.020148044 0.087360516 0.12100746 0.018568683 0.012550665 0.08574981
0.0025492816 -0.0802982 0.14997843 -0.052438285 -0.09757624 0.028154735 0.08672032 -0.16682483
-0.062019087 -0.08048555 -0.096479736 0.042792547 -0.05241769 0.08127367 0.15187192 -0.09018123
-0.07800225 -0.035808127 -0.023594128 0.07649251 -0.07970282 -0.032025274 -0.024003329 0.15926985
-0.10246674 -0.02203755 -0.08595469 0.13005117 0.013846845 0.05196756 -0.028194832 0.026456421
0.032875925 -0.08998019 -0.07699768 0.030174641 0.0500797 -0.07349188 0.009082904 0.041188035
00000000: 2f52 cfbd b937 babc 1154 37bd 915b 6c3b
00000010: 4ccb 85bc 6870 1fbe 61af 9c3d 89d1 8d3c
00000020: f942 f7bd 6ec0 86bd 8388 d3bd 744c 88bd
00000030: bca3 f53d 7d1d 903c 47a7 00ba 47b6 233d
00000040: 1059 9fbb fb53 b43d 401d 40bd e5a3 67bc
00000050: d977 a23d da4e 933d 682a 43bd c002 b5bc
00000060: d08b cf3c 58b6 053d d9ba e23d c2a1 263c
00000070: 968e 663d 2dc9 c5bc 50c9 1bbe 0b7a 833c
00000080: e1ee 903c 5e27 41bd b565 10bd 35c1 753c
00000090: 39de 433d 15a2 eebd 7443 433d 2bd8 d53d
000000a0: 3946 f9bc c390 1dbe f448 8dbd b4df 6bbd
000000b0: 095e 1ebe 45f2 98bd f934 9a3b ec7d ef3c
000000c0: d141 3d3d 007f f2bc 18e3 02be 5988 d33d
000000d0: 774d 94bd 49a9 fabd 40b7 e1bd baad 9d3d
000000e0: ac58 c43a c33d 133b c89b 323e e629 37bd
000000f0: e578 24be 61b3 93bc c0a1 353d 2a01 15bd
00000100: bb15 9c3d 225a 0a3e 13eb 3c3d cd84 1e3d
00000110: daf9 0abe 6e75 a2bd 0fb7 68bc 600d 2bbd
00000120: bee0 283d f178 443d cbb6 8ebd 4115 283d
00000130: 20a9 0bbc 1e50 7abd f5a3 92bd d45c 323e
00000140: dcfc 373d 308b e63c 830d a5bc 12ea b23d
00000150: c2d2 f73d 5a1d 983c 4ea1 4d3c 999d af3d
00000160: d911 273b 6273 a4bd f293 193e 87c9 56bd
00000170: 0dd6 c7bd c2a4 e63c 6c9a b13d 21d4 2abe
00000180: ba07 7ebd 9cd5 a4bd 2b97 c5bd 3d47 2f3d
00000190: efb3 56bd cf72 a63d 5084 1b3e f0b0 b8bd
000001a0: a5bf 9fbd 8bab 12bd 7948 c1bc 1ba8 9c3d
000001b0: 3b3b a3bd ef2c 03bd a1a2 c4bc a317 233e
000001c0: 15da d1bd 1888 b4bc 0309 b0bd 222c 053e
000001d0: e1dd 623c f0db 543d d9f8 e6bc 23bb d83c
000001e0: e8a8 063d 8947 b8bd f6b0 9dbd cf30 f73c
000001f0: 5f20 4d3d e982 96bd 76d0 143c c9b4 283d

output.weight f4 [12, 128]
-0.36398456 -0.046305735 -0.18364272 -0.20650972 -0.25307623 0.07477407 0.050270278 0.032797467
0.3909019 0.23441261 0.50974584 -0.07778284 0.10079364 -0.30148536 -0.057534553 -0.03432495
0.1784533 0.11612571 0.22667617 0.014717356 -0.3447493 -0.16662084 0.019087594 0.15668108
0.17634553 0.072827555 -0.014817884 0.4577447 -0.3540843 0.1640594 0.17796038 0.111540034
-0.08538528 0.23970637 0.022685422 0.025072524 -0.25575575 0.030771941 -0.49198943 0.104789004
-0.26000804 -0.048411228 -0.0027239667 -0.3782955 0.25451908 0.2557219 -0.30577034 -0.04336063
0.18388253 0.21339208 0.21790121 -0.089574784 0.015812255 0.10883411 0.37326843 -0.3018776
-0.3965896 0.3301758 -0.20169425 -0.23610358 0.20629853 0.16164549 -0.31800485 -0.29295334
0.3050696 0.1294867 0.1489061 -0.088866904 -0.016604526 0.22277391 -0.38280752 0.24473354
-0.44927686 0.21350071 -0.084409684 -0.2589717 -0.32224435 0.06868095 -0.19615811 -0.16265962
-0.14077055 0.11475806 0.019124744 0.02792232 -0.03157684 -0.41718104 -0.01933217 -0.12335068
-0.021522446 0.12083022 -0.1517382 0.15913902 0.0325413 -0.30852565 -0.16753171 0.14702974
0.0658544 0.11495805 -0.008691763 0.32000408 -0.16386048 0.17911944 0.12839249 0.017676786
-0.32605526 -0.11801971 -0.12692964 -0.45179474 -0.226852 -0.14889272 0.107630014 -0.20810941
-0.15131107 -0.035273917 0.2438439 0.20607999 0.10316414 -0.122759946 0.2611674 -0.20654677
0.0478057 -0.23638678 0.33133984 0.11003322 0.17814447 0.098831676 -0.30062237 0.18159015
0.24579734 -0.011043718 -0.084484115 0.049501233 -0.26784936 0.009428482 -0.09669288 -0.04008711
0.094131745 0.064848125 0.08263739 0.038952626 0.06762025 0.5632084 -0.07415708 0.21303204
-0.37174436 0.055002157 0.056149207 -0.12860422 -0.13366857 -0.10351807 0.01949113 0.17286345
-0.18900791 0.27368513 -0.083271526 -0.30251393 -0.05985637 0.42965177 0.022972513 0.14694059
-0.34932178 0.10629732 0.04704692 -0.22857559 0.030251915 0.004662158 -0.1427477 -0.062995076
0.051284555 0.26286235 -0.05667546 0.24863657 0.1506076 0.02618464 0.23741914 0.04204491
-0.040610388 -0.06850623 -0.32240817 -0.10157175 0.20686255 -0.0138813425 -0.215712 -0.25952587
0.016900476 -0.06051875 -0.26976192 0.5024819 0.029177975 -0.34292397 -0.39466625 0.21845181
0.0057608536 -0.18054177 0.09200046 -0.02485088 0.20561177 -0.3852793 0.117997184 -0.2130523
0.5492123 0.11754199 0.33549452 0.10687311 -0.019989215 0.043016005 0.106056385 -0.2602399
-0.032978877 0.10789444 0.08224088 0.09398817 -0.22517276 0.4729184 -0.15957493 0.119560674
0.054241788 0.20607263 -0.029809475 -0.08022888 -0.19078712 0.22135134 -0.09512286 0.15722877
0.11976963 0.0772822 -0.003231678 0.4071251 -0.22474192 -0.23228511 -0.2559087 0.0938432
0.32451624 0.09462152 -0.14166723 -0.092407905 0.14284351 0.050205532 0.06440359 -0.16028814
0.19329564 0.10885549 0.02366867 -0.05601026 -0.13524798 -0.32566196 -0.19913903 0.024981914
0.048538264 0.35688934 0.09169056 0.38933092 0.39534566 -0.12089834 0.17902043 0.20938638
00000000: 2f5c babe 15ab 3dbd d60c 3cbe 4977 53be
00000010: 3593 81be 2623 993d 35e8 4d3d a356 063d
00000020: 4b24 c83e dc09 703e b47e 023f 9c4c 9fbd
00000030: e56c ce3d 4a5c 9abe 5aa9 6bbd 5298 0cbd
00000040: 76bc 363e 51d3 ed3d cc1d 683e 1121 713c
00000050: fb82 b0be a79e 2abe 965d 9c3c 0171 203e
00000060: ec93 343e 9d26 953d b6c6 72bc 835d ea3e
00000070: 8a4a b5be 30ff 273e 3f3b 363e 1a6f e43d
00000080: 7ade aebd 9675 753e c7d6 b93c e564 cd3c
00000090: 6bf2 82be 7015 fc3c 0ae6 fbbe 9e9b d63d
000000a0: c61f 85be da4a 46bd 9484 32bb f3af c1be
000000b0: 5350 823e fbed 823e ee8d 9cbe ea9a 31bd
000000c0: b44b 3c3e 7483 5a3e 7f21 5f3e fc72 b7bd
000000d0: b488 813c 6be4 de3d 0a1d bf3e b38f 9abe
000000e0: cb0d cbbe cd0c a93e f088 4ebe 23c5 71be
000000f0: ec3f 533e 6586 253e 88d1 a2be fbfd 95be
00000100: 1532 9c3e 2998 043e d77a 183e daff b5bd
00000110: 3706 88bc d81e 643e 59ff c3be 6e9b 7a3e
00000120: 9e07 e6be ee9f 5a3e fcde acbd f097 84be
00000130: 36fd a4be 99a8 8c3d acdd 48be 3e90 26be
00000140: 2826 10be 4606 eb3d 7fab 9c3c 59bd e43c
00000150: b756 01bd c198 d5be 805e 9ebc 489f fcbd
00000160: d74f b0bc d675 f73d 4261 1bbe 57f5 223e
00000170: 074a 053d 13f7 9dbe 6f8d 2bbe f78e 163e
00000180: acde 863d 206f eb3d e567 0ebc 93d7 a33e
00000190: 0bcb 27be 166b 373e 5279 033e e8ce 903c
000001a0: b7f0 a6be 51b4 f1bd d8f9 01be a451 e7be
000001b0: e44b 68be 5577 18be 206d dc3d a21a 55be
000001c0: 4af1 1abe 627b 10bd 37b2 793e a206 533e
000001d0: b847 d33d 9169 fbbd bcb7 853e ff80 53be
000001e0: e9cf 433d 600f 72be 60a5 a93e 1959 e13d
000001f0: 816b 363e 4368 ca3d 2deb 99be c5f2 393e
00000200: 4cb2 7b3e b6f0 34bc 0206 adbd cec1 4a3d
00000210: 8d23 89be eb79 1a3c eb06 c6bd 6232 24bd
00000220: 25c8 c03d 18cf 843d cb3d a93d ca8c 1f3d
00000230: 7c7c 8a3d 6d2e 103f abdf 97bd 1225 5a3e
00000240: 4755 bebe f149 613d b6fc 653d d3b0 03be
00000250: 6ae0 08be 4801 d4bd ddab 9f3c 1e03 313e
00000260: 4a8b 41be 7520 8c3e 438a aabd 1be3 9abe
00000270: f42b 75bd 51fb db3e da30 bc3c 9877 163e
00000280: 4eda b2be 69b2 d93d 45b4 403d b80f 6abe
00000290: ddd2 f73c 04c5 983b 742c 12be 9003 81bd
000002a0: c10f 523d e595 863e 8724 68bd 969a 7e3e
000002b0: e138 1a3e 2c81 d63c 011e 733e 4937 2c3d
000002c0: 1457 26bd ff4c 8cbd af12 a5be da04 d0bd
000002d0: c7d3 533e 926e 63bc 9be3 5cbe 93e0 84be
000002e0: de72 8a3c 82e2 77bd 3c1e 8abe a7a2 003f
000002f0: a606 ef3c bb93 afbe b211 cabe d5b1 5f3e
00000300: 8bc5 bc3b f1df 38be bd6a bc3d 1394 cbbc
00000310: e48b 523e 5443 c5be 82a8 f13d 622a 5abe
00000320: 2d99 0c3f dbb9 f03d f0c5 ab3e 4ae0 da3d
00000330: 6cc0 a3bc 8d31 303d 1734 d93d 2a3e 85be
00000340: dc14 07bd c3f7 dc3d e86d a83d df7c c03d
00000350: b093 66be 5c22 f23e 9c67 23be 3adc f43d
00000360: a32c 5e3d b404 533e 0033 f4bc 0a4f a4bd
00000370: b35d 43be eda9 623e c6cf c2bd 9400 213e
00000380: c849 f53d 2146 9e3d 8fca 53bb b372 d03e
00000390: bf22 66be 26dc 6dbe 7706 83be dd30 c03d
000003a0: fe26 a63e edc8 c13d 3711 11be 5b40 bdbd
000003b0: 9245 123e 51a4 4d3d 08e6 833d 9322 24be
000003c0: 4bef 453e a1ef de3d cce4 c13c 046b 65bd
000003d0: 727e 0abe 2abd a6be 1aeb 4bbe dfa6 cc3c
000003e0: 0fd0 463d 33ba b63e 43c8 bb3d 6256 c73e
000003f0: bf6a ca3e 8d99 f7bd 2251 373e 6269 563e

output.bias f4 [12]
-0.13891232 -0.23321995 -0.09096945 -0.21956815 -0.190334 -0.029958861 0.1582464 0.22958618
0.14373556 0.07339524 0.20220903 0.19442683
00000000: 083f 0ebe 36d1 6ebe 314e babd 79d6 60be
00000010: ebe6 42be 496c f5bc 580b 223e a418 6b3e
00000020: 6a2f 133e 3e50 963d e20f 4f3e d417 473e
