GANs/saved_models/python/ZtSampledFromBimodalAll.pth (torch, 565182 bytes, 58 tensors)

h_11.weight f4 [64, 12]
0	0x3e6e718b	0.232855
1	0x3e9f0a24	0.31062424
2	0x3d9704eb	0.07373985
3	0x3e4565b9	0.19277085
4	0xbe0b019c	-0.13574833
5	0xbe075f36	-0.13219914
6	0xbe3c45db	-0.18386023
7	0x3e4a4fad	0.19756956
8	0x3e9f2d4d	0.3108925
9	0xbe02a41f	-0.1275792
10	0x3e0792ee	0.13239643
11	0x3e18a6f2	0.14907435
12	0x3e03b2b4	0.12861139
13	0x3c91f4b7	0.017816884
14	0x3dac4c59	0.08413
15	0xbc132a61	-0.008982272
16	0x3e169a42	0.14707282
17	0x3bb2a714	0.005452046
18	0xbd40be67	-0.04705658
19	0x3d486248	0.048921853
20	0xbdf1755e	-0.11789964
21	0x3cda71d0	0.026665598
22	0xbdeee3d7	-0.11664551
23	0x3e47d334	0.19514161
24	0xbe82c3fe	-0.25540155
25	0xbe51bb97	-0.20481716
26	0xbd6aad38	-0.0572941
27	0x3e20244c	0.15638846
28	0x3db17272	0.08664407
29	0xbe335de5	-0.17516287
30	0x3e83f9b5	0.2577645
31	0xbebe8fd6	-0.37219113
32	0x3e681b0b	0.22666566
33	0xbd4636a2	-0.048391946
34	0xbe0ddb73	-0.13853244
35	0x3e5ba7cf	0.21450733
36	0xbb94fba5	-0.0045466
37	0x3e8e94fe	0.27848047
38	0x3d6053fa	0.054767586
39	0xbd4dbaa0	-0.050226808
40	0x3d7aa455	0.061191875
41	0xbe395881	-0.18100168
42	0x3c9b382b	0.018947681
43	0x3e69f90c	0.2284891
44	0x3ddd4c07	0.10805517
45	0xbddd66fc	-0.10810658
46	0x3e8345d3	0.2563921
47	0x3d0ddd1e	0.034634702
48	0x3e173e18	0.1476978
49	0xbdfa140f	-0.12210857
50	0xbed5497b	-0.41657624
51	0x3d056722	0.03256906
52	0xbe2253dc	-0.15852302
53	0x3ec3a255	0.38209787
54	0xbd04643f	-0.032322165
55	0x3e166b96	0.14689478
56	0x3e073ca0	0.1320672
57	0x3d4a1c17	0.049343195
58	0x3e7b9638	0.24569023
59	0xbdc3d012	-0.09561171
60	0xbc408d10	-0.011752382
61	0xbea65c07	-0.32492086
62	0x3d40f4c7	0.047108438
63	0xbe012b5d	-0.12614198
64	0x3dc55b0a	0.09636505
65	0xbe2779f0	-0.16355109
66	0x3e9aaf67	0.30211946
67	0xbe685e43	-0.22692208
68	0x3c8b792c	0.017025553
69	0xbd6eb42b	-0.05827729
70	0x3e8f6832	0.28009182
71	0x3de413da	0.11136599
72	0x3e4c4db7	0.19951521
73	0xbe4df50e	-0.20113012
74	0xbe8f9010	-0.28039598
75	0xbe273741	-0.16329671
76	0xbe62d0f2	-0.22150019
77	0x3deb01cc	0.11474952
78	0x3dba0d8d	0.09084616
79	0x3ec0fcd4	0.37692893
80	0xbe4927d2	-0.19644096
81	0xbe86b329	-0.26308563
82	0x3deb6488	0.11493784
83	0xbe46ac10	-0.19401574
84	0x3e227f6a	0.15868917
85	0xbe05bd89	-0.13060583
86	0x3e3c8375	0.18409522
87	0xbdd0d6e2	-0.10197236
88	0xbdefb790	-0.11704934
89	0x3deb83f8	0.114997804
90	0x3bbb8386	0.005722466
91	0xbdbf89fe	-0.09352492
92	0x3e54e487	0.20790301
93	0x3ebb9ee3	0.36644658
94	0xbe8d83ea	-0.27639705
95	0xbe4d9bb7	-0.20078932
96	0x3e834a42	0.25642592
97	0x3d5ca3c4	0.053867117
98	0xbe31f9bb	-0.17380421
99	0xbe8481ea	-0.25880367
100	0xbe14ba9d	-0.14524312
101	0x3eaaa6cd	0.33330384
102	0xbdb3fc30	-0.08788335
103	0xbe5cd1fe	-0.2156448
104	0x3d1f1134	0.038834766
105	0xbe73a314	-0.23792678
106	0xbe094c88	-0.134081
107	0xbeb19ecf	-0.34691474
108	0xbe73d062	-0.2380996
109	0xbe99fe91	-0.3007703
110	0x3ec37932	0.38178402
111	0xbd8206fa	-0.06348987
112	0x3d40a0a9	0.047028217
113	0xbeb6c142	-0.3569432
114	0xbddab13f	-0.10678338
115	0xbe4933f4	-0.19648725
116	0xbc937196	-0.017998498
117	0xbe4c0f94	-0.19927818
118	0xbe600991	-0.2187865
119	0xbea260bb	-0.31714424
120	0x3d3d6ab5	0.046244342
121	0xbd39d3b8	-0.045367926
122	0x3d03f10f	0.032212313
123	0xbe96c5c7	-0.29447767
124	0xbe72a567	-0.23695908
125	0xbe76e0cb	-0.24109189
126	0xbd907d97	-0.07055204
127	0xbec38344	-0.38186085
128	0x3d88ff71	0.066893466
129	0xbdc3ef9d	-0.09567187
130	0x3e840a26	0.25788993
131	0x3e559b4f	0.20860027
132	0xbe829715	-0.2550589
133	0x3ea324df	0.31864068
134	0xbe2e97fd	-0.17050166
135	0xbe22e30f	-0.15906928
136	0xbe9b1595	-0.30289903
137	0xbebc1e79	-0.36742
138	0x3947a2d4	0.00019038777
139	0xbe021840	-0.12704563
140	0x3bfe0bb3	0.0077528595
141	0xbea582a6	-0.3232624
142	0x3ea0bff3	0.31396446
143	0xbd617ef6	-0.05505272
144	0x3db340ae	0.08752571
145	0x3b91f3ec	0.0044541266
146	0x3df0b8e8	0.11754018
147	0x3e94bdf4	0.29051173
148	0x3e288404	0.1645661
149	0xbe6fec5e	-0.2343001
150	0x3ddb1dd7	0.10699051
151	0xbe684d55	-0.2268575
152	0xbdf72d9f	-0.120692484
153	0xbeb17ad8	-0.34664035
154	0x3ea47d28	0.32126737
155	0xbe1060fb	-0.14099495
156	0x3e0fc39e	0.14039466
157	0x3db305ec	0.08741364
158	0x3dfecf3a	0.12441869
159	0xbc8c8f1d	-0.017158085
160	0x3e691ec5	0.22765644
161	0x3dac91de	0.084262595
162	0xbdc3d081	-0.09561253
163	0xbe48cb40	-0.19608784
164	0x3de57322	0.112036005
165	0x3d8eb15a	0.06967421
166	0xbd88dcb7	-0.06682723
167	0x3e5c7181	0.21527673
168	0xbd7f2cd1	-0.0622986
169	0xbe42d356	-0.19025931
170	0xbe8389b3	-0.25690994
171	0xbcb89ab2	-0.022534702
172	0x3e28862d	0.16457434
173	0xbd8ab540	-0.06772852
174	0xbe855d16	-0.2604758
175	0xbc2ca65a	-0.010537708
176	0xbe860018	-0.26171947
177	0x3deab046	0.11459403
178	0x3e288076	0.16455254
179	0xbed6e41d	-0.41970912
180	0x3dd5f8ed	0.104478694
181	0x3e148d15	0.14506944
182	0x3d7250d1	0.059159104
183	0xbc5729ee	-0.013132555
184	0x3df547de	0.11976598
185	0x3d884aa9	0.06654865
186	0x3d7eb1f3	0.062181424
187	0xbda875cb	-0.08225592
188	0xbd2fc0bf	-0.042908426
189	0x3cdabaa3	0.026700323
190	0x3b076c47	0.0020663904
191	0xbce3b47f	-0.027796028
192	0x3dcbc8df	0.099504225
193	0x3ebe10cc	0.3712219
194	0x3ab00ecc	0.0013432144
195	0x3c51fc97	0.01281657
196	0x3d763f56	0.060118996
197	0xbe019e09	-0.12657942
198	0xbd2d3534	-0.042287067
199	0x3d1d823b	0.038454276
200	0xbea51643	-0.32243547
201	0xbe423357	-0.18964897
202	0x3ea05d70	0.31321287
203	0x3d7a02d6	0.06103786
204	0x3b994920	0.0046779066
205	0xbe8fa4c3	-0.2805539
206	0xbea3c76b	-0.3198808
207	0xbdb5d8cd	-0.08879242
208	0x3d208e71	0.039198343
209	0x3d63c9dd	0.055612434
210	0x3e4d7ee6	0.20067939
211	0x3e1c9091	0.15289523
212	0xbeab80e3	-0.3349677
213	0xbdf1dbc8	-0.11809498
214	0x3c7dd7dc	0.015493359
215	0x3eb0de08	0.34544396
216	0x3d508589	0.0509086
217	0xbdec67e8	-0.11543256
218	0xbcef12df	-0.029183803
219	0xbda5a814	-0.08088699
220	0xbe03ba6d	-0.12864085
221	0x3e05b96d	0.13059016
222	0xbe033c9e	-0.12816092
223	0xbd1e659f	-0.038671132
224	0xbe4bbdff	-0.19896697
225	0x3e3a3a3b	0.18186276
226	0x3e603928	0.21896803
227	0x3e10775d	0.14108033
228	0xbe00f5ab	-0.12593715
229	0xbead149e	-0.33804792
230	0xbe8b5780	-0.27215195
231	0x3eba9757	0.36443588
232	0x3e734717	0.23757587
233	0x3e02318d	0.12714215
234	0x3e0c64c6	0.13710317
235	0x3d631f6f	0.0554499
236	0x3e4b2989	0.19840063
237	0xbd44a354	-0.048007324
238	0xbece08ca	-0.4024108
239	0xbe55188e	-0.20810148
240	0x3ba77911	0.005110868
241	0xbe3857ea	-0.18002287
242	0xbdbb819c	-0.091555804
243	0xbe01bcb1	-0.12669636
244	0x3e0802d5	0.1328233
245	0xbe133b83	-0.1437817
246	0xbe748eb9	-0.2388257
247	0x3e1a1756	0.15047964
248	0xbdc7ee20	-0.097622156
249	0x3e73c71f	0.23806427
250	0xbd07b081	-0.03312731
251	0xbeb6431b	-0.35598072
252	0xbd839817	-0.06425493
253	0xbdf5b830	-0.119980216
254	0xbd573258	-0.052538246
255	0xbe846ea5	-0.25865665

h_11.bias f4 [64]
0	0xbd03770b	-0.03209595
1	0x3f49116c	0.7854221
2	0x3eace285	0.3376657
3	0x3efcffa0	0.49413776
4	0x3de9b3e2	0.11411263
5	0x3e0d962b	0.13826816
6	0x3ebc29a4	0.3675052
7	0x3ede2ae0	0.43392086
8	0x3d8c941c	0.06864187
9	0x3ed3bf2d	0.41356793
10	0x3e8f9448	0.28042817
11	0xbc7d7eb4	-0.015472103
12	0x3ea53686	0.3226816
13	0x3e6e9dc4	0.2330237
14	0x3e186f89	0.14886297
15	0x3f368360	0.7129421
16	0xbec40720	-0.38286686
17	0xbd6fffde	-0.058593623
18	0x3f200a08	0.62515306
19	0x3ed60503	0.418007
20	0x3ca761f4	0.02043245
21	0x3f226ab8	0.6344409
22	0x3e82c912	0.2554403
23	0x3f3ff358	0.7498069
24	0x3f1b557d	0.6067732
25	0xbe6036a7	-0.21895848
26	0x3f0a8b7e	0.541191
27	0xbf04f3a1	-0.5193425
28	0xbef07204	-0.46961987
29	0x3de3f90b	0.111314856
30	0xbe2d482d	-0.16922064
31	0x3f492ddf	0.7858562
32	0x3e6fe80e	0.23428366
33	0x3f093ed7	0.5361151
34	0xbe9e1311	-0.30873922
35	0x3ebba8fb	0.3665236
36	0xbe9fb537	-0.31192943
37	0xbe8f701f	-0.2801523
38	0x3f017f2e	0.50584686
39	0x3eb3ca5f	0.35115334
40	0x3f16b3a9	0.5886789
41	0xbe90560c	-0.2819065
42	0xbe227674	-0.15865499
43	0x3f389a9a	0.72110903
44	0x3f0694df	0.5257091
45	0x3e6fb9d8	0.23410738
46	0x3f0315d7	0.512052
47	0x3e013c59	0.12620677
48	0x3f09343d	0.53595334
49	0x3f10a05e	0.564947
50	0x3e2f2d69	0.17107166
51	0x3ec4c37d	0.38430396
52	0x3f03abbd	0.51433927
53	0x3ecd7d6e	0.40134758
54	0xbba0e0b4	-0.004909599
55	0x3e1ae945	0.15128048
56	0x3df0c841	0.117569454
57	0x3c10fd5b	0.008849467
58	0x3df627a4	0.120192796
59	0xbe3dc782	-0.18533137
60	0x3e886b3d	0.26644316
61	0x3e44681c	0.1918034
62	0x3f13c678	0.57724714
63	0x3b177b1c	0.002311415

h_12.weight f4 [64, 6]
0	0xbee96262	-0.45582873
1	0xbe855396	-0.26040334
2	0xbee26685	-0.4421884
3	0x3e59f6df	0.2128558
4	0xbe9af3e4	-0.302642
5	0xbd2a0a38	-0.04151365
6	0xbe216a34	-0.1576317
7	0xbeec0c35	-0.46103063
8	0xbe1096d7	-0.14120041
9	0xbf012980	-0.5045395
10	0xbdd49d09	-0.103815146
11	0xbec5e7af	-0.38653323
12	0xbe680247	-0.22657119
13	0xbe41626c	-0.18885201
14	0x3cd44237	0.02591048
15	0xbe556903	-0.2084084
16	0x3e6312be	0.22175118
17	0x3eeee3ff	0.46658322
18	0x3d96b5d1	0.073588975
19	0xbe69b9bc	-0.22824758
20	0xbf1cbda4	-0.6122687
21	0x3e132cdc	0.14372581
22	0xbe855386	-0.26040286
23	0x3eaa3ce8	0.33249593
24	0x3d40a9dd	0.047036994
25	0xbd43d29e	-0.047808282
26	0x3e84777e	0.25872415
27	0x3f3ef879	0.7459789
28	0x3d893a05	0.067005195
29	0xbcceffc0	-0.025268435
30	0x3eb8e436	0.3611161
31	0xbea4b63f	-0.32170293
32	0xbe3ffa63	-0.18747859
33	0x3eccc303	0.39992532
34	0x3eaee24f	0.34157035
35	0x3e4025ba	0.18764392
36	0xbcde829e	-0.027161893
37	0xbee0a4ea	-0.4387582
38	0xbe0ac936	-0.13553318
39	0x3efbba59	0.4916561
40	0x3e1f5954	0.1556142
41	0x3d018c06	0.031627677
42	0xbe529ea0	-0.20568323
43	0xbe8376d6	-0.25676602
44	0x3e36b7b1	0.1784351
45	0x3dd29eef	0.102842204
46	0x3e9594d1	0.292151
47	0xbd90c095	-0.07067982
48	0x3e7321b4	0.23743325
49	0x3e66ec00	0.22550964
50	0x3c58274f	0.013192966
51	0x3e778b83	0.24174313
52	0x3ec7b34b	0.39003977
53	0x3eebcab9	0.46053103
54	0x3e31e7dd	0.17373605
55	0xbe2a7f73	-0.1665018
56	0xbf042459	-0.5161796
57	0x3e80ef8c	0.2518276
58	0x3e2ec3da	0.17066899
59	0xbd0dd64d	-0.0346282
60	0xbdfb7d34	-0.1227974
61	0xbdd3303e	-0.10311936
62	0x3e989ee4	0.29808724
63	0x3ea1365d	0.31486788
64	0xbd86f6ef	-0.065900676
65	0xbdb80ad5	-0.08986441
66	0xbe2f4e5b	-0.17119734
67	0xbe7742cf	-0.24146579
68	0x3ec7ce3c	0.39024532
69	0x3eb41bbf	0.3517742
70	0x3eda3316	0.426171
71	0x3d8f9c6a	0.070122555
72	0xbd1f1a79	-0.038843606
73	0x3e0fe644	0.14052683
74	0xbef8405c	-0.48486602
75	0x3dc6313c	0.096773595
76	0xbcca477d	-0.024692291
77	0xbe904183	-0.2817498
78	0xbe7e1731	-0.24813534
79	0x3e8accce	0.2710938
80	0x3e7bf72d	0.24606009
81	0x3c8101c4	0.015747912
82	0x3f2f4772	0.6846839
83	0xbe16be46	-0.14721021
84	0xbe6a21c6	-0.22864446
85	0x3e2ed4ef	0.17073415
86	0xbe76100e	-0.24029562
87	0xbd0b90ef	-0.034073766
88	0xbe793a2a	-0.24338594
89	0x3e975579	0.29557398
90	0xbed56a8d	-0.41682854
91	0xbe090a2e	-0.1338279
92	0x3edabffc	0.42724597
93	0xbd1ed41b	-0.0387765
94	0xbe1824f2	-0.14857844
95	0x3ed32ff6	0.4124753
96	0xbe91c844	-0.28473103
97	0xbd09fa37	-0.03368589
98	0x3e27d066	0.16388091
99	0xbd9a08b0	-0.07521188
100	0xbf014dea	-0.5050951
101	0x3d8dc7c3	0.06922867
102	0xbe314195	-0.17310174
103	0xbe85bc4e	-0.26120228
104	0xbea45653	-0.3209711
105	0x3e67069d	0.22561117
106	0x3ddcb817	0.107773
107	0xbe409ca0	-0.18809748
108	0xbef54fb7	-0.4791238
109	0xbe5822f0	-0.21107078
110	0xbe7af76d	-0.24508448
111	0xbe145ffa	-0.14489737
112	0xbeab2fa6	-0.3343479
113	0x3e141c30	0.14463878
114	0xbeeca082	-0.46216208
115	0xbef0d3f3	-0.47036704
116	0xbeec29ca	-0.46125633
117	0x3e7c911e	0.24664733
118	0xbe827911	-0.2548299
119	0xbe835889	-0.25653484
120	0x3ea3d741	0.32000163
121	0x3e5df7b6	0.21676525
122	0x3e6fb43d	0.23408599
123	0xbec67805	-0.38763443
124	0xbe95e3f4	-0.29275477
125	0xbe1dd12c	-0.15411824
126	0x3e82c471	0.25540498
127	0xbd31d637	-0.04341718
128	0xbed61ed2	-0.4182039
129	0x3e6b24e0	0.22963285
130	0xbe5b1b92	-0.21397236
131	0x3db20675	0.08692638
132	0xbe967e6c	-0.29393327
133	0xbb0747dd	-0.00206422
134	0x3e1490b9	0.14508332
135	0xbd8f1ef9	-0.069883294
136	0x3d3030a4	0.043015137
137	0xbe9d4bf5	-0.30722013
138	0x3e381763	0.17977671
139	0x3e17471b	0.14773218
140	0x3e68cb69	0.22733845
141	0xbdcd5925	-0.100267686
142	0x3f10ab72	0.56511605
143	0x3d87bdf0	0.066280246
144	0xbeb53856	-0.35394543
145	0x3dd87795	0.105696835
146	0x3ea4046d	0.32034627
147	0x3f232a85	0.63736755
148	0x3e271991	0.16318347
149	0xbe17c2f3	-0.14820461
150	0x3e01e740	0.12685871
151	0x3ea3dade	0.3200292
152	0xbf1557e4	-0.58337235
153	0x3c857ddb	0.016295364
154	0xbe9b31ef	-0.30311534
155	0x3e484536	0.19557652
156	0x3dea48ea	0.114396885
157	0xbe567b49	-0.20945467
158	0xbda83ce7	-0.08214741
159	0x3ec5a4ba	0.3860224
160	0x3b84d884	0.004054131
161	0xbeb69c21	-0.35665992
162	0x3de8f38d	0.113745786
163	0xbe9eb4d9	-0.3099735
164	0xbe00d90d	-0.12582798
165	0x3d53c0b7	0.05169746
166	0x3e82c875	0.25543562
167	0xbec441a8	-0.38331342
168	0x3e109cb6	0.1412228
169	0xbe924753	-0.2857004
170	0xbe957873	-0.29193458
171	0x3e2bebb2	0.1678913
172	0xbe26bdd5	-0.16283353
173	0xbdec4871	-0.115372546
174	0xbe7c8ae4	-0.24662358
175	0xbe75a599	-0.23988952
176	0xbe6dbd5a	-0.23216763
177	0xbd527809	-0.051384006
178	0x3e384c8a	0.17997947
179	0xbe8cf697	-0.27531883
180	0xbec32513	-0.38114223
181	0xbe0324b2	-0.12806967
182	0xbd5512ca	-0.05201987
183	0x3ea808db	0.32819256
184	0xbe470598	-0.19435728
185	0x3e609910	0.21933389
186	0x3d6af395	0.057361204
187	0xbd488cdb	-0.048962455
188	0xbf0eab40	-0.55730057
189	0xbd6bddd3	-0.057584595
190	0xbedb58d9	-0.42841223
191	0xbe335243	-0.17511849
192	0x3e68d838	0.22738731
193	0xbd79b068	-0.06095925
194	0x3e318c8b	0.17338769
195	0xbe756553	-0.23964433
196	0x3d7e1ae6	0.06203737
197	0xbe7cdbcd	-0.24693222
198	0x3e2fdd10	0.17174172
199	0xbe509af0	-0.20371604
200	0xbdfb128c	-0.12259397
201	0xbed415ef	-0.41422984
202	0x3de090db	0.10965129
203	0x3f052109	0.5200353
204	0x3e1f302b	0.15545718
205	0xbe4cc44e	-0.1999676
206	0x3cae7a06	0.02129842
207	0xbd9eee24	-0.077602655
208	0xbed2128a	-0.4102977
209	0x3ef3db51	0.47628263
210	0x3c2aa714	0.010415811
211	0x3dab715c	0.08371231
212	0xbe4b1121	-0.19830753
213	0xbdb73127	-0.08944922
214	0x3e28bee9	0.16479076
215	0x3e48d959	0.19614162
216	0x3dbb88ad	0.09156928
217	0xbe4979af	-0.19675325
218	0x3ecaf0aa	0.39636737
219	0xbd76272b	-0.060095947
220	0xbe800248	-0.2500174
221	0xbe438689	-0.1909429
222	0x3ecdc447	0.4018881
223	0x37a4eeac	1.9661464e-05
224	0xbd62fd4c	-0.055417344
225	0xbe2df991	-0.16989733
226	0xbddb2d85	-0.107020415
227	0xbeb00b95	-0.34383836
228	0xbef25ea6	-0.47337836
229	0x3ddca0ad	0.10772834
230	0x3e5d843b	0.21632473
231	0x3ef90aa7	0.4864094
232	0xbe6f0667	-0.23342286
233	0x3ea7958c	0.32731283
234	0xbeaa778d	-0.33294335
235	0x3e8c9579	0.2745779
236	0x3e8f02df	0.27931878
237	0x3eb5de37	0.355211
238	0x3ebcc20b	0.36866793
239	0x3eceba40	0.40376472
240	0xbdb6c5b8	-0.089244306
241	0x3d894d84	0.06704238
242	0xbe88efda	-0.26745492
243	0x3e8f8450	0.28030634
244	0xbd86ad7d	-0.06576059
245	0xbd23a2c9	-0.039950166
246	0xbecbc700	-0.39800262
247	0xbdf251f6	-0.11832039
248	0xbe1433e7	-0.14472924
249	0x3def2516	0.116769955
250	0xbef4ba87	-0.4779856
251	0xbf0f68be	-0.560192
252	0xbd1df05e	-0.03855931
253	0x3db5f496	0.08884542
254	0xbc96711a	-0.018364478
255	0x3f23b6d5	0.63950855

h_12.bias f4 [64]
0	0x3ea2059d	0.31644908
1	0x3e3efb25	0.18650492
2	0x3e6bbfb9	0.23022355
3	0xbe822906	-0.25421923
4	0xbea45024	-0.32092392
5	0x3e13ca49	0.14432634
6	0x3e107af0	0.14109397
7	0xbe95d863	-0.29266652
8	0x3e59c44a	0.21266285
9	0xbe733d15	-0.2375377
10	0x3efe4b2b	0.49666724
11	0x3ebba676	0.36650437
12	0x3e26ad62	0.16277078
13	0xbe920595	-0.28519884
14	0x3e9e1ecb	0.30882868
15	0x3da5a57b	0.080882035
16	0x3e064b5a	0.13114682
17	0x3e597af0	0.21238303
18	0x3eb50d81	0.35361865
19	0xbe5b0122	-0.21387151
20	0xbdbc132c	-0.09183344
21	0x3e5b3d55	0.21410115
22	0x3d24b627	0.040212777
23	0x3f10a841	0.56506735
24	0xbe601ea6	-0.21886691
25	0x3c682e8a	0.014171252
26	0x3e084661	0.13308097
27	0xbd4c5a81	-0.049891
28	0x3ec294b6	0.38004082
29	0x3dc3d12c	0.09561381
30	0xbeed1e78	-0.46312308
31	0x3da253b3	0.079261206
32	0xbe3d9b97	-0.18516384
33	0x3dee3453	0.11631074
34	0xbdfd5329	-0.12369377
35	0xbef60cb5	-0.4805657
36	0xbd985b75	-0.07439319
37	0xbd202925	-0.03910174
38	0xbdf44fed	-0.11929307
39	0x3ea60a83	0.32429895
40	0xbd692301	-0.056918148
41	0x3e39a2f3	0.18128566
42	0x3e2a621b	0.16638987
43	0xbe98b368	-0.29824376
44	0x3c1b09c2	0.009462776
45	0x3ebfc35b	0.37453732
46	0xbe8e1957	-0.27753708
47	0xbeafe56a	-0.34354717
48	0x3eeeb29b	0.4662064
49	0x3f02cbb6	0.5109209
50	0xbe82f0c9	-0.2557433
51	0x3e94c958	0.29059863
52	0xbd50e5ca	-0.051000394
53	0xbec33ac1	-0.38130763
54	0x3e4ca9e5	0.19986685
55	0x3dcd99a6	0.10039072
56	0xbe0a48b2	-0.13504294
57	0x3e70255f	0.23451756
58	0xbe81edee	-0.25376838
59	0x3e60fbb0	0.21971011
60	0x3ef35c24	0.47531235
61	0x3e990acf	0.2989106
62	0x3daa98fe	0.08329962
63	0x3e3b89a1	0.1831422

h_21.weight f4 [64, 64]
0	0xbdbad400	-0.09122467
1	0x3dde5000	0.108551025
2	0x3c5f0c9d	0.013613847
3	0xba1022af	-0.00054983323
4	0xbe0b724c	-0.1361782
5	0x3e1367ac	0.14395016
6	0x3dec40a8	0.1153577
7	0xbce75b21	-0.028241696
8	0x3e0710ce	0.13190004
9	0x3d9ed7e6	0.07756023
10	0x3df3f7a8	0.11912471
11	0x3d052e6e	0.032514982
12	0x3e0d63b3	0.13807563
13	0xbd131a84	-0.03591396
14	0x3e250c3c	0.16117948
15	0x3e82887e	0.2549476
16	0xbdca1048	-0.09866387
17	0xbdaaddf5	-0.08343116
18	0x3d322409	0.043491397
19	0x3d254b82	0.040355213
20	0xbd1a2858	-0.03763613
21	0x3da8f18b	0.08249196
22	0xbc2c1e52	-0.010505276
23	0x3dab120b	0.08353051
24	0x3cba93e8	0.022775605
25	0xbcec1806	-0.028820049
26	0x3dd15d8d	0.102229215
27	0xbe2100b9	-0.15722932
28	0x3d686c74	0.056744054
29	0x3b0bd59a	0.0021337033
30	0x3d769d2e	0.060208492
31	0x3e0575ff	0.13033293
32	0x3dc6b3a0	0.097022295
33	0x3d56cdaa	0.05244223
34	0x3df1cdde	0.11806844
35	0xbc857586	-0.016291391
36	0xbd9afb6f	-0.075674884
37	0x3d946d92	0.072474614
38	0xbb925b8b	-0.004466479
39	0x3e1e6675	0.15468772
40	0xbe06ee24	-0.13176781
41	0x3ce2e021	0.027694764
42	0xbcf27d5a	-0.029600788
43	0x3da2eebd	0.07955692
44	0xbd253249	-0.04033116
45	0xbdf4405e	-0.119263396
46	0x3d92850e	0.071542844
47	0x3da5b041	0.080902584
48	0xbd31d5d8	-0.043416828
49	0x3db326b6	0.08747618
50	0xbe0afed8	-0.13573778
51	0x3da1e8ed	0.07905755
52	0x3de0f6c8	0.1098457
53	0x3e36e731	0.1786163
54	0xbd100b83	-0.03516723
55	0x3c226655	0.009912093
56	0xbc3c64b4	-0.011498619
57	0xbd8383e7	-0.06421643
58	0x3da56092	0.0807506
59	0xbd02d07f	-0.03193712
60	0x3d36e6f8	0.044653863
61	0xbdd1819e	-0.10229801
62	0x3d822d18	0.06356257
63	0x3d46891b	0.048470598
64	0x3d8d913f	0.06912469
65	0xbd7853c8	-0.060626775
66	0xbe2a76f0	-0.16646934
67	0x3d2575d4	0.040395573
68	0xbe160c59	-0.14653148
69	0xbdb02dc9	-0.08602483
70	0xbcec785c	-0.028865986
71	0xbdc767e5	-0.09736613
72	0xbd4b035c	-0.04956375
73	0x3cd0b5e6	0.025477361
74	0xbd5410c5	-0.051773805
75	0xbd96289b	-0.07331964
76	0xbd7f8b62	-0.062388785
77	0xbd61d224	-0.055132046
78	0x3dc2f624	0.09519604
79	0xbd91867b	-0.07105728
80	0xbd6bd493	-0.057575773
81	0xbd9f5d97	-0.07781523
82	0xbe02daac	-0.12778729
83	0x3c18c3e5	0.009324049
84	0x3df0a247	0.11749702
85	0xbdc89d1c	-0.09795591
86	0xbde04eb2	-0.1095251
87	0xbe5c776d	-0.21529932
88	0x3b873007	0.0041255984
89	0x3e01591c	0.12631649
90	0xbd0ed7fa	-0.03487394
91	0x3e12f19d	0.1434998
92	0x3ba96205	0.0051691555
93	0xbde1b4da	-0.11020823
94	0x3d8c2c4e	0.06844388
95	0xbe137d54	-0.14403278
96	0x3e2a932c	0.16657704
97	0xbe0ef768	-0.13961565
98	0x3db2c792	0.08729471
99	0x3e0d235d	0.13783021
100	0x3e18cbfb	0.14921562
101	0xbdd659cc	-0.10466346
102	0xbca74db5	-0.020422796
103	0xbd1abd3b	-0.03777812
104	0x3d8c0c12	0.0683824
105	0xbdee956f	-0.11649596
106	0xbe349e2b	-0.17638461
107	0xbcd7e46e	-0.026354041
108	0xbe34a79e	-0.17642066
109	0xbd3a7c32	-0.045528598
110	0x3c1789a8	0.009249128
111	0x3c44ecdb	0.012019361
112	0x3e2e8d36	0.17046055
113	0xbdc0c723	-0.09412982
114	0x3dfa820d	0.122318365
115	0x3dae1025	0.08499173
116	0xbcd2c548	-0.025728837
117	0x3d021093	0.031754088
118	0xbd839b39	-0.06426091
119	0xbe53850a	-0.20656219
120	0x3c9bbe0d	0.019011522
121	0xbddd4b99	-0.10805435
122	0xbd81b059	-0.06332464
123	0x3d73e79e	0.05954706
124	0xbdb52dc8	-0.08846623
125	0xbd81095c	-0.06300613
126	0xbd5346d6	-0.051581226
127	0x3d34774a	0.044059075
128	0x3c104c04	0.008807186
129	0x3db2f84b	0.087387644
130	0xbd636eb8	-0.05552551
131	0x3d2520ad	0.040314365
132	0x3c8b4ee1	0.017005386
133	0xbd8696ad	-0.06571708
134	0xb9e4ad6d	-0.0004361676
135	0xbd868147	-0.065676264
136	0xbb5f7b4e	-0.0034100595
137	0x3d989c50	0.07451689
138	0x3d08a1dd	0.03335749
139	0x3cec4e42	0.02884591
140	0x3d1291b2	0.035783477
141	0x3df5659e	0.119822726
142	0x3d0868e0	0.03330314
143	0xbd8aedce	-0.06783639
144	0x3c9708f2	0.018436883
145	0xbd60be5e	-0.05486905
146	0x3b6b4083	0.0035896606
147	0xbda429c3	-0.08015778
148	0x3c6c8004	0.014434818
149	0x3c04f4f0	0.008115038
150	0x3dcccaf1	0.099996455
151	0x3e0ebc7b	0.13939087
152	0x3d1dfc43	0.038570654
153	0x3dd60775	0.10450641
154	0xbc5dfbf2	-0.013548838
155	0x3b9477d3	0.0045308857
156	0x3dd38966	0.10328941
157	0x3dc89770	0.097945094
158	0xbdbbf5c6	-0.09177737
159	0x3d0397f3	0.032127332
160	0xbdc24aac	-0.09486899
161	0x3db06087	0.08612161
162	0x3c788bcc	0.015170049
163	0xbdcc1bf3	-0.099662684
164	0x3cdb6328	0.02678068
165	0xbdd7990c	-0.10527238
166	0x3d89e8bd	0.067338444
167	0x3dab1c3d	0.083549954
168	0xbde3ee63	-0.11129453
169	0xbc70c542	-0.014695467
170	0x3d520a4c	0.05127935
171	0xbc3c9b34	-0.011511613
172	0x3df02973	0.11726656
173	0x3d8b4b5a	0.068014815
174	0x3b4b87aa	0.0031056204
175	0xbcdb399b	-0.026760867
176	0x3d804b2a	0.062643364
177	0x3d922b31	0.07137144
178	0x3dd1e450	0.10248625
179	0x3c4c98e1	0.012487621
180	0xbd9a34c3	-0.07529595
181	0x3d9df977	0.07713597
182	0x3d96d7b8	0.07365364
183	0xbd9df944	-0.07713559
184	0xbd56606e	-0.052338056
185	0x3c243d6c	0.01002441
186	0x3de973fb	0.11399075
187	0xbd1408be	-0.03614115
188	0x3de87481	0.11350346
189	0x3e03a81e	0.128571
190	0x3c41ffc9	0.011840769
191	0x3d98e9ad	0.07466445
192	0xbcb7400c	-0.022369407
193	0x3de9438b	0.11389836
194	0xbd41c7dc	-0.04730974
195	0x3dd58069	0.10424883
196	0x3d330e85	0.04371502
197	0x3da91741	0.082563885
198	0x3bb3b5f1	0.0054843356
199	0xbd5cca60	-0.053903937
200	0xbd726acb	-0.059183877
201	0x3d98464a	0.074352816
202	0xbe128dff	-0.1431198
203	0xbe2cb606	-0.16866311
204	0xba700f5e	-0.00091575633
205	0xbd99b3aa	-0.07504971
206	0x3ccf8ca8	0.025335625
207	0x3d81fddf	0.0634725
208	0x3cdf2879	0.027240979
209	0x3d9c5c3f	0.07634782
210	0xbd840e94	-0.06448093
211	0xbc6ef29c	-0.01458421
212	0xbde9aab9	-0.11409516
213	0xbcb73f8e	-0.022369172
214	0xbe0e64b7	-0.13905607
215	0xbe173fdd	-0.14770456
216	0xbe3fb9a4	-0.1872316
217	0x3dbc574e	0.091963395
218	0x3de80730	0.11329496
219	0xbd1cf336	-0.03831788
220	0x3e19455c	0.14967865
221	0x3cbe4891	0.023227962
222	0x3d5fae2d	0.054609466
223	0xbd80d8e0	-0.062913656
224	0x3d7c1d05	0.061551113
225	0xbdf66fe4	-0.1203306
226	0x3d0f4bdf	0.034984466
227	0x3db03e47	0.086056285
228	0x3daa1f48	0.08306748
229	0xbc56670f	-0.0130860945
230	0xbd3df8eb	-0.046379965
231	0x3de52e50	0.11190474
232	0x3e170cf0	0.14751029
233	0x3e04e0f0	0.12976432
234	0xbd74d601	-0.059774403
235	0x3e0ca1fa	0.13733664
236	0x3ca5b3b5	0.020227293
237	0x3e11e122	0.14246038
238	0x3dd49a29	0.10380966
239	0xbde44274	-0.111454874
240	0x3dd687f6	0.10475151
241	0x3d2aa7c1	0.04166389
242	0x3b33f915	0.0027461697
243	0x3e043d36	0.12913975
244	0x3c158e9a	0.009128237
245	0xbe044c96	-0.1291984
246	0x3bdf6d74	0.0068184678
247	0x3d5aa373	0.053378534
248	0x3d7a8931	0.061165992
249	0xbd4dbc3d	-0.050228346
250	0x3de2006d	0.110352375
251	0x3cff4752	0.031161938
252	0x3c44428d	0.011978758
253	0xbcfcbcc2	-0.030851725
254	0xbc6ee818	-0.014581703
255	0xbd32140f	-0.04347616

h_21.bias f4 [64]
0	0x3db620d1	0.08892978
1	0xbcd43e6a	-0.025908668
2	0x3e20a215	0.1568683
3	0x3d7598c5	0.059960146
4	0x3eb70c6b	0.35751662
5	0x3ec5f6da	0.38664895
6	0x3dac7305	0.08420376
7	0x3e35fc10	0.17771935
8	0x3dd8e3f5	0.10590354
9	0x3e830f21	0.2559748
10	0x3e4db156	0.2008718
11	0x3e3839fe	0.17990872
12	0x3dc56b1a	0.096395686
13	0xbcb22035	-0.021743873
14	0x3e914e2a	0.28379947
15	0x3eb0caae	0.34529632
16	0x3c901a74	0.017590739
17	0xbe1b1d4d	-0.15147896
18	0x3e3cca7b	0.18436615
19	0x3d502685	0.050817985
20	0xbd9495d2	-0.072551385
21	0x3e25984f	0.16171382
22	0x3e874ec2	0.26427275
23	0x3e34d742	0.1766024
24	0x3e68851b	0.22707026
25	0x3e5733e5	0.2101589
26	0x3e888d61	0.26670364
27	0xbc6bf830	-0.014402434
28	0xbdfd5dcb	-0.12371405
29	0x3dff2a65	0.12459258
30	0x3e76ae85	0.24090011
31	0x3e70e70f	0.23525642
32	0xbd1e6ea9	-0.038679752
33	0x3d620808	0.05518344
34	0x3e3a07cb	0.18167035
35	0x3dc482eb	0.09595283
36	0x3e11d71a	0.14242211
37	0x3e738d29	0.23784317
38	0x3ead4e47	0.33848783
39	0xbd93cebf	-0.07217168
40	0x3e873d50	0.26413965
41	0x3d95a48f	0.07306778
42	0x3dc035ec	0.09385285
43	0x3dbac9dc	0.09120533
44	0x3e75b547	0.23994933
45	0x3dca3989	0.09874255
46	0x3e432dd0	0.19060445
47	0xbe9ff11e	-0.31238645
48	0x3e17bd01	0.14818193
49	0x3d88ed4f	0.06685888
50	0x3e0148d3	0.12625436
51	0x3c7c60f7	0.015403978
52	0xbe7d3141	-0.2472582
53	0x3dac9da5	0.08428506
54	0x3e4e594f	0.20151256
55	0x3e2987e8	0.1655575
56	0x3ddc4ad8	0.10756463
57	0xbe52487d	-0.20535465
58	0x3e0c428d	0.13697262
59	0xbc51db12	-0.012808578
60	0x3e987e05	0.29783645
61	0x3e4a6440	0.19764805
62	0x3e2fb6f7	0.1715964
63	0x3d7403b9	0.059573863

h_22.weight f4 [64, 64]
0	0xbe2ae698	-0.16689527
1	0x3ed3624b	0.4128593
2	0x3d765895	0.060143072
3	0xbe19ec52	-0.15031555
4	0x3e6b0ac5	0.22953327
5	0x3d02e169	0.03195325
6	0xbda86680	-0.08222675
7	0xbe4bf287	-0.19916736
8	0x3e5010da	0.20318928
9	0x3c6b286b	0.014352898
10	0x3e1038e2	0.14084199
11	0xbc28ae51	-0.0102954665
12	0xbdfd48da	-0.12367411
13	0x3ed8e3dd	0.42361346
14	0x3d361b35	0.04445954
15	0x3e328b19	0.17435874
16	0xbda17a81	-0.07884694
17	0xbd2f545c	-0.04280506
18	0x3dc360d0	0.0953995
19	0xbe7b8137	-0.2456101
20	0xbd1deec8	-0.038557798
21	0xbc111305	-0.008854632
22	0x3e525375	0.20539649
23	0x3eb41af3	0.3517681
24	0x3dc17fa7	0.09448176
25	0xbe114251	-0.14185454
26	0x3d40a58d	0.04703288
27	0x3ed8d196	0.423474
28	0xbd8e4881	-0.06947423
29	0xbde8de95	-0.11370579
30	0xbe94d66a	-0.29069835
31	0xbdd2ca77	-0.10292523
32	0x3d8f54be	0.06998585
33	0x3e0e4825	0.13894708
34	0xbd877f2f	-0.06616055
35	0xbea87ed7	-0.3290927
36	0xbc003720	-0.007825643
37	0x3d43bc7c	0.047787175
38	0xbd933663	-0.07188108
39	0x3e235a98	0.15952528
40	0xbdd87757	-0.10569637
41	0x3eff0175	0.498058
42	0x399853e1	0.00029054194
43	0x3dc23a69	0.09483797
44	0xbddb74b5	-0.107156195
45	0x3dadeb58	0.08492154
46	0xbda7208e	-0.08160506
47	0xbd3d8e13	-0.04627807
48	0x3beea2f9	0.0072826114
49	0x3e7ba8a4	0.2457605
50	0xbdfd57b3	-0.12370243
51	0x3cdeaf7e	0.02718329
52	0xbd8de2e9	-0.06928045
53	0xbe8619cb	-0.26191553
54	0x3dc56ca0	0.09639859
55	0xbe7049b7	-0.2346562
56	0xbc93ebcd	-0.018056775
57	0x3eae1891	0.34003118
58	0x3df59e21	0.11993051
59	0xbdd0dca5	-0.101983346
60	0x3ca03de9	0.019560771
61	0x3e2b6df9	0.1674117
62	0x3d672b19	0.056437586
63	0x3d06cbd5	0.032909233
64	0x3c6337ea	0.013868311
65	0x3b9274c9	0.0044694883
66	0xbcba26e4	-0.022723623
67	0x3d3db363	0.046313655
68	0x3ea0da56	0.31416577
69	0xbcdd9de2	-0.027052823
70	0xbd23d770	-0.04000038
71	0xbcf34326	-0.029695105
72	0x3d1fb5dd	0.038991798
73	0x3e0c1e2d	0.13683386
74	0x3d2d30d4	0.042282894
75	0xbc00cede	-0.007861821
76	0x3dc05852	0.09391846
77	0x3da0338f	0.07822334
78	0x3e32eaa1	0.17472316
79	0x3d8a594d	0.06755314
80	0x3d2295f4	0.039693788
81	0xbdaf9b77	-0.085745744
82	0xbe046c4a	-0.12931934
83	0xbdb9e2a1	-0.09076429
84	0x3b82e660	0.003994748
85	0x3e0d1edd	0.13781305
86	0xbe9839f4	-0.29731715
87	0xbc9142e1	-0.017732086
88	0xbd0d72fd	-0.03453349
89	0x3e103583	0.14082913
90	0xbe93c81e	-0.28863615
91	0xbaf03525	-0.0018326385
92	0xbb82411f	-0.003975048
93	0xbd5787ab	-0.052619617
94	0x3e2cae50	0.1686337
95	0xbf0de0db	-0.5542123
96	0xbdb0e388	-0.08637148
97	0x3dc02159	0.093813606
98	0x3e71c72a	0.23611131
99	0x3deca9c0	0.11555815
100	0x3b8d3880	0.004309714
101	0x3de7bb0a	0.11314972
102	0x3d33065c	0.043707237
103	0x3dd00a28	0.10158187
104	0x3e222e88	0.15838063
105	0xbe985fca	-0.2976058
106	0xbe0ce5cd	-0.13759537
107	0x3e4c3da0	0.19945383
108	0x3e6f8ac9	0.23392786
109	0xbb4048e6	-0.0029340326
110	0x3e0ae46e	0.13563702
111	0x3ccf887b	0.025333634
112	0xbe484ba2	-0.19560102
113	0x3e6bad01	0.23015215
114	0xbd8d8010	-0.069091916
115	0xbe4b7bcc	-0.19871444
116	0xbe368166	-0.17822799
117	0x3e3b418d	0.18286724
118	0x3de6707f	0.11251926
119	0x3e94c166	0.290538
120	0x3d816e62	0.06319882
121	0x3e8c2760	0.2737379
122	0x3e0e2545	0.13881405
123	0xbd901921	-0.07036043
124	0xbe5b2f8c	-0.21404856
125	0x3da605cf	0.08106577
126	0xbdff4ff2	-0.1246642
127	0x3e0c762b	0.13716953
128	0x3d39cbdc	0.04536043
129	0x3d1b37a4	0.03789486
130	0x3e263e9c	0.16234821
131	0x3e17afea	0.148132
132	0x3ea3a65e	0.31962866
133	0x3e2a363c	0.16622251
134	0x3d1fc342	0.03900457
135	0x3e5c085c	0.21487564
136	0x3d004a69	0.031320963
137	0x3e10368c	0.14083308
138	0xbdbe5110	-0.09292805
139	0xbd866114	-0.06561485
140	0x3d2506ff	0.040289875
141	0x3d808e07	0.062770896
142	0xbdeaa0fa	-0.11456485
143	0x3da45a84	0.08025077
144	0xbf003562	-0.50081456
145	0xbd6bdb09	-0.057581935
146	0x3be837b1	0.007086717
147	0x3d6c526c	0.05769579
148	0x3dbdecb0	0.0927366
149	0xbe710eff	-0.23540877
150	0xbef214ab	-0.47281393
151	0xbe149727	-0.14510785
152	0x3d6b84ab	0.05749957
153	0xbe71af39	-0.23601998
154	0xbe93852e	-0.28812546
155	0xbcb85b5b	-0.0225045
156	0xbd29237b	-0.041293602
157	0x3d8dcaa0	0.06923413
158	0x3e0cae7f	0.1373844
159	0xbed1e9b6	-0.4099862
160	0x3dcf06e4	0.10108736
161	0x3d639759	0.05556426
162	0x3e0dbfe2	0.13842729
163	0x3e8a1874	0.2697178
164	0x3cb36b08	0.021901622
165	0x3d890a20	0.06691384
166	0x3da44e19	0.080227084
167	0xbda498de	-0.080369696
168	0xbe0600f3	-0.130863
169	0xbe5c3c75	-0.21507438
170	0xbe84f408	-0.2596743
171	0x3d8c3af5	0.06847183
172	0x3db7dbca	0.08977468
173	0xbc1db32d	-0.009625238
174	0x3c7c8fdb	0.015415157
175	0x3db532da	0.0884759
176	0xbd9c75f0	-0.07639682
177	0x3d52bc27	0.051448967
178	0x3e49f2f1	0.19721581
179	0xbc8e600a	-0.01737978
180	0x3cd4bc02	0.025968555
181	0x3daba5ff	0.083812706
182	0x3e00bfa1	0.125731
183	0xbef4fb36	-0.4784791
184	0x3dc12389	0.09430606
185	0xbe5c1c3a	-0.21495143
186	0xbca4034f	-0.020021109
187	0x3dcc46a3	0.099744104
188	0x3c9c61e6	0.01908965
189	0x3d1573c5	0.03648736
190	0x3d955ad6	0.07292716
191	0x3e1ec6b4	0.15505487
192	0x3df9d81d	0.121994235
193	0xbd0ab213	-0.03386123
194	0xbda69e1b	-0.08135625
195	0x3e5484b2	0.20753744
196	0x3e182e46	0.14861402
197	0x3e201498	0.15632856
198	0x3d4183c9	0.04724482
199	0xbcd615c4	-0.026133426
200	0xbd8e1e0d	-0.069393255
201	0x3dcdc614	0.10047546
202	0xb8484620	-4.7749025e-05
203	0xbdd0b36e	-0.101904735
204	0x3e8d932a	0.2765134
205	0xbbad6607	-0.0052917036
206	0x3de4a244	0.11163762
207	0x3d7c7289	0.061632667
208	0xbd1ec295	-0.038759787
209	0x3da1dadf	0.079030745
210	0xbd64fe07	-0.05590632
211	0x3e13783e	0.14401338
212	0x3cb54e38	0.022132024
213	0x3e092b17	0.13395344
214	0x3d0d367d	0.034475792
215	0x3d565c50	0.05233413
216	0x3d001bd1	0.031276528
217	0x3ec45cbf	0.3835201
218	0x3d807152	0.06271614
219	0x3e27290b	0.1632425
220	0x3ced227d	0.02894711
221	0xbdb5a5f3	-0.08869543
222	0x3d201239	0.03907988
223	0x3d97ad5b	0.07406112
224	0xbd273fdc	-0.040832385
225	0x3dc72ee4	0.097257406
226	0x3eb9be21	0.3627787
227	0x3d3948dd	0.045235503
228	0x3db13dee	0.0865439
229	0xbc1b30a0	-0.009472042
230	0xbcc0e6b8	-0.023547515
231	0xbc90a245	-0.017655501
232	0xbd81a73e	-0.06330727
233	0xbdc8e5f1	-0.09809483
234	0xbe95f3d7	-0.29287598
235	0xbc7a9b2b	-0.015295784
236	0x3debc13a	0.115114644
237	0xbd21a63e	-0.03946518
238	0xbdceebd7	-0.10103577
239	0x3d78a87a	0.060707547
240	0x3b9460f3	0.004528159
241	0x3b4c390e	0.0031161937
242	0xbdd578b3	-0.10423412
243	0xbc728bbe	-0.014803825
244	0xbddeb9b7	-0.10875266
245	0x3e2359e9	0.15952267
246	0x3daa258b	0.08307942
247	0x3cdbd18e	0.026833322
248	0x3da4fb16	0.08055703
249	0x3db080d3	0.08618321
250	0x3cf117ae	0.029430237
251	0xbc2f8fb9	-0.0107154185
252	0x3dae77bf	0.085189335
253	0xbd69b5e0	-0.057058215
254	0xbd1c0de9	-0.038099203
255	0x3e32b6f0	0.17452598

h_22.bias f4 [64]
0	0x3e69a307	0.22816096
1	0x3db5e34d	0.08881245
2	0xbd399263	-0.04530562
3	0x3e04141d	0.12898298
4	0x3d76c394	0.06024511
5	0x3ceded3e	0.02904379
6	0xbe0b1c29	-0.13584961
7	0xbd87c5ae	-0.06629501
8	0x3c1cc5e4	0.009568665
9	0xbd917d68	-0.071039975
10	0x3d05aac8	0.032633573
11	0x3d6bd98b	0.057580512
12	0xbc19bad3	-0.009382921
13	0xba3e9087	-0.0007269461
14	0xbd6686d4	-0.056280926
15	0x3d688441	0.056766752
16	0xbd718428	-0.058963925
17	0x3df2b1a3	0.11850288
18	0x3df6b4e1	0.12046219
19	0xbc302030	-0.010749862
20	0x3df24caf	0.118310325
21	0xbdc23eb4	-0.09484616
22	0xbd310450	-0.043217003
23	0x3d6bec2e	0.057598285
24	0x3cb744d3	0.022371685
25	0xbd2820f1	-0.04104704
26	0x3e55ec06	0.20890817
27	0x3cdc9ea8	0.026931122
28	0xbd98a8a9	-0.07454044
29	0x3cd8b4d0	0.026453406
30	0xbd0e1c06	-0.034694694
31	0xbdfa32f6	-0.12216751
32	0x3e516227	0.20447598
33	0x3e71aa15	0.23600037
34	0x3d06eb58	0.032939285
35	0xbe092813	-0.13394193
36	0xbd8963d6	-0.06708495
37	0xbcaa8db9	-0.020819532
38	0x3e048d2c	0.12944478
39	0x3ddb3abc	0.10704562
40	0xbd8424c1	-0.06452323
41	0x3d8cae12	0.06869139
42	0x3ce1090b	0.027470132
43	0xbca72fc3	-0.020408517
44	0xbe03044e	-0.12794611
45	0xbe39a434	-0.18129045
46	0xbe040f28	-0.12896407
47	0x3e1d6b6a	0.15373006
48	0x3deb9d2d	0.11504588
49	0x3c9886da	0.01861899
50	0xbda0d2fe	-0.078527436
51	0xbdf2b9e9	-0.11851866
52	0xbe02d409	-0.12776197
53	0x3c9ff226	0.019524645
54	0xbe01cc39	-0.12675561
55	0x3de31c89	0.11089427
56	0xbddb7852	-0.10716309
57	0xbdb5f664	-0.08884886
58	0x3c41b9d6	0.011824092
59	0x3d6086b3	0.05481596
60	0xbb69a1c4	-0.0035649398
61	0x3d794ac0	0.060862303
62	0x3c13e370	0.009026393
63	0x3cb53c7e	0.022123571

h_32.weight f4 [128, 128]
0	0x3ca3392a	0.019924719
1	0x3c2d8c78	0.010592572
2	0xbd9b468d	-0.07581816
3	0xbcb2ad03	-0.021811014
4	0x3d85b721	0.0652907
5	0x3d9816f0	0.0742625
6	0xbb407e04	-0.0029371986
7	0x3d67d821	0.0566026
8	0xbd58211a	-0.052765943
9	0xbc9fcb21	-0.01950604
10	0xbc01d5ad	-0.007924479
11	0x3d8722ac	0.0659841
12	0x3c7f27d3	0.01557346
13	0xbe17a520	-0.14809084
14	0x3d632de6	0.055463694
15	0x3d7f77d8	0.06237015
16	0xbd91a56d	-0.071116306
17	0x3dce079f	0.10060047
18	0xbdc60e65	-0.09670714
19	0xbbcf86ce	-0.0063332086
20	0x3b6a120c	0.0035716323
21	0x3c12de6d	0.008964163
22	0x3bd34baf	0.006448231
23	0xbb2fe5e4	-0.0026839906
24	0xbd193b67	-0.037410166
25	0xbca8e444	-0.020616658
26	0xbe0eb948	-0.13937867
27	0x3d74102c	0.059585735
28	0xbc93025d	-0.017945463
29	0xbdaab2ab	-0.083348595
30	0xbd357af5	-0.044306714
31	0x3c9eb0fc	0.019371502
32	0x3b8b6bc0	0.004254788
33	0x3c60a7ef	0.0137119135
34	0x3c4b3c58	0.012404524
35	0x3c7de0bb	0.015495474
36	0xbd939c6b	-0.07207569
37	0xbdb0f85f	-0.08641123
38	0xbdef8cb5	-0.116967596
39	0xbdc69225	-0.096958436
40	0x3d224a75	0.03962179
41	0x3d46ffb4	0.0485837
42	0x3dbeef4a	0.093229845
43	0x3cc41b9a	0.023938943
44	0x3d07f339	0.03319094
45	0x3d7927d1	0.060828988
46	0xbd5c520d	-0.053789187
47	0x3e19b1ed	0.1500928
48	0xbce2795e	-0.027645763
49	0xbdce82b5	-0.10083524
50	0x3d9b1bb6	0.07573645
51	0x39c09340	0.00036730804
52	0x3cda22f4	0.026627995
53	0xbd2f4ed6	-0.042799793
54	0xbb5114f2	-0.0031903354
55	0x3c3ab65a	0.011396015
56	0xbca5a906	-0.020222198
57	0x3d924c1c	0.07143423
58	0x3d3a042d	0.04541414
59	0xbd02b8b4	-0.031914428
60	0x3d165ead	0.036711384
61	0xbd976700	-0.073926926
62	0xbd3e16cd	-0.046408463
63	0xbd3d2add	-0.046183456
64	0xbb6f5176	-0.003651706
65	0x3c8481fe	0.016175266
66	0x3d520b28	0.05128017
67	0xbd066363	-0.032809626
68	0xbd772960	-0.060342193
69	0x3c22c854	0.009935457
70	0xbb56fd30	-0.003280472
71	0xbda635b2	-0.0811571
72	0x3d8eac00	0.069664
73	0xbc7a6bfc	-0.015284535
74	0x3d826aff	0.06368064
75	0x3cf37483	0.029718643
76	0xbd9dfbd1	-0.07714046
77	0x3c534858	0.012895666
78	0xbd3ddb26	-0.046351574
79	0x3d941b34	0.07231751
80	0x3d368d35	0.04456826
81	0x3dd5f198	0.10446471
82	0xbd2ac65d	-0.04169308
83	0xbd2c12cc	-0.042010114
84	0xbd55b378	-0.052173108
85	0xbd71842f	-0.05896395
86	0xbd9ebddd	-0.07751057
87	0xbd81d1ce	-0.06338845
88	0x3e28d8e0	0.16488981
89	0xbcd01f85	-0.025405655
90	0xbc1fd172	-0.0097545255
91	0x3cda3fe9	0.026641803
92	0x3d713e56	0.05889734
93	0x3d7a3cf7	0.061093297
94	0xbd5fcab5	-0.054636676
95	0x3d39f7ee	0.04540246
96	0x3d3f3eab	0.046690624
97	0xbc510aab	-0.012758891
98	0x3d987537	0.07444232
99	0xbde9fe79	-0.1142549
100	0xbd57d18b	-0.05269007
101	0x3dce1982	0.10063459
102	0x3e5c9d9b	0.21544497
103	0x3d668770	0.056281507
104	0x3c833c78	0.016020045
105	0xbc941b00	-0.01807928
106	0x3d8f4f8b	0.069975935
107	0x3c1d47cb	0.009599636
108	0x3ca27800	0.019832611
109	0x3d12a4e8	0.035801798
110	0xbd8111be	-0.06302212
111	0xbd11872f	-0.03552931
112	0xbc2b0407	-0.010437972
113	0xbc807deb	-0.015685042
114	0xbd81c460	-0.06336284
115	0x3d693447	0.05693462
116	0x3db72185	0.0894194
117	0x3db8ff37	0.09033053
118	0xbe22ff28	-0.15917647
119	0x3d54be8f	0.051939543
120	0xbd941ba8	-0.072318375
121	0xbd028989	-0.031869445
122	0x3de8eb63	0.113730215
123	0x3d2bba86	0.04192593
124	0x3d10bc53	0.03533585
125	0xbd93babf	-0.07213353
126	0x3d1527c4	0.036414877
127	0x3dd28d23	0.10280826
128	0xbca65615	-0.020304719
129	0x3d499f07	0.049223926
130	0x3d3710d7	0.044693794
131	0xbc8d7406	-0.017267238
132	0xbd3965c1	-0.045263056
133	0xbacb4647	-0.0015508615
134	0xbdc1cceb	-0.09462913
135	0xbd5bd29e	-0.053667657
136	0x3d196f70	0.03745979
137	0xbce017ff	-0.027355192
138	0x3b19b359	0.0023452847
139	0xbdc27e10	-0.09496701
140	0x3d98a9f8	0.07454294
141	0x3db397f5	0.08769218
142	0x3dadbd84	0.08483413
143	0xbd950ed2	-0.072782174
144	0xbbfb2a0c	-0.0076649245
145	0x3e4eb1ee	0.20185062
146	0x3d9bc444	0.07605794
147	0xbaf57c21	-0.001872901
148	0x3d8733f3	0.066017054
149	0xbaec8bc8	-0.0018047029
150	0x3bf10801	0.0073556905
151	0x3d652e9b	0.05595265
152	0x3d6b2db6	0.05741664
153	0xbd9195c0	-0.07108641
154	0xbd500c93	-0.05079324
155	0x3d04ceb6	0.032423697
156	0x3bed50bc	0.0072422903
157	0xbc52b84d	-0.012861324
158	0x3dc6fcd7	0.09716194
159	0xbc00a251	-0.007851199
160	0xbd1b70fd	-0.03794955
161	0xbc860402	-0.016359333
162	0xbd9256af	-0.0714544
163	0x3d001146	0.031266473
164	0xbd92b318	-0.07163066
165	0x3da987ef	0.082778804
166	0xbd6933d7	-0.056934204
167	0x3dbb0960	0.091326475
168	0xbd22c260	-0.03973615
169	0xbc29084f	-0.010316922
170	0xbd29188b	-0.04128317
171	0x3d02cc82	0.031933315
172	0x3dc4d5c0	0.09611082
173	0xbd768026	-0.060180806
174	0xbd70b495	-0.058765966
175	0xbf017e34	-0.50583196
176	0x3b8bca65	0.0042660707
177	0x3c9b02c8	0.018922225
178	0x3c5a577f	0.013326525
179	0xbcde1bf7	-0.027112944
180	0x3e3b4c2a	0.18290773
181	0x3be1c03c	0.006889371
182	0xbd7d8832	-0.061897464
183	0x3d44e090	0.048065722
184	0xbd9891d0	-0.074496865
185	0xbf19b47e	-0.60041034
186	0x3d86ee1e	0.06588386
187	0xbcc12d74	-0.023581244
188	0xbd6aa44f	-0.057285603
189	0x3d61f657	0.05516657
190	0x3d11c486	0.03558781
191	0x3c897276	0.016778212
192	0x3ad74bad	0.0016425751
193	0xbc373b4c	-0.011183571
194	0xbcd5b8d7	-0.026089115
195	0xbd2fa616	-0.042883
196	0x3de0e41b	0.10981008
197	0xbd858a14	-0.06520477
198	0xbd80e57c	-0.06293771
199	0xbcfe223e	-0.031022187
200	0xbdd90bd4	-0.10597959
201	0x3da4614a	0.08026369
202	0x3d854f0d	0.06509218
203	0x3dc8926f	0.09793555
204	0x3da86613	0.08222594
205	0x3e03c2ac	0.1286723
206	0x3cfbfa27	0.03075893
207	0x3d2a83c1	0.041629557
208	0xbdb2322f	-0.08700978
209	0x3cc4d87c	0.024029009
210	0x3c8c1b8b	0.017102977
211	0xbdac500a	-0.08413704
212	0xbd5101ab	-0.05102698
213	0x3e155f2a	0.14587083
214	0x3d47f878	0.048820943
215	0x3e2ac917	0.16678272
216	0x3dbab506	0.09116559
217	0x3a09208e	0.0005230986
218	0x3dd5c909	0.10438735
219	0x3c98b9b9	0.018643247
220	0x3bdd97a9	0.006762464
221	0x3b59dfe1	0.0033245014
222	0x3d715626	0.05892005
223	0x3d3f82bc	0.046755537
224	0x3dc68daf	0.09694993
225	0x3c4137c2	0.011793079
226	0xbddc3512	-0.1075231
227	0xbd6154d8	-0.055012554
228	0x3c1e7a35	0.009672691
229	0xbe0d1bc0	-0.13780117
230	0x3ea45621	0.3209696
231	0xbd133365	-0.035937686
232	0x3d2566e6	0.040381335
233	0x3b635061	0.003468536
234	0xbc603382	-0.013684155
235	0x3daea7a3	0.08528068
236	0xbd03275f	-0.03201997
237	0xbcf77317	-0.030206246
238	0x3d59733d	0.053088415
239	0x3d52247b	0.05130432
240	0x3c62bd1e	0.013839034
241	0xbc360364	-0.011109207
242	0x3d8fe29e	0.07025646
243	0xbdd38676	-0.10328381
244	0x3d8f3aea	0.06993659
245	0xbce60124	-0.028076716
246	0xbe2ef795	-0.17086633
247	0x3e0d7e4b	0.13817708
248	0x3c5ce152	0.013481455
249	0xbc97bec4	-0.018523581
250	0x3da134fe	0.078714356
251	0x3d93316d	0.071871616
252	0xbd1ffa2c	-0.039056942
253	0x3b3c1a86	0.0028702333
254	0xbd8e75e5	-0.0695608
255	0x3cb3a81d	0.021930749

h_32.bias f4 [128]
0	0xbc609984	-0.013708476
1	0x3d785239	0.06062529
2	0xbc46a763	-0.012124869
3	0x3d89360c	0.06699762
4	0x3cee7e8f	0.029113082
5	0xbd909dcb	-0.070613466
6	0x3cfac8b6	0.030613285
7	0x3d93f4ee	0.07224451
8	0xbe723189	-0.23651709
9	0x3d88176d	0.06645093
10	0xbdcac390	-0.09900582
11	0xbbc90171	-0.006134205
12	0x3db4799d	0.088122584
13	0xbcd90ac0	-0.026494384
14	0xbd1d71b4	-0.038438514
15	0x3cb759e9	0.02238174
16	0x3d0e6085	0.034760017
17	0x3d588143	0.05285765
18	0xbcd25c78	-0.025678858
19	0xbd085d82	-0.0332923
20	0x3d7f59d6	0.062341534
21	0x3dccb2e0	0.09995055
22	0x3d222f51	0.039595906
23	0x3dbdcabb	0.092671834
24	0x3d42a2ff	0.047518726
25	0x3ccb983d	0.024852866
26	0x3d878724	0.06617573
27	0x3d88d5aa	0.06681378
28	0xbd303c42	-0.043026216
29	0x3d326efb	0.04356287
30	0x3d7736f6	0.06035515
31	0xbc423622	-0.011853727
32	0xbcce3985	-0.025173912
33	0x3cf37b72	0.02972195
34	0x3d0b41c1	0.033998255
35	0x3d0cdeef	0.034392294
36	0x3d69ed7c	0.05711125
37	0xbdca9dc7	-0.09893375
38	0x3d1f9b30	0.038966358
39	0x3d9131bb	0.070895635
40	0x3c7a75c6	0.015286868
41	0xbd2afb37	-0.041743483
42	0x3b2dd57f	0.0026524959
43	0xbca6847a	-0.020326842
44	0xbb7fbf2b	-0.0039023857
45	0xbc8ac324	-0.016938753
46	0x3d89e3f7	0.06732934
47	0xbe26e19e	-0.16297004
48	0x3d556948	0.052102357
49	0x3da40315	0.080084
50	0x3d018b30	0.03162688
51	0x3d5ba908	0.053627998
52	0xbdddd0e2	-0.10830857
53	0xbd2d61db	-0.04232965
54	0xbd89086c	-0.066910595
55	0x3d94499e	0.07240604
56	0xbb1e5af0	-0.002416309
57	0x3d1cdb06	0.038294815
58	0x3e34e9b8	0.17667282
59	0xbd64ae11	-0.055830065
60	0x3cb4a338	0.022050485
61	0x3c8fb061	0.017540159
62	0x3df62255	0.12018267
63	0x3da1d096	0.07901113
64	0x3d8c3f6a	0.06848033
65	0x3ddac9f9	0.106830545
66	0x3d43e16a	0.047822393
67	0x3d8c7bc0	0.06859541
68	0xbd8fabcf	-0.07015192
69	0x3d7acf3d	0.061232794
70	0xbc866635	-0.016406158
71	0x3d876830	0.06611669
72	0x3d4d49ef	0.050119337
73	0x3d87d0ea	0.06631644
74	0xbd3cbced	-0.04607861
75	0xbb8565c9	-0.0040709716
76	0xbda466b5	-0.08027402
77	0x3e0d4c09	0.13798536
78	0xbd1a2b6e	-0.037639074
79	0x3d77410f	0.06036478
80	0x3d030106	0.031983398
81	0x3dbbb97f	0.0916624
82	0xbc94da3a	-0.018170465
83	0x3dd4b0c5	0.103852786
84	0x3e1dd39a	0.15412751
85	0x3dacea1d	0.08443091
86	0x3b7b2734	0.0038322927
87	0x3db0b848	0.08628899
88	0x3d59c72e	0.05316847
89	0xbcb42451	-0.021989973
90	0x3e215959	0.1575674
91	0x3e11afb1	0.14227177
92	0xbd653c90	-0.05596596
93	0x3d8a8bbe	0.06764935
94	0x3dfcf898	0.12352103
95	0xbdd73ca1	-0.10509611
96	0x3d0cb6ef	0.034354147
97	0xbdb2da2a	-0.08733018
98	0x3c7d4f97	0.01546087
99	0x3c93c7fb	0.018039694
100	0xbd7b2d7f	-0.061322685
101	0x3e2372e7	0.159618
102	0x3d033157	0.032029476
103	0xbd2ad56a	-0.041707434
104	0xbd1e5345	-0.03865363
105	0xbc95cb80	-0.018285513
106	0xbd3cb938	-0.046075076
107	0x3e12e29b	0.14344256
108	0x3d1b7550	0.037953675
109	0xbd6db21a	-0.05803118
110	0x3d5c3c11	0.05376822
111	0x3da6de0c	0.08147821
112	0xbd092b3d	-0.0334885
113	0xbc5b1e0d	-0.013373864
114	0x3c810f0b	0.015754243
115	0x3d448c19	0.04798517
116	0xbc23fbb3	-0.01000874
117	0x3cb45771	0.022014352
118	0xbda90579	-0.08252997
119	0x3d3c4a6d	0.045969415
120	0x3d7514cc	0.059834287
121	0xbdc58d4e	-0.09646092
122	0xbe033ebb	-0.12816899
123	0x3ca4c256	0.020112198
124	0x3d5609f4	0.052255586
125	0xbc4128b4	-0.01178949
126	0xbbbfb30f	-0.005850203
127	0x3d5b58c4	0.05355145
