GANs/saved_models/python/ZtSampledFromBimodal.pth (torch, 564762 bytes, 58 tensors)

h_11.weight f4 [64, 12]
0.32322973 0.21644154 0.02680856 0.23612987 0.053322587 -0.0032035413 -0.29057804 0.22776273
0.51912785 -0.04526027 0.50120497 0.14274926 0.10568227 -0.010666753 0.009098282 0.028188854
0.2285801 0.09660194 -0.09081219 0.03311389 -0.14573756 -0.04184507 -0.05065263 0.1567108
-0.25426856 -0.28067955 0.055492055 -0.017434759 0.116332926 -0.2641314 0.20146891 -0.24332538
0.09808337 0.082782306 -0.058113985 0.3077672 0.07094445 0.23152065 0.10123248 0.0062722554
0.21805431 -0.17080194 0.10890832 0.39950943 0.18156774 -0.21331225 0.30212831 0.15140274
-0.039850663 -0.2398487 -0.2766822 -0.07943255 -0.08513692 0.35064283 -0.057731275 0.4465072
0.14685102 0.046272065 0.3797152 -0.21653913 -0.2820962 -0.15250686 0.08592962 0.0024398526
0.2041426 0.12616222 0.07415241 -0.14577433 -0.3953846 -0.093751766 0.33028138 0.20246954
0.27832368 -0.11239753 -0.3697382 -0.21651477 -0.0024201742 0.16139749 0.08985294 0.25998783
-0.1814626 -0.170744 0.23951122 -0.039301656 0.26355034 -0.09298783 0.35288736 -0.08852227
-0.14800417 -0.06832933 0.1470622 -0.061067324 0.09860434 0.094306126 -0.35584998 -0.23918648
0.3201805 -0.21742201 -0.027781969 -0.1671983 -0.45157352 0.1712466 -0.24116075 -0.35119453
0.25269136 -0.10875489 -0.2111376 -0.017729536 -0.12723511 -0.4107567 0.20389566 0.032375
0.01893208 -0.19770557 -0.25913334 -0.29115435 5.1923693e-05 -0.20807706 0.06417963 -0.14257087
0.14398229 -0.13484016 -0.02351591 -0.042590585 -0.17634512 -0.31694895 -0.293387 -0.12460893
0.5031712 -0.0036201873 0.43157527 0.11649101 -0.19722266 0.33769172 -0.08625394 -0.11370621
-0.43737194 -0.10855325 0.1455744 -0.29174227 -0.12095944 -0.22063434 0.13120136 -0.09086621
0.022587044 0.030065889 0.20093742 0.34588012 0.17044285 -0.33520973 0.08924526 -0.29839864
-0.34823003 0.08572698 0.20047104 -0.27078643 0.2728435 -0.14161098 0.09022064 0.018750928
0.12374739 -0.20456626 0.034010716 -0.22173938 0.28525886 -0.002297045 -0.15275262 0.26976532
0.13341554 -0.22081797 -0.0066825105 0.17890556 0.025100121 -0.124484085 -0.24267507 -0.25993988
-0.15583241 0.24153274 0.40736476 -0.4016604 0.06507888 0.046268143 0.08551335 0.027341817
0.053506795 0.07409997 0.03386874 -0.06896705 0.001906677 0.02798605 -0.10635206 -0.02953436
0.04475334 0.52869326 0.17212278 -0.07649441 -0.13087323 0.21834989 0.04255033 0.055773
-0.092500955 -0.18793757 0.035162542 -0.016177582 -0.0021679231 -0.13032417 -0.3155063 -0.3688241
-0.17396718 0.29874706 0.23305933 -0.08671556 -0.37495056 -0.25846937 -0.062283564 0.3446892
0.0108032385 -0.020517275 0.033350684 -0.12028501 -0.10591924 0.13565703 -0.0086469045 -0.089567065
-0.16975501 0.09395513 0.13023476 0.11457338 -0.27483925 -0.05921417 -0.15180473 0.06974655
0.030052295 0.19633244 0.18727486 0.26862067 0.11705842 -0.17658548 -0.38654172 -0.10831894
0.07138089 -0.42029476 0.0068237577 0.007393156 0.06350928 -0.26660964 -0.11042477 0.15082756
0.07543868 0.27233052 -0.0014002754 -0.13707326 -0.098916195 -0.17529537 -0.03952503 -0.047274776
00000000: 5e7e a53e daa2 5d3e a09d db3c 07cc 713e
00000010: c968 5a3d 81f2 51bb a5c6 94be a23a 693e
00000020: 90e5 043f d562 39bd f84e 003f dd2c 123e
00000030: f26f d83d 9bc3 2ebc f610 153c 50ec e63c
00000040: e710 6a3e 3dd7 c53d befb b9bd 6ea2 073d
00000050: 3a3c 15be bc65 2bbd 2279 4fbd cc78 203e
00000060: 7d2f 82be 3bb5 8fbe a34b 633d 57d3 8ebc
00000070: f53f ee3d 3b3c 87be de4d 4e3e 4a2a 79be
00000080: efdf c83d c589 a93d ee08 6ebd aa93 9d3e
00000090: 534b 913d c013 6d3e f952 cf3d 7e87 cd3b
000000a0: a149 5f3e b4e6 2ebe 530b df3d 808c cc3e
000000b0: e5ec 393e 876e 5abe 90b0 9a3e 5209 1b3e
000000c0: 733a 23bd e69a 75be 4aa9 8dbe 88ad a2bd
000000d0: 445c aebd 7587 b33e a177 6cbd 979c e43e
000000e0: 1d60 163e c787 3d3d 086a c23e 6fbc 5dbe
000000f0: ea6e 90be c22a 1cbe defb af3d efe5 1f3b
00000100: c20a 513e ab30 013e 38dd 973d de45 15be
00000110: da6f cabe ed00 c0bd a41a a93e 2d54 4f3e
00000120: 7180 8e3e ad30 e6bd 534e bdbe 0cb6 5dbe
00000130: c99b 1ebb 6245 253e d104 b83d 201d 853e
00000140: 55d1 39be 84d7 2ebe 6e42 753e c6fa 20bd
00000150: 12f0 863e 6770 bebd a7ad b43e 2a4b b5bd
00000160: 688e 17be 3ff0 8bbd 7997 163e bb21 7abd
00000170: 12f1 c93d 9223 c13d f831 b6be 4ded 74be
00000180: b3ee a33e e0a3 5ebe 0397 e3bc 0836 2bbe
00000190: a534 e7be 455b 2f3e d8f2 76be c5cf b3be
000001a0: c360 813e e2ba debd 7434 58be 883d 91bc
000001b0: ec49 02be b44e d2be 06ca 503e a69b 043d
000001c0: 7317 9b3c 5473 4abe 20ad 84be 2f12 95be
000001d0: a4c8 5938 2712 55be 9c70 833d 19fe 11be
000001e0: 1870 133e 8a13 0abe 70a4 c0bc 7773 2ebd
000001f0: d193 34be 2247 a2be d236 96be f732 ffbd
00000200: d4cf 003f aa40 6dbb 6ff7 dc3e d792 ee3d
00000210: bdf4 49be eee5 ac3e e8a5 b0bd cdde e8bd
00000220: 37ef dfbe 2b51 debd 7511 153e 3e5f 95be
00000230: 95b9 f7bd f8ed 61be a659 063e 1018 babd
00000240: 7708 b93c bd4c f63c 8ac2 4d3e 3317 b13e
00000250: 9288 2e3e 9ca0 abbe 38c6 b63d b5c7 98be
00000260: 354b b2be a091 af3d 4848 4d3e 85a4 8abe
00000270: 25b2 8b3e 7802 11be 99c5 b83d 8c9b 993c
00000280: 466f fd3d d179 51be d24e 0b3d a60f 63be
00000290: 730d 923e 058a 16bb 2f6b 1cbe ae1e 8a3e
000002a0: 159e 083e 1b1e 62be f6f8 dabb 0533 373e
000002b0: c59e cd3c 83f1 febd d07f 78be d716 85be
000002c0: 8892 1fbe 5c54 773e 1d92 d03e 6fa6 cdbe
000002d0: 1348 853d aa83 3d3d a021 af3d f2fb df3c
000002e0: f129 5b3d bac1 973d f3b9 0a3d 993e 8dbd
000002f0: 77e9 f93a 0043 e53c 1ccf d9bd 0bf2 f1bc
00000300: 474f 373d 7158 073f f440 303e 1aa9 9cbd
00000310: a203 06be 1d97 5f3e 4149 2e3d 3b72 643d
00000320: 2471 bdbd b572 40be 9906 103d d986 84bc
00000330: b713 0ebb b373 05be 0b8a a1be 83d6 bcbe
00000340: 7424 32be 60f5 983e 1ba7 6e3e ed97 b1bd
00000350: 85f9 bfbe 1956 84be 0d1d 7fbd 1a7b b03e
00000360: 1100 313c d813 a8bc ba9a 083d fd57 f6bd
00000370: 30ec d8bd ade9 0a3e bfab 0dbc f06e b7bd
00000380: 42d4 2dbe 8c6b c03d 435c 053e 73a5 ea3d
00000390: bbb7 8cbe 8f8a 72bd b372 1bbe 47d7 8e3d
000003a0: 3b30 f63c 5f0b 493e fbc4 3f3e a688 893e
000003b0: 53bc ef3d d3d2 34be cce8 c5be 52d6 ddbd
000003c0: 2530 923d e030 d7be d499 df3b 4a42 f23b
000003d0: 2711 823d 0f81 88be 6226 e2bd 8a72 1a3e
000003e0: 987f 9a3d e86e 8b3e 7289 b7ba ef5c 0cbe
000003f0: 9394 cabd a180 33be ffe4 21bd 32a3 41bd

h_11.bias f4 [64]
-0.50810677 0.92886907 0.49094728 0.28268605 0.057508085 0.08302499 0.2506905 0.26608825
-0.15471625 0.32104877 -0.18272963 -0.020960333 0.07333438 0.07036787 0.10104113 0.60871387
-0.10945574 0.02273473 0.7139355 0.45234707 0.11627629 0.5126318 -0.29362574 0.74036455
0.60635906 -0.086129166 0.41365066 -0.22441113 0.10543298 0.075689614 0.06204972 0.7441822
0.45008382 0.6847518 0.004864426 0.51138574 -0.005342346 -0.08361278 0.28044423 0.24896324
0.6471239 -0.17597361 -0.25371292 0.43668777 0.25028667 0.7422269 0.36877006 0.14952822
0.5941104 0.5403166 -0.03664457 0.3601968 0.63960725 0.61515975 0.07003246 0.14035809
0.20885459 0.18310942 0.26865524 0.20897952 0.3582666 -0.015889838 0.6898485 -0.27422583
00000000: 4913 02bf 5dca 6d3f 715d fb3e 3abc 903e
00000010: 998d 6b3d 0209 aa3d 815a 803e b83c 883e
00000020: f06d 1ebe 8160 a43e 7a1d 3bbe 01b5 abbc
00000030: 5630 963d 081d 903d a7ee ce3d acd4 1b3f
00000040: 552a e0bd 2f3e ba3c 7ac4 363f 099a e73e
00000050: 4322 ee3d d63b 033f 1d56 96be 8888 3d3f
00000060: 593a 1b3f 7d64 b0bd 05ca d33e 08cc 65be
00000070: 3fed d73d 2803 9b3d d927 7e3d ba82 3e3f
00000080: 6371 e63e e54b 2f3f c365 9f3b 2dea 023f
00000090: d90e afbb 2d3d abbd 6396 8f3e 38f0 7e3e
000000a0: e9a9 253f 6d32 34be a9e6 81be 8a95 df3e
000000b0: 9325 803e 9502 3e3f 6ecf bc3e ed1d 193e
000000c0: 9f17 183f 3052 0a3f 9e18 16bd b76b b83e
000000d0: 4dbd 233f 1c7b 1d3f 2e6d 8f3d 08ba 0f3e
000000e0: fadd 553e 0981 3b3e 2e8d 893e bafe 553e
000000f0: b86e b73e 682b 82bc e999 303f 5467 8cbe

h_12.weight f4 [64, 6]
-0.45151785 -0.20899324 -0.4243331 0.2136668 -0.35455516 -0.027188262 0.1588021 -0.4996333
0.030553358 -0.22680722 -0.160212 -0.16696398 -0.22167422 -0.26557904 0.043503866 -0.15924002
0.33943102 0.50225896 0.08371535 -0.267949 -0.46924233 0.28906345 -0.23801391 0.34322786
0.30040005 -0.00065934524 -0.26775885 0.7139169 0.26324424 -0.29605862 0.43668887 -0.2577452
-0.263972 0.6059194 0.38322407 0.13438503 -0.09521727 -0.42608652 -0.07794233 0.4611641
0.11451824 0.045427326 -0.10074195 -0.22339246 0.25205383 0.042727966 0.3620638 -0.17971636
0.24146262 0.21585451 0.0639893 0.28063947 0.3619357 0.44347265 0.3292232 -0.13756208
-0.4298149 -0.1289689 0.2679994 0.05153986 -0.15195845 -0.06368985 0.24830127 0.28200862
-0.17821495 -0.12984154 -0.17395484 -0.23562428 0.32809246 0.39640278 0.4260841 0.03199132
-0.010299112 0.095311336 -0.5468711 0.086986326 0.05873194 -0.109775245 -0.22103104 0.111181125
0.68240905 0.26380277 0.71920943 -0.25287464 -0.18125306 0.10949992 -0.11369582 -0.09163116
-0.32043728 0.20343375 -0.33677217 -0.19213046 0.4041133 0.09074316 -0.1307079 0.19583687
-0.21020986 -0.0633821 0.53008753 -0.031442713 -0.33636996 0.03265321 -0.1807525 -0.20113225
-0.366696 0.2156393 0.072448656 -0.13117656 -0.47263074 -0.25621733 -0.14755948 -0.25511494
-0.4657928 0.1389999 -0.36984926 -0.33111066 -0.50181544 0.24577594 -0.30307028 -0.23322466
0.32000163 0.21676525 0.23408599 -0.38763443 -0.29275477 -0.15411824 0.19482867 -0.108757846
-0.50814646 0.37021968 -0.32481977 0.13116573 -0.24806353 0.48207495 0.108908355 0.12469592
0.20031661 -0.031118259 0.18685378 0.06676018 0.087499864 -0.16876632 0.5733086 0.005024358
-0.26774642 0.18839361 0.16001764 0.5787356 0.27977833 -0.08509913 -0.08469977 0.43933243
-0.52762175 -0.06732087 -0.29349312 0.2225047 0.06823597 -0.29648545 -0.15520035 0.23611483
0.08265627 -0.45341897 0.16033989 -0.49260202 -0.060888734 0.11181857 0.23237671 -0.5132657
0.11751218 -0.33810693 -0.22335228 0.043581057 -0.31997555 -0.24792197 -0.26850805 -0.21590236
-0.3195269 -0.053682845 0.22280163 -0.2263296 -0.43973172 -0.14546874 -0.027603278 0.56122804
-0.26531878 0.23003149 -0.020702878 0.17723688 -0.73859113 -0.09149631 -0.02043887 -0.22206041
0.22738731 -0.06095925 0.17338769 -0.23964433 0.06203737 -0.24693222 0.20616642 -0.30448905
-0.15557733 -0.31198812 0.1008005 0.5722139 0.20498995 -0.26271006 -0.08129267 0.08455493
-0.30466682 0.5017951 -0.10182379 0.05552334 -0.21779048 -0.041025355 0.20616537 0.32236615
0.09156928 -0.19675325 0.39636737 -0.060095947 -0.2500174 -0.1909429 0.4018881 1.9661464e-05
-0.055417344 -0.16989733 -0.107020415 -0.34383836 -0.5204129 0.13794409 0.22798546 0.64491755
-0.20408726 0.30080244 -0.37748638 0.25170594 0.34430352 0.35572326 0.33090436 0.30184388
0.00118472 0.08349607 -0.13502194 0.39268243 -0.23892261 0.036228176 -0.5540318 -0.2123724
-0.23821174 -0.32940346 -0.31599402 -0.4209607 -0.108572476 -0.11493801 0.39074257 0.6143118
00000000: 592d e7be 5302 56be 3042 d9be 78cb 5a3e
00000010: 4188 b5be ebb9 debc 059d 223e f0cf ffbe
00000020: 094b fa3c 2740 68be 9d0e 24be 9bf8 2abe
00000030: 91fe 62be faf9 87be 1c31 323d d10f 23be
00000040: e7c9 ad3e 0b94 003f f472 ab3d 9c30 89be
00000050: 8840 f0be 2000 943e ebb9 73be 90bb af3e
00000060: 09ce 993e e9d7 2cba b017 89be 42c3 363f
00000070: f3c7 863e ff94 97be af95 df3e 2ef7 83be
00000080: 5727 87be 891d 1b3f f235 c43e 3b9c 093e
00000090: 4601 c3bd 0328 dabe 3aa0 9fbd b31d ec3e
000000a0: 8a88 ea3d 0112 3a3d cc51 cebd fec0 64be
000000b0: 330d 813e 8503 2f3d 6d60 b93e 9107 38be
000000c0: fa41 773e f708 5d3e d20c 833d faaf 8f3e
000000d0: a34f b93e d90e e33e f18f a83e 13dd 0cbe
000000e0: b310 dcbe 6c10 04be 3837 893e 761b 533d
000000f0: ff9a 1bbe d36f 82bd b042 7e3e 6f63 903e
00000100: fb7d 36be 2ef5 04be 3821 32be 7e47 71be
00000110: bcfb a73e 4ef5 ca3e b227 da3e 5509 033d
00000120: 9bbd 28bc 9732 c33d bfff 0bbf e325 b23d
00000130: e790 703d d8d1 e0bd f655 62be eeb2 e33d
00000140: 5cb2 2e3f 2811 873e 1c1e 383f c978 81be
00000150: 679a 39be 7e41 e03d 5bd9 e8bd 1ea9 bbbd
00000160: 5b10 a4be f050 503e 676d acbe d9bd 44be
00000170: f0e7 ce3e 8dd7 b93d 4bd8 05be 7689 483e
00000180: 4141 57be 79ce 81bd d1b3 073f 13ca 00bd
00000190: af38 acbe 5fbf 053d 2f17 39be 9df5 4dbe
000001a0: 94bf bbbe 8cd0 5c3e f65f 943d 2653 06be
000001b0: a8fc f1be eb2e 83be d519 17be 6d9e 82be
000001c0: 657c eebe fd55 0e3e e25c bdbe 5687 a9be
000001d0: fa76 00bf b0ac 7b3e 072c 9bbe 72d2 6ebe
000001e0: 41d7 a33e b6f7 5d3e 3db4 6f3e 0578 c6be
000001f0: f4e3 95be 2cd1 1dbe 2b81 473e 6fbc debd
00000200: e315 02bf 6f8d bd3e c74e a6be 4f50 063e
00000210: 5e04 7ebe 87d2 f63e 580b df3d 9360 ff3d
00000220: cc1f 4d3e b8eb febc 9956 3f3e 90b9 883d
00000230: 2133 b33d 14d1 2cbe 5ac4 123f 5fa3 a43b
00000240: 0f16 89be 41ea 403e aadb 233e 0428 143f
00000250: 1b3f 8f3e 7448 aebd 1377 adbd 2ef0 e03e
00000260: 3812 07bf 86df 89bd bb44 96be 46d8 633e
00000270: 4dbf 8b3d f1cc 97be d7ec 1ebe 16c8 713e
00000280: b147 a93d 8826 e8be 2430 243e 5536 fcbe
00000290: 7766 79bd 2201 e53d 29f4 6d3e 6265 03bf
000002a0: 3aaa f03d 5a1c adbe 76b6 64be 0d82 323d
000002b0: d6d3 a3be 42df 7dbe e379 89be 8215 5dbe
000002c0: 0899 a3be 8be2 5bbd 1c26 643e f2c2 67be
000002d0: 8424 e1be c2f5 14be 4520 e2bc a4ac 0f3f
000002e0: ddd7 87be 608d 6b3e 1599 a9bc 967d 353e
000002f0: 4f14 3dbf 6b62 bbbd 6b6f a7bc ce63 63be
00000300: 38d8 683e 68b0 79bd 8b8c 313e 5365 75be
00000310: e61a 7e3d cddb 7cbe 4a1d 533e fde5 9bbe
00000320: aa4f 1fbe e8bc 9fbe 7e70 ce3d 9c7c 123f
00000330: e3e8 513e ef81 86be c57c a6bd 232b ad3d
00000340: 4afd 9bbe a575 003f fe88 d0bd 716c 633d
00000350: 7804 5fbe 340a 28bd 041d 533e 2d0d a53e
00000360: ad88 bb3d af79 49be aaf0 ca3e 2b27 76bd
00000370: 4802 80be 8986 43be 47c4 cd3e acee a437
00000380: 4cfd 62bd 91f9 2dbe 852d dbbd 950b b0be
00000390: c839 05bf 3741 0d3e 0575 693e 5119 253f
000003a0: 40fc 50be c702 9a3e e545 c1be 9adf 803e
000003b0: 8d48 b03e 5c21 b63e 4c6c a93e 488b 9a3e
000003c0: 9b48 9b3a fdff aa3d 3143 0abe ac0d c93e
000003d0: 21a8 74be ff63 143d 07d5 0dbf 2778 59be
000003e0: c7ed 73be 92a7 a8be f8c9 a1be 2988 d7be
000003f0: 3f5b debd 9f64 ebbd 690f c83e 8a43 1d3f

h_12.bias f4 [64]
0.3235908 0.117129855 0.2065795 -0.15562703 -0.37397572 0.22371468 0.12782013 -0.38818341
0.22887504 -0.34968573 0.65039885 0.44068855 0.26081774 -0.404627 0.22101726 0.055780053
0.5308245 0.19714609 0.3494026 -0.2806115 -0.09183344 0.1249719 0.06840865 0.58100015
-0.16480339 0.078189455 0.20378168 0.12490758 0.39650208 0.17612475 -0.47127497 0.124120906
-0.18516384 0.0055307876 0.06469217 -0.58834875 -0.07439319 -0.03910174 -0.12279205 0.41325438
-0.14759885 0.22654614 0.20352681 -0.41251147 0.060045365 0.31415805 -0.39363182 -0.40516594
0.3857785 0.34121722 -0.3604244 0.24018727 -0.005245477 -0.4482592 0.16177058 -0.23951311
-0.33470768 0.3787096 -0.36794725 0.261501 0.16138512 0.24732055 0.079755954 0.28828132
00000000: b1ad a53e c7e1 ef3d 9489 533e b15c 1fbe
00000010: bf79 bfbe 7615 653e 48e3 023e fabf c6be
00000020: 385e 6a3e 020a b3be 8a80 263f eea1 e13e
00000030: e789 853e 452b cfbe 5952 623e a079 643d
00000040: 1de4 073f aae0 493e e6e4 b23e 4fac 8fbe
00000050: 2c13 bcbd 44f1 ff3d d619 8c3d 6dbc 143f
00000060: 38c2 28be cb21 a03d 25ac 503e 8ccf ff3d
00000070: 5202 cb3e 0c5a 343e f44a f1be 1a33 fe3d
00000080: 979b 3dbe 9c3b b53b 547d 843d 069e 16bf
00000090: 755b 98bd 2529 20bd 667a fbbd 1496 d33e
000000a0: 2724 17be b6fb 673e 5569 503e b434 d3be
000000b0: 21f2 753d 53d9 a03e 1c8a c9be e971 cfbe
000000c0: c284 c53e 06b4 ae3e 8c89 b8be a7f3 753e
000000d0: 40e2 abbb 3b82 e5be 30a7 253e ed42 75be
000000e0: ce5e abbe 3ae6 c13e 9563 bcbe 76e3 853e
000000f0: 2442 253e 9941 7d3e 1757 a33d 9c99 933e

h_21.weight f4 [64, 64]
0.02934619 0.09760155 0.057109535 -0.005086928 -0.10554118 0.17057654 0.08055504 -0.054489616
0.055895083 0.10110776 0.17401184 0.009703174 0.05411318 0.05627701 0.14294507 0.16494782
-0.018421957 -0.0957297 0.091657855 0.0821141 -0.023054972 0.052584827 -0.030935505 0.11041727
-0.044361595 0.059818786 0.14904411 -0.1496235 -0.020672783 0.006050775 0.059915543 0.11497075
0.034031224 0.039554134 0.19300893 -0.06767758 -0.070814736 0.010516386 -0.034789808 0.04919809
-0.05651449 0.035818968 0.08411665 0.15712006 -0.0113313 -0.049208935 0.041181445 0.00573786
-0.05998964 0.11176516 -0.11540835 0.054569338 0.136376 0.06717377 -0.06674415 -0.00044137778
0.15033007 0.083644494 0.12646873 -0.07803851 -0.014808603 -0.09655766 0.07866063 0.023022316
0.08285862 0.025648981 0.0046338243 0.12908599 -0.11971884 0.029359424 0.054541 -0.02981268
0.059702344 -0.016441718 0.07250899 0.028148787 -0.004772888 0.10535697 0.08858247 -0.011855213
-0.028274277 0.06506444 0.014987382 0.040699545 0.08383587 -0.07064443 -0.08490642 0.014462666
0.066461004 0.14674498 0.0490353 0.0019156676 -0.03464026 -0.07187161 0.1329446 0.16656801
0.12813893 0.0978356 0.079158306 0.23154467 0.14968964 -0.02495645 0.08689547 -0.0846765
0.20576063 0.03865677 -0.13538526 0.03091646 0.061253287 -0.07419674 -0.06841749 0.05414423
0.14831747 0.07544836 0.11893591 0.027061442 0.06642289 0.07143225 -0.089999475 -0.04464776
-0.0027338648 -0.13313952 0.08290113 0.058719 -0.046700362 0.10829171 0.00548337 -0.09652481
-0.06467421 0.10700457 0.04360007 0.10399347 -0.123828396 0.010802434 -0.12475242 -0.05444416
-0.036201306 0.016616818 0.05211768 0.027786074 0.05905146 0.16177852 -0.014680325 -0.04355451
0.060923073 0.019139888 -0.011014666 -0.041205246 0.030949533 0.037301823 0.06868317 0.029292315
0.034186024 0.124207534 -0.07978085 0.14143465 0.030898606 0.058344353 0.12072328 0.08209292
-0.12709191 -0.054894917 0.029325737 -0.049891185 -0.13116749 0.028136948 0.04720779 0.10169417
0.0088451095 0.057478014 0.03157722 -0.053744536 0.24915347 0.20393287 -0.033173278 -0.067853674
0.1241428 0.026472868 0.09267919 -0.09467767 -0.16069151 0.18150592 -0.12085738 -0.03493106
-0.035012357 -0.054770622 0.13176948 -0.041408602 0.054982934 0.17672817 -0.0072140596 -0.11062976
-0.020677192 0.04193713 -0.01779 0.08199534 -0.0026011118 0.03409943 0.0062284768 -0.027619537
-0.037537854 0.15476842 -0.096264005 -0.10092886 0.018616436 -0.13191414 0.22403166 0.06708206
-0.18913324 0.08346833 0.058490407 -0.034609955 -0.03880647 -0.0028174974 -0.058124907 -0.0065396223
-0.20829785 0.22095183 0.13073914 0.03111194 0.12251185 0.061299674 0.03471888 -0.053854197
0.049574908 -0.013701637 0.047548484 0.04588992 -0.052658923 -0.08493003 -0.065557376 0.017324036
-0.05712274 -0.20215885 -0.16187863 0.04249706 -0.04564518 0.1539585 0.09787184 0.01900812
0.0762206 0.12679568 0.013294201 0.12409962 0.1644291 -0.03242305 -0.08466217 -0.004831476
-0.169453 -0.07399835 -0.06305938 0.11280125 0.020617815 0.013042179 0.095093 -0.03088486
00000000: 6c67 f03c 52e3 c73d b0eb 693d 3fb0 a6bb
00000010: f925 d8bd 9eab 2e3e 0afa a43d 8130 5fbd
00000020: 3ef2 643d 9611 cf3d 2930 323e 10fa 1e3c
00000030: c8a5 5d3d b982 663d 3160 123e 15e8 283e
00000040: a5e9 96bc ef0d c4bd 1db7 bb3d 702b a83d
00000050: c8dd bcbc 3063 573d 756c fdbc 7322 e23d
00000060: 81b4 35bd 8b04 753d 059f 183e e736 19be
00000070: f859 a9bc 9445 c63b 006a 753d c975 eb3d
00000080: 5364 0b3d 8403 223d 22a4 453e 8b9a 8abd
00000090: 5107 91bd eb4c 2c3c c27f 0ebd f083 493d
000000a0: bd7b 67bd e9b6 123d 5a45 ac3d 15e4 203e
000000b0: eba6 39bc 4f8f 49bd e0ad 283d a904 bc3b
000000c0: b2b7 75bd 22e5 e43d 375b ecbd 1984 5f3d
000000d0: 26a6 0b3e 6792 893d 28b1 88bd b968 e7b9
000000e0: 20f0 193e ce4d ab3d 0581 013e a8d2 9fbd
000000f0: c89f 72bc 06c0 c5bd d318 a13d 4c99 bc3c
00000100: c8b1 a93d d01d d23c 56d7 973b 1e2f 043e
00000110: 272f f5bd 2d83 f03c 6266 5f3d b939 f4bc
00000120: 728a 743d c8b0 86bc 987f 943d 4998 e63c
00000130: e365 9cbb 65c5 d73d ba6a b53d 5e3c 42bc
00000140: 759f e7bc 8140 853d a38d 753c 91b4 263d
00000150: 24b2 ab3d 07ae 90bd 6be3 adbd d1f4 6c3c
00000160: b51c 883d 5144 163e 3dd9 483d 2317 fb3a
00000170: f2e2 0dbd 6c31 93bd a122 083e ce90 2a3e
00000180: da36 033e 085e c83d c01d a23d 0c1a 6d3e
00000190: 3e48 193e 7871 ccbc 41f6 b13d df6a adbd
000001a0: eab2 523e 9056 1e3d 6fa2 0abe 8444 fd3c
000001b0: bae4 7a3d 76f4 97bd 781e 8cbd 57c6 5d3d
000001c0: 89e0 173e ab84 9a3d ac94 f33d f5af dd3c
000001d0: b908 883d 124b 923d a551 b8bd 92e0 36bd
000001e0: a42a 33bb ba55 08be 11c8 a93d 5683 703d
000001f0: e148 3fbd 0bc8 dd3d d7ad b33b cdae c5bd
00000200: ea73 84bd 3625 db3d fd95 323d 87fa d43d
00000210: be99 fdbd b1fc 303c 327e ffbd d700 5fbd
00000220: d247 14bd fe1f 883c 5979 553d 9f9f e33c
00000230: f2df 713d 45a9 253e bf85 70bc 3766 32bd
00000240: 798a 793d 41cb 9c3c dc76 34bc d5c6 28bd
00000250: e089 fd3c ccc9 183d c3a9 8c3d 70f6 ef3c
00000260: a506 0c3d 8560 fe3d 2464 a3bd 3fd4 103e
00000270: 131f fd3c 7dfa 6e3d c43d f73d 5520 a83d
00000280: 6224 02be 7ed9 60bd 873c f03c b35a 4cbd
00000290: c550 06be 757f e63c f55c 413d 0845 d03d
000002a0: 14eb 103c 116e 6b3d 1d57 013d 3b23 5cbd
000002b0: 1622 7f3e c7d3 503e b4e0 07bd def6 8abd
000002c0: 953e fe3d a1dd d83c 96ce bd3d 5ee6 c1bd
000002d0: 518c 24be b0dc 393e 1384 f7bd df13 0fbd
000002e0: 1e69 0fbd 2957 60bd 94ee 063e 119c 29bd
000002f0: c935 613d 3bf8 343e eb63 ecbb db91 e2bd
00000300: 3763 a9bc 45c6 2b3d 56bc 91bc 2ced a73d
00000310: 6a77 2abb d8ab 0b3d 4018 cc3b 5e42 e2bc
00000320: 4bc1 19bd 9d7b 1e3e 1026 c5bd cab3 cebd
00000330: 7f81 983c 8014 07be 8e68 653e 5262 893d
00000340: 25ac 41be 72f1 aa3d a393 6f3d 2bc3 0dbd
00000350: 88f3 1ebd c3a5 38bb 6214 6ebd 544a d6bb
00000360: 084c 55be 3241 623e 7be0 053e 78de fe3c
00000370: 7ee7 fa3d 5e15 7b3d 6235 0e3d 3896 5cbd
00000380: 0f0f 4b3d d57c 60bc 33c2 423d 12f7 3b3d
00000390: e2b0 57bd ccef adbd f242 86bd 23eb 8d3c
000003a0: 89f9 69bd bb02 4fbe 83c3 25be 6611 2e3d
000003b0: 71f6 3abd 4ca7 1d3e 0871 c83d ebb6 9b3c
000003c0: 8c19 9c3d bad6 013e eccf 593c f127 fe3d
000003d0: 1a60 283e 08ce 04bd 5c63 adbd 5c51 9ebb
000003e0: 1685 2dbe 728c 97bd 4725 81bd 5704 e73d
000003f0: b1e6 a83c ddae 553c 1ec0 c23d 3f02 fdbc

h_21.bias f4 [64]
0.019375177 0.17706597 0.10757015 0.10680916 0.20971847 0.23044884 0.074390344 0.11856443
0.19837755 0.23909564 0.23746513 0.110340305 0.1396804 0.12973829 0.27670276 0.24482536
0.11745096 0.025366032 0.3164498 0.11313791 0.040020373 0.16775575 0.18403141 0.12223642
0.03235004 0.12630299 0.17317207 -0.25214645 0.035208788 -0.10858002 0.014068405 0.24359348
0.14334834 0.19603455 0.09798299 0.0396822 0.19915286 0.11795606 0.24762517 0.16075648
0.1077965 -0.037830237 0.08032732 0.21258917 0.19082247 -0.03247884 0.29214275 0.022598017
0.09236005 -0.011527341 -0.05313871 -0.09635501 -0.032488644 0.15511952 0.0989469 0.1905249
0.2625965 0.013642197 0.09472899 0.14608707 0.25482917 0.27445567 0.13750553 0.13999213
00000000: b1b8 9e3c c850 353e bd4d dc3d c3be da3d
00000010: 70c0 563e c8fa 6b3e f759 983d e8d1 f23d
00000020: 7c23 4b3e 7dd5 743e 0f2a 733e 19fa e13d
00000030: 6108 0f3e 1dda 043e fcab 8d3e 80b3 7a3e
00000040: 218a f03d 6dcc cf3c b505 a23e d9b4 e73d
00000050: 67ec 233d 2ac8 2b3e bb72 3c3e 1757 fa3d
00000060: 7a81 043d 9255 013e 0554 313e 5719 81be
00000070: 1737 103d 345f debd 2b7f 663c 9270 793e
00000080: e8c9 123e 48bd 483e 4eab c83d cd89 223d
00000090: baee 4b3e f292 f13d 7491 7d3e 599d 243e
000000a0: 69c4 dc3d e1f3 1abd a682 a43d fab0 593e
000000b0: f766 433e 8808 05bd bc93 953e 7a1f b93c
000000c0: 4427 bd3d 2cdd 3cbc faa7 59bd c755 c5bd
000000d0: d012 05bd a7d7 1e3e aca4 ca3d f618 433e
000000e0: 0c73 863e 8583 5f3c 4601 c23d d997 153e
000000f0: f878 823e 7485 8c3e 40ce 0c3e 195a 0f3e

h_22.weight f4 [64, 64]
-0.16817567 -0.09336397 0.05150956 -0.13641183 0.2115927 0.04747078 -0.026045447 0.2267777
0.114975125 0.08970478 0.16320698 0.03631657 -0.04819885 0.54100055 -0.08449038 0.20753145
0.28741682 -0.037000757 0.106773674 -0.22532663 -0.038557798 -0.4029151 -0.22650637 0.28294805
0.03466011 -0.6752578 0.2494493 0.39644524 0.2518125 -0.07670595 -0.22149132 -0.17793916
0.06998585 0.097087406 0.047344334 -0.3438968 -0.007825643 0.047787175 -0.10663908 0.1361802
0.019100849 0.20109962 -0.0475111 -0.06294168 -0.26813492 -0.03296333 -0.44418713 -0.10447401
0.07774757 0.17004445 0.0885843 0.08903736 -0.22899374 -0.1867688 0.2536503 -0.4900993
0.0021953152 0.22902568 -0.6626975 -0.09272744 0.13387856 0.124100275 0.07966147 0.121117175
-0.006982869 0.22771439 0.023099788 0.055825815 0.46807626 -0.07296642 -0.079804085 0.19923703
0.023380037 0.41030616 -0.38945535 -0.05255762 -0.13921325 0.4086767 0.11301017 0.08293248
-0.4433937 -0.10018042 -0.17135271 -0.07181373 0.003994748 -0.17594315 0.2606425 -0.026643185
-0.004718764 0.027536739 -1.0844829 1.1079689 -0.24288842 -0.048560802 0.177069 -0.18795851
-0.08637148 0.2062412 0.055851076 0.39484137 0.004309714 0.11314972 0.012434712 0.08386769
-0.0756326 0.014219827 -0.22780088 0.31749246 0.17064114 -0.0021361725 0.14048146 0.060235623
-0.2556589 0.3304153 -0.02872158 -0.19537385 -0.24213326 0.24004169 0.033155296 -0.9217659
0.1503887 0.030451873 0.19992198 -0.11164965 0.35622624 0.11663309 -0.08610101 0.0447573
0.06512234 -0.17037964 0.14603284 0.16186072 -0.0067794193 0.19857189 0.08045414 0.2137792
0.026265888 -0.03542 0.028564418 -0.032166325 -0.1006728 -0.74407965 -0.1629564 0.08224406
-0.5231308 -0.03648392 -0.0588297 0.09466121 0.0927366 -0.02826942 0.53898984 -0.15052126
0.13603677 -0.26714104 -0.006141057 -0.25928545 -0.040010445 0.042808488 0.1344324 -0.05074327
0.10108736 0.00033272256 0.004227789 0.1442573 0.021901622 0.06691384 0.12078696 -0.06221415
-0.022278028 0.10160017 0.09876279 0.06867063 0.07128403 -0.007283851 0.01367385 0.105899185
-0.053418137 -0.21545063 0.19232929 0.010328007 0.10003434 -0.19529948 0.2638654 -0.52907574
0.07950706 -0.1441962 0.16917914 0.14144123 -0.24777405 0.01502855 0.0734562 0.2254418
0.20234162 0.018249722 -0.12124084 0.23242319 -0.08944478 0.12561825 0.048883293 -0.23666865
-0.1095186 0.21863666 0.18427518 -0.116879515 0.08689311 -0.5429412 0.24087411 0.06323192
0.3201777 0.09706621 0.036044512 0.19965148 0.022132024 0.17090894 0.09972944 -0.06210293
0.11504142 0.48581612 -0.047482125 -0.33346853 0.11926898 -0.11942759 0.12310103 -0.011049624
-0.040832385 0.012887627 0.21167125 -0.25820997 0.0865439 -0.009472042 0.06059833 -0.012367456
-0.13267146 0.084834725 -0.0018274932 -0.15316701 0.25939125 -0.0013577241 0.042773772 0.032498106
-0.103546284 -0.24520615 -0.2167632 -0.022689786 -0.3068013 0.14103328 -0.0030043677 0.42009774
0.046851844 -0.008170297 -0.37645164 0.05649748 0.0849548 -0.04415515 -0.08480593 0.2118855
00000000: 3e36 2cbe 9c35 bfbd b0fb 523d 8baf 0bbe
00000010: c2ab 583e b870 423d 435d d5bc 6a38 683e
00000020: 1478 eb3d 24b7 b73d bb1f 273e afc0 143d
00000030: 286c 45bd 037f 0a3f 4b09 adbd 2083 543e
00000040: 4c28 933e 1b8e 17bd 28ac da3d 06bc 66be
00000050: c8ee 1dbd e34a cebe 49f1 67be 91de 903e
00000060: c2f7 0d3d b2dd 2cbf a36f 7f3e dffa ca3e
00000070: 91ed 803e 0218 9dbd 9fce 62be af35 36be
00000080: be54 8f3d c3d5 c63d 22ec 413d 3e13 b0be
00000090: 2037 00bc 7cbc 433d 9765 dabd d372 0b3e
000000a0: 6279 9c3c 0fed 4d3e 009b 42bd 91e7 80bd
000000b0: fb48 89be 8f04 07bd 7f6c e3be 78f6 d5bd
000000c0: 1e3a 9f3d 2220 2e3e af6b b53d 3859 b63d
000000d0: 567d 6abe 5240 3fbe 74de 813e 4cee fabe
000000e0: 47df 0f3b b585 6a3e 8ba6 29bf e2e7 bdbd
000000f0: 7617 093e 4928 fe3d 8e25 a33d 480c f83d
00000100: 8dd0 e4bb f62d 693e c43b bd3c 9ca9 643d
00000110: b1a7 ef3e 6b6f 95bd 5370 a3bd cb04 4c3e
00000120: 7e87 bf3c a613 d23e b166 c7be a946 57bd
00000130: eb8d 0ebe 133e d13e e071 e73d 81d8 a93d
00000140: 8004 e3be 642b cdbd 1677 2fbe 1413 93bd
00000150: 60e6 823b 712a 34be ef72 853e cf42 dabc
00000160: dd9f 9abb ba94 e13c 56d0 8abf edd1 8d3f
00000170: beb7 78be b1e7 46bd 9351 353e 3278 40be
00000180: 88e3 b0bd e530 533e 19c4 643d a628 ca3e
00000190: 8038 8d3b 0abb e73d f6ba 4b3c d3c2 ab3d
000001a0: 44e5 9abd 47fa 683c a244 69be 5f8e a23e
000001b0: 8dbc 2e3e 07ff 0bbb 5fda 0f3e a1b9 763d
000001c0: b9e5 82be 322c a93e 8549 ebbc 1510 48be
000001d0: c8f1 77be 7dcd 753e d9cd 073d daf8 6bbf
000001e0: 7fff 193e 3576 f93c 59b8 4c3e 92a8 e4bd
000001f0: 4963 b63e 54dd ee3d ba55 b0bd 6e53 373d
00000200: dd5e 853d 0078 2ebe a289 153e d1be 253e
00000210: e425 debb 6e56 4b3e 24c5 a43d efe8 5a3e
00000220: 8f2b d73c 9014 11bd edff e93c d6c0 03bd
00000230: 8a2d cebd 017c 3ebf 0bde 26be 936f a83d
00000240: e6eb 05bf 2a70 15bd 69f7 70bd bddd c13d
00000250: b0ec bd3d 4595 e7bc 3dfb 093f 3f22 1abe
00000260: 394d 0b3e b6c6 88be eb3a c9bb 10c1 84be
00000270: fee1 23bd f457 2f3d a6a8 093e 2dd8 4fbd
00000280: e406 cf3d 4471 ae39 4489 8a3b 30b8 133e
00000290: 086b b33c 200a 893d 275f f73d 44d4 7ebd
000002a0: 6980 b6bc c013 d03d 2544 ca3d 30a3 8c3d
000002b0: 5dfd 913d 5fad eebb 4908 603c ace1 d83d
000002c0: facc 5abd 179f 5cbe f8f1 443e cd36 293c
000002d0: cede cc3d 96fc 47be 5e19 873e 8271 07bf
000002e0: 99d4 a23d 2ba8 13be 4c3d 2d3e f8d5 103e
000002f0: 7bb8 7dbe 4f3a 763c 3470 963d 37da 663e
00000300: a432 4f3e 7180 953c 1e4d f8bd 5800 6e3e
00000310: d32e b7bd 12a2 003e d939 483d 4459 72be
00000320: 4a4b e0bd 4ae2 5f3e a2b2 3c3e 875e efbd
00000330: 04f5 b13d 32fe 0abf b4a7 763e bd7f 813d
00000340: 55ee a33e a6ca c63d 69a3 133d 7071 4c3e
00000350: 384e b53c c102 2f3e f33e cc3d a45f 7ebd
00000360: d69a eb3d e4bc f83e 9e7c 42bd 63bc aabe
00000370: 4c43 f43d 7496 f4bd 651c fc3d 7b09 35bc
00000380: dc3f 27bd a026 533c 59c0 583e 1934 84be
00000390: ee3d b13d a030 1bbc f435 783d dfa0 4abc
000003a0: 07db 07be d4bd ad3d 7f88 efba d0d7 1cbe
000003b0: eece 843e a9f5 b1ba 8d33 2f3d bc1c 053d
000003c0: 1310 d4bd 5217 7bbe 2cf7 5dbe eedf b9bc
000003d0: 0f15 9dbe 076b 103e ede4 44bb 0d17 d73e
000003e0: b8e7 3f3d b6dc 05bc 45be c0be e769 673d
000003f0: c8fc ad3d 08dc 34bd bbae adbd 83f8 583e

h_22.bias f4 [64]
0.19988802 -0.021287065 -0.019705612 0.20373465 0.14005277 0.011192163 -0.06389896 -0.066746846
-0.037505053 -0.14816208 0.032633573 0.09953759 -0.11683438 0.02686866 -0.025113817 -0.0031549705
-0.15423204 0.08643268 0.04268442 0.01228543 0.07480943 -0.084645346 0.063301645 0.055071287
0.011641785 -0.043105718 0.17288789 0.026931122 0.03180396 0.18427293 -0.029822137 -0.10504186
0.21397823 0.34933174 0.025099281 -0.06048757 -0.06708495 -0.11221528 0.088432275 0.058265068
-0.20782392 0.06923655 0.084507145 0.000995211 -0.02442334 -0.16247605 -0.218484 0.12601002
-0.0065184124 -0.086003244 -0.017840972 -0.2356184 -0.030439124 0.011389454 -0.020150833 0.01989899
-0.1979533 -0.08884886 -0.008640586 0.07676628 0.070359685 0.09770729 0.009026393 0.08209038
00000000: 72af 4c3e 3662 aebc aa6d a1bc d19f 503e
00000010: fe69 0f3e 565f 373c 75dd 82bd 92b2 88bd
00000020: e69e 19bd cdb7 17be c8aa 053d 5dda cb3d
00000030: dd46 efbd aa1b dc3c 7ebb cdbc 9fc3 4ebb
00000040: 01ef 1dbe 9e03 b13d dcd5 2e3d d448 493c
00000050: b035 993d 8a5a adbd 4ba4 813d 6e92 613d
00000060: 2fbd 3e3c 9f8f 30bd 8609 313e a89e dc3c
00000070: df44 023d 0bb2 3c3e 8e4d f4bc 3020 d7bd
00000080: 1c1d 5b3e 9cdb b23e 029d cd3c d0c1 77bd
00000090: d663 89bd 20d1 e5bd fb1b b53d 5aa7 6e3d
000000a0: cbcf 54be e4cb 8d3d 1512 ad3d bd71 823a
000000b0: 7513 c8bc 1f60 26be 45ba 5fbe c508 013e
000000c0: 6898 d5bb 7822 b0bd 3b27 92bc f345 71be
000000d0: 785b f9bc d59a 3a3c 5c13 a5bc 3503 a33c
000000e0: 45b4 4abe 64f6 b5bd 3f91 0dbc a437 9d3d
000000f0: bd18 903d c21a c83d 70e3 133c 001f a83d

h_32.weight f4 [128, 128]
0.050420392 0.011653517 -0.05189952 -0.026917981 0.04709885 0.05265342 0.029346205 0.04865874
-0.02392586 0.02911318 -0.035627443 0.014418288 0.06667912 -0.09514153 0.015397836 0.03298811
0.0055770623 0.053222883 -0.06589204 -0.007767435 -0.05530562 0.043135405 0.02706153 -0.004535951
-0.00040539357 -0.007413735 -0.0153876515 0.10223324 0.058255415 -0.014015961 0.0050734514 0.016420005
0.0059610778 0.031793997 0.013654442 0.042855497 -0.025380101 -0.06319557 -0.04318185 -0.0757973
0.062790155 0.06213297 0.088644706 0.06982674 -0.010717818 0.056696326 0.0020711701 -0.035546366
0.011271864 -0.036974266 0.005933656 0.02611442 0.05614959 -0.0063088387 0.0047530117 0.0466236
-0.027031971 0.006268302 0.055304483 -0.0077565624 0.04791492 0.009936603 -0.030844117 -0.049255915
0.04172726 -0.0558818 -0.009881779 -0.045823503 -0.13467473 -0.025544196 0.0810788 -0.08087478
-0.42088905 -0.036056917 0.06368064 0.010474665 -0.089115396 -0.036281176 -0.13361216 0.16425814
0.044065595 0.09130679 0.044007532 -0.04844182 -0.031778004 -0.13340431 -0.17836604 -0.025283976
0.19584666 -0.025640696 -0.018955428 0.026641803 0.055322878 0.22356808 -0.15968998 0.12220032
-0.028336171 0.009071648 0.12936369 -0.06562104 -0.05269007 0.23400116 -0.19779326 -0.05775496
0.045500387 -0.016142284 0.06501537 -0.0032254169 -0.015573788 -0.23273358 -0.1272065 0.077432476
0.08659869 -0.009492561 0.14191557 0.18636416 0.065413244 -0.08552873 -0.25591767 -0.0032758971
0.0026512253 -0.031869445 0.13514464 0.13840719 -0.06319995 -0.107657984 0.036414877 0.062675215
-0.030343534 0.03464452 0.07851241 -0.038090855 -0.0013315146 -0.01131811 -0.120642096 -0.12264741
0.0553474 -0.024908422 -0.03905771 0.038075715 0.06297376 -0.008146024 0.06883465 -0.1248761
0.015065877 0.03686528 0.06166274 -0.025867412 -0.018847922 -0.030260757 0.045609094 -0.032512154
0.07337069 -0.05428943 -0.07412587 -0.28057274 -0.006840362 -0.32910112 0.06387322 -0.0678566
-0.08792241 0.022943756 -0.08737462 0.022096142 -0.11110507 0.024220653 -0.069617815 0.008492117
-0.05036782 -0.031618576 -0.06281511 -0.015640384 0.07257462 -0.15742563 -0.081014074 0.011786269
0.041032754 -0.022412626 0.014751777 -0.036082927 0.053758997 0.008921817 -0.07714313 0.0115091
-0.11047396 -0.12997298 0.0045209583 -0.08056965 -0.070096456 0.10816779 0.055963323 -0.0078756
0.022232784 -0.07065163 0.005888372 0.07548567 0.15459564 -0.055605426 -0.06908195 -0.031625148
-0.07574827 0.011770403 0.06509218 0.07495826 0.018902842 0.14436735 0.053152416 0.0002917291
-0.081594385 0.050237462 0.02356428 -0.06562602 -0.072065756 0.07973017 0.09566931 0.19447498
-0.00957874 0.00011551229 0.056974743 0.018643247 -0.002717128 -0.021297729 0.12085099 -0.0023983263
0.0474708 -0.06531314 -0.15184556 0.023213508 0.009672691 -0.10110571 -0.26457483 0.0061601363
0.06700933 0.0041595567 -0.034559485 0.112538405 0.0005847326 -0.070076816 0.047130898 0.019747518
0.056285795 -0.035208218 0.12267132 -0.20043014 0.06306303 0.008492946 0.07030615 0.098933265
0.122410364 -0.018523581 0.074174255 0.04171584 0.00526166 -0.012594206 -0.0695608 0.0259655
00000000: 9d85 4e3d 65ee 3e3c 9794 54bd 1983 dcbc
00000010: b9ea 403d 1dab 573d 7467 f03c 634e 473d
00000020: 2a00 c4bc c37e ee3c 15ee 11bd af3a 6c3c
00000030: 108f 883d 90d9 c2bd 3547 7c3c 8a1e 073d
00000040: cabf b63b 3d00 5a3d 68f2 86bd f885 febb
00000050: 2588 62bd c0ae 303d 24b0 dd3c 51a2 94bb
00000060: 018b d4b9 ebee f2bb 7d1c 7cbc a95f d13d
00000070: 3b9d 6e3d 34a3 65bc 323f a63b 3f83 863c
00000080: 2555 c33b 6c3a 023d e1b6 5f3c 3f89 2f3d
00000090: eee9 cfbc ae6c 81bd 74df 30bd 9d3b 9bbd
000000a0: 2098 803d 247f 7e3d 5b8b b53d 5201 8f3d
000000b0: c999 2fbc 683a 683d 78bc 073b 1199 11bd
000000c0: a0ad 383c 5472 17bd 1d6f c23b e8ed d53c
000000d0: 1dfd 653d 60ba cebb 27bf 9b3b 63f8 3e3d
000000e0: 2772 ddbc 5466 cd3b f486 623d c32a febb
000000f0: 6f42 443d 22cd 223c cdac fcbc 92c0 49bd
00000100: 34ea 2a3d 50e4 64bd 2fe7 21bc 6db1 3bbd
00000110: 2ce8 09be 1042 d1bc a40c a63d ada1 a5bd
00000120: c57e d7be 6bb0 13bd ff6a 823d ee9d 2b3c
00000130: 2282 b6bd 929b 14bd a0d1 08be 4933 283e
00000140: 207e 343d 0eff ba3d 3e41 343d ee6a 46bd
00000150: a729 02bd 249b 08be 96a5 36be 5720 cfbc
00000160: 078c 483e 700c d2bc 6a48 9bbc e93f da3c
00000170: 3e9a 623d 08ef 643e c585 23be 2944 fa3d
00000180: 4221 e8bc 40a1 143c ea77 043e 5364 86bd
00000190: 8bd1 57bd 009e 6f3e 518a 4abe 7790 6cbd
000001a0: 9d5e 3a3d d33c 84bc c726 853d 8461 53bb
000001b0: 3429 7fbc b651 6ebe 6c42 02be eb94 9e3d
000001c0: a75a b13d b086 1bbc 5152 113e 3fd6 3e3e
000001d0: 61f7 853d b029 afbd a407 83be 6fb0 56bb
000001e0: 2ec0 2d3b 8989 02bd 5b63 0a3e 9dba 0d3e
000001f0: fa6e 81bd ca7b dcbd c427 153d dd5b 803d
00000200: 0193 f8bc 6ae7 0d3d 1dcb a03d 2805 1cbd
00000210: 3786 aeba 986f 39bc 3413 f7bd 912e fbbd
00000220: f5b3 623d bf0c ccbc fafa 1fbd 48f5 1b3d
00000230: 63f8 803d e776 05bc 2ef9 8c3d 0abf ffbd
00000240: ded6 763c 0c00 173d 1292 7c3d e5e7 d3bc
00000250: f566 9abc 68e5 f7bc 9ad0 3a3d 772b 05bd
00000260: 5f43 963d 985e 5ebd 4ecf 97bd 3ba7 8fbe
00000270: 1e25 e0bb f17f a8be f6cf 823d 67f8 8abd
00000280: aa10 b4bd 8bf4 bb3c 77f1 b2bd f802 b53c
00000290: 0e8b e3bd 646a c63c c993 8ebd 8522 0b3c
000002a0: 7d4e 4ebd 7b82 01bd 35a5 80bd 4320 80bc
000002b0: 01a2 943d 2f34 21be b5ea a5bd 321b 413c
000002c0: f611 283d af9a b7bc 70b1 713c b1cb 13bd
000002d0: 6532 5c3d d02c 123c 38fd 9dbd aa90 3c3c
000002e0: 2c40 e2bd a317 05be 8c24 943b b301 a5bd
000002f0: bb8e 8fbd 1387 dd3d cc39 653d a908 01bc
00000300: 8721 b63c cdb1 90bd 3ff3 c03b 3b98 9a3d
00000310: 524e 1e3e 84c2 63bd d67a 8dbd 5f89 01bd
00000320: e921 9bbd a6d8 403c 0d4f 853d b783 993d
00000330: 22da 9a3c 09d5 133e 59b6 593d 38f3 9839
00000340: f51a a7bd ccc5 4d3d e009 c13c ef66 86bd
00000350: 3697 93bd 9249 a33d 45ee c33d 7324 473e
00000360: 26f0 1cbc 303f f238 595e 693d b9b9 983c
00000370: d811 32bb 9378 aebc b980 f73d 3d2d 1dbb
00000380: be70 423d e5c2 85bd 677d 1bbe 412a be3c
00000390: 357a 1e3c 8310 cfbd 5a76 87be f8da c93b
000003a0: 303c 893d e44c 883b 3f8e 0dbd 897a e63d
000003b0: be48 193a 6f84 8fbd 540c 413d 8cc5 a13c
000003c0: ef8b 663d 7e36 10bd 1a3b fb3d 8f3d 4dbe
000003d0: 3127 813d ff25 0b3c acfc 8f3d 869d ca3d
000003e0: 49b2 fa3d c4be 97bc ace8 973d 3bde 2a3d
000003f0: 016a ac3b ee57 4ebc e575 8ebd 9ab5 d43c

h_32.bias f4 [128]
-0.022111282 0.073716804 -0.0372123 0.067219034 0.08196363 -0.042846438 0.19517894 0.03580754
-0.034791365 0.070128866 -0.11152082 0.11816702 0.034965526 -0.10854128 -0.013183713 -0.014537587
-0.003279706 0.055955525 -0.02839972 4.0171963e-05 0.080332965 0.10684796 -0.042972386 0.017021736
0.046027996 0.029153908 0.010858957 0.08690957 0.0054463907 0.095265664 -0.073603615 -0.04620578
-0.024501227 0.0038934003 0.012535333 -0.030500857 0.011237643 -0.061354402 0.013362816 0.072418086
0.01636184 -0.11854127 -0.04592586 -0.021385685 0.025714941 0.025989473 0.0513037 0.0133684
0.05158658 0.08072249 0.0060382085 0.056601934 -0.097462125 -0.11940215 -0.033255022 0.026904708
-0.0069910134 0.04082165 0.12993346 -0.01319418 0.034052312 0.024395697 0.11217353 -0.018558383
-0.013382703 0.119002394 -0.0004336193 0.077826045 -0.14686178 0.0033020074 -0.018797725 0.09720354
0.028226769 0.035505798 -0.022627503 0.011412387 -0.079219386 0.15016311 0.058364615 0.086121276
0.095318414 0.10343064 -0.02593332 0.104196936 0.06474947 0.082919344 -0.0071513127 0.12900752
0.06545083 -0.012276434 0.05705483 0.11256551 -0.03851122 0.08356882 0.14923659 0.006723522
0.027012495 -0.084309176 -0.02592472 0.0054911613 -0.024222713 0.12588185 0.109933995 0.0016324939
-0.042992815 -0.04343778 -0.02503842 0.12614796 0.03635056 -0.028235072 0.01636807 0.010847585
-0.008337149 0.038369946 -0.047613993 0.059515554 0.012310597 0.014368219 -0.23691344 -0.003461255
0.049270105 -0.0010198453 -0.04385919 0.025423592 0.09463616 -0.021272024 0.0047756815 0.11548743
00000000: b822 b5bc d6f8 963d ed6b 18bd 22aa 893d
00000010: 8cdc a73d bf7f 2fbd fddc 473e edaa 123d
00000020: 6481 0ebd b99f 8f3d 0765 e4bd 8d01 f23d
00000030: 0338 0f3d e44a debd 8000 58bc 0f2f 6ebc
00000040: 56f0 56bb 9f31 653d 88a6 e8bc 517e 2838
00000050: 9c85 a43d 1ad3 da3d d003 30bd 2b71 8b3c
00000060: da87 3c3d 2dd4 ee3c c4e9 313c a5fd b13d
00000070: a377 b23b a51a c33d 7ebd 96bd 4642 3dbd
00000080: ccb6 c8bc 6b28 7f3b ff60 4d3c efdc f9bc
00000090: 171e 383c c14e 7bbd b6ef 5a3c ef4f 943d
000000a0: 4409 863c c4c5 f2bd c11c 3cbd 0831 afbc
000000b0: 24a8 d23c e0e7 d43c d423 523d 2207 5b3c
000000c0: 734c 533d d551 a53d 2adc c53b 6ed7 673d
000000d0: 399a c7bd 1d89 f4bd 6b36 08bd 4367 dc3c
000000e0: df14 e5bb 9a34 273d 470d 053e 672c 58bc
000000f0: 707a 0b3d 7cd9 c73c 3cbb e53d c007 98bc
00000100: 2043 5bbc 87b7 f33d 6657 e3b9 4363 9f3d
00000110: ef62 16be 7e66 583b b0fd 99bc a612 c73d
00000120: d33b e73c 876e 113d 505d b9bc 05fb 3a3c
00000130: c63d a2bd 5cc4 193e bc0f 6f3d 5a60 b03d
00000140: 4d36 c33d 72d3 d33d 1d72 d4bc 3465 d53d
00000150: 5f9b 843d 9ed1 a93d 8f55 eabb 8c1a 043e
00000160: 160b 863d 1923 49bc 53b2 693d bf88 e63d
00000170: f1bd 1dbd 2126 ab3d 7ad1 183e fe50 dc3b
00000180: 4f49 dd3c 4aaa acbd 1460 d4bc 33ef b33b
00000190: b66e c6bc 2ce7 003e 1325 e13d 68f9 d53a
000001a0: 3c19 30bd d0eb 31bd 5f1d cdbc ee2c 013e
000001b0: 53e4 143d 3d4d e7bc 5516 863c 12ba 313c
000001c0: 8a98 08bc ce29 1d3d e406 43bd 95c6 733d
000001d0: 63b2 493c ae68 6b3c 7099 72be 39d6 62bb
000001e0: 73cf 493d 54ac 85ba b2a5 33bd 2345 d03c
000001f0: 9ad0 c13d ab42 aebc 527d 9c3b ac84 ec3d

output.weight f4 [12, 128]
-0.17098759 -0.08037189 0.0691112 -0.18766338 -0.14805388 0.096646585 0.3640413 0.08060666
-0.053740542 0.04082831 0.2542353 0.6509814 0.31714538 -0.42112094 -0.6440846 -0.024336748
0.04255258 0.1434787 -0.48883367 0.02829642 -0.06962365 -0.017493328 -0.08955535 -0.17989974
-0.084227785 0.09755949 0.16405848 0.34905195 -0.015233544 0.15326758 0.098822154 0.10166821
-0.06049851 0.08462709 0.30085763 0.14800279 -0.057749894 0.055317704 -0.115199536 0.044879757
-0.16847137 -0.20017853 -0.11057521 -0.0071669514 0.10931654 0.4189341 0.31629688 -0.037905343
0.064077415 0.0788053 0.32020307 0.0072978092 0.098778464 0.32028165 0.08680486 -0.16307801
-0.04701764 0.05869618 -0.089886524 -0.02873708 -0.008234083 -0.07854201 -0.09678183 -0.10966539
-0.059813675 0.067285754 0.060447395 -0.024108065 0.0036940468 0.10704492 -0.8908786 0.46524212
-0.08525176 0.052105203 -0.45882362 -0.049809683 -0.06435761 -1.0432191 0.37279722 0.0110730175
-0.42601174 0.10499889 0.11374902 -0.14211543 0.045672197 -0.5583707 -0.38214996 -0.09847326
-0.18773228 -0.04215149 -0.16662912 0.53072083 -0.0060348273 -0.16758342 -0.033662528 0.14229217
0.12306454 0.055285003 0.02005169 0.41881356 -0.07083065 0.1788348 0.028658686 -0.026499968
-0.08278699 -0.42551106 0.056126416 -0.1827569 -0.1052156 0.100082584 0.29158747 -0.009236933
-0.30271283 -0.016767683 0.140735 0.043254044 0.114438735 -0.014180917 0.04449962 -0.1507548
0.048703745 -0.33017406 0.23958428 0.13082203 -0.031822193 0.06934305 -0.14731844 -0.013763889
0.17121874 -0.0046129255 -0.21916682 -0.06952671 -0.17701353 -0.024775714 -0.3564941 -0.02331273
0.20519455 0.00243592 0.13178079 -0.49324518 0.2751423 0.8297006 0.51625264 0.11340687
-0.122373395 0.051727068 0.17258976 -0.12915684 -0.15376396 -0.056412376 0.04787637 0.18805476
-0.11758157 0.1462465 0.2185485 -0.111475766 -0.055619605 0.18918465 0.129111 -0.008466919
-0.120163694 0.035589106 -0.39156687 -0.08710325 0.037927415 -0.07288915 -0.08869415 -0.10859904
0.13819145 0.46350166 -0.12938844 0.25018194 0.038684115 -0.063482575 -0.20937234 -0.029434219
0.037359178 -0.10493513 -0.6011307 -0.009118531 0.036729254 0.08465263 -0.046374537 -0.084590875
-0.065318376 -0.053491946 -0.13356724 0.037356887 -0.14922878 -0.11718598 -0.16912286 0.12985879
-0.050748542 -0.11205992 0.073189765 -0.06234501 0.0062631792 -0.16392261 0.26912633 -0.05721954
0.12790743 0.038089562 0.12836072 -0.009793069 -0.050776266 0.04882348 0.76670927 -0.6192696
0.22784887 -0.0693822 0.08972444 -0.13189456 -0.07958043 0.64084375 0.10979099 -0.033759702
0.0070764697 0.10010548 0.027649686 -0.020797933 -0.55458945 0.012902082 -0.063748494 0.2542907
-0.5972599 0.014923423 -0.017091483 -0.04381194 -0.035929568 -0.13806213 -0.15536827 -0.060505304
-0.10437556 0.81440383 0.008928983 -0.040766157 -0.18050693 0.120051935 0.214833 -0.10647437
0.5809451 -0.0076179923 -0.024375465 0.0133429235 -0.07417069 -0.1218558 0.16541354 0.2707512
0.16083746 -0.31063592 -0.39200115 -0.015737126 0.022869643 -0.10400131 0.36548698 0.060810406
00000000: 5f17 2fbe 049a a4bd 2c8a 8d3d d42a 40be
00000010: 709b 17be a5ee c53d 9f63 ba3e 1b15 a53d
00000020: 0b1f 5cbd 963b 273d 212b 823e b8a6 263f
00000030: e160 a23e 2a9d d7be bae2 24bf dc5d c7bc
00000040: 9d4b 2e3d 15ec 123e 6848 fabe e5cd e73c
00000050: d896 8ebd 2b4e 8fbc cc68 b7bd a337 38be
00000060: 9e7f acbd 45cd c73d f2fe 273e f0b6 b23e
00000070: 1d96 79bc 2df2 1c3e 4563 ca3d 6c37 d03d
00000080: 49cd 77bd f850 ad3d 030a 9a3e 0b8e 173e
00000090: 278b 6cbd d194 623d bced ebbd d6d3 373d
000000a0: c283 2cbe 9afb 4cbe 4175 e2bd bfd8 eabb
000000b0: 5ae1 df3d 887e d63e aaf1 a13e a242 1bbd
000000c0: 053b 833d ac64 a13d a8f1 a33e 7622 ef3b
000000d0: 5d4c ca3d f5fb a33e bfc6 b13d ecfd 26be
000000e0: 9295 40bd 686b 703d 6d16 b8bd 066a ebbc
000000f0: 3fe8 06bc a2da a0bd 8d35 c6bd 3f98 e0bd
00000100: 2fff 74bd 1dcd 893d b097 773d 477e c5bc
00000110: d217 723b 5e3a db3d 9f10 64bf 3734 ee3e
00000120: 7a98 aebd 446c 553d eeea eabe 3d05 4cbd
00000130: eccd 83bd 3488 85bf 47df be3e 9a6b 353c
00000140: 361e dabe a809 d73d 3ff5 e83d b586 11be
00000150: c512 3b3d 62f1 0ebf 29a9 c3be 59ac c9bd
00000160: e43c 40be 0aa7 2cbd d3a0 2abe 52dd 073f
00000170: cdbf c5bb fd9a 2bbe b8e1 09bd 0ab5 113e
00000180: 4309 fc3d 8772 623d 7143 a43c bb6e d63e
00000190: a90f 91bd 7820 373e 9fc5 ea3c 7616 d9bc
000001a0: 3a8c a9bd 96dc d9be d0e4 653d a024 3bbe
000001b0: 477b d7bd 19f8 cc3d f44a 953e 8156 17bc
000001c0: 2dfd 9abe 615c 89bc d61c 103e 272b 313d
000001d0: db5e ea3d 1457 68bc 3c45 363d 775f 1abe
000001e0: 947d 473d 930c a9be 9555 753e 36f6 053e
000001f0: fd57 02bd bb03 8e3d a5da 16be ef81 61bc
00000200: f753 2f3e 0628 97bb 446d 60be 0564 8ebd
00000210: 0943 35be 70f6 cabc 6586 b6be 57fa bebc
00000220: 851e 523e f5a3 1f3b 8bf1 063e a28a fcbe
00000230: 74df 8c3e 4267 543f 2229 043f dc41 e83d
00000240: e79e fabd c3df 533d 5fbb 303e b141 04be
00000250: 4d74 1dbe aa10 67bd 031a 443d 6d91 403e
00000260: 9bce f0bd a4c1 153e 2ecb 5f3e 684d e4bd
00000270: 62d1 63bd 9fb9 413e ad35 043e d5b8 0abc
00000280: 6218 f6bd e2c5 113d 747b c8be 3063 b2bd
00000290: c759 1b3d e846 95bd 47a5 b5bd 2c69 debd
000002a0: 0f82 0d3e 1750 ed3e 677e 04be d917 803e
000002b0: 3c73 1e3d 2703 82bd b465 56be 0820 f1bc
000002c0: f005 193d 3be8 d6bd b4e3 19bf e465 15bc
000002d0: 6a71 163d 5c5e ad3d 3af3 3dbd fb3d adbd
000002e0: a4c5 85bd 5f1a 5bbd dac5 08be 8903 193d
000002f0: 6ecf 18be 34ff efbd 8b2e 2dbe b4f9 043e
00000300: b4dd 4fbd ac7f e5bd 84e4 953d 7b5d 7fbd
00000310: 5b3b cd3b 54db 27be edca 893e 095f 6abd
00000320: 2afa 023e cd03 1c3d fe70 033e 1c73 20bc
00000330: c6fa 4fbd 21fb 473d 0f47 443f 7488 1ebf
00000340: 3751 693e 4118 8ebd 72c1 b73d 5e0f 07be
00000350: 11fb a2bd 560e 243f 19da e03d 9d47 0abd
00000360: bbe1 e73b 1a04 cd3d 9881 e23c 6d60 aabc
00000370: 93f9 0dbf 4163 533c 928e 82bd 6432 823e
00000380: 06e6 18bf 5f81 743c 7003 8cbc 2674 33bd
00000390: e22a 13bd 2960 0dbe dc18 1fbe 69d4 77bd
000003a0: dbc2 d5bd c57c 503f de4a 123c 6afa 26bd
000003b0: cfd6 38be cadd f53d 2ffd 5b3e 3c0f dabd
000003c0: d1b8 143f 5aa0 f9bb 0eaf c7bc 479c 5a3c
000003d0: cde6 97bd 898f f9bd 2b62 293e e79f 8a3e
000003e0: 93b2 243e ac0b 9fbe 60b4 c8be 25eb 80bc
000003f0: 1e59 bb3c a4fe d4bd 1c21 bb3e 5514 793d

output.bias f4 [12]
-0.065899655 -0.19074596 0.010542525 -0.008845291 -0.011321335 0.012203672 0.07094618 0.12328117
0.070536815 -0.09458186 0.1505392 0.1293555
00000000: 66f6 86bd e952 43be 8eba 2c3c d7eb 10bc
00000010: 1f7d 39bc e9f1 473c 3b4c 913d d77a fc3d
00000020: 9b75 903d 22b4 c1bd f326 1a3e c575 043e
