GANs/saved_models/cpp/RecreatingBestModelExtraLayerGenCuda.pt (torch, 130162 bytes, 12 tensors)

weight f4 [64, 12]
0	0x3e9fee46	0.31236476
1	0x3d2bdc6b	0.041958254
2	0xba3099bd	-0.0006736776
3	0xbe5ba693	-0.21450262
4	0xbec72319	-0.38893965
5	0xbdfeb429	-0.124367066
6	0xbee52900	-0.44757843
7	0xbf02c74b	-0.51085347
8	0xbe8f481d	-0.27984706
9	0x3e4b8208	0.19873822
10	0x3b8be7fe	0.004269599
11	0x3dccfb01	0.10008813
12	0xbdfc17a6	-0.12309198
13	0x3c9a0df8	0.018805489
14	0xbe1c78a5	-0.15280397
15	0x3ee01f94	0.43774092
16	0xbe2054cb	-0.15657346
17	0xbdd16cc8	-0.102258265
18	0x3eb543ad	0.35403195
19	0x3e621751	0.22079207
20	0x3e95513d	0.29163542
21	0xbe82ad20	-0.2552271
22	0xbe532ca8	-0.20622504
23	0xbe25bedf	-0.16186093
24	0xbee3d54b	-0.44498667
25	0x3e3f22ef	0.1866567
26	0x3de2b195	0.11069027
27	0xbd9c3471	-0.0762719
28	0xbd58d6ed	-0.052939344
29	0xbd3210f1	-0.043473188
30	0xbb05e186	-0.0020428612
31	0x3eff5cab	0.49875388
32	0x3e4be127	0.19910108
33	0xbeb933d4	-0.36172354
34	0xbe0fe49c	-0.14052051
35	0x3d802d73	0.06258669
36	0x3e1cccad	0.15312453
37	0x3ce5239b	0.02797108
38	0xbefb7125	-0.4910976
39	0x3e8e75eb	0.2782434
40	0x3e49a143	0.19690423
41	0xbe358e00	-0.1772995
42	0x3ecc1b60	0.39864635
43	0xbde7089a	-0.112809375
44	0x3ef76bcb	0.48324427
45	0xbcf38367	-0.029725743
46	0xbe6b8a32	-0.23001936
47	0x3d88d1c9	0.06680638
48	0x3dfaa8bc	0.12239215
49	0x3e3e4e14	0.18584472
50	0xbd99a208	-0.07501608
51	0xb932cf09	-0.0001705253
52	0xbe70e594	-0.23525077
53	0x3e871434	0.263826
54	0xbea891dd	-0.32923785
55	0xbecc816a	-0.39942485
56	0xbe8546a9	-0.26030472
57	0x3e97a0f3	0.29614982
58	0xbe00e153	-0.12585954
59	0x3e5edcac	0.21763867
60	0x3e0d6c37	0.13810812
61	0xbdd281e8	-0.10278684
62	0xbe563623	-0.20919089
63	0x3ddcce34	0.107815176
64	0xbc49c6ec	-0.012315493
65	0x3c8c8f2a	0.01715811
66	0x3d64c2fe	0.05585002
67	0xbeaebc0d	-0.34127846
68	0xbd9ca61f	-0.076488726
69	0x3e30858d	0.17238446
70	0xbc1077f5	-0.0088176625
71	0x3dece21c	0.115665644
72	0xbd6ee3cb	-0.05832271
73	0x3e013406	0.12617502
74	0xbdd31614	-0.103069454
75	0x3dfcbd31	0.12340773
76	0xbf1c57c4	-0.6107142
77	0x3d8fbbc1	0.07018233
78	0xbe203bfd	-0.15647884
79	0xbe053432	-0.13008192
80	0xbe006ac9	-0.12540735
81	0xbeb42d5b	-0.35190853
82	0x3ccdfabd	0.025143975
83	0xbed3f90d	-0.41400948
84	0xbeb558dc	-0.35419357
85	0x3e6d3a7a	0.23166838
86	0x3d596e78	0.053083867
87	0xbe9d4ab6	-0.30721062
88	0xbed70af6	-0.4200055
89	0xbe5c7eb6	-0.21532711
90	0xbec49deb	-0.38401732
91	0x3f09a0e7	0.5376114
92	0x3e98fdb6	0.29881066
93	0xbdb20112	-0.086916104
94	0xbe6c5582	-0.23079494
95	0x3ec812c3	0.39076814
96	0xbe137ccf	-0.1440308
97	0x3da90602	0.08253099
98	0x3db29fae	0.08721863
99	0x3e8eba22	0.27876383
100	0x3d5008ee	0.050789766
101	0x3ea49868	0.32147527
102	0x3e961e96	0.2932021
103	0x3ed80f12	0.42198998
104	0xbd82b558	-0.06382245
105	0xbd973c60	-0.073845625
106	0x3ce8da7c	0.028424494
107	0x3cf668fa	0.030079354
108	0x3e138a7b	0.14408295
109	0xbca027eb	-0.019550284
110	0xbea578a1	-0.32318595
111	0xbed0e120	-0.40796757
112	0xbde45284	-0.11148551
113	0xbe8e4744	-0.27788746
114	0xbeca930c	-0.39565313
115	0xbef87e13	-0.48533687
116	0x3e4a18a9	0.1973597
117	0x3d95d525	0.07316045
118	0xbde7719d	-0.11300967
119	0x3e0651cc	0.1311714
120	0xbeac577c	-0.33660495
121	0x3df44a70	0.1192826
122	0xbecbf60f	-0.39836165
123	0xbe17dd57	-0.14830528
124	0x3e04b033	0.1295784
125	0xbeeeb83e	-0.4662494
126	0x3c8eb221	0.017418923
127	0xbee28fc3	-0.44250306
128	0xbdadad5f	-0.084803335
129	0xbe27fff1	-0.16406228
130	0x3e773601	0.24141695
131	0x3beeb797	0.007285069
132	0xbc5d8e3c	-0.013522681
133	0x3c883e69	0.016631322
134	0xbe9d2de5	-0.30699077
135	0xbd650902	-0.055916794
136	0x3e258612	0.16164425
137	0xbdd72c65	-0.105065145
138	0xbd32f4b5	-0.043690402
139	0xbee330da	-0.44373208
140	0x3e110208	0.14160931
141	0x3e1e2b3d	0.15446182
142	0xbd858e54	-0.065212876
143	0x3dc054e6	0.09391193
144	0xbdb37e66	-0.08764343
145	0xbd1f1e3a	-0.038847186
146	0xbe8ac490	-0.2710309
147	0x3e55d0c4	0.20880419
148	0x3e5f2b0a	0.21793762
149	0xbe47bbe6	-0.19505271
150	0x3e947c9c	0.2900132
151	0xbe64409b	-0.2229027
152	0xbe836cee	-0.25669044
153	0x3e287fba	0.16454974
154	0x3e68dd3f	0.22740649
155	0x3e26323e	0.16230103
156	0xbf133c94	-0.5751431
157	0x3f02f644	0.5115702
158	0xbe87704e	-0.2645287
159	0x3db7fe0e	0.08984004
160	0xbef9d8dc	-0.48798263
161	0x3d9a58bc	0.07536456
162	0xbe6080a0	-0.21924067
163	0x3d55aa3c	0.0521643
164	0xbea3f690	-0.3202405
165	0xbe9b9d77	-0.30393574
166	0x3d3e7dd3	0.046506714
167	0xbe86d376	-0.26333207
168	0xbe9445cb	-0.28959498
169	0x3d9e1cab	0.07720312
170	0x3e7b9d31	0.24571683
171	0x3dbbb3c6	0.091651484
172	0x3e831339	0.25600603
173	0xbeba2670	-0.3635745
174	0xbd912d31	-0.07088698
175	0x3c11b3b8	0.008892946
176	0xbd061a3e	-0.03273987
177	0xbb8bc6d2	-0.0042656446
178	0xbaf2b4e6	-0.0018517047
179	0x3d3d576c	0.04622595
180	0x3b7fc725	0.0039028611
181	0xbcf20390	-0.029542714
182	0x3b944c77	0.004525717
183	0xbe1a813f	-0.15088366
184	0xbe97abf1	-0.29623368
185	0x3cb727b5	0.022357801
186	0xbde05537	-0.109537534
187	0xbd86dd1a	-0.065851405
188	0xbe946b15	-0.28987947
189	0xbce060cd	-0.027389908
190	0x3e548db4	0.2075718
191	0xbe21d981	-0.15805627
192	0x3db9f74c	0.09080371
193	0xbe132fcb	-0.143737
194	0x3d6ddca2	0.05807174
195	0x3daee1fe	0.08539198
196	0xbd03d9b6	-0.032190047
197	0xbe84196c	-0.25800645
198	0x3da49756	0.080366775
199	0xbd98ce83	-0.07461264
200	0x3df5cbcb	0.12001761
201	0x3beb43e7	0.0071797254
202	0x3d44d298	0.0480524
203	0xbe38b03c	-0.18035978
204	0xbc5d6ae4	-0.013514254
205	0x3e4dd920	0.20102358
206	0x3d1548ea	0.03644649
207	0x3e352dee	0.17693302
208	0xbd23f8e4	-0.040032282
209	0x3eec3f09	0.46141842
210	0xbe05411f	-0.13013123
211	0xbe2b5066	-0.16729888
212	0xbea02573	-0.3127857
213	0xb91ae723	-0.0001477269
214	0x3ccdc1b0	0.025116771
215	0xbed0fa81	-0.4081612
216	0xbea01c98	-0.31271815
217	0x3e59b237	0.2125939
218	0x3eaee75e	0.34160894
219	0x3eda426d	0.42628804
220	0xbcb59b58	-0.0221688
221	0x3f34da1e	0.7064532
222	0x3e9fc301	0.31203464
223	0x3f49246a	0.7857119
224	0xbcd4254d	-0.025896693
225	0xbde442ec	-0.11145577
226	0xbd902b11	-0.07039464
227	0xbd449e3b	-0.048002463
228	0x3e3511ac	0.17682523
229	0xbd6c9093	-0.057755064
230	0xbeb2b4cd	-0.34903565
231	0x3eb5c7e8	0.3550408
232	0x3e2e9b26	0.17051372
233	0x3e5dd35f	0.21662663
234	0x3e4ab32d	0.19794913
235	0xbddbf927	-0.107408814
236	0x3f0c0aae	0.54703796
237	0x3e141b3c	0.14463514
238	0xbeb0339f	-0.34414384
239	0x3e894335	0.26809087
240	0xbd9cc3e8	-0.07654554
241	0x3d4ce647	0.050024297
242	0x3e03b840	0.12863255
243	0x3d3ca134	0.046052173
244	0x3d3f6cba	0.04673455
245	0x3dde4704	0.10853389
246	0x3ca4d714	0.020122088
247	0x3f142da7	0.5788216
248	0x3f1a0148	0.60158205
249	0xbe403566	-0.1877037
250	0xbea3f211	-0.3202062
251	0xbdb86219	-0.09003086
252	0x3dd5f53c	0.10447165
253	0xbe0ec931	-0.13943936
254	0x3e942232	0.2893234
255	0x3e880663	0.26567373

bias f4 [64]
0	0xbe22bc71	-0.15892197
1	0xbbbecce8	-0.0058227666
2	0x3ef9f5b7	0.48820278
3	0xbf2fb72f	-0.6863889
4	0xbb395a00	-0.0028282404
5	0x3ec3a818	0.38214183
6	0xbe610beb	-0.21977203
7	0x3d0a7c49	0.033809934
8	0x3e142846	0.14468488
9	0xbdee58f4	-0.1163806
10	0xbe517ba5	-0.20457323
11	0x3e9dc240	0.30812263
12	0x3ee898b7	0.45429012
13	0xbe860de2	-0.26182467
14	0x3e6d7819	0.23190345
15	0x3e5e0b80	0.21684074
16	0x3f41778e	0.7557305
17	0x3e3b1028	0.18267882
18	0xbf313451	-0.69220454
19	0xbecb1cc8	-0.39670396
20	0xbe969c6b	-0.29416212
21	0x3f050e17	0.51974624
22	0xbe85d8a9	-0.2614186
23	0xbec6a2e5	-0.38796154
24	0xbeb9ddef	-0.36302134
25	0xbdaaa982	-0.08333112
26	0x3e7899bd	0.24277397
27	0xbe6de0ed	-0.23230334
28	0xbebb6a87	-0.3660471
29	0x3eb7ec07	0.35922262
30	0x3ef332dc	0.4749974
31	0x3f2eddca	0.68307173
32	0x3dc39801	0.09550477
33	0x3f2d998f	0.67812437
34	0x3f12697d	0.5719221
35	0xbea308cf	-0.31842658
36	0xbd41239c	-0.0471531
37	0x3f4de4c3	0.8042719
38	0x3e80f0bb	0.25183663
39	0x3ee3ad71	0.44468263
40	0x3d2c1320	0.042010427
41	0x3f1a5d84	0.60298944
42	0x3f30ffce	0.69140327
43	0x3f277d34	0.6542542
44	0x3f231488	0.63703203
45	0x3e1e80f9	0.15478887
46	0x3e150c2b	0.14555423
47	0xbd7c3082	-0.0615697
48	0xbc2b8b9a	-0.010470295
49	0x3e41003a	0.18847743
50	0x3eae8a0c	0.34089696
51	0xbe2af595	-0.16695245
52	0x3f5559f5	0.8334039
53	0x3f5f8469	0.87311417
54	0x3ec81875	0.3908116
55	0x3e6391c3	0.22223572
56	0x3e200efd	0.15630718
57	0x3df2a190	0.11847222
58	0x3f146553	0.5796711
59	0x3f0a7333	0.5408203
60	0x3ee44cfe	0.4458999
61	0x3f37311c	0.7155931
62	0x3f3c6117	0.7358565
63	0x3cf4bc9d	0.029875094

weight f4 [64, 6]
0	0xbdd82e08	-0.10555655
1	0x3ea54510	0.32279253
2	0x3f0b38f3	0.5438377
3	0x3f07c7c8	0.53039217
4	0x3e8efcf3	0.2792736
5	0x3eac4f82	0.3365441
6	0xbe5fad7d	-0.21843524
7	0xbead4317	-0.33840248
8	0x3ed6fa82	0.41987997
9	0xbe531e27	-0.20616971
10	0x3edee173	0.4353138
11	0x3f09d029	0.5383325
12	0xbec546b3	-0.38530502
13	0x3eea59f6	0.4577176
14	0xbea25b22	-0.31710154
15	0xbc0c5e81	-0.008567453
16	0x3de59881	0.112107284
17	0x3e9b935c	0.30385864
18	0x3ea82df6	0.32847565
19	0x3e990b35	0.29891363
20	0x3e34dac7	0.17661582
21	0xbe83110e	-0.2559895
22	0x3de04e58	0.10952443
23	0xbe0c75c5	-0.137168
24	0x3e8c9cd1	0.2746339
25	0xbdd606e6	-0.104505345
26	0xbe6d6720	-0.2318387
27	0xbe682e4d	-0.22673912
28	0x3e9f44bd	0.3110713
29	0x3ed178de	0.40912527
30	0x3d28e987	0.041238334
31	0xbdc3fc2a	-0.09569581
32	0xbde98772	-0.11402787
33	0x3e7f9b70	0.24961638
34	0x3e4ceba6	0.20011768
35	0x3e61dfb8	0.22057998
36	0x3eaa3d04	0.33249676
37	0x3eb82a43	0.35969743
38	0x3e3b7130	0.18304896
39	0x3e2ca3da	0.1685938
40	0x3e18d1ed	0.1492383
41	0xbe940220	-0.2890787
42	0xbee2543c	-0.4420489
43	0x3effa2ad	0.499288
44	0xbee3c12d	-0.4448332
45	0x3da7ec25	0.08199338
46	0x3e457b07	0.19285212
47	0xbe713543	-0.23555474
48	0x3e147405	0.14497383
49	0x3ed10ccf	0.40830085
50	0xbf2cb905	-0.6746982
51	0x3efe2f95	0.49645677
52	0xbefe0cc8	-0.49619126
53	0xbd5e43fa	-0.054264046
54	0x3c131f58	0.008979641
55	0x3e8a3839	0.2699602
56	0xbebc88ef	-0.36823222
57	0xbe9e5699	-0.30925444
58	0x3eb7f021	0.3592539
59	0x3eb774df	0.35831353
60	0xbe27734b	-0.16352575
61	0x3f11ef21	0.57005507
62	0x3df78364	0.12085608
63	0xbdff6a7d	-0.12471483
64	0x3e8c310d	0.27381173
65	0x3e1eb57d	0.1549892
66	0xbeb933a3	-0.36172208
67	0x3dd7edc2	0.105433956
68	0x3d6a7445	0.05723979
69	0xbe90bdf1	-0.28269914
70	0xbda47f42	-0.08032085
71	0x3e852db5	0.26011434
72	0xbefad731	-0.48992303
73	0xbe2b8745	-0.1675082
74	0x3e49553c	0.1966142
75	0x3de20da3	0.11037757
76	0xbe5a6a89	-0.21329702
77	0xbeb31d91	-0.34983495
78	0x3eb994a4	0.36246216
79	0xba036121	-0.0005011727
80	0xbe020452	-0.1269696
81	0xbe82e415	-0.25564638
82	0xbe819b30	-0.2531371
83	0xbe375097	-0.17901836
84	0xbeb9e8f0	-0.3631053
85	0xbe70e648	-0.23525345
86	0xbee3a202	-0.4445954
87	0x3f05bcdb	0.52241296
88	0x3e248332	0.16065672
89	0xbea14e0a	-0.31504852
90	0xbd8342a1	-0.06409193
91	0x3ef9d9b5	0.4879891
92	0xbe0eb9b6	-0.1393803
93	0x3e3b103e	0.18267915
94	0x3c56dd42	0.013114275
95	0x3e70d300	0.2351799
96	0xbcc6b56b	-0.024256429
97	0x3e8ab3db	0.27090344
98	0x3db8bd70	0.09020507
99	0xbd605856	-0.054771744
100	0x3e538ad8	0.20658433
101	0xbe9a2ea7	-0.30113718
102	0x3e6fb405	0.23408516
103	0x3e7c6cc7	0.2465087
104	0xbee86fa0	-0.45397663
105	0x3e05d36d	0.13068934
106	0x3ef7fb4a	0.48433906
107	0x3eb3e194	0.3513304
108	0xbeeead16	-0.4661643
109	0xbe62d879	-0.2215289
110	0xbcc8c51d	-0.024508053
111	0x3d8419ef	0.06450259
112	0x3ee3916f	0.44446895
113	0x3dbdaa55	0.09261004
114	0xbed24d99	-0.41074827
115	0xbec1f45b	-0.3788174
116	0xbe556895	-0.20840676
117	0xbee6ff3a	-0.45116597
118	0xbede58d4	-0.43427145
119	0x3f15a074	0.5844796
120	0xbf083481	-0.53205115
121	0xbe740a89	-0.23832144
122	0xbdf45654	-0.11930528
123	0xbedbe43b	-0.42947564
124	0x3e7604e3	0.24025302
125	0xbe5c9d6b	-0.21544425
126	0xbe827f7c	-0.25487888
127	0xbe9087a6	-0.28228492
128	0x3e7e39fa	0.24826804
129	0x3e28bbde	0.16477916
130	0x3ef12293	0.4709669
131	0xbe2c0758	-0.16799676
132	0xbe8f1174	-0.27943003
133	0xbe4bab84	-0.19889647
134	0xbf07a0cc	-0.5297973
135	0xbec8f089	-0.39246014
136	0x3de3e5ce	0.11127816
137	0xbe8256a4	-0.25456727
138	0xbe13b92f	-0.1442611
139	0x3d8bbea0	0.06823468
140	0xbe19e22f	-0.15027688
141	0x3f03b057	0.5144095
142	0xbe72458b	-0.23659341
143	0x3d172019	0.036895845
144	0x3e2822cb	0.16419522
145	0xbf0b42f2	-0.54399025
146	0xbeca09e2	-0.39460665
147	0x3ec0529c	0.37563026
148	0xbe960113	-0.29297695
149	0x3edae87b	0.42755494
150	0xba047b46	-0.00050537696
151	0xbef22ee5	-0.47301403
152	0xbe321f4e	-0.17394754
153	0x3f230689	0.63681847
154	0xbef2da55	-0.474322
155	0x3ef11b33	0.47091064
156	0xbee3675a	-0.44414788
157	0x3f3208eb	0.6954486
158	0xbecefcfc	-0.40427387
159	0x3f40901f	0.7521991
160	0xbe867959	-0.26264456
161	0x3eb7648e	0.35818905
162	0xbf0323a2	-0.51226246
163	0xbee2d984	-0.44306576
164	0xbf0099e6	-0.5023483
165	0x3eb421fe	0.35182184
166	0xbd8806cb	-0.06641921
167	0xbe9a8110	-0.30176592
168	0xbdfad436	-0.12247507
169	0xbea8a325	-0.3293697
170	0xbe0271ea	-0.12738767
171	0xbc8e9102	-0.01740313
172	0x3ecd3a1c	0.40083396
173	0x3ddf3f5c	0.10900757
174	0xbda38315	-0.07983986
175	0x3e2b6cae	0.16740677
176	0xbe06b319	-0.13154258
177	0x3e200e2b	0.15630405
178	0x3ed64126	0.4184658
179	0x3ebd86d5	0.3701693
180	0x3cc23d5c	0.023710899
181	0x3d58611a	0.05282698
182	0xbf12ffc2	-0.57421505
183	0xbe4e54cb	-0.20149533
184	0x3ee5e745	0.44903007
185	0x3b33b710	0.0027422346
186	0x3b8dbe8a	0.0043256925
187	0x3d461902	0.048363693
188	0x3e5c8e08	0.21538556
189	0xbe4b701a	-0.19866982
190	0xbe8feef8	-0.28112006
191	0x3ddf8a02	0.10914995
192	0xbeddb225	-0.43299976
193	0xbe967a39	-0.29390123
194	0xbed95450	-0.42447138
195	0xbeae93fb	-0.34097275
196	0x3eb48cd4	0.35263693
197	0x3de8d1c0	0.11368132
198	0x3eb0bd9e	0.34519666
199	0x3e90b840	0.28265572
200	0xbf181f0e	-0.59422386
201	0xbe46547d	-0.19368167
202	0x3e96d818	0.2946174
203	0x3f052366	0.5200714
204	0x3e94002f	0.2890639
205	0xbe78ede7	-0.24309503
206	0xbe80c953	-0.25153598
207	0x3ec85c47	0.39132902
208	0x3f2a3098	0.664804
209	0xbea0d26d	-0.31410542
210	0x3e100b04	0.14066702
211	0xbeb65555	-0.35611978
212	0xbef8016d	-0.48438588
213	0x3e376bc6	0.17912206
214	0x3da0410c	0.07824907
215	0xbebe9a86	-0.37227267
216	0x3e913a41	0.28364757
217	0x3e598f4d	0.21246071
218	0x3d5ddfd8	0.054168552
219	0xbe8e86a8	-0.2783711
220	0xbcc54cfe	-0.024084564
221	0xbde69ed4	-0.11260763
222	0x3ebba494	0.36649
223	0xbf089f22	-0.5336782
224	0xbeab6da1	-0.33482078
225	0xbe8a5920	-0.27021122
226	0x3c6fdb03	0.014639619
227	0x3ea564a4	0.32303345
228	0x3ef1c193	0.47217998
229	0xbedc580f	-0.43035933
230	0xbe45346f	-0.19258283
231	0x3ed1db9e	0.40987867
232	0xbe5c319f	-0.21503304
233	0x3eda3ab0	0.426229
234	0xbea5947b	-0.32339844
235	0xbe5a9c8f	-0.21348785
236	0x3c536704	0.012902979
237	0x3eed5bb8	0.46359038
238	0x3e64dac8	0.22349083
239	0x3e673172	0.22577456
240	0x3d199546	0.037495874
241	0x3ebac86c	0.36481035
242	0xbd61be9c	-0.05511342
243	0xbea60d8d	-0.32432213
244	0xbe84ab31	-0.2591186
245	0x3cc6f40a	0.024286289
246	0xbe961cb4	-0.29318774
247	0xbf196374	-0.5991738
248	0xbeef8b9e	-0.46786207
249	0xbec09763	-0.376155
250	0xbe6a1c4e	-0.2286236
251	0x3dbf9e48	0.09356362
252	0xbe92067d	-0.28520575
253	0x3e5a50b7	0.21319853
254	0x3e013f1d	0.12621732
255	0x3e8561ac	0.2605108

bias f4 [64]
0	0x3e8395cd	0.25700226
1	0x3e1bd1ed	0.15216799
2	0xbed09d1d	-0.40744868
3	0xbecd6741	-0.4011784
4	0x3dab1986	0.083544776
5	0x3ed59b86	0.41720217
6	0xbeaf47e8	-0.34234548
7	0x3ea7381d	0.3266
8	0x3f09c803	0.5382082
9	0x3d9e1a2c	0.07719836
10	0x3f166cc0	0.5875969
11	0xbe8c9524	-0.27457535
12	0x3dde6275	0.10858623
13	0xbe8aacbb	-0.27084908
14	0xbee6059c	-0.44926155
15	0x3f191552	0.5979816
16	0xbeb1c0c9	-0.34717396
17	0xbdb6c2fa	-0.089239076
18	0x3eb8c5fc	0.3608855
19	0xbdfc267b	-0.12312027
20	0xbe924d26	-0.28574485
21	0xbe892faa	-0.26794177
22	0x3e5bfdab	0.21483485
23	0x3e0ce49e	0.13759086
24	0x3e8f056e	0.2793383
25	0x3e41f97a	0.18942824
26	0x3af9bc79	0.0019053362
27	0xbe72e376	-0.23719582
28	0x3e18320d	0.14862843
29	0x3f08c5d9	0.5342689
30	0xbdd7b992	-0.105334416
31	0xbe030775	-0.12795813
32	0xbf110750	-0.56651783
33	0x3e657126	0.22406444
34	0xbecad2c8	-0.39613938
35	0x3ec05f12	0.37572533
36	0x3c970d96	0.018439095
37	0x3ea6f21c	0.3260659
38	0xbe8d6a83	-0.27620324
39	0xbe3c4267	-0.18384705
40	0x3c4798f8	0.012182467
41	0x3db6c8dc	0.0892503
42	0xbedbd299	-0.4293411
43	0xbe5a2fc3	-0.21307282
44	0x3edec63b	0.43510613
45	0xbe9b59bd	-0.30341902
46	0x3ef75a37	0.48311016
47	0x3efb0f49	0.490351
48	0x3eeda961	0.46418288
49	0xbc99d86a	-0.018779952
50	0x3e9156a2	0.28386408
51	0xbe8a5799	-0.27019957
52	0xbe6c3559	-0.23067226
53	0x3d28a54a	0.041173257
54	0xbdb1fabb	-0.08690401
55	0xbe3742bf	-0.17896555
56	0x3d8c603c	0.06854293
57	0x3dc16420	0.094429255
58	0xbde5b088	-0.11215311
59	0xbdff12ce	-0.124547586
60	0xbd40c84f	-0.04706603
61	0x3d668b82	0.05628539
62	0xbe842752	-0.2581125
63	0xbe4b84be	-0.19874856

weight f4 [64, 64]
0	0x3d541973	0.051782083
1	0xbe2f5711	-0.17123057
2	0x3df65ceb	0.120294414
3	0x3d7dd7c8	0.061973363
4	0x3bb12d07	0.005406979
5	0xbdafa6e7	-0.08576756
6	0xbd9024dd	-0.07038281
7	0x3c456c1e	0.012049703
8	0x3d724139	0.059144232
9	0x3e04cf9a	0.12969819
10	0xbd0b53db	-0.034015518
11	0xbce83061	-0.028343381
12	0x3dbc496e	0.09193693
13	0xbd6019a6	-0.05471196
14	0x3de9a70f	0.11408817
15	0x3d5ae998	0.05344543
16	0x3e7c3da3	0.24632888
17	0x3dca7ab6	0.098866865
18	0x3cd9e3b1	0.02659783
19	0x3dc7c74c	0.0975481
20	0x3d8b74fc	0.068094224
21	0x3c9eaa80	0.01936841
22	0xbd7bbd50	-0.06145984
23	0x3b351615	0.002763157
24	0xbdf37c85	-0.118889846
25	0xba53d7bd	-0.0008081159
26	0xbd20c11a	-0.039246656
27	0x3cafd43b	0.021463504
28	0xbcffc324	-0.03122098
29	0x3d52222e	0.051302128
30	0xbd3addcb	-0.045621675
31	0x3db0bc1a	0.086296275
32	0x3d443d70	0.047910154
33	0x3d9ec9bd	0.07753322
34	0x3e6a8db3	0.22905616
35	0xbe1c1ee5	-0.1524616
36	0x3df9c69d	0.121960856
37	0x3e42cb60	0.19022894
38	0xbde9ded7	-0.114194565
39	0x3dec0e86	0.115262076
40	0xbdaa6faf	-0.08322083
41	0x3e0ca13c	0.13733381
42	0x3db5aa34	0.08870354
43	0x3dfa58db	0.12223979
44	0x3d78c4d0	0.06073457
45	0xbd2e272a	-0.04251782
46	0xbd545175	-0.051835496
47	0x3db1d24b	0.08682688
48	0x3c51bc20	0.0128012
49	0x3e037c23	0.12840323
50	0xbd3fcb43	-0.046824705
51	0xbd530e92	-0.051527567
52	0x3dfdfb99	0.12401504
53	0x3e4fc1c7	0.20288764
54	0x3db4fdf6	0.08837502
55	0xbd11cea8	-0.035597473
56	0x3d8a5095	0.06753651
57	0xbc6e7303	-0.014553788
58	0x3e7c6cde	0.24650905
59	0x3d09ab30	0.033610523
60	0x3e0e7e7c	0.13915437
61	0x3e4b9847	0.19882308
62	0x3df221ad	0.118228294
63	0x3d1349e7	0.03595915
64	0xbe6e241b	-0.2325596
65	0x3e590878	0.21194637
66	0x3dd6bf45	0.104857005
67	0x3d30c06d	0.04315226
68	0xbe168ef3	-0.14702968
69	0x3d9ffe68	0.07812196
70	0x3dd8b444	0.10581258
71	0xbd7b862e	-0.06140726
72	0xbd61609b	-0.05502377
73	0xbe8969f5	-0.2683865
74	0xbd61d83b	-0.055137854
75	0x3d682282	0.056673534
76	0x3d9fc8fb	0.07802006
77	0xbcb2f5c3	-0.021845704
78	0x3de50ff8	0.111846864
79	0xbe2b19b6	-0.16709027
80	0xbdd02b82	-0.101645485
81	0xbbe8cdf9	-0.007104632
82	0xbdc4633a	-0.095892385
83	0x3d1ab783	0.037772667
84	0xbe8c383d	-0.27386656
85	0x3d690b2e	0.056895427
86	0x3e3b25d7	0.18276154
87	0xbe0e8525	-0.13917978
88	0x3d897479	0.067116685
89	0xbf61fa63	-0.88272685
90	0x3ce8df11	0.028426679
91	0xbd317d2e	-0.04333227
92	0x3ca1c123	0.019745415
93	0xbc969307	-0.018380655
94	0xbe176c93	-0.14787512
95	0x3dd5d43a	0.1044087
96	0xbdd9e03d	-0.10638473
97	0xbdcdf739	-0.100569196
98	0x3df77e34	0.12084618
99	0xbd88885e	-0.06666635
100	0xbd05b00a	-0.032638587
101	0x3d97e009	0.07415778
102	0x3d88bec3	0.0667701
103	0xbe607b0e	-0.21921942
104	0x3d1f5432	0.038898654
105	0xbbff7629	-0.007796068
106	0x3e405c61	0.1878524
107	0x3e254002	0.16137698
108	0x3d522c05	0.05131151
109	0xbddd4654	-0.1080443
110	0x3caa5a74	0.020795085
111	0x3cd90a5e	0.026494201
112	0x3dd4db6a	0.103934124
113	0x3db4959d	0.08817599
114	0x3daa912e	0.08328472
115	0xba8479dd	-0.0010107119
116	0x3e2b441b	0.16725199
117	0xbd6d72e7	-0.057970908
118	0xbd3438dc	-0.043999538
119	0xbd89e145	-0.0673242
120	0xbbf51626	-0.007479447
121	0xbe4e1b64	-0.20127636
122	0x3da92b8c	0.08260259
123	0xbc934140	-0.01797545
124	0x3c4e6e92	0.012599604
125	0x3e116e5c	0.14202255
126	0x3d90970c	0.0706006
127	0xbd46d895	-0.048546392
128	0xbd58be0c	-0.052915618
129	0x3a7bfe2f	0.00096127664
130	0x3da08d92	0.078395024
131	0xbd675de5	-0.05648603
132	0xb9b3fc4c	-0.00034329516
133	0xbdf15082	-0.11782934
134	0x3dd2d0a8	0.10293704
135	0xbe044475	-0.1291674
136	0xbd93dd72	-0.07219972
137	0xbdc214c5	-0.09476618
138	0x3d1aa4d6	0.037754856
139	0x3d8a34b5	0.06748334
140	0xbd4213ce	-0.04738217
141	0xbd2058c5	-0.039147157
142	0x3dd0f0e0	0.10202193
143	0x3e2d74fd	0.16939159
144	0x3b9862bd	0.0046504424
145	0x3d2fb8f0	0.04290098
146	0xbe2ee3ae	-0.1707904
147	0xbd364173	-0.04449601
148	0xbc8ae4c8	-0.016954795
149	0xbbbaf319	-0.005705249
150	0xbe16b59f	-0.1471772
151	0xbe6dd57a	-0.23225966
152	0xbc567465	-0.013089274
153	0x3deacda4	0.11465004
154	0xbe0dfb13	-0.13865308
155	0x3d163d84	0.03667976
156	0x3cb6767d	0.022273296
157	0xbc611438	-0.013737731
158	0x3c8b8ef0	0.017035931
159	0x3e106f48	0.1410495
160	0x3dcadaed	0.09905038
161	0x3b76441c	0.0037577217
162	0x3dc323f5	0.09528343
163	0xbd49340d	-0.049121905
164	0x3d2cc651	0.042181317
165	0x3da0e28c	0.078557104
166	0x3e0443b9	0.12916459
167	0xbda119f8	-0.07866281
168	0xbd6ff77b	-0.058585625
169	0x3d6e1650	0.058126748
170	0x3d7d6760	0.061866164
171	0xbd3af4ad	-0.045643497
172	0x3d5b3a9c	0.05352269
173	0x3dfa1f11	0.12212957
174	0x3d35651a	0.04428587
175	0xbdb4f7c1	-0.08836318
176	0xbb7bed0d	-0.0038440854
177	0xbd2a6029	-0.04159561
178	0x3cfcc001	0.030853273
179	0x3d6a1a2a	0.05715386
180	0x3dc527a8	0.096267045
181	0x3d36cc27	0.04462829
182	0xbdc8fce8	-0.09813863
183	0x3bea8482	0.0071569094
184	0xbd1e2ca2	-0.038616784
185	0x3da4163f	0.080120556
186	0x3d28eff5	0.041244466
187	0xb93c46ce	-0.00017955454
188	0x3d855559	0.065104194
189	0x3e081080	0.13287544
190	0x3e163357	0.14668022
191	0xbb98e399	-0.0046658036
192	0xbda5b705	-0.08091549
193	0x3d6f2eb7	0.05839416
194	0x3de71df6	0.112850115
195	0x3dc92a87	0.098225646
196	0x3deddf11	0.11614812
197	0xbe22aad2	-0.15885475
198	0x3db292b1	0.087193854
199	0x3da51d35	0.080622114
200	0xbce45602	-0.027873043
201	0xbdd2dea0	-0.102963686
202	0xbdc27438	-0.09494823
203	0xbc862a18	-0.016377494
204	0xbdeb4053	-0.11486878
205	0x3da0eba8	0.07857448
206	0x3e1244be	0.14284036
207	0x3e7ae6c5	0.24502094
208	0x3d040a14	0.032236174
209	0x3db68c79	0.08913512
210	0xbead6e6e	-0.33873314
211	0xbd61fd7d	-0.055173386
212	0xbd6d49eb	-0.05793182
213	0xbe0bc903	-0.13650899
214	0x3d57c532	0.052678294
215	0xbe45c134	-0.19311982
216	0xbdd1ee39	-0.102505155
217	0xbdb194f8	-0.08670992
218	0x3da56cc7	0.08077388
219	0x3daf04ad	0.08545814
220	0x3d5f2edf	0.05448806
221	0x3ddd5cbe	0.10808705
222	0xbda57949	-0.08079774
223	0x3bf714a6	0.0075403033
224	0xbd5348dd	-0.05158316
225	0xbe01f3fc	-0.12690729
226	0xbd780811	-0.060554568
227	0x3db221cc	0.086978525
228	0xbde5a387	-0.11212831
229	0xbd967d18	-0.073480785
230	0xbb0ac04e	-0.0021171751
231	0xbe3c07bd	-0.18362327
232	0xbe081a75	-0.13291343
233	0x3e074619	0.13210334
234	0x3dbbdc9d	0.09172938
235	0xbc1270b0	-0.008938
236	0x39c6c15d	0.0003790957
237	0x3dde14d9	0.1084382
238	0xbd6aa48e	-0.057285838
239	0xbd067fd1	-0.03283674
240	0xbcc8d58b	-0.024515888
241	0x3d497ede	0.049193256
242	0x3d7e2a6c	0.062052175
243	0xbc725956	-0.014791807
244	0x3d9fde00	0.07806015
245	0x3e07bd82	0.13255885
246	0xbb887d25	-0.004165309
247	0x3d8394d6	0.064248726
248	0x3e0d585d	0.13803239
249	0x3e215e02	0.15758517
250	0xbd29a2fc	-0.0414152
251	0xbc918ddc	-0.01776784
252	0xbcd27917	-0.025692506
253	0x3dc51c7d	0.09624574
254	0x3cdd456d	0.027010644
255	0xbd7a238a	-0.06106905

bias f4 [64]
0	0x3ce4fc9d	0.027952487
1	0x3e0995e9	0.13436092
2	0x3df6c947	0.12050109
3	0x3c8b204b	0.016983172
4	0x3e567ec3	0.20946793
5	0x3e3365f7	0.17519365
6	0x3dfb2ad3	0.122640274
7	0x3e312da8	0.17302573
8	0x3e2e1e34	0.17003709
9	0x3e5b2821	0.21402027
10	0x3dc57828	0.096420586
11	0x3d8cda3c	0.068775624
12	0x3e22afd5	0.15887387
13	0x3e096c94	0.13420326
14	0x3e0e5e34	0.13903123
15	0x3e998a77	0.29988453
16	0x3e72e803	0.23721318
17	0x3d8af639	0.067852445
18	0x3e7978ae	0.24362442
19	0x3d6469c7	0.05576494
20	0x3dcf4909	0.10121352
21	0x3c156601	0.009118558
22	0x3e5e0cd2	0.21684578
23	0x3d3b463e	0.045721285
24	0x3e2c9cde	0.16856715
25	0x3e61712c	0.22015828
26	0x3dbbdb85	0.091727294
27	0xbe6261b0	-0.22107577
28	0xb8edd1e0	-0.00011340133
29	0x3e26f2a9	0.16303505
30	0xbd148050	-0.03625518
31	0xbca56827	-0.020191265
32	0x3e0af9af	0.13571809
33	0x3e558914	0.20853072
34	0x3a0e8439	0.0005436573
35	0x3e9f2dbb	0.31089577
36	0x3e086933	0.1332138
37	0x3d50c614	0.050970152
38	0x3df22242	0.118229404
39	0x3c91b035	0.017784217
40	0x3dd679e3	0.10472467
41	0x3e97ff77	0.29687092
42	0x3e589ee0	0.21154356
43	0x3e731316	0.2373775
44	0x3e2cac71	0.16862656
45	0x3e2b6ddd	0.16741128
46	0x3e32d7ab	0.17465083
47	0x3de3c781	0.11122037
48	0xbbca7806	-0.0061788587
49	0x3e90f88c	0.28314626
50	0x3e3a56c3	0.1819716
51	0x3e294e4d	0.16533776
52	0x3eb2d9fe	0.3493194
53	0xbebe6e8f	-0.37193725
54	0x3c578d83	0.013156298
55	0x3e9432d6	0.28945035
56	0xbd881944	-0.06645444
57	0x3e53860b	0.20656602
58	0x3e1a0419	0.15040626
59	0x3e66ef53	0.22552232
60	0x3e9202f3	0.28517875
61	0x3d97d791	0.07414163
62	0x3d9b5846	0.07585196
63	0xbe40f1f1	-0.18842293

weight f4 [64, 64]
0	0x3e052ffe	0.13006589
1	0x3e180500	0.14845657
2	0xbe0dda56	-0.1385282
3	0xbd4240b8	-0.047425
4	0x3c3b5c08	0.011435516
5	0xbaa99024	-0.0012936634
6	0xbda7732c	-0.08176264
7	0x3de856e5	0.11344699
8	0x3d379f95	0.044829924
9	0x3e282a64	0.1642242
10	0x3e546bb1	0.20744206
11	0xbf894b24	-1.0726056
12	0xbf029bb5	-0.5101884
13	0x3da14da0	0.07876134
14	0x3c7dbb21	0.01548651
15	0x3e4260eb	0.18982284
16	0x3c081974	0.00830685
17	0x3e3c9b3b	0.1841859
18	0x3d01e05f	0.031708118
19	0xbea721d5	-0.32643
20	0xbd35acba	-0.044354178
21	0x3e2b51b9	0.16730393
22	0xbe9e1e3c	-0.30882442
23	0xbe06039a	-0.13087311
24	0xbe2ab649	-0.16671099
25	0xbd4689f0	-0.04847139
26	0xbcfd9d7d	-0.030958885
27	0xbe14fa85	-0.1454869
28	0x3dccba14	0.09996429
29	0xbc3195b8	-0.010838918
30	0x3b2f98ef	0.0026794036
31	0xbe08a45b	-0.13343947
32	0xbd46419b	-0.04840241
33	0xbd0966a6	-0.03354516
34	0x3d3d0db0	0.04615563
35	0xbbfb5a6d	-0.0076706917
36	0xbd38bc84	-0.045101658
37	0x3c311b49	0.010809728
38	0xbe11c92e	-0.142369
39	0x3cf6a6b6	0.03010879
40	0xbcc36980	-0.023854017
41	0xbe248624	-0.16066796
42	0x3dff9fce	0.12481652
43	0xbd0461b8	-0.032319754
44	0x3e4a7229	0.19770111
45	0x3baa3de0	0.0051953644
46	0xbf3cdaca	-0.73771346
47	0xbe0c00d8	-0.13672197
48	0x3dff7f30	0.12475431
49	0xbe2fb008	-0.17156994
50	0xbd8cfef3	-0.06884565
51	0x3d1520e4	0.03640832
52	0xbe62cf6a	-0.22149435
53	0xbe6ee88b	-0.23330896
54	0x3ee1891f	0.44049928
55	0xbeadd57c	-0.33951938
56	0x3db0a3c2	0.08624984
57	0xbeb18f0d	-0.34679452
58	0x3d976aba	0.07393403
59	0x3e7c5986	0.24643525
60	0x3c98ac12	0.018636737
61	0x3dffd1b7	0.12491172
62	0x3e3cb1f7	0.18427263
63	0x3c878598	0.016543195
64	0x3e5d1f5f	0.21593998
65	0x3db97871	0.090561755
66	0x3d1aff7f	0.037841316
67	0xbd228a50	-0.039682686
68	0x3e1cc4df	0.15309475
69	0x3e1bb09b	0.15204088
70	0xbd1c1f84	-0.038115993
71	0x3c034f7a	0.008014554
72	0xbe89d6d5	-0.26921716
73	0x3d94a245	0.07257513
74	0x3e555e53	0.20836763
75	0xbe34bd0d	-0.17650242
76	0x3ca2f001	0.019889833
77	0x3d9c8964	0.07643393
78	0xbce6a3e2	-0.028154317
79	0x3dc441dc	0.09582874
80	0x3ddd6c7d	0.10811708
81	0x3e271126	0.16315135
82	0x3d9da3d2	0.07697262
83	0xbdba7e09	-0.091060705
84	0x3dc96816	0.09834306
85	0x3ddeead9	0.108846374
86	0xbe85ce21	-0.26133826
87	0x3dad7d1e	0.0847113
88	0x3e024b1b	0.12723963
89	0xbdb2dc35	-0.087334074
90	0xbd5c621f	-0.053804513
91	0xbe025b22	-0.12730077
92	0x3dcbbb79	0.09947867
93	0x3e5010b7	0.20318876
94	0x3cd1e065	0.025619695
95	0x3e36eaeb	0.17863052
96	0xbddf80e9	-0.109132595
97	0xbe0109c4	-0.12601382
98	0xbdafbe3e	-0.08581208
99	0x3df6195c	0.12016556
100	0x3cdeb0c8	0.027183905
101	0x3ccf9eec	0.025344335
102	0x3e02d263	0.12775569
103	0x3ac90f5b	0.0015339659
104	0x3dda5a46	0.106617495
105	0xbdfa86c2	-0.12232734
106	0x3e34acd2	0.1764405
107	0xbe9bccbf	-0.30429646
108	0x3e484f71	0.19561554
109	0xbcdd5568	-0.027018264
110	0x3e8445aa	0.258344
111	0x3d025918	0.031823248
112	0x3dc42dc2	0.0957904
113	0xbd654af3	-0.05597968
114	0x3d37f338	0.044909686
115	0xbcf23430	-0.0295659
116	0xbd5ad8dc	-0.05342947
117	0xbe07dfbc	-0.13268942
118	0x3e1d805f	0.15381001
119	0xbed46c25	-0.41488758
120	0xbd6460c4	-0.055756345
121	0xbc5012a9	-0.012699761
122	0x3d774f14	0.06037815
123	0x3d70a18f	0.058747824
124	0xbda81542	-0.082071796
125	0x3e22356b	0.1584069
126	0x3e0968fd	0.13418956
127	0x3d166675	0.036718804
128	0x3ce6caf5	0.02817295
129	0x3d906d50	0.070521
130	0x3d57ed8c	0.052716777
131	0xbd3b4b0c	-0.045725867
132	0x3df682a1	0.12036634
133	0xbd194d03	-0.03742696
134	0x3cdc8c08	0.02692224
135	0x3d523223	0.051317345
136	0xbe4ffe53	-0.2031186
137	0x3d1ad169	0.037797365
138	0xbe3cac1e	-0.18425032
139	0xbd95fb8a	-0.07323368
140	0xbd954612	-0.072887555
141	0x3c6be990	0.014398947
142	0x3d1ee23d	0.038789976
143	0xbd9ca0b7	-0.076478414
144	0xbdf288d7	-0.118425064
145	0x3e7fac39	0.24968041
146	0x3d7100df	0.05883872
147	0xbe44206d	-0.19152994
148	0xbdc55e45	-0.09637121
149	0x3d9b5eaa	0.07586415
150	0x3d7258a4	0.059166566
151	0xbb132b61	-0.0022456276
152	0xbb97208e	-0.004612035
153	0x3d4173cf	0.047229584
154	0xbd96f674	-0.07371226
155	0x3dad86f2	0.084730044
156	0x3d965072	0.073395625
157	0xbda126aa	-0.07868703
158	0x3e51ae02	0.20476535
159	0xbe0d526f	-0.13800977
160	0x3da099fd	0.07841871
161	0xbc44fd7f	-0.012023329
162	0x3eac93e2	0.33706576
163	0x3db74a63	0.08949735
164	0xbdf26a56	-0.11836688
165	0xbddf749e	-0.10910915
166	0x3e48cd04	0.19609457
167	0x3dd58c8e	0.10427199
168	0xbd6f47a8	-0.058417946
169	0xbcf6f365	-0.030145356
170	0x3d6f98a6	0.058495186
171	0x3e60f1c1	0.21967222
172	0x3cbc76ea	0.023005921
173	0x3de39294	0.11111942
174	0x3d3bb179	0.045823548
175	0xbdb9ee93	-0.090787075
176	0xbd8b41f2	-0.067996874
177	0x3d39f098	0.045395464
178	0x3dc5f400	0.0966568
179	0xbd96de2c	-0.07366595
180	0x3e689d9d	0.22716375
181	0xbe095231	-0.1341026
182	0x3e84a065	0.2590362
183	0x3d894cd2	0.067041054
184	0xbdb529b2	-0.088458434
185	0x3cbcbe7f	0.023040054
186	0x3e5e46f1	0.2170675
187	0x3c186a79	0.009302729
188	0x3deed79a	0.116622165
189	0x3d8e7d7a	0.069575265
190	0x3e3603bc	0.17774862
191	0x3d0b5719	0.03401861
192	0x3dfdbd21	0.12389589
193	0xbccd5396	-0.025064271
194	0xbc9fa4f0	-0.019487828
195	0x3d3b7004	0.045761123
196	0x3db87ed0	0.090085626
197	0x3e0cb981	0.13742639
198	0xbdbd9606	-0.0925713
199	0x3e5e5659	0.21712627
200	0xbe645485	-0.22297867
201	0x3e23fcd2	0.16014412
202	0x3e9a61e2	0.30152804
203	0x3e2b3f48	0.16723359
204	0xbe0ab4b4	-0.13545495
205	0x3dfcf108	0.123506606
206	0xbe31de0d	-0.17369862
207	0x3e31ac73	0.1735094
208	0xbd09cdb0	-0.033643425
209	0x3e2d2a34	0.1691063
210	0x3de7150b	0.112833105
211	0xbd0be5f7	-0.03415486
212	0xbe0df556	-0.1386312
213	0xbe126461	-0.14296104
214	0x3d37a701	0.044837
215	0x3e097154	0.13422137
216	0xbc90bd56	-0.017668407
217	0xbd0d6299	-0.03451786
218	0x3cc38f04	0.023871906
219	0xbdfee679	-0.12446303
220	0x3db77743	0.08958294
221	0x3e4a4a83	0.19754986
222	0x3d447497	0.04796275
223	0x3e0513d0	0.12995839
224	0xbdbc372b	-0.0919021
225	0x3e0d9339	0.13825692
226	0xbdb4631b	-0.08807965
227	0x3dbe608a	0.09295757
228	0x3d6258f8	0.05526063
229	0xbddcc3f9	-0.10779566
230	0x3d0c4d2d	0.034253288
231	0xbd610724	-0.05493845
232	0x3da711c2	0.08157684
233	0xbe27d63b	-0.16390316
234	0xbd01015b	-0.031495433
235	0x3ded82f6	0.115972444
236	0xbdabe41b	-0.08393117
237	0x3c0a4cd0	0.008441165
238	0x3db18e5c	0.08669731
239	0x3da90666	0.082531735
240	0x3e2877f5	0.1645201
241	0xbc414451	-0.011796073
242	0x3de5fa8d	0.112294294
243	0xbde203e4	-0.11035898
244	0xbe73446f	-0.23756574
245	0x3d60ef5c	0.05491577
246	0x3da0f828	0.07859832
247	0xbe040968	-0.12894213
248	0x3d8be7aa	0.06831296
249	0xbc3674db	-0.011136259
250	0x3db5f59b	0.08884736
251	0xbd44e873	-0.048073243
252	0xbe23b8aa	-0.15988412
253	0xbd3d795b	-0.04625831
254	0x3dd17c7f	0.10228824
255	0xbc4d2534	-0.012521077

bias f4 [64]
0	0x3e83ff7d	0.2578086
1	0x3e834e12	0.256455
2	0xbe031613	-0.1280139
3	0x3e065ce9	0.1312138
4	0x3d7dbf21	0.061949853
5	0x3b19164b	0.0023359235
6	0x3db58a10	0.08864224
7	0x3e0e3ba2	0.13889936
8	0xbe35e505	-0.17763145
9	0x3d82038b	0.06348332
10	0xbbd0b940	-0.00636974
11	0xbdd20691	-0.10255159
12	0x3d158a0c	0.036508605
13	0xbd458802	-0.04822541
14	0xbbfc0f00	-0.007692218
15	0xbde8d1fc	-0.11368176
16	0x3d647bd4	0.055782154
17	0x3d05746d	0.032581735
18	0x3d931114	0.07180992
19	0xbe6068d4	-0.21914989
20	0x3e874211	0.26417592
21	0xbdc6d82f	-0.097092025
22	0x3ca10785	0.019656906
23	0xbd9f088c	-0.07765302
24	0x3e660eb5	0.22466548
25	0x3da3d5d3	0.07999768
26	0xbe140dc9	-0.14458384
27	0x3da442be	0.080205426
28	0xbe08f884	-0.13376051
29	0x3d8c478e	0.068495855
30	0x3d3314c8	0.04372099
31	0xbe0b3d22	-0.13597539
32	0xbd5bcfda	-0.05366502
33	0x3e5fcaea	0.2185475
34	0xbc3006ec	-0.010743838
35	0x3e6c9482	0.23103526
36	0x3dadf34f	0.08493673
37	0x3e274e86	0.16338548
38	0x3e133599	0.14375915
39	0x3dc9016e	0.09814726
40	0x3e331123	0.17487006
41	0x3dc4d847	0.09611564
42	0xbe019998	-0.12656248
43	0x3d0a40ae	0.03375309
44	0xbd8382ed	-0.064214565
45	0xbb86e143	-0.0041162088
46	0xbc39617a	-0.011314744
47	0xbd75852c	-0.059941456
48	0x3d003bd3	0.031307053
49	0x3dadce8b	0.084866606
50	0x3d2c0b8c	0.0420032
51	0x3ae01d21	0.0017098525
52	0xbe7cd3ec	-0.24690217
53	0x3e13cf84	0.1443463
54	0xbd3b3b80	-0.04571104
55	0x3dfc27d2	0.123122826
56	0x3d3329fc	0.04374121
57	0x3e61b746	0.2204257
58	0x3e203b00	0.15647507
59	0x3e2109ab	0.15726344
60	0x3e3a2b51	0.18180586
61	0x3ddcc5d5	0.10779921
62	0xbddfe032	-0.10931434
63	0x3e0b0651	0.13576628

weight f4 [128, 128]
0	0xbd8902b2	-0.06689967
1	0xbddfa8bf	-0.10920858
2	0xbd9bed5a	-0.076136306
3	0xbc1d73de	-0.009610144
4	0x3d899cfd	0.06719396
5	0x3e078c5f	0.13237141
6	0xbdfaf655	-0.12254015
7	0x3a4c2f64	0.0007789044
8	0xbe1de932	-0.15420988
9	0xbca565c9	-0.020190137
10	0xbd1bf138	-0.03807184
11	0x3dd968b8	0.10615677
12	0xbdebd1a5	-0.11514596
13	0xbd27d314	-0.040972784
14	0xbd373b3c	-0.044734225
15	0x3d1e1115	0.03859051
16	0xbe3fe705	-0.1874047
17	0xbdfadb08	-0.12248808
18	0x3cf9e66b	0.03050538
19	0x3cb0dde6	0.021590184
20	0xbcec00ec	-0.028809033
21	0xbcd1efab	-0.025626978
22	0xbde708c6	-0.1128097
23	0xbd928a1d	-0.07155249
24	0x3c4f190a	0.012640247
25	0x3e7623d9	0.24037112
26	0xbc9e867e	-0.01935124
27	0x3dce1d0c	0.10064134
28	0xbe042ca9	-0.12907661
29	0xbd7f31bb	-0.062303286
30	0x3df46a74	0.11934367
31	0x3dcaaa80	0.098958015
32	0xbd25ac40	-0.040447474
33	0x3d11c1be	0.035585158
34	0x3c8d39f4	0.017239548
35	0xbd7affac	-0.061278984
36	0xbce85449	-0.028360503
37	0xbdb5d4dc	-0.0887849
38	0x3d21d51a	0.03950987
39	0x3d4584de	0.048222415
40	0x3dc5ba37	0.09654658
41	0xbde94658	-0.1139037
42	0xbd1e9c6e	-0.0387234
43	0xbe2d0c2a	-0.16899171
44	0x3d9c64a5	0.07636384
45	0x3dbd97cf	0.09257471
46	0xbdf3df5e	-0.11907838
47	0x3d9cdb5e	0.076590285
48	0xbb18c98a	-0.0023313486
49	0xbaebefb2	-0.0018000512
50	0xbe16c27d	-0.14722629
51	0x3dd9c3c3	0.10633042
52	0xbd49d7f3	-0.04927821
53	0x3ced5fd7	0.028976364
54	0xbce85884	-0.02836252
55	0xbe456812	-0.19277981
56	0xbc2ecb60	-0.010668606
57	0xbe583798	-0.21114957
58	0x3d85a429	0.06525452
59	0xbd86dbfd	-0.06584928
60	0xbd957633	-0.07297935
61	0xbb4fb5d5	-0.0031694074
62	0x3dd492c1	0.103795536
63	0x3d2c2522	0.0420276
64	0xbe66ab03	-0.22526173
65	0xbdee751f	-0.11643433
66	0x3e264096	0.16235575
67	0xbd0524d9	-0.032505844
68	0x3e7ddb9d	0.24790807
69	0x3e1636a2	0.14669278
70	0x3e57f66e	0.21090099
71	0xbe37b369	-0.17939533
72	0x3e247e93	0.16063909
73	0x3d8700e9	0.065919705
74	0xbad6eaeb	-0.0016396915
75	0x3db4411e	0.088014826
76	0x3d389b34	0.04506989
77	0x3e067508	0.13130581
78	0x3b158055	0.0022812088
79	0xbdd532ca	-0.10410078
80	0x3d27f087	0.04100087
81	0x3c7c965e	0.01541671
82	0x3d6f35ec	0.058401033
83	0xbd327ed8	-0.043578
84	0xbd9b473e	-0.07581948
85	0x3e347c93	0.17625646
86	0x3d83e599	0.06440277
87	0xbd3c0f29	-0.045912895
88	0xbda24bc3	-0.07924607
89	0x3e0214c8	0.1270324
90	0x3d94981b	0.07255574
91	0x3d75f8ca	0.060051717
92	0x3ccc1566	0.024912547
93	0xbd162e2a	-0.03666512
94	0xbcf99ccc	-0.030470274
95	0x3d88d267	0.06680756
96	0xbdac5954	-0.084154755
97	0x3d0682f1	0.03283972
98	0xbbc43cbd	-0.005988686
99	0xbb023496	-0.001986777
100	0xbbe7020a	-0.0070498036
101	0xbd9eb070	-0.077484965
102	0x3e98ce4c	0.29844892
103	0x3b06d8e7	0.0020576061
104	0xb9fafdcd	-0.00047872812
105	0x3d24c5eb	0.04022781
106	0x3cae132b	0.021249374
107	0x3d94ffb0	0.07275331
108	0x3d9234f4	0.07139006
109	0x3df70553	0.120615624
110	0x3d296d73	0.041364145
111	0x3dae2173	0.08502474
112	0x3e5bad3e	0.21452805
113	0x3c02dfea	0.007987956
114	0x3dd240d6	0.10266273
115	0x3d656f00	0.05601406
116	0x3cf413b3	0.02979455
117	0x3c8cb096	0.017174046
118	0xbd419eb2	-0.047270484
119	0x3b5e0135	0.0033875231
120	0x3d068a7a	0.032846905
121	0x3dd54cec	0.10415062
122	0x3e8c4604	0.27397168
123	0x3d8a995a	0.06767531
124	0xbcb0b068	-0.021568492
125	0x3de4f6cc	0.11179885
126	0x3d263788	0.040580302
127	0x3ce78150	0.028259903
128	0x3dcdedbe	0.10055111
129	0xbd6286b7	-0.055304255
130	0xbd043086	-0.032272838
131	0xbdb06987	-0.08613878
132	0x3d824532	0.06360854
133	0x3da8bca7	0.082391076
134	0x3df333b6	0.118750975
135	0x3c91b74f	0.017787604
136	0xbd66eeab	-0.056379955
137	0x3c880ac7	0.016606702
138	0x3bf98cfa	0.0076156827
139	0x3d850ba9	0.064963646
140	0x3d86f915	0.065904774
141	0x3d9f7809	0.07786567
142	0x3d5414f6	0.051777802
143	0x3d8efec3	0.06982186
144	0xbcc2ed2e	-0.023794737
145	0x3c7c939c	0.015416052
146	0xbcae8cb5	-0.021307329
147	0x3e0500d9	0.12988605
148	0x3d671ade	0.056422107
149	0x3d91f968	0.071276486
150	0x3c996ccf	0.018728642
151	0xbcf862d1	-0.030320557
152	0x3db12104	0.08648875
153	0x3d225721	0.039633874
154	0x3dcd21d9	0.100162216
155	0x3f804acb	1.0022825
156	0x3d7c5615	0.06160553
157	0x3d5e10ab	0.054215115
158	0xbd907e66	-0.070553586
159	0x3d723b06	0.05913832
160	0x3d4d2082	0.05007983
161	0xbd32ff0d	-0.043700267
162	0xbd2b525a	-0.041826583
163	0xbd1f608e	-0.03891044
164	0x3ded1f9c	0.11578295
165	0x3d274f3a	0.04084704
166	0x3ddcdab9	0.107839055
167	0xbded35f9	-0.1158256
168	0xbd16d71a	-0.03682623
169	0x3cbf638c	0.023362897
170	0x3af0c538	0.0018369323
171	0x3d70a3b6	0.058749877
172	0xba8bc788	-0.0010664323
173	0x3d96cc28	0.073631585
174	0x3c1ef8b7	0.009702853
175	0x3d9fda75	0.07805339
176	0x3d0e6975	0.03476854
177	0x3d8d6a0a	0.06904991
178	0x3b3849d7	0.0028120184
179	0xbd6364a3	-0.055515897
180	0xbdfa4792	-0.12220682
181	0x3e1ee95e	0.1551871
182	0x3d7262db	0.059176307
183	0xbcf776f6	-0.030208092
184	0x3e0816b4	0.1328991
185	0x3dd71f6c	0.1050404
186	0xbbc39e2b	-0.005969783
187	0x3c1d4b5e	0.0096004885
188	0x3cb64509	0.022249715
189	0xbd935e24	-0.0719569
190	0x3e0a0a15	0.13480408
191	0xbfa2d14f	-1.2720126
192	0x3d89ea0d	0.06734095
193	0xbd455b23	-0.048182618
194	0xba1eafd8	-0.00060534244
195	0xbdee36d2	-0.1163155
196	0xbe2deebe	-0.16985604
197	0x3d1b653e	0.03793835
198	0xbc00ead8	-0.007868491
199	0x3de9130e	0.113805875
200	0x3d872877	0.06599515
201	0x3d9b47e4	0.075820714
202	0x3b7e6598	0.0038817879
203	0xbbc575c3	-0.006026001
204	0xbd386e1c	-0.045026883
205	0x3dacdbe5	0.08440379
206	0xbd431699	-0.047628973
207	0x3de8a511	0.11359609
208	0xbd303036	-0.043014728
209	0x3df5e199	0.1200592
210	0x3d8f639a	0.07001419
211	0x3d21b43d	0.03947853
212	0x3d4afe81	0.04955912
213	0x3a99099f	0.0011675841
214	0xbec7c67a	-0.39018613
215	0xbc43206a	-0.011909584
216	0xbd83b2c0	-0.06430578
217	0xbc110703	-0.008851769
218	0x3d71d85a	0.05904422
219	0xbddad897	-0.106858425
220	0x3da60911	0.08107198
221	0x3cc80035	0.024414161
222	0xbd4167a3	-0.047217976
223	0x3ddb402e	0.10705601
224	0xbd6ae578	-0.057347745
225	0xbe8191da	-0.25306588
226	0x3cde0c63	0.027105516
227	0x3df01e38	0.11724514
228	0x3d8ce54c	0.068796724
229	0xbd4a94a7	-0.049458172
230	0x3e0de64d	0.13857384
231	0xbd52c393	-0.051456045
232	0x3d05e622	0.032690175
233	0xbd603fb6	-0.05474826
234	0x3d0c955f	0.03432214
235	0xbd2fb8f5	-0.042901
236	0x3d4d8355	0.050174076
237	0xbd9f6985	-0.07783798
238	0xbc95df2a	-0.01829489
239	0xbce6b2bb	-0.028161397
240	0xbe0485eb	-0.1294171
241	0xbbc2aec0	-0.005941242
242	0x3c9226f9	0.01784085
243	0x3bad5af8	0.0052903853
244	0xbdb10bde	-0.086448416
245	0xbd9bbc26	-0.07604246
246	0xbb5a10c7	-0.003327416
247	0x3cb16045	0.02165235
248	0xbbcf2fa3	-0.0063228174
249	0x3c687300	0.014187574
250	0xbe1a32f0	-0.15058494
251	0x3e518086	0.20459184
252	0x3d557610	0.052114546
253	0x3d0801c4	0.03320481
254	0x3ca2750f	0.019831209
255	0xbc00f8d7	-0.007871828

bias f4 [128]
0	0xbca39e9d	-0.019973094
1	0xbde9d9e8	-0.114185154
2	0x3d2aaf52	0.041671105
3	0xbdb698b1	-0.08915842
4	0x3d044ea2	0.032301553
5	0xbd12fa3a	-0.035883166
6	0x3daab489	0.083352156
7	0x3d17971c	0.037009344
8	0xbc52a888	-0.012857564
9	0xbd3a776b	-0.045524042
10	0x3c209345	0.009800737
11	0x3c0f562e	0.008748574
12	0x3e4c132f	0.19929193
13	0x3db958c3	0.09050133
14	0x3d238eda	0.039931156
15	0x3e121999	0.14267577
16	0x3d4328df	0.0476464
17	0x3cefc11b	0.029266885
18	0x3d8a6462	0.06757428
19	0x3d6c4d82	0.057691105
20	0xbcd46c50	-0.025930554
21	0x3e13521b	0.1438679
22	0x3db019f4	0.085987
23	0x3db3d451	0.087807305
24	0x3e0f76c6	0.14010152
25	0x3d97a522	0.074045435
26	0xbdaa19f3	-0.08305731
27	0x3d359f28	0.044341236
28	0xbd0cefe2	-0.034408458
29	0xbc92a085	-0.017898807
30	0xbd346e93	-0.044050764
31	0xbc4f4da0	-0.012652785
32	0xbc0049ba	-0.007830078
33	0x3e1d5913	0.1536601
34	0x3cde9578	0.027170882
35	0xbd6e5e1e	-0.058195226
36	0x3dfd74e7	0.12375813
37	0xbce60427	-0.028078152
38	0x3c86b15f	0.016441999
39	0x3d190e1b	0.037366968
40	0xbaf63039	-0.0018782682
41	0x3df9d894	0.12199512
42	0x3ded36f3	0.11582746
43	0x3dad3bce	0.084586725
44	0x3dccf9fa	0.10008617
45	0xbcaba61e	-0.020953234
46	0x3d9d226e	0.076725826
47	0x3ddb6286	0.10712151
48	0x3c404ea9	0.011737504
49	0xbcb487ab	-0.022037348
50	0xbd5e50f1	-0.05427641
51	0x3d115a08	0.03548625
52	0x3d84247e	0.06452273
53	0xbd923622	-0.07139231
54	0x3c43a346	0.011940783
55	0x3e1c5fab	0.1527087
56	0x3e742fb2	0.2384632
57	0x3d148e2e	0.036268406
58	0xbc82a0c6	-0.015945803
59	0x3df7f4fe	0.121072754
60	0x3d96a391	0.073554166
61	0x3db31fbc	0.08746287
62	0x3ddf1ac2	0.108937755
63	0xbd1ac1cb	-0.03778247
64	0x3d82f7a4	0.0639489
65	0x3dcbda2f	0.099537246
66	0xbca59486	-0.020212423
67	0xbd8e92dc	-0.06961605
68	0x3e0b73d9	0.13618411
69	0xbc117f1f	-0.008880406
70	0xbdb1415e	-0.08655046
71	0xbd36e1e4	-0.04464902
72	0x3c839cfa	0.016066063
73	0x3de426df	0.111402266
74	0x3c6eb400	0.0145692825
75	0xbcfd9777	-0.030956013
76	0xbd5bb8a8	-0.0536429
77	0x3e362cda	0.17790547
78	0x3de39a67	0.11113434
79	0x3be58464	0.0070043076
80	0x3cc47ca9	0.023985224
81	0x3e04b0fb	0.12958138
82	0xbe2c9c45	-0.16856487
83	0xbd3ffdcd	-0.046872903
84	0x3e30a0db	0.17248861
85	0xbc952485	-0.01820589
86	0xbb92e545	-0.0044828975
87	0x3d30fdcf	0.0432108
88	0xbcc12379	-0.023576485
89	0x3d14f41c	0.036365613
90	0x3dadf973	0.08494844
91	0x3bd29191	0.0064260443
92	0x3da59059	0.08084173
93	0x3d4e409b	0.05035458
94	0x3c889bc7	0.016675843
95	0x3d7acbc5	0.061229486
96	0x3db6bdfe	0.08922957
97	0x3e0375de	0.12837932
98	0x3d825472	0.06363763
99	0x3d9e0d39	0.07717366
100	0x3d0537f8	0.03252408
101	0x3e315044	0.17315775
102	0x3dc8c46b	0.09803089
103	0x3d45d460	0.04829824
104	0x3dc9638a	0.09833439
105	0x3dfcd17e	0.12344645
106	0x3d82e1b2	0.06390704
107	0xbcfeaa1b	-0.031086972
108	0x3e139bef	0.14414953
109	0x3ddb865f	0.107189886
110	0x3c3cc525	0.011521612
111	0x3e0557e2	0.13021806
112	0x3dafd684	0.085858375
113	0xb93fb2a0	-0.00018281722
114	0x3d481f9d	0.048858274
115	0x3ce9b18f	0.02852705
116	0xbd24784b	-0.040153783
117	0x3de9db26	0.11418752
118	0x3d2df724	0.04247202
119	0x3dcc0947	0.09962707
120	0x3d1ff845	0.039055128
121	0xbd91ab2d	-0.07112727
122	0x3e149cbc	0.14512914
123	0x3e20b4a0	0.15693903
124	0xbe11d279	-0.14240445
125	0x3e705c61	0.2347274
126	0x3d47efa2	0.048812516
127	0xbd8e1dc0	-0.06939268
